llirl_sumo/saves/sumo_single_intersection - backup/policies_final_ddqn_intermediate.pth (torch, 376577 bytes, 12 tensors)

network.0.weight f4 [200, 24]
000000 d0 40 d2 3e 7c cb be 3e f1 89 35 3d b9 2c f8 be
       0.41065073 0.3726462 0.044321004 -0.4847162
000010 28 1b 9c bf de 23 58 bf d7 2d 76 bf bf dd 1e bf
       -1.2195787 -0.8442973 -0.96163696 -0.6205711
000020 fd a4 11 c0 a6 eb 75 bf 10 b6 c3 be 26 0d cf bf
       -2.275695 -0.96062696 -0.3822484 -1.6175888
000030 cb 82 2a bf e7 d1 a8 3f da 9a 3a c0 9a b4 98 bf
       -0.66605824 1.3189057 -2.9157014 -1.1930115
000040 98 8e 28 3f 75 ba 2a c0 6b f9 6b 3d 29 e3 01 3f
       0.6584258 -2.6676304 0.05761091 0.50737244
000050 c8 93 58 3f c5 b6 2e be 8f 5e 68 bb 8e 88 64 be
       0.84600496 -0.17061909 -0.0035456752 -0.22317716
000060 92 ba f8 3e a8 55 83 3e ac 9e 13 3e 58 46 13 3f
       0.48579842 0.25651288 0.14415997 0.5752921
000070 d2 a7 f2 3e 21 29 02 3f 7a 8f 24 3f ff 34 cc 3d
       0.47393662 0.5084401 0.6428143 0.09971046
000080 5f 37 2e 3e ac 65 33 3f a0 e1 19 3f 85 ce 0c 3e
       0.1701331 0.70077014 0.601099 0.13750656
000090 3b e4 05 c0 b4 f6 98 bf 3e e7 94 3e 8f 75 f3 bf
       -2.092055 -1.1950288 0.29082674 -1.9020251
0000a0 62 42 a7 bf 08 58 1f 3f 12 8d 5a 3f 15 a8 f8 ba
       -1.3067133 0.622437 0.85371506 -0.0018970991
0000b0 75 18 92 be e7 31 12 3f bd 03 36 3f 3d 2f 2e bd
       -0.28534284 0.57107395 0.71099454 -0.04252552
0000c0 a9 45 38 3e 0d af d2 3d f4 1e 40 3d 49 1e 8c 3e
       0.17995323 0.102872945 0.04690452 0.27366856
0000d0 b5 b7 d2 3e 30 57 0e 3e 7d 35 08 3f d1 ac 1a 3e
       0.41155782 0.13900447 0.53206617 0.15104987
0000e0 98 49 01 3f ec 2c aa 3e 14 ac cb 3e 72 93 ac 3e
       0.5050292 0.33237398 0.39779723 0.33706242
0000f0 9e 1e 09 3f 1e 62 ac 3e 92 4f 0b 3d 4b d3 bb 3e
       0.53562343 0.33668607 0.03401143 0.3668464
000100 ac 0e bd 3e 8e b1 ca 3d 62 a9 34 3f 3a 3f 5e 3e
       0.36925256 0.09897147 0.7057096 0.21703807
000110 aa 8e 16 be 8e 0d f3 3e f5 10 33 3f ec 47 e6 bd
       -0.1470286 0.4747128 0.6994775 -0.11244187
000120 5d 6d 82 3e 50 6b 24 be 4d 3e 83 be a7 9e 63 3d
       0.25474063 -0.16056561 -0.2563347 0.055571225
000130 e8 b2 0c 3f 15 dc 07 3c 14 18 bc 3e da 94 40 be
       0.5496049 0.008292218 0.3673712 -0.18806782
000140 5a 64 b3 3e 9b 83 99 3e b9 b9 b8 3d f0 57 e2 3d
       0.350375 0.2998322 0.09019799 0.11051929
000150 52 85 3a 3f 58 68 88 be ef a4 31 3e 9f 17 ac 3e
       0.7285968 -0.26642108 0.17348073 0.3361177
000160 3c c6 9d 3d bf d2 f3 3d e1 fd 80 3f 8a cd e8 3e
       0.07703826 0.11905431 1.0077478 0.45469314
000170 b5 a0 2a be 2b 6f 86 3e 93 7c 67 3f 3f 56 de be
       -0.16662867 0.2625669 0.9042446 -0.43425176
000180 1b a9 c3 3d 91 97 3d be 71 e5 21 be 9b da b7 3e
       0.09553739 -0.18514849 -0.15810181 0.3590897
000190 20 c5 29 be ef 83 4f 3d 03 c2 1b 3d 9e 72 07 be
       -0.16579103 0.05066293 0.03802682 -0.13227317
0001a0 73 b1 93 3e a6 df 24 3e 4a 56 f6 be 91 54 49 3e
       0.2884632 0.1610094 -0.48112708 0.19661166
0001b0 c5 cc 1d 3f 7f 7b 31 be e8 f4 83 3e 1b c5 1f 3e
       0.6164058 -0.17332266 0.25772786 0.15602534
0001c0 c6 11 03 ba 9f 9a 8e be b6 86 2a 3f f6 d7 f5 3d
       -0.0004999902 -0.27852342 0.666118 0.12004082
0001d0 c7 4c 5f 3e 03 0e d5 3e 45 05 92 be 93 61 4b bd
       0.21806632 0.41612253 -0.28519645 -0.0496536
0001e0 e4 9f e4 3d 37 6a 1e 3e 8a f7 e1 be fb 50 10 bd
       0.11163309 0.15470205 -0.4413417 -0.03523348
0001f0 61 81 c3 3e cd 6a a2 be 96 20 d9 3e f5 ea 12 3e
       0.38184646 -0.31722108 0.42407674 0.14347441
000200 a5 e4 54 3e a2 1b df 3e 77 25 bc 3e 1f 9c 91 3e
       0.20790346 0.4357577 0.36747333 0.28439423
000210 5a a7 25 3f 3e aa 26 bd a6 0f 98 bd a4 97 66 3e
       0.64708483 -0.0406897 -0.0742486 0.22518784
000220 c0 f1 1a 3e c6 a6 67 be a9 f1 35 3f f0 57 52 3e
       0.15131283 -0.22622213 0.7107187 0.20541358
000230 6d f4 87 be f9 ed e8 3e bd 91 2f 3e c6 d7 49 be
       -0.2655367 0.4549406 0.17145438 -0.19711217
000240 29 0e a9 3e e6 88 28 3e b7 79 b0 bd 46 b7 92 3e
       0.33018616 0.16458473 -0.08616965 0.28655452
000250 e8 b5 fe 3e df bf 9e 3e ba be 86 3e ba 1d dc bd
       0.49748158 0.3100576 0.26317388 -0.107478574
000260 9a 89 99 3e dc 6e bb 3c ee 3d bd 3d c7 23 b7 3e
       0.29987794 0.02288001 0.09240328 0.35769483
000270 2e 61 01 3f 4b 95 97 3e da ff 3b 3e 1e bb 17 3f
       0.5053891 0.2960609 0.18359318 0.59269893
000280 a1 56 b9 3e 25 8d 9a 3e 7d 11 b8 3e 77 ef 33 3e
       0.36198905 0.3018581 0.35950842 0.17571817
000290 08 7f 48 be 22 7a a4 3e 56 40 0c 3f f2 bb 93 be
       -0.19579709 0.3212443 0.5478567 -0.28854328
0002a0 7a 04 07 3e 15 94 ab 3d 53 00 30 be 4f 82 88 3e
       0.13185301 0.08377854 -0.17187624 0.26661918
0002b0 56 dc ee 3d 74 50 17 3e c5 0e 05 3f c8 86 11 3d
       0.116631195 0.14776784 0.5197566 0.035528928
0002c0 44 36 15 3f ed 03 e4 3e 15 cc 4a 3e 9d 45 08 3f
       0.5828593 0.44534245 0.19804414 0.5323122
0002d0 91 f8 07 3f 62 53 d9 3e 25 21 5d 3e ec 33 ef 3e
       0.5311366 0.4244643 0.21594675 0.467193
0002e0 58 42 b5 3e 8e f5 5c 3d 35 73 f0 3e bb 4c 2e 3e
       0.3540218 0.053945117 0.46962896 0.17021458
0002f0 e5 fa 9b bd d4 9d 0d 3f d5 5b f2 3e a6 e0 8a bd
       -0.07616214 0.5531895 0.47335687 -0.067811295
000300 44 fb ce be e5 09 ce be 43 03 0f 3f 6c 0d cf 3e
       -0.40426075 -0.40241924 0.5586435 0.40439928
000310 70 7f 28 be 55 ea 86 3f dc 68 58 bd 59 b2 cc be
       -0.16454864 1.0540262 -0.052834377 -0.39979818
000320 f3 ee c3 3e fc 74 28 3e ba 03 33 3f 53 ad f7 3e
       0.3826824 0.16450876 0.6992756 0.48374423
000330 c2 19 65 bf ac db 0c bf 0b 9b 25 3f 33 16 c4 bc
       -0.8949243 -0.5502269 0.646897 -0.023936367
000340 98 62 5c bf f9 34 13 3f 03 ac 19 3f 7b 3b fb bd
       -0.8608794 0.57502705 0.60028094 -0.122672044
000350 11 8c db be 25 a5 12 3f 44 6a 58 3f 86 7d d0 be
       -0.428803 0.5728324 0.8453715 -0.40720767
000360 38 a0 0b be 00 1d 61 3c ed 65 37 be 86 ef a3 3d
       -0.13635337 0.013739824 -0.17909975 0.0800467
000370 0a ca c6 3e 91 23 3a be 1c bf 93 bd be 3c 59 be
       0.3882602 -0.1817763 -0.072141856 -0.21214578
000380 c0 7c 79 3e d4 b5 3f bd 65 9e 58 3d e7 22 b3 3e
       0.24363995 -0.046804264 0.05288543 0.34987566
000390 5f 3b e0 3e af b9 c1 3d 5b cd 23 3b 9e 89 60 3e
       0.43795297 0.094592445 0.0024994228 0.21927497
0003a0 52 f2 69 3e dd 8f 4a 3e 86 82 12 3f f4 56 f7 3d
       0.22846344 0.19781442 0.5723041 0.12077132
0003b0 f7 50 02 be da 38 8c bd d4 0c 05 3f 63 90 27 bf
       -0.12726198 -0.06846781 0.519727 -0.6545469
0003c0 dd 18 73 be 93 70 a9 3e 82 8e 70 be 86 97 05 bd
       -0.23739953 0.330937 -0.23491862 -0.032615207
0003d0 2e 84 7e 3e 98 f6 6b 3e 0d 22 8b 3e 3d 29 6c be
       0.2485511 0.23043287 0.27174416 -0.23062606
0003e0 3b 43 58 3e 8b 62 e0 3e 23 de 20 3d 6a aa ef 3e
       0.21119396 0.43825182 0.039274346 0.46809703
0003f0 d0 88 32 3f fe 3a 4a 3e 2c db 85 3d 01 75 d1 3e
       0.6974001 0.19749066 0.06535944 0.4090958

network.0.bias f4 [200]
000000 bb a6 26 3f f2 ce 13 3f 2f 73 29 bd f5 cd e4 be
       0.6509816 0.5773765 -0.041369613 -0.44688383
000010 b7 1d 1c 3f d5 84 60 be 47 3c f5 bd 19 60 31 3e
       0.6098284 -0.21925671 -0.119743876 0.17321815
000020 de f8 30 be 8a e9 1c be 1d 91 d9 be 82 42 00 bf
       -0.17282435 -0.15323463 -0.42493525 -0.5010148
000030 40 04 da 3e 26 cc d1 be 1f b3 7b 3f 3c 69 30 3e
       0.42581367 -0.40976065 0.9832019 0.17227644
000040 d0 23 8b 3e 66 90 61 3e 68 06 f3 ba f5 7e 20 3f
       0.2717576 0.2202774 -0.0018541338 0.6269372
000050 a7 c1 4f 3e 23 ad 02 bc 26 3e 39 be 29 be 6c 3c
       0.20288716 -0.007975849 -0.18090114 0.014449635
000060 7f 99 91 bd 03 cc 5d 3e f9 de 2b 3d b9 1d 28 3f
       -0.07109355 0.21659856 0.04196069 0.65670353
000070 3f 44 a5 be 74 58 03 be a9 a2 a0 3e 76 cc 80 3f
       -0.3227863 -0.12826711 0.313741 1.0062397
000080 32 bc 7b bf 4b 58 9f be 2b ad c6 3f a8 61 b3 3e
       -0.9833404 -0.3112205 1.5521597 0.35035443
000090 a4 00 40 bd 0f f6 22 bf 23 60 91 3e bf 81 40 be
       -0.04687561 -0.63656706 0.2839366 -0.18799494
0000a0 d8 f5 aa be 7e a2 8e be 60 52 77 3e 79 4e bc 3e
       -0.3339069 -0.27858347 0.24152517 0.3677862
0000b0 09 0e df 3e 5c 9d f6 bd 6f ef 5c 3f 3b 0b 93 3d
       0.43565395 -0.12041733 0.86302847 0.071798764
0000c0 2c 0c a7 3f b9 60 a7 bf 55 45 97 3f 54 46 34 3d
       1.305059 -1.3076392 1.1818033 0.044012383
0000d0 e0 b0 64 be 3f 3f 7e 3e e5 b1 62 3e b2 87 7d 3e
       -0.22333097 0.24828814 0.22138174 0.24758795
0000e0 df 3d 15 bd 7d 16 f6 3c 54 26 cc be 52 fe 7e be
       -0.036435958 0.03004002 -0.39872992 -0.24901703
0000f0 47 b1 98 3e 43 b5 51 be 7a 8d 1a be 8b 8a fe 3e
       0.29822752 -0.20479302 -0.15093032 0.49715075
000100 de 51 3d 3e c9 77 0b 3e b6 fc 3e 3e 7c ec be 3d
       0.18488261 0.13619913 0.18651089 0.093224496
000110 05 cc e1 be 17 7c 51 3e 33 83 01 3f 5d f2 9c 3f
       -0.44100967 0.20457493 0.5059082 1.2261463
000120 51 3f d6 be f0 03 5a 3e 1a 66 16 bf 90 07 2e be
       -0.41845182 0.21290565 -0.58749545 -0.16995072
000130 d7 24 16 bc 23 30 68 3e 47 36 bc bd 1c 51 90 3f
       -0.009164057 0.22674613 -0.0919004 1.1274753
000140 92 c5 53 be 53 91 56 bc d4 ef b5 be db c3 47 3e
       -0.20680836 -0.013096171 -0.35534537 0.19508307
000150 2c e0 92 3e c1 60 78 3c 79 3b 6f be 17 69 a0 3f
       0.28686655 0.015159787 -0.23362531 1.2532071
000160 9a bf 73 3f 73 ef 01 bf 46 0f 2d 3f 52 89 76 be
       0.95214236 -0.50755996 0.6760143 -0.24075821
000170 e9 0c fd 3d 27 5d 96 bf 68 36 17 bf 00 eb e1 bd
       0.12355978 -1.1747178 -0.5906739 -0.11031151
000180 30 d4 66 3f c7 b3 38 3f ac 70 e4 3d e0 ea dc 3c
       0.9016752 0.7214932 0.11154303 0.026967466
000190 49 c4 3f be 9d b2 63 bd 08 5e e6 bd 7e b0 d4 3d
       -0.1872722 -0.05559026 -0.11248404 0.10385226
0001a0 42 ca 81 be 03 8f d3 be d7 b4 0e 3f dc ef 71 3f
       -0.25349623 -0.41320047 0.5574469 0.9450662
0001b0 04 d6 58 3f 13 79 e8 be 94 69 a5 3d d2 49 25 be
       0.8470156 -0.45404872 0.08076778 -0.16141441
0001c0 31 79 2f 3f 4d 95 07 3c 2d 7b e9 bd c7 69 bd bd
       0.685443 0.008275342 -0.11400447 -0.09248691
0001d0 29 6b d2 3e 9c bc 26 bf da 1f 70 3e a7 93 2e bf
       0.41097382 -0.65131545 0.2344965 -0.6819405
0001e0 61 2a 57 3e 1f 6d 24 bf e5 72 5c bf 6e 7f 06 3e
       0.2101226 -0.64229006 -0.86112815 0.13134548
0001f0 37 c6 9a be 3d c7 c0 3e ec 8f 92 3e 9b a5 3b bf
       -0.3022935 0.37652007 0.2862543 -0.7329957
000200 e0 66 6b 3d 4c f0 7a 3e 7a 1c ce 3e 0f 85 cc 3e
       0.057471156 0.24505728 0.402561 0.39945266
000210 35 3d 1b 3e bd c6 ed bd f4 6c 60 bc 0a b7 86 be
       0.15160067 -0.11610172 -0.013697851 -0.26311523
000220 78 8d cf bc c2 03 25 3d 4e 91 8f 3f 18 55 eb be
       -0.025336012 0.040286787 1.1216218 -0.4596336
000230 52 fc 8f 3d 65 bc 21 be df d4 d3 be 15 05 41 3f
       0.07030548 -0.15794523 -0.41373345 0.7539838
000240 5f 49 9b 3f 9f b3 66 be 35 73 7f 3e f4 b0 91 3d
       1.2131766 -0.22529458 0.24946292 0.07113829
000250 37 9b 2a 3f 7b 77 5d 3e 44 8c 8a 3e 41 54 c2 be
       0.6664309 0.2162761 0.2706014 -0.37954906
000260 a3 75 9d 3e 36 68 02 bf ed 88 d4 be f2 bf c7 3f
       0.30753812 -0.50940263 -0.41510716 1.5605452
000270 28 eb f2 3d 08 a6 5d be 8b 7f 8d 3d 6a 76 2c 3e
       0.11861259 -0.21645367 0.069090925 0.16842046
000280 c3 0d b7 3e 4b f7 5c 3f 36 07 f1 bc ff 0b a3 bd
       0.35752687 0.8631484 -0.029422384 -0.079612724
000290 d2 87 5b 3f 3e 8d 1a 3f 39 7c 4a 3e 0b 95 40 bf
       0.8575412 0.6037177 0.1977395 -0.7522742
0002a0 58 f1 77 3e 78 ea 4e 3f 17 4d 6f be 0d f8 b2 3e
       0.24213159 0.8082652 -0.23369251 0.34954873
0002b0 20 73 6b 3e 17 be 8c be a8 0c 11 be 5a ae d9 bd
       0.22993135 -0.27488777 -0.14164984 -0.10628958
0002c0 66 f3 03 3e a4 29 5a be ee f9 09 3f e5 d6 2b 3f
       0.12885818 -0.21304947 0.5389699 0.6712478
0002d0 19 5e 24 be 67 b9 03 3e 8f 7f 8a 3e 8e 75 21 3e
       -0.1605152 0.12863694 0.27050444 0.157675
0002e0 69 54 49 3f 5c e0 3f 3e 82 22 90 3f b8 4e a1 be
       0.78644425 0.1873793 1.1260531 -0.3150537
0002f0 4e fb 66 3f 4b f2 2f be 3c d6 0a 3d fb 81 72 be
       0.9022721 -0.17182271 0.033895716 -0.23682396
000300 eb 82 5b 3f 17 79 81 be 4e f4 09 be d1 ca 80 3e
       0.8574664 -0.25287697 -0.13472101 0.25154737
000310 28 22 1e 3e ef ad 54 3e 45 90 ce 3e ed 81 4f 3e
       0.15442717 0.20769475 0.40344444 0.20264407

network.2.weight f4 [200, 200]
000000 7a cc 71 c0 2b 78 4f 3f a8 bc 5e 3e 0a 57 33 3e
       -3.7781053 0.81042737 0.21751654 0.17513672
000010 2a cc 9e 3e 13 5a 5e 3e 17 46 32 3e 0e 15 73 3e
       0.3101514 0.21714048 0.1740955 0.237385
000020 3a 83 0f 3f 85 b2 f1 3c 80 86 9b bd 04 25 8b 3e
       0.5605961 0.02950407 -0.07594013 0.27176678
000030 3d 58 da 3f fd 99 e8 bd 25 3e 5a c0 73 0a bd 3c
       1.7058178 -0.11357496 -3.410043 0.023076272
000040 21 c6 8c bd 94 9a ba 3d fe 26 c7 3e 31 d7 7c c0
       -0.068737276 0.09111515 0.38896936 -3.9506342
000050 07 49 89 be 0b e3 e8 3d 11 bd 09 3d ff 63 0c 3f
       -0.26813528 0.1137143 0.033627573 0.5484008
000060 60 85 94 3b f5 85 96 3e 5b b5 71 bf 70 cd a8 bf
       0.004532501 0.29399076 -0.9441735 -1.3187695
000070 44 81 8a 3e 17 97 06 c0 53 09 89 bd cf 1c 14 c0
       0.27051747 -2.1029718 -0.066912316 -2.3142583
000080 6c b5 b5 bf eb 22 0a 3f 4c 05 91 c0 69 74 82 bf
       -1.419599 0.5395953 -4.5318966 -1.0191776
000090 de ff 00 c0 9b e3 09 bd bb 91 d3 3e 4f d5 0e 3e
       -2.015617 -0.033664327 0.4132212 0.13948558
0000a0 36 b4 3e 40 08 c5 99 bf 5c f7 5a 3b d4 08 b1 3c
       2.9797492 -1.2013254 0.0033411598 0.021610655
0000b0 e3 59 e3 bf f1 25 b2 3e 90 83 b2 c0 99 0d 13 3f
       -1.7761806 0.34794572 -5.57856 0.57442623
0000c0 59 39 b5 c0 53 5d 1b c0 e0 d8 44 bc 1b 0a 6b 3d
       -5.6632504 -2.427571 -0.012014598 0.057382684
0000d0 02 0a 89 bd 20 e8 64 3e c4 34 8d bc a5 64 06 3e
       -0.06691362 0.22354174 -0.017237075 0.1312433
0000e0 4d a9 fb 3c b5 8c 90 3e f9 cd 03 3d 4e 00 2e 3e
       0.030720377 0.2823235 0.032178853 0.16992304
0000f0 24 6d a8 3e cb 14 f6 bd c0 74 f6 be 5c 78 40 3f
       0.32895768 -0.12015685 -0.48135948 0.75183654
000100 99 03 50 3e 17 01 c3 3e 3e e9 0d 3e 99 2d 02 3e
       0.20313872 0.3808677 0.13858506 0.12712707
000110 b3 2a 27 bf 21 1c 38 3e 51 b6 9e bf 7b 29 c8 bd
       -0.6529953 0.1797948 -1.2399389 -0.09773537
000120 ee d0 74 bf 5a 52 97 3e 69 4b c3 bd c5 25 78 bf
       -0.956313 0.29555017 -0.09535868 -0.9693263
000130 92 77 d7 3d 06 4f 04 3e c0 7c f8 be 25 1f 56 bb
       0.10520853 0.1292077 -0.48532677 -0.0032672372
000140 5f 39 83 40 99 df ca 3c 49 f0 db be f3 0b 8b 3e
       4.1007533 0.024764823 -0.4295676 0.27157554
000150 e6 2e 4b be 12 a0 e9 3d ec b9 f5 bd 02 ff 82 3d
       -0.19842109 0.11407484 -0.119983524 0.06396295
000160 17 a1 8a c0 ba fc 3b be a1 9e 34 3f 61 63 0c bf
       -4.3321643 -0.18358126 0.7055455 -0.5483914
000170 af f9 4c 3e e4 37 34 c0 5e 73 0a c0 da 9a a4 3e
       0.20017122 -2.8159113 -2.1632915 0.32149392
000180 52 cc 50 c0 08 7e bf bf ac 15 59 3e 71 4b 8b 3e
       -3.2624707 -1.4960337 0.21199673 0.27205995
000190 ea cf 88 3e 13 0b 57 c0 32 7b da 3d c2 b4 e7 3d
       0.26721126 -3.360051 0.10668029 0.11313774
0001a0 a7 fd 35 be 4f c7 e4 3e 32 ee 04 3d 08 67 30 c0
       -0.17772542 0.4468331 0.032453723 -2.7562885
0001b0 a0 e5 a9 c0 06 02 d0 be ab 51 9a 3e 77 9d 84 3e
       -5.3092804 -0.40626544 0.30140433 0.25901386
0001c0 c7 d5 07 c0 f6 b7 66 3e 4b 82 25 40 0f 3d af 3e
       -2.122423 0.22531113 2.5860775 0.34226272
0001d0 bb 48 f6 bd 2e 0e 1d c0 76 f5 8e 3e 73 c6 24 bd
       -0.12025591 -2.4539905 0.27921647 -0.04022832
0001e0 35 ff d1 3d 6b c2 2c c0 8b 84 19 3f 49 24 9a 3d
       0.10253755 -2.6993663 0.5996787 0.07526452
0001f0 8e 5b 17 be 12 f9 25 be 81 d3 88 3e d7 11 0a c0
       -0.14781019 -0.16208294 0.26723865 -2.1573389
000200 1c 23 9c 3e cf 01 77 3e 33 8c a1 c0 84 92 de be
       0.30495536 0.24121784 -5.048364 -0.43471158
000210 e2 f4 a6 bf d1 06 52 be ec 00 0f 3e a4 03 c3 3b
       -1.3043482 -0.20510413 0.13965195 0.0059513617
000220 88 e4 3c 3e 71 62 96 3f 86 b9 81 c0 28 9f 1c be
       0.18446553 1.1748792 -4.053897 -0.15295088
000230 f6 09 79 be dc 9a 20 3e df a4 1a 3c c5 45 31 3d
       -0.24320206 0.15684074 0.009438722 0.043279428
000240 c6 89 29 c0 9b c0 18 bc 68 76 57 3e 45 fb 66 3e
       -2.649034 -0.0093232645 0.21041262 0.22556789
000250 cb 29 8b c0 2e 51 98 3d 42 40 66 3f 54 31 ec bd
       -4.3488517 0.07437359 0.899418 -0.11532846
000260 50 f3 5d 3e 4a 37 85 3f 54 c1 8a 3d 09 cd 79 c0
       0.21674848 1.0407498 0.06775156 -3.9031394
000270 2e b3 80 3e 85 e7 88 3d 31 7f 94 3e 1e c0 5c 3e
       0.25136703 0.06684784 0.2900329 0.21557662
000280 ef 16 b6 3e 31 f7 9f c0 df c2 a8 3d 9c 38 04 bf
       0.35564372 -4.9989247 0.08240294 -0.5164888
000290 f9 60 99 c0 ae 44 66 c0 b2 f9 43 bf 60 b9 eb be
       -4.7930875 -3.5979419 -0.7655288 -0.46039867
0002a0 45 27 c4 be ae 11 9a c0 5c 51 7a 3d 68 bb 8f be
       -0.3831121 -4.814658 0.061112747 -0.28072667
0002b0 9b 67 06 3e ae 39 af bf df 6f 56 3e eb b7 7f 3f
       0.1312546 -1.3689477 0.20941113 0.9989001
0002c0 29 93 be be e3 8d 64 bf bc 5f d2 bf 82 1a 9b c0
       -0.3722165 -0.89279 -1.6435466 -4.846986
0002d0 49 10 cb 3f 9e 38 ee 3d 56 4a c6 3e 58 d6 86 3e
       1.5864345 0.116318926 0.3872859 0.26335406
0002e0 b9 9e 9b c0 82 89 0b 3e 42 1a 1c 3e 4e 2b ec 3f
       -4.8631253 0.13626674 0.15244392 1.8450716
0002f0 2e 27 bb 3f 35 7f 49 3e b7 09 b8 bf c5 17 a3 3e
       1.4621332 0.19677432 -1.4377965 0.31854072
000300 9b e1 66 c0 14 7f 1e bf 0b d1 66 3f fc 0e ca 3d
       -3.6075199 -0.61912656 0.90162724 0.09866139
000310 25 04 c0 3d c1 e9 1b 3d 2f 77 b9 3d 27 7b 97 3e
       0.093757905 0.038064722 0.090559356 0.29586145
000320 be 2e 9e 3d af e2 18 bd 29 58 a1 bd 75 8f 89 bd
       0.07723759 -0.037325557 -0.07878143 -0.067168154
000330 3e 03 9a bd 5e ca 97 bd 51 7d bd bd 35 85 d4 bb
       -0.0752015 -0.07411645 -0.09252418 -0.006485606
000340 96 5d 81 bd a5 41 29 3d 3a f4 93 bd ad 3d ff bd
       -0.06316678 0.04132237 -0.07224317 -0.124629356
000350 7c 1a 80 3c 54 94 f7 bd ba 47 2c 3d a5 73 0e be
       0.015637629 -0.12088838 0.04206059 -0.13911302
000360 c6 fd cd bd 57 9d 0b 3c e1 76 2f be 4d 58 9d bd
       -0.10058169 0.008521399 -0.17135192 -0.07682858
000370 10 10 16 3d 5f db 05 be 63 3f 07 be cb e9 31 be
       0.036636412 -0.13071965 -0.13207774 -0.17374341
000380 b8 71 93 bd 38 34 dc bd a2 50 92 3c d1 6f 2d be
       -0.071994245 -0.107521474 0.017860714 -0.16937186
000390 d9 04 09 bd f0 37 95 bd 4e 87 89 bd 9f ef 98 3c
       -0.03345189 -0.0728606 -0.067152604 0.018668948
0003a0 13 cb e9 3c 18 4c d7 3c fa 79 56 3d 77 ae 16 be
       0.028539216 0.026281402 0.05236242 -0.1471499
0003b0 d0 27 3f bd e7 26 9c bd fd 2f 5e bd b2 cd 5a bd
       -0.046668828 -0.076246075 -0.054244984 -0.053418823
0003c0 0f 7b 84 3c f0 3d 8c 3a 47 2a 19 be 46 ca b7 bd
       0.01617196 0.0010699611 -0.14957534 -0.089741275
0003d0 34 5b d1 bd 5d 93 c4 bd f0 9e 87 3d 86 ad ac 3d
       -0.10222474 -0.0959842 0.06622112 0.084315345
0003e0 58 20 f3 bb 71 e0 ce 3c c0 1d 90 bc ce 1f 9b 3b
       -0.007419627 0.025253506 -0.01759231 0.004734016
0003f0 44 22 01 be 71 99 f1 bd 5b 4f b9 bd 04 f0 99 3c
       -0.12610728 -0.11796845 -0.09048339 0.018791206

network.2.bias f4 [200]
000000 1a de 1a 3e a9 d2 e5 bc af 83 34 bd 7e 05 8e 3d
       0.15123788 -0.028054552 -0.044070896 0.06934641
000010 c8 c1 63 bc c3 ab 23 bd d8 3d d5 3f 84 1b 84 3f
       -0.0139011815 -0.039958727 1.6659498 1.0320897
000020 2a be 63 bc bc e3 55 bf 62 9b 97 bc 25 62 72 3e
       -0.013900319 -0.8355062 -0.01850671 0.23670252
000030 ea 1c 98 bc e9 66 b9 3f ab 19 bf be b8 5e 96 bc
       -0.018568475 1.4484531 -0.3732427 -0.018355712
000040 b6 ad b5 bc 62 0d c2 bc 09 06 2e bc ed 39 8c bc
       -0.022177558 -0.023688022 -0.010621556 -0.017117465
000050 0e a7 1e 3f 3b 7b 05 bf c0 72 fb bc ea 83 73 b9
       0.61973655 -0.5214116 -0.030694366 -0.00023223428
000060 a8 d4 58 bf b0 f8 4f bc 4b ae be 3f 33 7c 3a bc
       -0.8469949 -0.012693569 1.489694 -0.01138215
000070 23 8a b2 3e 62 0b 72 3d af 9f 5f 3e ab f6 c4 bf
       0.34871015 0.059092887 0.21838258 -1.5387777
000080 1c 51 1e 3e c1 7c c1 be d5 4f 22 bd a0 4f 6a 3e
       0.15460628 -0.37790492 -0.039626915 0.22881937
000090 25 64 4d 3f 4a 3b 71 3b 7f 8b f8 bc d2 e6 0c bd
       0.80230933 0.003680902 -0.030339954 -0.034399815
0000a0 40 5d 63 3f e6 9a d1 3f cb df b2 3f 51 d9 c5 3b
       0.88814163 1.6375396 1.3974546 0.006037869
0000b0 ac 1c fe bc 23 8e 1e bd fa 84 18 3f 76 33 28 bd
       -0.031019531 -0.03870977 0.59577906 -0.041064702
0000c0 1d fe 21 3f 1f 9f e3 bc 63 06 8f be 2c 5b 2a 3f
       0.6327837 -0.027785836 -0.2793456 0.6654537
0000d0 b8 73 2e bc f5 e3 25 bd 7a 92 d0 3e 87 e5 c9 3f
       -0.010647707 -0.0405006 0.40736753 1.5773171
0000e0 4e 7f c8 3b 8a 07 28 bc dd 91 b6 bc 14 bc 11 bc
       0.0061186915 -0.010255704 -0.02228635 -0.008894939
0000f0 f8 01 38 bd 39 f5 10 3f 05 03 2c bd 59 ba d6 bc
       -0.044923753 0.5662418 -0.041995067 -0.026211904
000100 9c ad f8 bc a6 bb a5 bc 64 cb 87 3f 12 ff 4e bb
       -0.03035622 -0.02023108 1.0608945 -0.003158514
000110 de e0 97 3f ea 3d 8c 3f 92 77 9f 3e 18 bd aa 3f
       1.1865499 1.0956395 0.31145912 1.3338957
000120 32 de 02 bd 85 c9 c4 bb 65 57 0d 3f da 4e a0 bc
       -0.031950183 -0.0060054683 0.5521148 -0.01956885
000130 c0 a8 d4 3f 46 93 33 bd 6e 67 73 3f 02 29 05 bc
       1.6613998 -0.043841623 0.95079696 -0.008127453
000140 be 05 a6 bc 21 b0 b9 be 0a df 22 bd e7 8d f4 bb
       -0.02026641 -0.36267188 -0.039763488 -0.007463205
000150 f7 6b 96 be 91 09 b9 3f 35 58 6d 3f 92 a8 8e 3f
       -0.29379246 1.4456044 0.9271272 1.1145194
000160 68 12 30 bd 3c 67 bf 3f 36 50 1b bd 03 4b 96 bc
       -0.042986304 1.495338 -0.037918292 -0.018346315
000170 f8 b7 41 3d 6b 42 d7 3f 3f 21 f9 bc ac bb 13 3f
       0.047294587 1.6817144 -0.03041136 0.5770824
000180 81 a2 1b ba 04 d1 a2 bf 75 0d 5a be 61 dc 27 be
       -0.0005936996 -1.2720037 -0.21294196 -0.16392662
000190 09 a5 8c be 50 38 a0 3e 95 70 86 3f b1 fa ae bc
       -0.27469662 0.31292963 1.0503107 -0.021359773
0001a0 47 65 75 3e 37 9a 8b bf 88 ec 0d bd dc 2d e0 3f
       0.23964415 -1.0906438 -0.034649402 1.7513995
0001b0 00 00 00 00 80 54 2d bd 7b 7d 37 bf 05 2e 87 3a
       0.0 -0.042316914 -0.71675843 0.0010313398
0001c0 b7 fa 19 bf 66 3b 35 bd db 18 0c b8 a7 77 e8 3e
       -0.60148185 -0.0442461 -3.340175e-05 0.45403787
0001d0 cb 1f d7 3e bb b9 01 bd 63 71 51 3f 59 63 8c 3f
       0.42016444 -0.031671267 0.8181364 1.0967818
0001e0 23 69 28 bd cc c9 78 3e 68 05 bd 3b 14 c3 94 3e
       -0.04111589 0.2429573 0.0057684667 0.29055083
0001f0 b6 f3 e8 3c 22 ae ad 3f e8 62 20 bc ff f5 13 bd
       0.028436523 1.3568766 -0.009789206 -0.036123272
000200 98 9d 8c 3d eb 89 b1 3e 1b 3b 74 be a6 66 37 bf
       0.06865996 0.34675536 -0.23850672 -0.71641004
000210 55 a3 81 bc ba 7f a3 3e a0 63 b8 bc d2 83 d9 bc
       -0.015824953 0.31933385 -0.022508442 -0.026552115
000220 3e b0 42 3c 4c 29 50 bb 22 43 13 3f 34 38 cc 3f
       0.01188284 -0.0031762896 0.5752431 1.5954652
000230 23 0a cc 3f 82 f6 0a 3e 54 40 31 bd 3a 29 2f bc
       1.5940593 0.13570598 -0.04327424 -0.0106909815
000240 7c 11 a2 bf 96 67 11 bd 34 06 6d 3f 09 ba 0a 3e
       -1.2661586 -0.035499178 0.9258759 0.1354753
000250 8c 39 04 bd f6 6f 1f bd 09 60 b2 bc 3e af ac be
       -0.032281443 -0.038925134 -0.021774309 -0.3372745
000260 2a 62 91 3f d7 e8 2d bf de d0 3f 3f 93 17 01 bf
       1.1358082 -0.6793341 0.7492808 -0.50426596
000270 c1 79 58 3f 8b 8c 94 3e 02 c9 21 3f 6c 91 0b 3f
       0.8456078 0.29013476 0.6319734 0.5451877
000280 ae b7 72 bf 57 9a 3a 3a 14 3a e3 bc 89 46 8f bd
       -0.9481152 0.00071183353 -0.027737655 -0.069958754
000290 35 5b 0c bd c7 ca 20 3f fd 03 56 3e 61 bf f9 3e
       -0.03426667 0.62809414 0.20899959 0.48778823
0002a0 0a 4c e9 bd 8c 75 8f 3e e0 cf 9b bc 47 8b 6d 3f
       -0.113914564 0.2801937 -0.019020021 0.92790645
0002b0 e4 4b bb 3e 51 18 37 bf 42 79 50 bd 51 33 1a bd
       0.36581337 -0.7152148 -0.05089689 -0.037646595
0002c0 bb 8b 3d 3f df 4a a8 3f 9a 59 e9 3e 2b 5e 07 be
       0.74041337 1.3147849 0.45576173 -0.13219516
0002d0 24 cb ea 3b 80 e6 2d 3f b2 84 25 bd 1e 00 b9 3f
       0.0071653295 0.6792984 -0.04040975 1.4453161
0002e0 a2 54 88 3e a5 16 b7 ba cc 0c 86 3e 0c 98 45 3f
       0.2662707 -0.0013968541 0.26181638 0.7718513
0002f0 0f d6 6f 3f e6 76 0c 3e c1 83 75 3f 29 b1 16 bd
       0.93686 0.13717231 0.95904166 -0.036790047
000300 be 58 be 3f 11 ee 87 3e 0f 8d bc 3f 62 87 d8 3b
       1.4870832 0.26548818 1.4730548 0.0066079358
000310 b9 8e fa bc d7 10 44 3f 0b 65 74 bf 11 bd 16 bd
       -0.030585634 0.76588196 -0.9546668 -0.0368014

network.4.weight f4 [6, 200]
000000 fe 7d f1 bf 47 f9 fd bc 78 ad 1e 3e a5 47 9d bf
       -1.8866575 -0.031002654 0.1549586 -1.2287489
000010 3c f6 16 3d 83 09 00 3e dd a4 fd bc 66 79 28 40
       0.03685592 0.12503628 -0.030962402 2.6324096
000020 46 91 05 be 7c fa 3a c0 32 41 17 3c 72 73 7b bf
       -0.13043699 -2.9215384 0.009231852 -0.9822303
000030 68 84 74 bc a2 0f f0 be 23 d8 98 bf d8 60 75 3d
       -0.014924146 -0.46886927 -1.194096 0.05990681
000040 d6 83 04 bd 27 1b 82 3d 1e 55 e5 3d 0e 4b 18 3e
       -0.03235229 0.06352835 0.111978754 0.14872381
000050 8e 69 d0 bf 79 3f 8d bf b9 30 8c 3d b6 12 01 3e
       -1.6282213 -1.1034995 0.068452306 0.12604794
000060 2e df 3c 3e a4 cd d1 bc 07 14 45 3e c3 95 d8 3c
       0.18444511 -0.025610752 0.19245921 0.0264386
000070 40 5d 3b bf 27 e3 5a bf 7b e5 6f bf 7c 14 36 40
       -0.73189163 -0.85502857 -0.93709534 2.8450003
000080 01 89 1e c0 5c 00 a1 3f 57 00 d6 3d 56 fa 8c bf
       -2.477112 1.2578235 0.104492836 -1.1013896
000090 d0 47 a6 3f 72 ba 05 3e a6 e4 f9 3c 7f c0 d1 bd
       1.2990665 0.13059404 0.030504536 -0.10241794
0000a0 98 7d 02 bf 9d 86 ce be e7 cf da be 12 6c 29 c0
       -0.5097289 -0.40337077 -0.42736742 -2.647221
0000b0 66 4d 6d 3d 5b 4c ae bd 5d 0f 60 40 44 c4 7e bd
       0.05793514 -0.085106574 3.5009377 -0.062198892
0000c0 c9 b0 11 bf d1 63 3e 3d ca 20 96 bf 56 94 e2 3f
       -0.5691038 0.04648191 -1.1728756 1.7701519
0000d0 1f 5c d2 bd 92 f9 2a be a7 bd 32 bf 37 79 aa be
       -0.10271477 -0.16696766 -0.69820637 -0.33295605
0000e0 86 3e 89 bf 24 03 d0 bd 65 2e 8d bd b2 a5 d8 3d
       -1.0722206 -0.10156849 -0.06893615 0.10578479
0000f0 30 8c 97 bd b2 05 24 bf 8d 6c 75 3d 6c d7 0c be
       -0.073997855 -0.6407119 0.059917975 -0.13754052
000100 09 28 8b bd 03 8c 0f 3e c3 f7 36 bf d0 cb 63 3d
       -0.067947455 0.14018254 -0.71471804 0.055614293
000110 61 73 12 bf bd 40 db be 5d 80 38 bf de a9 00 bf
       -0.57207304 -0.4282283 -0.72070867 -0.50259197
000120 cf 00 1d 3a fc 32 de bd c4 30 92 bf cd bb 89 3d
       0.0005989195 -0.10849568 -1.1421132 0.06725273
000130 08 63 9b be c6 73 10 3e 69 49 26 bf 90 de a0 3d
       -0.30348992 0.14106664 -0.64955765 0.078549504
000140 f5 b9 1d be bb 1e 5e bf f1 73 0a c0 fa 9a c5 bd
       -0.15402968 -0.8676564 -2.1633265 -0.096487
000150 de c6 3d 40 d7 19 c7 bf 0d 48 0c bf fa c8 dd be
       2.965263 -1.5554761 -0.5479744 -0.43317395
000160 fa 2a 17 3e 9c 3a d2 be 08 9e 33 bd 40 b5 17 3e
       0.14762488 -0.4106034 -0.043851882 0.14815235
000170 08 f7 ab be 45 f4 c5 c0 1e ad 16 3e 14 93 14 bf
       -0.33586907 -6.186068 0.14714476 -0.58036923
000180 de 3c c6 bd 60 28 62 bf 74 9e 1d c0 ea 83 57 c0
       -0.09679578 -0.8834286 -2.4627962 -3.3674264
000190 a7 99 ae be 93 91 1f bf 46 6b e4 be cc 21 15 3e
       -0.34101602 -0.62331504 -0.44613093 0.14563674
0001a0 ea 51 1a c0 d9 47 90 40 ed 78 94 3d bd 7d cd 3f
       -2.4112496 4.5087705 0.07249627 1.6053997
0001b0 ba 62 06 3e 68 50 2f 3c da ff 27 c0 c4 9e c4 bc
       0.13123599 0.010700323 -2.624991 -0.024001487
0001c0 47 5f 91 bf 52 e2 db 3d 37 63 9d 3a d8 6f 28 bf
       -1.1357201 0.107365265 0.0012007718 -0.6579566
0001d0 18 9b c6 bf af 87 b1 bd 81 b8 b3 bf 44 f0 11 bf
       -1.5516081 -0.08668458 -1.4040681 -0.5700724
0001e0 95 43 7e bd f5 fb b3 bf 85 aa 4d 3c 24 d0 bc bf
       -0.06207617 -1.4061266 0.012552862 -1.475102
0001f0 2b b3 a1 3f e2 9e 04 bf a7 16 b2 3d c7 61 19 bd
       1.2632803 -0.51804936 0.08695727 -0.037446763
000200 6b 23 08 40 42 63 bf bf fc 87 16 bf d4 a4 ef bf
       2.1271617 -1.4952166 -0.58801246 -1.8722177
000210 87 39 8a bd 9f 88 91 bf 7f 02 1d 3e b4 10 22 3d
       -0.06749254 -1.1369818 0.15332983 0.03956671
000220 56 db 86 3d cd f6 12 3e 13 64 11 bf d0 9d e8 be
       0.06584804 0.1435196 -0.56793326 -0.454329
000230 82 7e e2 be 85 b3 73 c0 69 6a d2 3d 2c 9e 14 be
       -0.44237143 -3.807832 0.102742024 -0.14513463
000240 c5 c8 b1 be bd 12 80 bd ce d1 29 c0 32 30 b0 bf
       -0.34723487 -0.06253574 -2.6534305 -1.3764708
000250 83 82 1a be 59 26 13 3c 72 68 1a 3b d8 7f bd 3f
       -0.15088849 0.008981311 0.002356079 1.480464
000260 89 30 3e 3f 7e 31 e6 bf 92 7a d3 bf eb da cd bf
       0.7429281 -1.7983854 -1.652178 -1.6082433
000270 0f ca dc bf f5 d0 39 bf 21 45 23 bf 37 55 03 bf
       -1.7249163 -0.7258447 -0.6377736 -0.513019
000280 c1 7a 73 3f 2a 79 9f 3d d9 cf 76 3d 21 81 33 bf
       0.9510918 0.07786782 0.060256813 -0.7011891
000290 33 98 7a 3a 27 30 d3 bf f3 f4 6d bf ba 83 26 bf
       0.00095594226 -1.649907 -0.9295189 -0.6504475
0002a0 70 b9 bb bf 0e 8e 45 bf bf 28 96 bc c7 db f1 be
       -1.4665966 -0.77169883 -0.018329976 -0.4723799
0002b0 7f 10 3f bf 80 ce ba be 8d bb 25 3e a1 b9 14 3e
       -0.74634546 -0.36485672 0.16184826 0.14523937
0002c0 ad f0 19 bf 53 3d eb be 2a bb c9 3f 77 c7 48 bf
       -0.6013287 -0.45945224 1.5760243 -0.7842936
0002d0 af 79 0c 3e 31 ba 1b bf 5b 1c 24 3e 0d 7b 9e bf
       0.13718294 -0.6083098 0.16026442 -1.2381302
0002e0 63 ec 94 bf ef ae bf 3d f3 b9 6c bf 0b dd 0b bf
       -1.163464 0.09359538 -0.92471236 -0.5463416
0002f0 7f 93 0a bf 88 59 17 c0 aa e7 0c c0 a6 7d b8 bd
       -0.5413131 -2.3648396 -2.2016397 -0.090083405
000300 34 ae 01 bf 56 8a dc 3f 99 6c d2 be dd e2 b4 bd
       -0.5065644 1.7229717 -0.41098478 -0.08832333
000310 a0 69 a5 3c b1 b2 03 bf 15 73 b7 bf cd 21 e2 bd
       0.020191967 -0.51444536 -1.4331995 -0.11041603
000320 6e 71 7c bf 02 06 29 bd da c9 92 3d c5 7b ba bf
       -0.9861058 -0.041265495 0.071674064 -1.4569021
000330 18 45 f9 3d 87 33 3b be 42 41 5a bf 2f 00 a9 3f
       0.12171382 -0.18281375 -0.85255826 1.3203181
000340 6b e0 4f bd ba 34 40 bf 39 74 13 bd ea 53 57 bf
       -0.05075113 -0.75080454 -0.03599951 -0.8411242
000350 cc df dc 3d 56 6c dc be e0 8e 80 bf 36 85 69 3d
       0.10784873 -0.43051404 -1.0043602 0.057011805
000360 36 cb 62 3e ea 87 04 bc e3 8d 10 3e 40 99 8e 3b
       0.22147831 -0.008089045 0.14116625 0.004351765
000370 7d af 87 bf d9 17 06 bf 94 e9 0c 3d 42 c5 20 be
       -1.060043 -0.5238014 0.034402445 -0.15700248
000380 c7 80 20 3f 04 8e 09 be 2c a9 97 bf d5 a3 19 3e
       0.626965 -0.13433081 -1.1848502 0.15003903
000390 1e 79 2d bf df 9c b5 bf 37 0d 8b bf 1c dc 7e 3f
       -0.67762935 -1.4188498 -1.0863408 0.9955461
0003a0 55 c1 80 bf 6d c5 8c 3f ba cd 1a 3e 69 cc 0c bf
       -1.0059 1.099775 0.15117541 -0.54999405
0003b0 b5 32 0f 40 c0 38 9d bd ed 7f c2 3c 4f f2 dd bc
       2.23747 -0.0767684 0.02374264 -0.02709308
0003c0 fc f2 3d bf f3 fe 0e bf 07 1e c0 be cb 6e 54 bf
       -0.7419889 -0.5585777 -0.3752291 -0.82981557
0003d0 33 a3 3c be 52 18 07 3e d3 af 38 3e 2c f1 14 39
       -0.1842163 0.13192871 0.18035822 0.00014204223
0003e0 60 bf 47 bf 50 1d 2a be 30 43 63 bf 2d 57 cc 3f
       -0.7802639 -0.16612744 -0.88774395 1.5964104
0003f0 46 8e 08 3e 88 6d d4 3d 76 5c 35 bf 99 e5 f1 be
       0.13335523 0.10372454 -0.7084421 -0.47245482

network.4.bias f4 [6]
000000 40 fe cd 3e ca 46 5b bf 89 eb 42 bf 25 27 73 bf
       0.4023304 -0.8565489 -0.7614065 -0.94981605
000010 77 a4 77 bf 28 ad 8a bf
       -0.9673533 -1.0834093

network.0.weight f4 [200, 24]
000000 50 8e d1 3e de df be 3e 83 90 37 3d 3a f7 f6 be
       0.40928888 0.37280172 0.04481555 -0.48235494
000010 5d c7 9b bf 9b 4c 57 bf 0d 88 74 bf 6a 88 1e bf
       -1.2170216 -0.84101266 -0.95520097 -0.619269
000020 8b 4e 11 c0 cf 84 77 bf 9c 61 c7 be ec 1b cf bf
       -2.270419 -0.96687025 -0.38941658 -1.6180396
000030 c8 4e 2a bf 9c 8e a8 3f 52 6d 3a c0 01 76 98 bf
       -0.6652646 1.3168521 -2.9129224 -1.1911012
000040 fd f9 28 3f 3c 70 2a c0 67 96 4c 3d d1 d0 01 3f
       0.6600645 -2.6631002 0.049948122 0.50709254
000050 04 20 57 3f 68 f1 34 be 64 a7 05 bc 7d 0a 69 be
       0.84033227 -0.17670214 -0.008157585 -0.22757907
000060 bd 8b f8 3e e2 46 84 3e 59 c6 11 3e 0e ae 12 3f
       0.48544112 0.2583533 0.1423582 0.57296836
000070 63 33 f3 3e 4d 50 01 3f 9d f3 23 3f a0 21 cc 3d
       0.47500142 0.50513154 0.640436 0.09967351
000080 19 33 2e 3e 55 38 32 3f 87 c3 19 3f d6 f6 0a 3e
       0.1701168 0.69617206 0.60063976 0.13570723
000090 f6 74 05 c0 2d cb 98 bf 4b a7 98 3e 4a 65 f3 bf
       -2.0852637 -1.1937004 0.29815134 -1.9015286
0000a0 f6 7f a6 bf eb 9c 1e 3f db f4 5b 3f 02 b8 85 ba
       -1.30078 0.6195819 0.85920495 -0.0010201933
0000b0 06 67 91 be 18 72 12 3f bd 56 36 3f 32 82 3c bd
       -0.28398913 0.57205343 0.712261 -0.0460226
0000c0 1b 9f 36 3e c0 d2 d2 3d 16 4f 34 3d 34 e2 89 3e
       0.17834131 0.102941036 0.044020735 0.26930392
0000d0 a4 ff d1 3e 7c 87 0b 3e 6c f7 07 3f 14 97 1b 3e
       0.4101535 0.13625902 0.5311191 0.1519435
0000e0 d3 59 01 3f f1 c6 a8 3e 7e 05 cc 3e 94 74 ab 3e
       0.50527686 0.3296428 0.3984794 0.3348738
0000f0 fd 24 0a 3f 67 5c aa 3e 13 54 1d 3d 77 0b be 3e
       0.5396269 0.33273622 0.038410258 0.37118122
000100 9a b2 bc 3e d9 f6 cf 3d c8 53 35 3f d3 ff 59 3e
       0.36855012 0.10154504 0.70830965 0.21288995
000110 e4 d8 12 be bd 4c f3 3e d4 ce 31 3f 8b 53 e6 bd
       -0.1434055 0.47519484 0.6945622 -0.11246403
000120 64 3d 84 3e db 5e 22 be 65 1d 82 be 20 52 68 3d
       0.25828087 -0.15856497 -0.2541305 0.056718946
000130 23 d8 0c 3f 3a 8d 3e 3c ba e9 bf 3e 4f 57 3a be
       0.550173 0.011630351 0.37483007 -0.18197368
000140 e1 b6 b6 3e d9 dd 9b 3e 49 cf c1 3d 3a ab ec 3d
       0.356864 0.30442694 0.09463365 0.115560964
000150 ab bd 3b 3f 49 ff 8a be a1 8d 36 3e c8 bf ae 3e
       0.73336285 -0.27147892 0.17827465 0.34130692
000160 dd e8 96 3d b8 2f fa 3d eb 32 81 3f 70 a8 e6 3e
       0.07368634 0.12216133 1.0093664 0.45050383
000170 55 6e 27 be 52 1c 86 3e 96 4e 66 3f 1d 36 de be
       -0.16350682 0.26193482 0.8996366 -0.4340066
000180 78 a1 c6 3d 25 86 3a be 8a be 21 be 60 95 b7 3e
       0.096987665 -0.18215235 -0.15795341 0.35856152
000190 55 b2 26 be 20 00 4f 3d 6d ad 05 3d fb 06 06 be
       -0.16278966 0.05053723 0.032636095 -0.130886
0001a0 7d 55 91 3e ed b6 1b 3e 32 09 f7 be 4b cc 3f 3e
       0.28385535 0.152065 -0.48249203 0.18730275
0001b0 5c 3e 1e 3f 90 5c 33 be 39 20 85 3e e0 dd 24 3e
       0.618139 -0.17515779 0.26001146 0.16100264
0001c0 be ad ed 3a 9c 66 8d be 9d 58 2a 3f 72 da ea 3d
       0.0018133444 -0.27617347 0.66541463 0.114674464
0001d0 7f b5 60 3e 35 b7 d3 3e 26 2b 95 be f2 f9 4c bd
       0.21944235 0.41350713 -0.29134482 -0.050043054
0001e0 72 8d e7 3d c9 81 1e 3e 41 28 e2 be 6b 78 0a bd
       0.113062754 0.15479197 -0.44171336 -0.033806246
0001f0 46 4c c3 3e 61 72 a1 be 4a 87 d9 3e 03 97 15 3e
       0.3814413 -0.31532577 0.4248603 0.14608388
000200 56 12 55 3e 4f c2 dd 3e 56 e0 bc 3e 9d b8 8f 3e
       0.20807776 0.43312308 0.36889905 0.28070536
000210 11 ce 25 3f 59 50 30 bd f3 59 94 bd d7 d2 67 3e
       0.6476756 -0.043045375 -0.07243719 0.22639023
000220 37 c1 1a 3e 80 bf 67 be 5b d8 36 3f 63 c3 55 3e
       0.15112768 -0.22631645 0.7142388 0.20875315
000230 3d 52 86 be ef 39 ea 3e e5 e3 31 3e 26 8b 48 be
       -0.26234618 0.45747325 0.17372091 -0.19584331
000240 a1 67 a8 3e c8 ae 28 3e 22 1d b6 bd 20 61 90 3e
       0.32891563 0.16472924 -0.088922754 0.281991
000250 76 e7 fd 3e 28 34 9d 3e 92 19 87 3e 3a f1 d9 bd
       0.49590653 0.30703855 0.26386696 -0.106417134
000260 04 b4 9a 3e 36 21 b6 3c 6b 41 bf 3d 63 81 b7 3e
       0.30215466 0.022232633 0.09338649 0.35840902
000270 b8 67 02 3f 47 f5 94 3e 2a 3b 40 3e e0 c1 18 3f
       0.5093951 0.29093382 0.1877257 0.5967083
000280 a8 47 b8 3e 33 b9 9b 3e 31 3c b9 3e 19 8c 2e 3e
       0.3599217 0.30414733 0.36178735 0.1704563
000290 b1 fd 43 be 2b b0 a4 3e 46 f0 0a 3f 9e 50 93 be
       -0.19139744 0.32165655 0.5427288 -0.28772444
0002a0 9e 7e 06 3e ca b2 ae 3d 8f 8c 31 be 79 10 87 3e
       0.13134238 0.08530195 -0.17338775 0.26379755
0002b0 8f e6 f0 3d 99 13 16 3e c2 00 04 3f e6 1f 13 3d
       0.117627256 0.14655913 0.51563656 0.035919093
0002c0 af 36 14 3f 11 72 e0 3e cd ac 49 3e af 48 06 3f
       0.5789594 0.43837026 0.19694825 0.52454656
0002d0 c7 62 09 3f a2 3e d8 3e 2d dd 62 3e aa 7a f2 3e
       0.5366635 0.42235285 0.22154684 0.4735921
0002e0 07 27 b6 3e aa ce 6d 3d 7f 7d f0 3e b4 9a 28 3e
       0.3557665 0.05805842 0.46970746 0.16465265
0002f0 05 fa 99 bd 08 44 0d 3f 38 d5 ee 3e 19 a8 8e bd
       -0.075183906 0.5518193 0.46647048 -0.06965656
000300 df 56 cf be 58 04 cd be b7 cc 0e 3f 9d 9a cc 3e
       -0.40495965 -0.40042377 0.5578112 0.3996171
000310 fe e5 28 be a9 8e 86 3f b5 7a 3d bd 26 d9 ca be
       -0.16493985 1.0512286 -0.0462596 -0.39618796
000320 7b ec c7 3e 99 7e 2d 3e be e3 33 3f 0b ff fb 3e
       0.39047608 0.16942824 0.7026938 0.4921802
000330 91 11 64 bf 8b 12 0c bf dc 80 26 3f b2 a0 06 bd
       -0.89089304 -0.54715794 0.65040374 -0.032868095
000340 0a 03 5b bf 2a 50 11 3f 15 cd 19 3f 5b 82 05 be
       -0.8555151 0.56762946 0.60078555 -0.13038008
000350 c7 ed dc be f0 ca 11 3f 39 4a 57 3f 73 d3 d3 be
       -0.4315016 0.56950283 0.8409763 -0.4137226
000360 a1 a8 14 be 6b 0e 41 3c 9d 16 3d be 49 39 84 3d
       -0.14517452 0.011783223 -0.18465658 0.06456239
000370 80 6b c4 3e 5c 29 42 be d2 b9 79 bd 02 ae 55 be
       0.38363266 -0.1896109 -0.060968228 -0.2086716
000380 b1 9b 81 3e 11 0d 15 bd e5 fb 5f 3d 00 4b b8 3e
       0.25314096 -0.036389414 0.054683585 0.3599472
000390 ed 4d e4 3e b3 92 b7 3d b3 09 25 3c 88 e1 66 3e
       0.44590703 0.089635275 0.010073113 0.22546971
0003a0 71 f7 67 3e 1d fd 50 3e 7e f3 13 3f 10 6e e9 3d
       0.22652985 0.20409055 0.57793415 0.11397946
0003b0 4c 03 f1 bd 2c 30 82 bd d8 09 03 3f ab da 25 bf
       -0.11768207 -0.06356844 0.51186895 -0.64786786
0003c0 f7 19 73 be 0b 11 a9 3e 41 c1 6e be e5 1a 10 bd
       -0.23740374 0.33020815 -0.23315908 -0.0351819
0003d0 a1 40 7c 3e 39 a3 6f 3e cb b1 90 3e eb 8a 61 be
       0.24634029 0.23402108 0.28260645 -0.22025649
0003e0 2e ab 60 3e 05 6b e5 3e 23 54 3f 3d b4 57 f3 3e
       0.219403 0.44808212 0.0467111 0.4752785
0003f0 df d7 32 3f 04 51 47 3e 7e a8 8b 3d 30 bc d0 3e
       0.69860643 0.19464499 0.06819247 0.40768576

network.0.bias f4 [200]
000000 0e 2b 26 3f ff 5d 14 3f 8c fc 1c bd cd f5 e1 be
       0.64909446 0.57955927 -0.038326785 -0.44132844
000010 3b 1d 1c 3f 28 0a 60 be 6c 26 ea bd 4e 49 31 3e
       0.609821 -0.21878874 -0.1143311 0.1731312
000020 43 32 2b be 14 a4 15 be e6 7e d7 be 96 37 00 bf
       -0.16718392 -0.14613372 -0.42089003 -0.5008482
000030 b8 f6 da 3e 0c 06 d2 be 5d 8a 7d 3f ec f4 2b 3e
       0.42766356 -0.41020238 0.9903925 0.16792649
000040 13 7b 8b 3e 2e d2 5c 3e c2 17 f1 ba fc 3f 21 3f
       0.27242336 0.21564552 -0.0018393921 0.6298826
000050 cd d2 41 3e b8 66 62 bb fa 64 36 be 33 1e 8f 3c
       0.1892807 -0.0034546088 -0.17811957 0.017470455
000060 6f 74 89 bd 4d 2f 62 3e 4f 52 4a 3d 26 95 26 3f
       -0.06711661 0.22088356 0.0493949 0.6507133
000070 d6 19 a5 be d1 c3 01 be 2c 71 9d 3e 1c bc 80 3f
       -0.32246274 -0.12672354 0.30750406 1.0057406
000080 b1 55 7d bf 95 15 a0 be f5 f4 c6 3f 87 7c b1 3e
       -0.9895888 -0.31266466 1.5543505 0.3466532
000090 75 49 2d bd 35 d1 22 bf ee 6e 93 3e 8a 13 3b be
       -0.042306382 -0.63600475 0.2879557 -0.18269172
0000a0 00 77 a9 be fa 5c 91 be 49 56 81 3e 12 40 bb 3e
       -0.33098602 -0.28391248 0.25261143 0.3657232
0000b0 2f 36 db 3e 7b bd ef bd 87 9f 5f 3f eb 53 85 3d
       0.42814776 -0.117060624 0.87352794 0.06510147
0000c0 21 ad a6 3f ff a9 a7 bf 5d c8 97 3f b7 48 43 3d
       1.3021585 -1.3098754 1.1858021 0.04767677
0000d0 42 f4 62 be 6a 42 7f 3e 91 39 68 3e ab 3b 80 3e
       -0.2216349 0.24927679 0.2267821 0.25045523
0000e0 df 3d 15 bd 2c 3e 0b 3d 1c 42 cc be 2d de 7a be
       -0.036435958 0.03399484 -0.39894187 -0.24498816
0000f0 6d e9 99 3e 1a a6 49 be d5 4d 1e be 76 09 fe 3e
       0.30060902 -0.19692269 -0.15459378 0.49616593
000100 91 3c 40 3e 80 c7 0e 3e ac 7f 42 3e 28 4c c5 3d
       0.18773104 0.1394329 0.18994015 0.09633666
000110 f5 a0 dd be 25 45 54 3e ed 31 00 3f e5 81 9d 3f
       -0.43286863 0.20729502 0.5007618 1.2305266
000120 96 b6 d4 be a5 3c 55 3e 1f b8 17 bf 7b c4 31 be
       -0.41545552 0.20823915 -0.5926532 -0.17360108
000130 f5 8d e7 bb 34 af 6a 3e af 50 ac bd f8 54 90 3f
       -0.007066483 0.22918397 -0.08413827 1.127593
000140 ba 0f 4f be ca 2b c9 bb a1 5a b0 be b8 4b 4b 3e
       -0.20220843 -0.0061392533 -0.34444144 0.19853103
000150 d9 43 92 3e 05 e9 9d 3c 6b 06 6a be 16 06 a1 3f
       0.2856739 0.019276151 -0.22854011 1.2579982
000160 f7 8e 73 3f 06 80 fc be 62 8d 2d 3f 20 00 74 be
       0.9514002 -0.49316424 0.6779386 -0.23828173
000170 99 f9 f4 3d de 85 96 bf a8 73 16 bf 3f 04 d6 bd
       0.119616695 -1.1759603 -0.5877023 -0.10450029
000180 f7 11 66 3f a7 06 38 3f 15 2e e9 3d 90 68 fa 3c
       0.8987116 0.7188515 0.113857426 0.030567437
000190 55 3c 47 be b0 dc 5c bd bd 14 e0 bd 74 28 dd 3d
       -0.19456609 -0.0539214 -0.109414555 0.107987314
0001a0 c3 0e 81 be 5f 89 d3 be 94 f2 0d 3f a3 22 71 3f
       -0.25206575 -0.41315743 0.5544827 0.94193476
0001b0 b1 99 54 3f 8a 5c e4 be 55 8f ac 3d c3 17 22 be
       0.83047014 -0.44601852 0.08425776 -0.15829377
0001c0 33 fb 2e 3f 0d 7e 45 3c 6a 9c e8 bd 3a a1 b2 bd
       0.6835205 0.012053979 -0.113579586 -0.08722158
0001d0 f8 98 d1 3e 27 4d 27 bf 89 a8 72 3e 67 59 2e bf
       0.40937018 -0.653521 0.23697104 -0.6810517
0001e0 a2 24 57 3e 19 f1 24 bf 03 da 59 bf 5f 1d 09 3e
       0.21010068 -0.64430386 -0.85098284 0.1339011
0001f0 b4 22 97 be e8 af bf 3e 02 17 94 3e 4d 4b 3b bf
       -0.29518664 0.37438893 0.28923804 -0.73161775
000200 06 89 76 3d ef e1 7e 3e a9 0b ce 3e 41 6a cc 3e
       0.06018927 0.24890874 0.4024327 0.39924815
000210 c8 10 17 3e 7f 0d f1 bd 2f 4e 20 bd 3d b6 85 be
       0.14752495 -0.11770152 -0.03913706 -0.261156
000220 e7 69 a8 bc 4d 36 4c 3d 10 ca 8e 3f 99 7a f2 be
       -0.02055831 0.049856473 1.1155415 -0.4735916
000230 cb 84 93 3d 15 37 1f be f2 4d d4 be f8 b1 42 3f
       0.072030626 -0.15548356 -0.41465718 0.7605281
000240 03 93 9b 3f bd c3 63 be 75 57 7c 3e d8 ef 91 3d
       1.215424 -0.22242637 0.24642737 0.07125825
000250 c9 46 2c 3f 23 51 54 3e ac c7 8d 3e fb 80 c5 be
       0.6729551 0.20734076 0.276914 -0.38574967
000260 74 dd 9e 3e 6a a8 00 bf 63 d8 cf be 7d 52 c7 3f
       0.3102833 -0.5025698 -0.40594777 1.5572048
000270 32 08 eb 3d 9c 0c 5b be 1c f5 94 3d 25 a6 2b 3e
       0.114761725 -0.21391529 0.072733134 0.16762598
000280 a5 8d b8 3e f2 86 5a 3f 36 07 f1 bc 0e e9 8c bd
       0.36045566 0.8536216 -0.029422384 -0.06880389
000290 17 8f 59 3f cb 30 18 3f 93 32 4e 3e e6 0c 40 bf
       0.8498396 0.5944945 0.2013648 -0.7501968
0002a0 db db 70 3e cf d7 4c 3f d1 d2 75 be 95 3e b3 3e
       0.23521368 0.800168 -0.24006201 0.35008684
0002b0 d4 76 6c 3e 81 fc 8d be 52 b9 0e be e2 7f cf bd
       0.23092204 -0.27731708 -0.13937882 -0.101318136
0002c0 84 c7 06 3e 05 8e 4c be d8 cb 07 3f d1 98 2a 3f
       0.13162047 -0.19976051 0.53045416 0.6663943
0002d0 1a f6 20 be 61 46 07 3e 2a 2d 8c 3e c2 bc 24 3e
       -0.1571888 0.13210441 0.27378207 0.1608763
0002e0 11 e4 47 3f 89 2e 40 3e be b7 90 3f 6b b0 a3 be
       0.78082377 0.18767752 1.1306074 -0.31970534
0002f0 21 2b 68 3f 15 79 2a be 7e bb ec 3c a1 8e 71 be
       0.9069081 -0.16647752 0.028897997 -0.23589565
000300 a8 f9 59 3f f5 38 83 be d3 07 06 be 6b fa 81 3e
       0.8514657 -0.25629392 -0.13088922 0.25386366
000310 74 ac 20 3e a8 20 52 3e 71 eb cd 3e 5f 9a 4d 3e
       0.15690786 0.2052027 0.4021869 0.20078419
