ddqn_sumo/saves/sumo_single_intersection/ddqn_model_final.pth (torch, 783790 bytes, 24 tensors)

network.0.weight f4 [200, 36]
00000000: 0524 15c0 151b 6d3e ffb3 b0bf bddb 16c0
00000010: c79d f63d 33c0 a8bf 475a 0dc0 fe0e 103e
00000020: 18cc 88bf 93c3 03c0 7a62 163d fbe0 78bf
00000030: 630d 03c0 cee0 3abd ab53 7bbf f782 25c0
00000040: 1c61 703d 48bb d6bf 4903 27c0 1deb 9d3e
00000050: 465a ddbf 0ea1 16c0 f718 573d 1458 15c0
00000060: aad3 1bc0 96f8 653e ed53 13c0 2424 27c0
00000070: 62d5 e33d 4a44 23c0 0c4e 16c0 d92a a63d
00000080: 2fcf d6bf 1740 11c0 82d6 cc3d 51a3 e5bf
00000090: b954 0bc0 c88c b23d e060 aebf e704 07c0
000000a0: d03a 6f3e 4c0b b9bf 09b4 e5bf fc7f de3d
000000b0: 1e4a 58bf b3a8 edbf b3ba 54bd 4235 5dbf
000000c0: 9189 f2bf 7abe 603d c4cb 67bf 219e 3cc0
000000d0: 9bd6 9b3e 2a48 f4bf 734c 3bc0 c90f 903e
000000e0: 1642 e0bf 5960 14c0 c6bb 123e 51c7 0fc0
000000f0: c156 1dc0 03ec 763e 5623 12c0 4dd0 18c0
00000100: 14e6 c03e 5af3 12c0 299d f6bf e7a9 4e3d
00000110: fcf7 28bf 411f f6bf d5d2 683d dfc9 23bf
00000120: a32e 0ec0 1dea dd3d 8605 f5bf b9ca 0dc0
00000130: 1ff9 4a3e a01c ebbf 3366 07c0 e9a3 f0bd
00000140: 262e e9bf 723e 18c0 896d 393e 892d ecbf
00000150: ba3c 1ac0 c993 c83d a1f0 f0bf a4d9 2cc0
00000160: 7e77 9d3e 834e efbf c22b 32c0 7059 453c
00000170: 21b5 edbf cc9e 13c0 33a1 4a3e d560 1bc0
00000180: 5a3b 22c0 6321 5c3e 8562 1ac0 fc4b 1cc0
00000190: 0eb1 5cbd c50c 18c0 48dc fbbf b4f7 ce3d
000001a0: 04b9 f5bf 3539 06c0 5de4 7a3d 74ad f5bf
000001b0: 9182 f03f de4b 433b 2916 263f b1d6 da3f
000001c0: a1fb d6bd 6112 143f b52c b03f 79da 3a3c
000001d0: e9cf 273f 714b bb3f 08b0 9cbd 83d0 473f
000001e0: 01c7 c73f 4f89 e0bc a34b 523f 1400 6c3f
000001f0: eef4 6a3f 9d54 933f 5794 403f 25eb 813f
00000200: b421 a63f e1ca 503d 0a36 303f 9a0a eb3e
00000210: c4a8 8a3c c25b 173f 34b0 e53e 48ec a2bd
00000220: 264c 483f 24a6 c93e e3e7 d13f 4eae a5bd
00000230: 3566 633f f76b d03f 5cef 4ebd 2766 5a3f
00000240: 0705 dfbf 00b0 0f3d e05e b6bf af8e d9bf
00000250: 6d57 503e bcbc babf 9044 08c0 3f15 9a3d
00000260: bec0 bdbf 8f41 03c0 d176 d23d a03c bebf
00000270: c716 06c0 532a 6c3e 5a17 aabf 336a 19c0
00000280: 0b9d 3d3e 98b6 c6bf a6de 24c0 27de ec3d
00000290: ac0f d4bf 0405 0bc0 e1fa 163e 64c0 12c0
000002a0: 04db 08c0 b7db 67bd 669b 20c0 9fa5 01c0
000002b0: 90af 713e ce1d 19c0 6826 bbbf ede8 b23e
000002c0: d28d c4bf fa08 c6bf 5518 163e 983c cfbf
000002d0: bf66 13c0 934c fd3d 02d9 edbf 597c 0ac0
000002e0: b3d2 9d3e ec67 edbf 45a3 0cc0 7dd2 ec3d
000002f0: e4e5 d7bf 3f72 0ac0 b2e0 583d ccfe d5bf
00000300: fd5e 08c0 28fc 8dbc 401c cfbf 0a6b 17c0
00000310: a303 1f3e d02d a5bf b7f3 1ec0 3f85 363e
00000320: 206c a5bf 80dc 0dc0 6484 41bd 252b 12c0
00000330: 9c26 02c0 242c 4a3e 074c 0bc0 0634 10c0
00000340: cebf 303e 610f 08c0 6be8 16c0 5824 70bc
00000350: 1574 1cc0 8fdf 1ac0 a645 343e 3ceb 11c0
00000360: fc36 0abf f724 8e3e 5896 54be 39b7 bcbe
00000370: 57e4 1c3e e0ef b5bd 7179 4abf 263c c83e
00000380: 5fc6 50be 8715 67bf e894 a63e c4a8 a3bd
00000390: 8bb7 3ebf 1a1f 013f 9933 82be 2ae4 85bf
000003a0: 56bb b33e ee42 bebe 7012 a0bf 582c 6e3e
000003b0: 342b 4dbe fdd7 3abf c2ae 8dbe cf7a c13e
000003c0: cc25 55bf 679c 4dbe ef52 e73e 9af6 67bf
000003d0: 474b 92be 2a21 913e 9a1d 5cbe 3697 593e
000003e0: 7519 f7bd a577 f33c ba0e 423e 17c3 9dbe
000003f0: a519 11c0 e9d6 073e d46b ffbf 70e5 19c0
-2.3303235 0.23154862 -1.380493 -2.3571618 0.120418124 -1.3183655 -2.208635 0.14068219
-1.0687284 -2.058812 0.03671501 -0.9721829 -2.047692 -0.045624547 -0.9817454 -2.5861185
0.05868636 -1.6775904 -2.6095755 0.3084344 -1.7293174 -2.35358 0.052514043 -2.3335009
-2.434794 0.2245811 -2.3019974 -2.6115808 0.11124684 -2.551043 -2.3485136 0.08113641
-1.6781977 -2.2695367 0.100018516 -1.7940465 -2.177046 0.08718258 -1.3623314 -2.1096742
0.23362279 -1.4456573 -1.7945567 0.10864255 -0.84488094 -1.8567108 -0.051935863 -0.8640939
-1.8948232 0.054869153 -0.90545297 -2.9471514 0.30437168 -1.9084523 -2.926541 0.28137043
-1.7520168 -2.3183806 0.14329442 -2.2465403 -2.45842 0.24113469 -2.2834067 -2.3877137
0.37675536 -2.296103 -1.9266711 0.050455 -0.66003394 -1.9228288 0.05684169 -0.63979906
-2.2215965 0.10835669 -1.9142311 -2.2154982 0.19821595 -1.8368111 -2.1156127 -0.117500134
-1.8217208 -2.3788114 0.1810819 -1.8451396 -2.4099565 0.09793813 -1.8823434 -2.7007837
0.30755228 -1.8695835 -2.7839208 0.012045249 -1.8570901 -2.3065672 0.19788055 -2.4277852
-2.5348725 0.21497111 -2.4122632 -2.4421377 -0.05387979 -2.3757794 -1.96766 0.10105839
-1.9197087 -2.0972416 0.06125294 -1.9193559 1.8789846 0.002979986 0.64877564 1.7096769
-0.10497213 0.57840544 1.3763644 0.011404627 0.6555162 1.4632398 -0.07650763 0.7805254
1.5607606 -0.027409224 0.8214666 0.9218762 0.91779983 1.1510197 0.7522635 1.0149885
1.2979035 0.05097473 0.6883246 0.45906526 0.016926177 0.59124386 0.44860995 -0.07955223
0.78241193 0.39384568 1.6398891 -0.080898866 0.8882783 1.6282948 -0.05052124 0.8531212
-1.7423409 0.035079956 -1.4247704 -1.6996669 0.2034585 -1.4588847 -2.1291847 0.075235836
-1.4824445 -2.0508764 0.10276569 -1.4862251 -2.0951402 0.2306302 -1.3288376 -2.397107
0.18516938 -1.5524473 -2.5760894 0.1156581 -1.6567283 -2.1721811 0.1474414 -2.2929926
-2.1383677 -0.05660602 -2.5094848 -2.0257337 0.23602128 -2.3924441 -1.4621096 0.34943333
-1.535578 -1.547149 0.1465772 -1.6190367 -2.3031461 0.12368121 -1.858185 -2.1638396
0.30824813 -1.854734 -2.1974652 0.11563585 -1.6867032 -2.163223 0.05294866 -1.6718383
-2.1307976 -0.017332152 -1.6180496 -2.3659081 0.15528731 -1.2904606 -2.4836252 0.17824267
-1.2923622 -2.2165833 -0.0472454 -2.2838833 -2.0336065 0.19743401 -2.1765153 -2.2531753
0.17260668 -2.1259387 -2.3579357 -0.0146571025 -2.444585 -2.419895 0.17604694 -2.2799826
-0.5399015 0.27762577 -0.20760477 -0.36858538 0.1532148 -0.08883643 -0.79091555 0.3910839
-0.20388173 -0.90267223 0.3253548 -0.07991174 -0.74498814 0.5043808 -0.2542999 -1.0460255
0.35103863 -0.37160438 -1.2505627 0.23259103 -0.20036012 -0.7298582 -0.27672392 0.37789008
-0.832608 -0.20079194 0.4518046 -0.9061066 -0.28573057 0.28345615 -0.21495667 0.21249089
-0.120654024 0.029720137 0.1895093 -0.30812904 -2.2671902 0.13265575 -1.9954782 -2.4046288

network.0.bias f4 [200]
00000000: 38b4 6bbe 356c 41be f77d 1bbe aebe 303f
00000010: c54b 12be 3059 8fbe ea59 043f 3341 1bbe
00000020: d187 56be fe72 093f 5df2 31be a0d8 8bbe
00000030: d56e 33be e57f 9f3f 89ea 78be c2ec 5ebe
00000040: 3240 1dbe b8e9 0b3e 2493 703e c462 5dbe
00000050: 322b 3fbe fa84 66be 3297 98be e290 11be
00000060: d349 5cbe ab23 203f 1240 5dbe 5cd7 74be
00000070: e736 5cbe 6541 4a3f 031d 27be 3d75 adbd
00000080: 63b9 65be 0f17 f03e 7a70 20be a84e cb3e
00000090: 8066 1abe ef53 c5bd 5082 3fbe 6d8c 96be
000000a0: e024 6abe b441 5ebe 57db 9ebd feba 0cbe
000000b0: 4c81 8d3e 883d 363f 8f8e 6a3f f232 d53e
000000c0: fde8 0f3b 6342 64be 2a84 40be ed01 883e
000000d0: 471e 123f 5ec7 85be 38cb 643e c8ab 05be
000000e0: 0e88 10be ea55 3abe 50a4 0b3f f6f1 ffbd
000000f0: 79f5 2ebe 4bd6 1abe c78a 4ebe c731 75bd
00000100: 757f 4f3f 15e3 823e 4595 3abe 4d78 a5bc
00000110: 168f 8a3d 3e77 8b3f 000d 093e 96cd 45be
00000120: 6000 8abe 8b89 96be cdb2 6abe f04a 903b
00000130: 7d4b 0b3f 1ee1 20be 7cd8 783f 713f 8d3f
00000140: 1faa 91be 3640 25be dc97 87be e6f7 3cbe
00000150: d66a 7abe 48fa 27be 933f a3bb 482a 4dbe
00000160: e43e 213f 47ce 89be 424e 7a3d d33f cfbc
00000170: 0de5 463e d9b7 8cbe f21a 7dbe 26d5 6cbe
00000180: a8e4 9e3e 6df8 98be 5eb0 79be 8bd3 85be
00000190: a703 6bbe afe0 6fbe 4836 a6be 73df 1d3e
000001a0: a003 8fbe 849b a63d 1c77 4fbe 6e91 8bbe
000001b0: 5867 55be cd71 73be c57d 8dbe 79b5 4bbd
000001c0: 66ca 16be a01f 34be 143b bbbd 7331 e03e
000001d0: f78c d63e 15ab 113c 5b66 8cbe f4a6 103e
000001e0: f896 633e 458d 83be 4380 08be c4f2 a0bd
000001f0: b22a 1f3f 0f78 8cbe 4c66 453f 9983 0fbe
00000200: c3cc 0b3e 7dd6 863e 61a4 243f f59d 3bbe
00000210: 5d9e 6fbe 1c4b 093f 32d3 70be e95c de3b
00000220: 5f81 a9bb 6a67 1e3f 838d 42be 940b 213f
00000230: 58bd 8fbe 55ca 5dbe aa8e 59be 471b 863f
00000240: 4272 f1bc 3e57 983f 919f 1c3f bfd2 593f
00000250: af76 ec3e cfa4 59be 4186 a83d 027c 2fbe
00000260: 1664 aebe 531e f0ba eefc bb3e 9271 8abe
00000270: 2c3d 50be d3c1 7fbe 566b 9dbd 4133 5bbe
00000280: b45b a03e bec4 7fbe 323c 593e 75e0 13be
00000290: 0c25 a83d a3e9 93be 2d4d 003e e61f 19be
000002a0: 8569 fc3e 4907 cd3e 4a7a 41be 352c 5bbe
000002b0: cf11 80be 3ed2 353f a95f 47be 04d6 84be
000002c0: 4381 9bbe a981 5abe 1594 073f 79b8 153f
000002d0: a275 74be 7351 86be 6b9f c93e e304 31be
000002e0: 8c4e 41be 7e7d 5cbe 9d29 9bbe ce7e 66be
000002f0: 94ad 4ebe 8597 513e 1672 163f 5137 a1be
00000300: 508d e23e 19b2 a33f 1788 25be 0000 0000
00000310: b048 80be 49ef 80be 8dc2 12be b429 2c3f
-0.23017967 -0.18888934 -0.1518477 0.69040954 -0.14286716 -0.27997732 0.516997 -0.1516159
-0.20950247 0.5369109 -0.1737761 -0.2731371 -0.17522748 1.2460905 -0.24308218 -0.21770003
-0.1535652 0.13663375 0.2349363 -0.21619707 -0.18668821 -0.22511664 -0.29802853 -0.14215425
-0.21512537 0.62554425 -0.21606472 -0.23910278 -0.21505319 0.79006034 -0.16319661 -0.08469627
-0.22434 0.46892592 -0.15667906 0.39708447 -0.15078163 -0.0963515 -0.18702054 -0.2940401
-0.22865629 -0.21704751 -0.077566795 -0.13743207 0.27637708 0.7118764 0.9162378 0.4164043
0.002195894 -0.2229095 -0.18800417 0.2656397 0.5707745 -0.26128668 0.22343147 -0.1305381
-0.141144 -0.18196836 0.54547596 -0.12497322 -0.17085828 -0.15120809 -0.20170127 -0.059861924
0.8105386 0.25563875 -0.18221004 -0.020198965 0.06765573 1.0895765 0.13383865 -0.19316706
-0.2695341 -0.29401812 -0.2291977 0.0044034645 0.5441206 -0.15710875 0.9720533 1.1034986
-0.28450105 -0.16137776 -0.26483047 -0.18453941 -0.24454817 -0.16404068 -0.004981944 -0.2003566
0.6298659 -0.2691519 0.06110979 -0.025298988 0.19423313 -0.27484015 -0.2471731 -0.23128185
0.31033826 -0.29877034 -0.24383685 -0.26137957 -0.22950612 -0.23425554 -0.32463288 0.1541727
-0.27932453 0.08135131 -0.2026028 -0.27259392 -0.20840204 -0.2377388 -0.27635017 -0.049733613
-0.14725646 -0.17590189 -0.09142128 0.43787727 0.41904423 0.008890887 -0.2742184 0.14126188
0.22225559 -0.25693718 -0.13330178 -0.07858804 0.6217452 -0.27435347 0.7710922 -0.14015044
0.13652329 0.26335517 0.6431332 -0.18321975 -0.23400255 0.5363023 -0.23518065 0.006785978
-0.005172893 0.6187655 -0.18999295 0.6290829 -0.28074145 -0.21659215 -0.21245828 1.0477074
-0.029473428 1.1901624 0.6118098 0.850872 0.46184298 -0.21254276 0.08228732 -0.17137149
-0.34060735 -0.0018319584 0.36716408 -0.27039772 -0.20335835 -0.24976282 -0.07686488 -0.2140627
0.31319964 -0.24977395 0.21214369 -0.14441092 0.08210191 -0.28889188 0.1252944 -0.14953575
0.49299255 0.4004462 -0.18894306 -0.21403582 -0.25013587 0.7102393 -0.19470085 -0.2594453
-0.30372056 -0.21338524 0.5296033 0.5848461 -0.23872998 -0.26234016 0.3937944 -0.1728702
-0.1887762 -0.21532246 -0.30305186 -0.2250931 -0.20183402 0.20467956 0.5876783 -0.31487516
0.44248438 1.2788726 -0.16165195 0.0 -0.25055456 -0.2518256 -0.14332028 0.67251134

network.2.weight f4 [200, 200]
00000000: bcee aa3b 3061 b93d 2811 99bd f69b e2bd
00000010: 68af 2c3a c5ee 1abd 3b5f 753d 3f62 c3ba
00000020: 7592 a5bd 2dba a7bd 5397 fe3c 868b 493c
00000030: c843 08be 2f18 a73d 6b9d bf3d 6c8d d23d
00000040: b965 673c 39fd 0fbe 9fa4 5fbd 1453 9e3d
00000050: 8d18 8bbd 16e9 9dbd af3d 80bd 6d4d 0e3d
00000060: 0aa4 bbbc dcf8 f4bd c886 ba3c 017f cfbc
00000070: 33a0 a53c bb3e aa3c 6ab2 66bd 8cf3 a8bd
00000080: 2f48 0f3d 4c23 d9bd a9d6 1e3b 39ba 423c
00000090: 6bf8 b43d 0f14 933d 818b 7abd 1e1d 733c
000000a0: 142d 0dbc a084 25bd e8e3 a93d 226a 0a3e
000000b0: f846 f73b 50b8 82bd 1d05 b4bc 74e6 6a3d
000000c0: 6494 41bd 7058 a23c 876b 553b 0263 613d
000000d0: fa2a 9d3d c304 7dbd 680c f2bd 089c 2abd
000000e0: fb16 edbd 302d a2bd 26fe 21bd 43a1 6fba
000000f0: 655a 473d a40f a83d ce46 763d 5674 c5bd
00000100: 23d3 8e3d 27b0 eb3c 32f0 b63d b9a1 553d
00000110: b558 3d39 f763 f73d f498 a73d 1218 d3bd
00000120: 76d8 623d d295 09bd a6b7 bbbd 3f81 803c
00000130: fcb3 e1bd 6c31 1f3d 982b 0e3c a4d1 b7bc
00000140: ee28 b6bb dc54 96bd 50c2 11be 2634 483d
00000150: 9260 303d bb3b f5bd 1e31 653d 929d c2bd
00000160: 17dc fcbc 2320 cb3d eb64 f93c bc2b 86bd
00000170: d9f1 c8bd cd8b 4f3d 15ea b9bd 0a7e 81bc
00000180: d80e afbd 2a81 833d 06f2 0abe 635d e9bc
00000190: bbbb a53c 4b86 44bd d927 b33d 64b7 0dbe
000001a0: 58c4 77bc c673 af3c e8f4 763c 7f6a f33c
000001b0: b6d7 d7bd 91b1 633d 9ae0 9bbd 98b4 f73d
000001c0: 2126 f1bd cf7b 6fbd f0f4 5ebd a618 9abd
000001d0: 10f4 9ebc 5a7b ccbd f8fe dcbd effa a9bd
000001e0: 92c1 88bd d5ab 86bb 684f c7bc 056a b53d
000001f0: b70b 413d 6979 b1bd 4c22 3dbd 4c39 4bbd
00000200: 60e1 79bd eb46 64bd fbe0 853b 0193 893d
00000210: 3c38 c03b c40c 55bd 93be cc3a 2905 9dbd
00000220: 654e 893c 8176 d73d fea1 e2bc 6264 b13d
00000230: cbf9 f0bb 99cf e3bc 0f86 ba3d 840b e5bc
00000240: ae30 ba3d 4373 2e3d b045 e2bd d834 4d3b
00000250: d8d3 563d 38f9 9fbd eccc 7abd c990 7e3d
00000260: 7318 713d ad13 8abd 6233 58bd d2a5 fdbc
00000270: db36 07be 6469 d1bd 0ce0 513d b713 0a3e
00000280: f430 8e3d 41e3 50bd 0862 0bbd 4d0b 863c
00000290: 3032 ebbb 6422 da3c b133 c63d d48c c13d
000002a0: c991 ae3d cb4e efbc 8451 d6bd 8791 37bd
000002b0: c8c5 abbd b0ed a73d c04c be3d 871c eebd
000002c0: 3bef 6fbd cd38 0abc fe19 0fbd c14c 2dbd
000002d0: 5029 edbd 0422 eb3c 8f74 64bb fcfb e4bd
000002e0: 4d9e ba3d 4b34 e83d 1857 a7bc 902e 603d
000002f0: a718 673d 3f57 fdbd 5ce0 6a3d 3147 f53c
00000300: 9b8d b7bc bfb8 bdbd 294d 303d 0000 71b9
00000310: 9305 373d 815c 9b3b 243d b7bc b530 e5bd
00000320: 4146 8d3f de09 6f3f e6f7 a23f 19b4 d5bf
00000330: 54a5 753f c39f 963f 5d7d 313f 32b8 9d3f
00000340: 6421 9d3f 673f 393f 4643 553f bd52 cf3f
00000350: eddf 8b3f e431 adbf 7818 bf3f fe4a 7f3f
00000360: 412b 193f 0a2c 033f bec1 c83e 7e7e cc3f
00000370: f968 973f e4ed 723f ba69 4a3f 57cd 7e3f
00000380: da02 1d3f 1f08 c3bf dad4 623f a3aa 543f
00000390: aad5 6f3f 3685 2ebf f245 8c3f 0b9e 843f
000003a0: a78e a33f 2198 153f fc0e 3c3f d4ca 4c3f
000003b0: 909a a43f 531a 603f bb3e 473f f884 c53f
000003c0: eb40 4a3f d995 983f 17f6 6d3f 27e2 463f
000003d0: b3e1 293f 277a 743f 263b 52bf a12d 3b3f
000003e0: 1c43 14c0 7c28 7b3f 46b7 9a3f 3e98 c63e
000003f0: a765 4e3f 5ae4 a63f 3fc7 473f dc1d d33f
0.0052164476 0.0905174 -0.074739754 -0.110649034 0.0006587417 -0.037825365 0.059905272 -0.0014906599
-0.08084575 -0.08189807 0.031078016 0.012301331 -0.13307106 0.081589095 0.09356197 0.1028088
0.014123374 -0.1406144 -0.054600354 0.0773069 -0.06791792 -0.07710473 -0.06261765 0.034741808
-0.022905368 -0.11961529 0.022769347 -0.025329115 0.02021799 0.020781865 -0.056322493 -0.08249578
0.03498095 -0.106024355 0.0024236834 0.011885219 0.088364445 0.0718156 -0.061168198 0.014838485
-0.0086167045 -0.040409684 0.08295423 0.13517049 0.007546302 -0.06382811 -0.021975094 0.057348683
-0.047260657 0.01981756 0.0032565312 0.05502606 0.07674213 -0.06177212 -0.118187726 -0.04165271
-0.11576649 -0.07918775 -0.039549015 -0.00091411563 0.04867019 0.08206108 0.06012612 -0.0964133
0.06973865 0.02877052 0.08932532 0.052156184 0.0001805749 0.12079614 0.0818347 -0.103073254
0.055382214 -0.033590145 -0.091658875 0.01568663 -0.110206574 0.03886549 0.008677386 -0.022438832
-0.0055590784 -0.073404044 -0.1423428 0.048877858 0.043060847 -0.11974283 0.055955045 -0.095027104
-0.030866666 0.09918239 0.03044363 -0.065513104 -0.09811754 0.050670434 -0.09077851 -0.01580717
-0.08547753 0.064211205 -0.13568887 -0.028486913 0.020231118 -0.047979634 0.08747835 -0.13839489
-0.015122496 0.02141751 0.015073039 0.029713867 -0.105391905 0.055589262 -0.07611199 0.120949924
-0.11774851 -0.058467682 -0.05443281 -0.075242326 -0.019403487 -0.09984465 -0.10790819 -0.08299815
-0.066775456 -0.0041098394 -0.024329856 0.08858112 0.047130313 -0.08665735 -0.046175286 -0.04961519
-0.06100595 -0.055731695 0.0040856577 0.06717492 0.0058660787 -0.052014127 0.001562076 -0.07667
0.016761014 0.1052065 -0.027665135 0.086617246 -0.0073539964 -0.027808951 0.09107601 -0.027959593
0.09091316 0.04259039 -0.11048448 0.0031312015 0.052448124 -0.078112066 -0.061230585 0.062149797
0.058861207 -0.06742034 -0.052783377 -0.030962858 -0.1320452 -0.1022518 0.05123906 0.13484083
0.06942931 -0.050997976 -0.034029037 0.01636281 -0.0071776137 0.026627727 0.09677828 0.09450689
0.085239 -0.029212376 -0.104647666 -0.04481652 -0.08387333 0.08199632 0.09291983 -0.11626535
-0.058577757 -0.008436394 -0.034936897 -0.042309526 -0.11580145 0.028702743 -0.0034859513 -0.11180875
0.09112225 0.11338099 -0.020427272 0.054731905 0.056419995 -0.123701565 0.057342872 0.029941173
-0.02240639 -0.09263753 0.043042336 -0.00022983551 0.04468305 0.004741252 -0.022368021 -0.11190931
1.1037065 0.9337443 1.2731903 -1.6695586 0.95955396 1.1767505 0.69331914 1.2321837
1.2275815 0.7236237 0.83305776 1.6197125 1.0927712 -1.353085 1.4929342 0.99723804
0.59831625 0.51239073 0.39210314 1.5976102 1.182891 0.9489424 0.79067576 0.99532074
0.61332476 -1.5236853 0.88606036 0.8307287 0.936854 -0.68172014 1.0958846 1.0360731
1.2777909 0.58435255 0.73460364 0.7999699 1.2859669 0.8754017 0.77830094 1.5431204
0.79005307 1.192073 0.9295363 0.7768883 0.66360015 0.9549889 -0.82121503 0.731165
-2.316596 0.9810865 1.2087181 0.38788027 0.8062386 1.3038437 0.780384 1.6493487

network.2.bias f4 [200]
00000000: 80dc a0bc 94a6 64bc 9932 25bc 8f68 0a3f
00000010: 4e21 f03e 20d2 233f 6a3b 3e3e b6af 043e
00000020: 1ba5 34be 9011 40bc 6cba 063e 88bb f43e
00000030: f4d3 8a3f 4ba2 78bc 9092 02bf 1754 173f
00000040: 3c18 f1bc da48 cfbc 22fd 1c3f 26eb 0fbc
00000050: 23a7 89bc 564a b4bc 19d0 a83e 30e6 0f3f
00000060: 603e 0d3f 73d8 a0bc 6eb7 01be 457b f5be
00000070: b15a 91be b383 133f 4b11 87be 8231 0c3f
00000080: e6d9 0f3f b0ca f43e f31a 753e 247a 033f
00000090: 2ba0 d63d d577 063d 7931 783f 78c1 8ebc
000000a0: 7613 69be 4950 96bc 7fa6 9abc 32d1 febd
000000b0: 18b6 fe3e 5c2a 0bbc b5a0 073f b9fd bebe
000000c0: 3dad 0abe 2c77 0d3f e783 23bd 3ddd 9bbe
000000d0: f815 3d3e c442 973d 3474 7abc 322f fa3e
000000e0: 35a5 503e 0000 0000 ceba 013f a20c ecbc
000000f0: d616 cb3e f137 bbbc 2edc 003f 48ea 193f
00000100: 6db4 92bc ec36 143f 81dd 523d 7bd4 ef3e
00000110: 1354 343d cf11 ca3f 9ffe 033f 45c3 54be
00000120: 5fa8 103f 2cb1 213f cb13 4b3d 84f4 ce3d
00000130: e25c 1f3f dbd9 4e3d a015 113f 9671 af3f
00000140: 1ab6 25bc 2e0f 363f 025a 263f 7a9e 043f
00000150: f9b4 85bc 7fa5 173f 66b4 d0bc d890 ef3d
00000160: 88d1 64bc 5dfa e93e 86f2 40bc b468 fc3e
00000170: c7ac 403e 928e 193e 77cb f33e c149 dabc
00000180: 8a67 71bd 8530 103f 760b 0f3f c947 f4b9
00000190: fca1 9e3e ec47 30bd 1cb5 163f 0c0b 423e
000001a0: a7bd 513e e53e 023f dbec e43c 4aea 8dbc
000001b0: 0061 b4be f989 1d3f 2cd6 82be 6089 b8bd
000001c0: cde2 eb3e b005 363e a8f5 77bb a3cf 8bbc
000001d0: f119 2fbe ccbc 04bf bc74 583e 953b f43e
000001e0: 4f7d f93e 800d 7c3f ec37 1b3f 3e90 f23d
000001f0: e31d 133e 16b8 1e3f 2a67 113e 20c3 023e
00000200: 935f a33e 39c7 f13e 30e5 113f 8f6d 253f
00000210: e3ab 5b3e c98b 953e dcfa a33e 79c5 66be
00000220: 7e16 033f 2adb 3e3e a340 93be 7b90 cf3e
00000230: 2502 69bc 6598 aa3e 8508 393e eafd 0e3f
00000240: 6ddf a23e 26f5 45bd edab 32bd 3053 da3d
00000250: a528 83bc 5183 cb3e 052f 133e 5a9f 413e
00000260: 1e5d 0b3e 7ace 893f 4338 6ebc af1f b73f
00000270: 3abf a33d 6ba1 a03d fb25 53bc b2fe e03e
00000280: 441a 83be ebf8 343e e7ef 6bbe e08f 113f
00000290: ccf2 78bd 90ac 91bc 664f 5fbe 90e5 b0be
000002a0: 8289 10be c025 833e b6ea 6f3e 807e b4bc
000002b0: 72ed 97bc 5fa6 f73e d979 133f 059b 2e3d
000002c0: d5c3 153f 0407 61be 07fc d83d 2cbe a63d
000002d0: 8346 9d3f 319a ca3b b160 873e 403f c13d
000002e0: ea96 69be 0516 82bc ccc2 e13d 80e9 eabc
000002f0: ce3a ef3d ca5d 29bc 5ddc 343e 8891 223f
00000300: 35a4 2a3e 9dab c83e f8cb 0abe 77de 1abe
00000310: 7687 f43e 5851 ce3d 8fd6 8abc 58a2 3ebe
-0.019636393 -0.013955731 -0.010082864 0.54065794 0.4690041 0.639925 0.18577352 0.12957653
-0.17641108 -0.011722937 0.13157052 0.47799325 1.0845933 -0.015175412 -0.51004887 0.59112686
-0.029430501 -0.025303293 0.6132375 -0.008784091 -0.01680333 -0.022008102 0.32971266 0.56210613
0.551733 -0.019634461 -0.12667629 -0.4794561 -0.28389505 0.5762283 -0.2638038 0.5476304
0.5619186 0.47810888 0.23936062 0.51358247 0.10479768 0.032829124 0.9695049 -0.017426237
-0.2276133 -0.01834883 -0.01887822 -0.124422446 0.49748302 -0.008493986 0.52979594 -0.3730295
-0.13542648 0.55259967 -0.039920714 -0.3044223 0.18465412 0.073857814 -0.015286494 0.48864132
0.20375521 0.0 0.50675666 -0.028814618 0.3966586 -0.022853823 0.5033597 0.6012311
-0.0179083 0.57896304 0.051480774 0.46841797 0.044025492 1.5786685 0.51560396 -0.20777614
0.56506914 0.6316097 0.049579423 0.101052314 0.622511 0.050500732 0.5667362 1.3706539
-0.010114217 0.7111691 0.6498109 0.51804316 -0.016321646 0.592369 -0.025476646 0.11697549
-0.013965972 0.45698825 -0.011776572 0.49298632 0.1881591 0.14995793 0.4761617 -0.026646497
-0.058936633 0.56324035 0.55876863 -0.0004659279 0.3098296 -0.04303734 0.588701 0.18949527
0.20482503 0.5087722 0.027944973 -0.017323632 -0.35230255 0.61538655 -0.25554025 -0.09010577
0.46071473 0.17775607 -0.0037835632 -0.017066782 -0.1709974 -0.5185058 0.2113828 0.47701707
0.48728415 0.984581 0.60632205 0.11843918 0.1436687 0.6199964 0.1419951 0.12769747
0.31908855 0.47222307 0.5699034 0.646203 0.21452288 0.2920821 0.32027328 -0.22536267
0.51206195 0.18638292 -0.2876025 0.40539917 -0.014221703 0.33319393 0.18069656 0.5585619
0.31811085 -0.048329495 -0.043620992 0.10660398 -0.016010592 0.39748624 0.14373405 0.18908444
0.1360974 1.0766137 -0.014539781 1.4306544 0.07995458 0.07843288 -0.012887473 0.43944317
-0.25605977 0.1767308 -0.23040734 0.5686016 -0.060778424 -0.01778248 -0.21807632 -0.34550142
-0.14114955 0.25614738 0.23429379 -0.022032976 -0.01854584 0.4836912 0.576078 0.042628307
0.5850194 -0.21975332 0.105949454 0.08141741 1.2287143 0.006182932 0.26440957 0.09435892
-0.22811475 -0.01587964 0.11023483 -0.028675795 0.11681138 -0.010337302 0.17662187 0.63503313
0.16664203 0.3919343 -0.1355437 -0.15123926 0.47759598 0.10074109 -0.016948013 -0.18616617

network.4.weight f4 [4, 200]
00000000: e223 b13d 4ae5 703f 0812 dbbd 49b0 04bf
00000010: daa9 29bf 6a2b 253f 5e6a d2be 5c42 913f
00000020: a5e8 2dbf 0d68 21be ebf5 3bbf 0e56 17bf
00000030: 035d bf3f 1c68 34bb 8720 5f3f e109 0fbf
00000040: 819d 283e 7f2b 5b3f fe5d febe 46e1 c33d
00000050: 537e 483d a250 5a3d dc20 9bbf 34ef 15bf
00000060: b94e 02bf d6cc 7f3d e4d6 7cbf 42f0 703f
00000070: b43d 5dbf f40c 1abf bd82 0dbf 2686 12bf
00000080: 9d86 20bf 6a87 ffbe 2fc7 e3be 8303 1dbf
00000090: b3b2 4bbf 9dcf 00bf 29c7 ad3f c76b 58bd
000000a0: 52fa 3fbf d0bf 14be 10c2 e5bd b26e cd3e
000000b0: 5456 18bf 6591 14be f396 02bf 06fc 4cbf
000000c0: 862a 17bf ec9f 04bf 3723 1c3e e220 6cbf
000000d0: 5257 2dbf 9c51 7b3f 3bf1 a63c bc9d 25bf
000000e0: ffa1 44be 72d9 9cbd ef20 07bf 34d6 b23d
000000f0: 73b7 2bbf 8c7c 783d 60c6 1fbf e971 04bf
00000100: 678a 3abd 0e5f 01bf b569 4d3f d96d 12bf
00000110: 167b 25bf 818e 97bf 64ae 19bf ec96 fe3e
00000120: 147d 03bf 1da8 07bf 4442 c3be 158f 26bf
00000130: 7345 0cbf 9ae8 0abf d1bd 18bf 64e6 81bf
00000140: a2c0 04be 4a18 09bf 1150 c73f 5e8b 0bbf
00000150: 5a72 ea3d c1bc 03bf 46b3 1bbe b635 3bbf
00000160: df1a 7b3d 98fe 29bf d0ed 733c 133d 08bf
00000170: 33e7 ecbe 0b58 2cbf abbd 02bf 76aa a43d
00000180: 8136 1b3f e6c5 12bf 7808 26bf b380 783f
00000190: 17b3 dabe 2b23 1a3e 5c23 f4be 63ba 3dbf
000001a0: f105 f9be 8f1d 1fbf a271 5c3f f92f 6e3f
000001b0: 9069 22bf 2f53 f5be 701e 45bf b957 db3e
000001c0: 579c cbbe ba06 94be 0821 58bd 9c21 91bd
000001d0: 1765 4fbf 7add b7bf 50b3 0abf cf4f 23bf
000001e0: bafc 0fbf 943c ce3f e68f f5be 94bc 36bf
000001f0: b31b 33bf adc1 0dbf 6a4b 8ebe 1e15 7c3f
00000200: 76d7 d2be 3720 1fbf b5b0 10bf 5da6 15bf
00000210: 7562 bbbe 0726 b73f cd5d b0bf acce 20bf
00000220: e8c9 1bbf e343 4cbf c526 223f 35ca f8be
00000230: 45f3 a63d f255 c4be 59eb 44bf 1888 17bf
00000240: b9b0 c2bf 9c4e 0abd 5319 da3d 1f5d 82bf
00000250: bab9 82bd a4a4 1ebf c89d 39bf 150d 2fbf
00000260: afca 79be 123c ae3f 33d9 c03d add8 b23d
00000270: 7e91 c93e ea49 793f 2066 543d ae69 00bf
00000280: f677 67bf 10e0 3fbf 79b9 6bbf 0966 e6be
00000290: e2f4 6dbf a585 b2bd 8604 1c3f 1485 5ebf
000002a0: d04b 5ebf 4ed4 4ebf cf80 a2be 9c46 01be
000002b0: 9a83 073e e983 28bf eefa 24bf dd11 303f
000002c0: 27b0 0bbf 6036 31bf 2a48 44bf 6ad3 7e3f
000002d0: e6ac fcbf ef44 1fbf 3658 04bf a45f a03f
000002e0: 57ba 653f 38d8 043e 6f0d 57bf a41d e03c
000002f0: 7848 abbe cbf8 163e 46fb 7ebe 72df fcbe
00000300: e0a2 36bf 273f e5be e950 65bf 2a6d babe
00000310: 7fa6 dfbe ad3b f4be 3562 c5bc 0237 103f
00000320: 616d 4c3d 6c75 30bf ab9d ac3d 41e1 ebbe
00000330: 8d61 0dbf 3a67 68bf 4f54 42bf 6b23 4dbf
00000340: 0b05 983f 92f3 e83d 89e2 49be 48f6 1abf
00000350: 6d19 e8bf 7a01 893d 8c5a 93bf 1f71 11bf
00000360: d10a a73d e04b 40bf 8931 10bf d48f e03d
00000370: 1b45 923d 6511 393d 385f bd3f 11df f3be
00000380: 2924 18bf bdf6 9c3d 71a6 bd3f 8b5a 96bf
00000390: 9022 4fbf ffea 1dbf f751 76bf 496b ffbe
000003a0: c909 08bf 4a8d 2abf 857e 30bf 2ac3 03bf
000003b0: 5a48 fcbd 6c78 30bf 873c aebf f254 333d
000003c0: 0fc3 6fbf 2e29 48bd b62d 583d d698 84bf
000003d0: 7322 fabe 97dc bc3d 6c65 2dbf d2c7 33bf
000003e0: fc23 70bf aac8 1fbf 2020 333c d141 45bf
000003f0: 46bd 75be 8d7a 42bf ec26 1c3c 4245 05bf
0.08649422 0.9409987 -0.106967986 -0.5183149 -0.662748 0.6451937 -0.41096777 1.1348376
-0.6793311 -0.15762348 -0.73422116 -0.59115684 1.495026 -0.0027527874 0.8715901 -0.5587445
0.16466333 0.85613245 -0.49681085 0.09564452 0.048948597 0.053299554 -1.2119403 -0.5856812
-0.5090137 0.062451206 -0.987654 0.94116604 -0.86422276 -0.60176015 -0.55277616 -0.57235944
-0.62705404 -0.49908 -0.44487903 -0.61333483 -0.7956955 -0.5031679 1.3576404 -0.05283716
-0.74991333 -0.14526296 -0.11218655 0.40123516 -0.59506726 -0.14508589 -0.5101158 -0.8007206
-0.5904926 -0.5180652 0.15247808 -0.92237675 -0.67711365 0.981714 0.0203787 -0.6469381
-0.19202422 -0.07658662 -0.5278463 0.08732262 -0.67076796 0.060665652 -0.6241207 -0.51736313
-0.045542147 -0.50535667 0.8023942 -0.57198864 -0.6464094 -1.1840364 -0.60031724 0.4972452
-0.5136273 -0.52990896 -0.38136494 -0.65062076 -0.5479347 -0.5426117 -0.59664637 -1.0148435
-0.12964109 -0.5355269 1.5571309 -0.5450953 0.11447592 -0.5145989 -0.15205106 -0.7312883
0.061304923 -0.66404104 0.014888242 -0.5321819 -0.4627014 -0.6732184 -0.5107066 0.08040325
0.6063004 -0.5733322 -0.6485667 0.9707138 -0.4271476 0.15052478 -0.47683227 -0.7411253
-0.48637345 -0.6215448 0.8611089 0.9304195 -0.63442326 -0.47915027 -0.7699957 0.42840365
-0.39767715 -0.28911382 -0.052765876 -0.070864886 -0.81013626 -1.4364464 -0.5417986 -0.63793653
-0.56245005 1.6112237 -0.47961348 -0.713815 -0.6996414 -0.5537365 -0.2779191 0.9846972
-0.4118001 -0.6215853 -0.56519634 -0.58456975 -0.36598554 1.430848 -1.3778626 -0.62815356
-0.6085496 -0.79791087 0.6334041 -0.48591772 0.08151869 -0.3834682 -0.7692161 -0.5919204
-1.5210181 -0.033766374 0.106493615 -1.0184668 -0.06383081 -0.6196997 -0.7250638 -0.68379337
-0.24393724 1.3612082 0.094164275 0.08732734 0.39368814 0.9737841 0.051855206 -0.50161254
-0.9041742 -0.7495127 -0.92079884 -0.44999722 -0.92951787 -0.08716897 0.609444 -0.8692181
-0.8683443 -0.807927 -0.31738898 -0.12624592 0.13233796 -0.6582628 -0.6444539 0.6877726
-0.5456566 -0.69223595 -0.76672614 0.9954134 -1.9740264 -0.6221456 -0.516971 1.2529187
0.8973746 0.12973106 -0.84004873 0.027357884 -0.33453727 0.14743344 -0.2490054 -0.49389225
-0.7134228 -0.44774744 -0.89576584 -0.3641141 -0.43681714 -0.4770178 -0.02409468 0.56333935
0.049909 -0.6892917 0.0842851 -0.46070293 -0.55226976 -0.9078251 -0.75909895 -0.8013217
1.1876539 0.11374582 -0.19715323 -0.60532045 -1.8132759 0.06689735 -1.1512008 -0.56813234
0.0815636 -0.75115776 -0.56325585 0.10964933 0.07142087 0.045182604 1.4794683 -0.47631124
-0.59430176 0.07664249 1.4816419 -1.1746382 -0.80912113 -0.616867 -0.9621882 -0.4988654
-0.5313993 -0.6662184 -0.68943053 -0.5146967 -0.123184875 -0.6893375 -1.3612221 0.043782182
-0.9365701 -0.048867397 0.05277797 -1.0359142 -0.48854408 0.09221762 -0.6773288 -0.70226777
-0.9380491 -0.62415564 0.010932952 -0.7705355 -0.23997983 -0.7596825 0.009530764 -0.52058804

network.4.bias f4 [4]
00000000: e304 62be 7bd5 f7bd 3177 5cbe c56f c2be
-0.22072177 -0.12101265 -0.21529843 -0.37975898

network.0.weight f4 [200, 36]
00000000: d714 15c0 3819 6e3e bf92 b0bf 8fcc 16c0
00000010: 0e9a f83d f39e a8bf f44f 0dc0 e092 103e
00000020: f8b2 88bf 40b9 03c0 0272 183d baae 78bf
00000030: 1003 03c0 46d1 38bd 6a21 7bbf 6f7a 25c0
00000040: e3fb 713d 6bab d6bf c1fa 26c0 761e 9e3e
00000050: 694a ddbf 139b 16c0 5ebb 583d b152 15c0
00000060: afcd 1bc0 2c61 663e 8a4e 13c0 291e 27c0
00000070: 95a6 e43d e73e 23c0 563c 16c0 81a4 a83d
00000080: 84a2 d6bf 612e 11c0 2a50 cf3d a676 e5bf
00000090: c953 0bc0 cdab b23d 136d adbf f703 07c0
000000a0: 514a 6f3e 7f17 b8bf 6db3 e5bf 9078 de3d
000000b0: d5da 57bf 17a8 edbf 8dc9 54bd f9c5 5cbf
000000c0: f588 f2bf a0af 603d 7b5c 67bf 1847 3cc0
000000d0: 31d7 9d3e 9595 f3bf 6af5 3ac0 5f10 923e
000000e0: 818f dfbf cd06 14c0 ee46 183e c764 0fc0
000000f0: 35fd 1cc0 2b77 7c3e ccc0 11c0 c176 18c0
00000100: a7ab c33e d090 12c0 d699 f6bf bc45 4f3d
00000110: 13a7 29bf ee1b f6bf aa6e 693d f678 24bf
00000120: 4d1c 0ec0 a555 e03d 38cf f4bf 63b8 0dc0
00000130: e02e 4c3e 52e6 eabf 935a 07c0 e67a efbd
00000140: 2c16 e9bf d232 18c0 0b02 3a3e 8f15 ecbf
00000150: 1a31 1ac0 ccbc c93d a7d8 f0bf 2cd7 2cc0
00000160: ac88 9d3e 124a efbf 4a29 32c0 127f 473c
00000170: b0b0 edbf f39c 13c0 2bc6 4a3e 385f 1bc0
00000180: 8139 22c0 5b46 5c3e e860 1ac0 234a 1cc0
00000190: 2f1d 5cbd 280b 18c0 4f97 fbbf 8a33 d33d
000001a0: da6f f5bf b916 06c0 02ae 813d 4a64 f5bf
000001b0: a7be f03f d5dc 923b 1721 263f c712 db3f
000001c0: 31e8 d3bd 4f1d 143f bdca b03f 64c9 653c
000001d0: df24 293f 79e9 bb3f 2a52 97bd 7925 493f
000001e0: 0965 c83f d911 cbbc 99a0 533f 1211 6d3f
000001f0: 81c2 6b3f ff19 943f 55a5 413f ee51 823f
00000200: 16e7 a63f 6e2d 5b3d cc90 313f 8f75 ee3e
00000210: e16d 9f3c 84b6 183f 291b e93e 00bb 9dbd
00000220: e8a6 493f 1911 cd3e 633c d23f 7c57 a1bd
00000230: 577e 643f 77c0 d03f b441 46bd 497e 5b3f
00000240: 5620 dfbf b096 0c3d 8f78 b6bf fea9 d9bf
00000250: 1991 4f3e 6bd6 babf 7063 08c0 606a 993d
00000260: 2119 bebf 6f60 03c0 f2cb d13d 0395 bebf
00000270: a735 06c0 e3d4 6b3e bd6f aabf 4c68 19c0
00000280: 89b4 3d3e 9c81 c6bf bfdc 24c0 210d ed3d
00000290: b0da d3bf c503 0bc0 0215 173e c5dd 12c0
000002a0: c5d9 08c0 3173 67bd c7b8 20c0 60a4 01c0
000002b0: b1c9 713e 2f3b 19c0 b49a bbbf 9336 b13e
000002c0: 9ee9 c4bf 467d c6bf a0b3 123e 6498 cfbf
000002d0: b150 13c0 fc02 003e fbad edbf 4b66 0ac0
000002e0: 0a81 9e3e e53c edbf 7b92 0cc0 dd4d ee3d
000002f0: 6fbd d7bf 7561 0ac0 74d7 5b3d 57d6 d5bf
00000300: 334e 08c0 a60e 88bc cbf3 cebf 355d 17c0
00000310: 54af 1f3e 8a12 a5bf e2e5 1ec0 f030 373e
00000320: da50 a5bf ced0 0dc0 8f7e 3ebd 781f 12c0
00000330: ea1a 02c0 99ed 4a3e 5a40 0bc0 5428 10c0
00000340: 4381 313e b403 08c0 51d1 16c0 e0dd 57bc
00000350: 4052 1cc0 75c8 1ac0 0dca 353e 67c9 11c0
00000360: 04ef 07bf eb83 923e e58b 4ebe 4527 b8be
00000370: 44a2 253e f6da a9bd ca4d 49bf 02af ca3e
00000380: 50c9 4cbe e0e9 65bf c407 a93e a8ae 9bbd
00000390: e48b 3dbf 8958 023f 1235 80be 6720 86bf
000003a0: 5e7e b23e 2b41 bfbe ad4e a0bf 68b2 6b3e
000003b0: ad27 4fbe f980 3bbf f0e5 8dbe 99db c03e
000003c0: c8ce 55bf c80a 4ebe b9b3 e63e 969f 68bf
000003d0: 7582 92be f481 903e 76a3 56be 3c07 5e3e
000003e0: bbb7 ecbd 64a4 0f3d c07e 463e a72a 9bbe
000003f0: 9d03 11c0 23c7 073e 3363 ffbf 68cf 19c0
-2.329397 0.23251808 -1.3794783 -2.3562353 0.121387586 -1.3173507 -2.208005 0.14118528
-1.0679617 -2.0581818 0.0372181 -0.9714161 -2.047062 -0.045121454 -0.9809786 -2.5855978
0.05907811 -1.6771063 -2.6090548 0.30882615 -1.7288333 -2.353215 0.052913062 -2.333172
-2.434429 0.22498006 -2.3016686 -2.6112158 0.111645855 -2.5507143 -2.3474326 0.08234502
-1.6768346 -2.2684557 0.10122712 -1.7926834 -2.1769888 0.08724175 -1.3548912 -2.109617
0.23368193 -1.438217 -1.7945381 0.10862839 -0.84318286 -1.8566922 -0.051950026 -0.8623958
-1.8948046 0.05485499 -0.9037549 -2.9418392 0.3082824 -1.9030024 -2.921229 0.28528115
-1.7465669 -2.312915 0.14870808 -2.240526 -2.4529545 0.24654834 -2.2773924 -2.3822482
0.38216898 -2.2900887 -1.9265697 0.050603613 -0.6627056 -1.9227273 0.056990303 -0.6424707
-2.2204773 0.109538354 -1.9125738 -2.214379 0.19939756 -1.8351538 -2.1149032 -0.11693363
-1.8209891 -2.3781018 0.18164842 -1.8444079 -2.409247 0.09850463 -1.8816117 -2.700633
0.30768335 -1.869448 -2.78377 0.012176292 -1.8569546 -2.3064544 0.19802158 -2.4276867
-2.5347598 0.21511213 -2.4121647 -2.442025 -0.05373877 -2.375681 -1.9655551 0.10312565
-1.9174759 -2.095137 0.063320175 -1.9171231 1.8808182 0.0044818916 0.6489424 1.7115105
-0.10347021 0.5785722 1.3811871 0.014025066 0.66071886 1.4680625 -0.073887184 0.78572804
1.5655833 -0.024788784 0.8266693 0.9260417 0.92093664 1.1570433 0.756429 1.0181253
1.3039272 0.053510122 0.6936157 0.46574065 0.019461574 0.59653497 0.45528534 -0.07701683
0.78770304 0.40052107 1.6424679 -0.078780144 0.8925528 1.6308736 -0.048402503 0.8573957
-1.7431743 0.034323394 -1.4255542 -1.7005002 0.20270194 -1.4596685 -2.1310692 0.074909925
-1.4851419 -2.0527608 0.102439776 -1.4889225 -2.0970247 0.23030429 -1.331535 -2.3969908
0.185259 -1.5508304 -2.5759733 0.1157477 -1.6551113 -2.172105 0.14754108 -2.2947857
-2.1382916 -0.05650634 -2.511278 -2.0256577 0.23612095 -2.3942373 -1.4656587 0.3461195
-1.5383794 -1.550698 0.14326334 -1.6218381 -2.3018 0.12501138 -1.856872 -2.1624935
0.30957824 -1.8534209 -2.1964405 0.11635945 -1.6854686 -2.1621983 0.05367227 -1.6706036
-2.129773 -0.016608547 -1.616815 -2.365064 0.15594226 -1.2896283 -2.482781 0.17889762
-1.2915299 -2.2158694 -0.046507414 -2.2831707 -2.0328927 0.19817199 -2.1758027 -2.2524614
0.17334466 -2.125226 -2.3565257 -0.013175458 -2.4425201 -2.418485 0.17752858 -2.2779176
-0.53099084 0.2861627 -0.20170553 -0.3596746 0.1617518 -0.082937166 -0.7863432 0.39586645
-0.1999867 -0.8980999 0.33013737 -0.076016724 -0.7404158 0.50916344 -0.2504049 -1.0478638
0.34862036 -0.37354407 -1.252401 0.23017275 -0.20229979 -0.7324367 -0.2771449 0.3766754
-0.8351865 -0.201213 0.45058993 -0.9086851 -0.28615156 0.28224146 -0.20960793 0.21682447
-0.11558481 0.035068884 0.19384289 -0.3030598 -2.2658455 0.13259558 -1.9952148 -2.403284

network.0.bias f4 [200]
00000000: 74fc 6abe f0f1 3cbe d1df 1abe 0bcb 313f
00000010: 9cf6 12be 78ac 8ebe 206b 053f a2a0 1bbe
00000020: d187 56be 2fa1 093f 27e2 32be bb77 8bbe
00000030: 1955 34be 5fd5 9f3f 9a66 78be e744 5ebe
00000040: 2b1a 1abe f97b 083e f68c 793e 5ee1 5cbe
00000050: 4628 39be 3e1b 63be e8ae 98be 8b47 12be
00000060: a9ed 69be d123 213f 4463 5dbe 76a8 71be
00000070: 2799 58be 92ca 4b3f f3ea 23be f5c0 b0bd
00000080: 7dad 64be adbc f23e 48d6 1fbe be38 ce3e
00000090: 1fe2 19be 07cf c7bd 3f65 42be 4534 96be
000000a0: d1ca 68be b2d6 5dbe 8fa2 99bd 5edb 0cbe
000000b0: b289 8a3e b93c 343f d9e7 6a3f cbe0 d63e
000000c0: 845f 373b 48ee 5fbe e34f 40be 7545 863e
000000d0: 3c6e 0f3f 0d6b 85be 9e73 6d3e c8ab 05be
000000e0: 5af5 0fbe e9fb 36be e858 0c3f 87a7 febd
000000f0: c3c3 2fbe a564 19be 56db 4dbe e79e 65bd
00000100: 9957 503f 9741 873e 9d18 3bbe 81cd 9cbc
00000110: 92dc 873d 54be 8b3f cd26 093e f482 44be
00000120: 9fb1 88be 3e86 95be 5232 69be b6cd bd3b
00000130: e3d8 0b3f 8dc3 21be 1116 793f 569f 8d3f
00000140: 7d2d 91be d5c0 25be 7895 84be 782b 3ebe
00000150: d66a 7abe c397 25be 5f32 0fbb f15f 4cbe
00000160: 9a2d 213f bbbc 86be ad04 703d 0b42 d8bc
00000170: b000 473e a6bd 89be a48b 7cbe b48e 6bbe
00000180: 2829 a03e d466 98be 1b1f 79be 92a4 85be
00000190: 2018 6abe c505 6fbe fd11 a6be 949c 243e
000001a0: 5b25 8fbe 13e3 a93d 1c77 4fbe 6e91 8bbe
000001b0: 4f3b 55be 31f2 72be 3bfe 8cbe 065d 54bd
000001c0: 2481 17be 73bc 27be 305d b8bd 3455 dd3e
000001d0: 1580 d93e d821 2a3c ebd4 8bbe 8b63 0d3e
000001e0: b9df 643e e54b 83be e4ff 04be 4047 9abd
000001f0: c2c5 1f3f 6855 8cbe 73a7 423f 53c5 0cbe
00000200: d820 123e ef11 853e 0d76 243f 14b5 3cbe
00000210: 1133 6fbe 8f38 0a3f 9e3e 6ebe 31af c23b
00000220: 52d6 69bb ad3f 1d3f d3a5 3fbe d4eb 203f
00000230: ad0a 8dbe d4fe 5abe a9f2 58be 0fee 853f
00000240: a06d efbc a38a 983f 9a23 1d3f 9d26 5a3f
00000250: e83b ef3e e5a0 59be 528a a23d 9d62 28be
00000260: 909a adbe 50f9 8eb7 f24c c03e 88db 89be
00000270: 53a7 4fbe f5f7 7ebe bf5a 9abd 1842 5abe
00000280: 6774 a03e 0e77 7ebe 45bb 5e3e 5189 14be
00000290: e6f8 a43d a3e9 93be 5c55 033e d32a 18be
000002a0: 0cee fb3e bc61 ce3e 43b9 40be 50db 57be
000002b0: d6b2 7fbe 1ef1 353f a4f5 47be 0377 84be
000002c0: 2225 9bbe a981 5abe e911 093f 0bcd 163f
000002d0: 37b2 73be 530f 86be f78e ca3e 59e1 31be
000002e0: 6322 41be 8ba1 5bbe 9d29 9bbe 8138 67be
000002f0: bb87 4ebe 021a 593e 19d5 163f 5137 a1be
00000300: 443b e63e 2917 a43f 4f14 26be 0000 0000
00000310: cec0 7fbe 33a7 80be 1f48 13be e77f 2b3f
-0.22947866 -0.18451667 -0.15124442 0.69450444 -0.14351887 -0.27865958 0.52116585 -0.15197995
-0.20950247 0.5376157 -0.17469083 -0.27239785 -0.17610587 1.2486991 -0.2425789 -0.21705972
-0.15049045 0.13328542 0.24370179 -0.21570346 -0.1808177 -0.22178361 -0.29820943 -0.14285104
-0.22844566 0.62945276 -0.21619898 -0.23599419 -0.21152173 0.7960597 -0.16007595 -0.08630554
-0.22331806 0.47409573 -0.15609086 0.40277666 -0.15027665 -0.09756284 -0.18983935 -0.29336753
-0.22733618 -0.21663931 -0.07501709 -0.13755557 0.27058178 0.70405155 0.9176002 0.41968378
0.0027980516 -0.21868241 -0.18780474 0.26224867 0.5602758 -0.26058236 0.23188636 -0.1305381
-0.14058438 -0.17869534 0.5482316 -0.12434297 -0.17164521 -0.14979799 -0.20103201 -0.056059744
0.81383663 0.2641723 -0.18271108 -0.01914096 0.06633867 1.0917459 0.13393708 -0.1919058
-0.26698014 -0.2920398 -0.22773102 0.005792345 0.5462782 -0.15797253 0.97299296 1.106425
-0.28355017 -0.16186841 -0.25895286 -0.1857127 -0.24454817 -0.16171174 -0.0021850092 -0.19958474
0.6296021 -0.26315865 0.05859821 -0.02639868 0.19433856 -0.26902503 -0.24662644 -0.23003656
0.312814 -0.29765952 -0.24328272 -0.2610212 -0.22860765 -0.23342045 -0.324356 0.16075355
-0.27958187 0.08295264 -0.2026028 -0.27259392 -0.20823406 -0.23725201 -0.27537712 -0.051846527
-0.14795357 -0.16380481 -0.09002149 0.43229067 0.4248053 0.010384046 -0.2731088 0.13807504
0.22350968 -0.2564384 -0.1298824 -0.07533121 0.6241113 -0.2740891 0.7603676 -0.13747148
0.14270341 0.25990245 0.6424263 -0.18428451 -0.23359324 0.5399255 -0.23266074 0.0059412946
-0.0035680723 0.61425287 -0.187156 0.62859845 -0.27547207 -0.21386272 -0.21186318 1.0463275
-0.029227078 1.1917309 0.6138245 0.8521517 0.46725392 -0.21252783 0.07936539 -0.16443868
-0.33906984 -1.7043814e-05 0.37558705 -0.26925302 -0.20278673 -0.24899276 -0.0753684 -0.21314275
0.31338808 -0.24850103 0.21751125 -0.14505507 0.08055286 -0.28889188 0.12825531 -0.14860086
0.49205053 0.4030894 -0.18820672 -0.21079755 -0.24970564 0.7107104 -0.19527298 -0.2587205
-0.30301768 -0.21338524 0.53542954 0.5890662 -0.23798452 -0.26183566 0.395622 -0.1737112
-0.18860774 -0.21448343 -0.30305186 -0.22580148 -0.20168965 0.21201327 0.5891891 -0.31487516
0.4496709 1.2819568 -0.16218685 0.0 -0.24975893 -0.25127563 -0.14382981 0.6699204

network.2.weight f4 [200, 200]
00000000: bcee aa3b 3061 b93d 2811 99bd f69b e2bd
00000010: 68af 2c3a c5ee 1abd 3b5f 753d 3f62 c3ba
00000020: 7592 a5bd 2dba a7bd 5397 fe3c 868b 493c
00000030: c843 08be 2f18 a73d 6b9d bf3d 6c8d d23d
00000040: b965 673c 39fd 0fbe 9fa4 5fbd 1453 9e3d
00000050: 8d18 8bbd 16e9 9dbd af3d 80bd 6d4d 0e3d
00000060: 0aa4 bbbc dcf8 f4bd c886 ba3c 017f cfbc
00000070: 33a0 a53c bb3e aa3c 6ab2 66bd 8cf3 a8bd
00000080: 2f48 0f3d 4c23 d9bd a9d6 1e3b 39ba 423c
00000090: 6bf8 b43d 0f14 933d 818b 7abd 1e1d 733c
000000a0: 142d 0dbc a084 25bd e8e3 a93d 226a 0a3e
000000b0: f846 f73b 50b8 82bd 1d05 b4bc 74e6 6a3d
000000c0: 6494 41bd 7058 a23c 876b 553b 0263 613d
000000d0: fa2a 9d3d c304 7dbd 680c f2bd 089c 2abd
000000e0: fb16 edbd 302d a2bd 26fe 21bd 43a1 6fba
000000f0: 655a 473d a40f a83d ce46 763d 5674 c5bd
00000100: 23d3 8e3d 27b0 eb3c 32f0 b63d b9a1 553d
00000110: b558 3d39 f763 f73d f498 a73d 1218 d3bd
00000120: 76d8 623d d295 09bd a6b7 bbbd 3f81 803c
00000130: fcb3 e1bd 6c31 1f3d 982b 0e3c a4d1 b7bc
00000140: ee28 b6bb dc54 96bd 50c2 11be 2634 483d
00000150: 9260 303d bb3b f5bd 1e31 653d 929d c2bd
00000160: 17dc fcbc 2320 cb3d eb64 f93c bc2b 86bd
00000170: d9f1 c8bd cd8b 4f3d 15ea b9bd 0a7e 81bc
00000180: d80e afbd 2a81 833d 06f2 0abe 635d e9bc
00000190: bbbb a53c 4b86 44bd d927 b33d 64b7 0dbe
000001a0: 58c4 77bc c673 af3c e8f4 763c 7f6a f33c
000001b0: b6d7 d7bd 91b1 633d 9ae0 9bbd 98b4 f73d
000001c0: 2126 f1bd cf7b 6fbd f0f4 5ebd a618 9abd
000001d0: 10f4 9ebc 5a7b ccbd f8fe dcbd effa a9bd
000001e0: 92c1 88bd d5ab 86bb 684f c7bc 056a b53d
000001f0: b70b 413d 6979 b1bd 4c22 3dbd 4c39 4bbd
00000200: 60e1 79bd eb46 64bd fbe0 853b 0193 893d
00000210: 3c38 c03b c40c 55bd 93be cc3a 2905 9dbd
00000220: 654e 893c 8176 d73d fea1 e2bc 6264 b13d
00000230: cbf9 f0bb 99cf e3bc 0f86 ba3d 840b e5bc
00000240: ae30 ba3d 4373 2e3d b045 e2bd d834 4d3b
00000250: d8d3 563d 38f9 9fbd eccc 7abd c990 7e3d
00000260: 7318 713d ad13 8abd 6233 58bd d2a5 fdbc
00000270: db36 07be 6469 d1bd 0ce0 513d b713 0a3e
00000280: f430 8e3d 41e3 50bd 0862 0bbd 4d0b 863c
00000290: 3032 ebbb 6422 da3c b133 c63d d48c c13d
000002a0: c991 ae3d cb4e efbc 8451 d6bd 8791 37bd
000002b0: c8c5 abbd b0ed a73d c04c be3d 871c eebd
000002c0: 3bef 6fbd cd38 0abc fe19 0fbd c14c 2dbd
000002d0: 5029 edbd 0422 eb3c 8f74 64bb fcfb e4bd
000002e0: 4d9e ba3d 4b34 e83d 1857 a7bc 902e 603d
000002f0: a718 673d 3f57 fdbd 5ce0 6a3d 3147 f53c
00000300: 9b8d b7bc bfb8 bdbd 294d 303d 0000 71b9
00000310: 9305 373d 815c 9b3b 243d b7bc b530 e5bd
00000320: c832 8d3f d7fd 6e3f bee1 a23f 7f2f d6bf
00000330: 1fdf 753f ad92 963f 75ae 303f 9fae 9d3f
00000340: 6421 9d3f 3f67 383f 8980 553f 7f3d cf3f
00000350: c6f3 8b3f b3b5 adbf 4a05 bf3f 8e33 7f3f
00000360: a424 193f acbb 023f 6f24 c83e 3e6c cc3f
00000370: d51e 973f d1e2 723f 9268 4a3f 1510 7f3f
00000380: 6f6a 1c3f bf8a c3bf 24ef 623f 2b85 543f
00000390: d3c6 6f3f dc4c 2fbf 1317 8c3f ea5e 843f
000003a0: 5d6e a33f 5fcf 143f 8757 3c3f ab04 4c3f
000003b0: c07f a43f a6e3 5f3f bf70 473f bf64 c53f
000003c0: 282e 4a3f f181 983f 3b0c 6e3f 84d0 463f
000003d0: f842 293f 7fc7 733f 0302 53bf bb48 3a3f
000003e0: de93 14c0 ff20 7b3f 68da 9a3f 4ba3 c43e
000003f0: aba7 4d3f e1b7 a63f 4364 473f dc1d d33f
0.0052164476 0.0905174 -0.074739754 -0.110649034 0.0006587417 -0.037825365 0.059905272 -0.0014906599
-0.08084575 -0.08189807 0.031078016 0.012301331 -0.13307106 0.081589095 0.09356197 0.1028088
0.014123374 -0.1406144 -0.054600354 0.0773069 -0.06791792 -0.07710473 -0.06261765 0.034741808
-0.022905368 -0.11961529 0.022769347 -0.025329115 0.02021799 0.020781865 -0.056322493 -0.08249578
0.03498095 -0.106024355 0.0024236834 0.011885219 0.088364445 0.0718156 -0.061168198 0.014838485
-0.0086167045 -0.040409684 0.08295423 0.13517049 0.007546302 -0.06382811 -0.021975094 0.057348683
-0.047260657 0.01981756 0.0032565312 0.05502606 0.07674213 -0.06177212 -0.118187726 -0.04165271
-0.11576649 -0.07918775 -0.039549015 -0.00091411563 0.04867019 0.08206108 0.06012612 -0.0964133
0.06973865 0.02877052 0.08932532 0.052156184 0.0001805749 0.12079614 0.0818347 -0.103073254
0.055382214 -0.033590145 -0.091658875 0.01568663 -0.110206574 0.03886549 0.008677386 -0.022438832
-0.0055590784 -0.073404044 -0.1423428 0.048877858 0.043060847 -0.11974283 0.055955045 -0.095027104
-0.030866666 0.09918239 0.03044363 -0.065513104 -0.09811754 0.050670434 -0.09077851 -0.01580717
-0.08547753 0.064211205 -0.13568887 -0.028486913 0.020231118 -0.047979634 0.08747835 -0.13839489
-0.015122496 0.02141751 0.015073039 0.029713867 -0.105391905 0.055589262 -0.07611199 0.120949924
-0.11774851 -0.058467682 -0.05443281 -0.075242326 -0.019403487 -0.09984465 -0.10790819 -0.08299815
-0.066775456 -0.0041098394 -0.024329856 0.08858112 0.047130313 -0.08665735 -0.046175286 -0.04961519
-0.06100595 -0.055731695 0.0040856577 0.06717492 0.0058660787 -0.052014127 0.001562076 -0.07667
0.016761014 0.1052065 -0.027665135 0.086617246 -0.0073539964 -0.027808951 0.09107601 -0.027959593
0.09091316 0.04259039 -0.11048448 0.0031312015 0.052448124 -0.078112066 -0.061230585 0.062149797
0.058861207 -0.06742034 -0.052783377 -0.030962858 -0.1320452 -0.1022518 0.05123906 0.13484083
0.06942931 -0.050997976 -0.034029037 0.01636281 -0.0071776137 0.026627727 0.09677828 0.09450689
0.085239 -0.029212376 -0.104647666 -0.04481652 -0.08387333 0.08199632 0.09291983 -0.11626535
-0.058577757 -0.008436394 -0.034936897 -0.042309526 -0.11580145 0.028702743 -0.0034859513 -0.11180875
0.09112225 0.11338099 -0.020427272 0.054731905 0.056419995 -0.123701565 0.057342872 0.029941173
-0.02240639 -0.09263753 0.043042336 -0.00022983551 0.04468305 0.004741252 -0.022368021 -0.11190931
1.1031122 0.9335608 1.2725141 -1.6733245 0.9604358 1.1763512 0.690162 1.2318915
1.2275815 0.7203254 0.83399254 1.6190642 1.0933769 -1.3571075 1.4923489 0.9968804
0.59821534 0.51067615 0.39090297 1.5970533 1.1806284 0.94877344 0.7906581 0.99633914
0.61099905 -1.5276717 0.8864615 0.830157 0.93662757 -0.68476653 1.0944542 1.0341465
1.2768055 0.58128923 0.73571056 0.7969462 1.2851486 0.8745674 0.7790641 1.542137
0.7897668 1.1914655 0.9298741 0.7766192 0.6611781 0.9522628 -0.82424945 0.7276723
-2.321525 0.98097223 1.2097902 0.38405833 0.80333966 1.3024865 0.7788736 1.6493487

network.2.bias f4 [200]
00000000: 80dc a0bc a3f6 90bc 9932 25bc 8b3c 0b3f
00000010: 77b8 f13e c497 213f d819 443e 0bca fe3d
00000020: ac2e 2abe 9011 40bc 93b5 053e d18f f53e
00000030: 7980 893f 4ba2 78bc 917c 02bf 97ce 173f
00000040: 3c18 f1bc 99f7 e4bc f868 1d3f 26eb 0fbc
00000050: 23a7 89bc 564a b4bc 9962 ac3e ef96 103f
00000060: f785 0d3f 73d8 a0bc 4364 edbd d12c f5be
00000070: 525f 91be 2cb4 133f 08ec 85be f790 0c3f
00000080: fc47 103f e882 f53e 35bf 7a3e 0fe0 033f
00000090: 474b d23d b442 203d b255 753f 78c1 8ebc
000000a0: c51b 67be 4950 96bc 7fa6 9abc fc39 00be
000000b0: 7e0f 003f 5c2a 0bbc 25e7 073f bfc2 bdbe
000000c0: bb38 0dbe b79d 0d3f e783 23bd ff4b 9bbe
000000d0: 5da0 413e 7da1 8d3d 3474 7abc 18b1 fa3e
000000e0: a8e1 533e 0000 0000 7d72 023f a20c ecbc
000000f0: 8e16 cd3e f137 bbbc 4a53 013f b33e 1a3f
00000100: 6db4 92bc 97cb 143f c6e9 443d afca f03e
00000110: 174f 493d ec1a ca3f 3883 043f b45d 55be
00000120: 05d8 103f facc 213f 3356 4c3d 7449 dc3d
00000130: 4800 203f 7053 7e3d 8e6b 113f 124f af3f
00000140: 1ab6 25bc 525c 363f 49d1 233f 0408 053f
00000150: f9b4 85bc 78d5 173f 66b4 d0bc b415 ef3d
00000160: 88d1 64bc 4f77 eb3e 86f2 40bc a7b6 fc3e
00000170: b877 463e ab2e 1a3e 6019 f43e c149 dabc
00000180: 8863 7cbd 2b77 103f 18a1 0f3f 3ac6 163b
00000190: 88d7 a03e ec47 30bd 06c3 163f 1512 463e
000001a0: 321c 573e e1d9 023f 9953 ca3c 40f8 a7bc
000001b0: 626f afbe fdc4 1d3f 8c87 82be f6e8 a9bd
000001c0: 8553 eb3e f647 3a3e a8f5 77bb a3cf 8bbc
000001d0: f73f 32be 5d49 04bf c4e9 5d3e dea2 f53e
000001e0: 33e7 f93e f53f 793f 467a 1b3f f638 033e
000001f0: 4730 143e afff 1e3f 5357 143e cdfb fb3d
00000200: eed7 a53e 2971 f23e b21c 123f db27 263f
00000210: 5359 613e f0b9 903e a457 a73e 5df1 64be
00000220: 568f 033f bc7c 453e 22c0 93be 07d2 cf3e
00000230: 2502 69bc 0663 ac3e f4c4 3e3e 98c7 0f3f
00000240: 2def a63e 26f5 45bd edab 32bd 4b8a ef3d
00000250: a528 83bc db7b cd3e 2dcc 143e f565 473e
00000260: c977 0d3e 7394 883f 4338 6ebc 1048 b63f
00000270: b8fe 9f3d bb53 983d fb25 53bc bc80 e23e
00000280: aaf3 82be bebc 393e 1950 6bbe 3db7 113f
00000290: 8d56 4cbd 90ac 91bc 9099 63be 0793 afbe
000002a0: 0dc6 05be d57e 883e a4d3 733e 807e b4bc
000002b0: 72ed 97bc 92eb f83e 8feb 133f 7d06 103d
000002c0: 2efa 153f 324c 5fbe bed9 d83d 9a22 9e3d
000002d0: b60f 9e3f 8f2d 453b 492b 8a3e 54e1 b63d
000002e0: 9bf6 67be 0516 82bc 3cda f43d 80e9 eabc
000002f0: 4df3 f73d ca5d 29bc 1b94 383e e0cb 223f
00000300: 8abb 303e 4f9d c83e 9dd7 febd 4027 1ebe
00000310: c4a0 f43e e713 da3d 8fd6 8abc ef1f 40be
-0.019636393 -0.01769573 -0.010082864 0.54389256 0.47211048 0.631222 0.19150484 0.124408804
-0.16619366 -0.011722937 0.13057546 0.47961286 1.0742332 -0.015175412 -0.50971323 0.59299606
-0.029430501 -0.027950095 0.61488295 -0.008784091 -0.01680333 -0.022008102 0.33668974 0.56480306
0.5528254 -0.019634461 -0.11591389 -0.47885755 -0.28393036 0.57696795 -0.2615664 0.549087
0.5635984 0.47951436 0.24487002 0.5151376 0.10268264 0.039126113 0.95833886 -0.017426237
-0.22569187 -0.01834883 -0.01887822 -0.1252212 0.5002364 -0.008493986 0.53087074 -0.37062642
-0.13791172 0.5531878 -0.039920714 -0.30331418 0.1890883 0.06915567 -0.015286494 0.48963237
0.2069155 0.0 0.50955945 -0.028814618 0.4005627 -0.022853823 0.50517714 0.6025192
-0.0179083 0.58123153 0.048074506 0.47029635 0.04914769 1.5789466 0.51762724 -0.20836526
0.5657962 0.63203394 0.049886893 0.107561976 0.6250043 0.06209129 0.5680474 1.3696005
-0.010114217 0.7123462 0.6399122 0.51965356 -0.016321646 0.593101 -0.025476646 0.116740614
-0.013965972 0.45989463 -0.011776572 0.49358103 0.19381607 0.15056865 0.4767561 -0.026646497
-0.061618358 0.56431836 0.56105185 0.0023006336 0.31414437 -0.04303734 0.5889133 0.19342835
0.2100685 0.51113707 0.024698066 -0.020504117 -0.34264666 0.61628705 -0.2549404 -0.08296387
0.45962158 0.18191513 -0.0037835632 -0.017066782 -0.17407213 -0.51674443 0.21671206 0.4797582
0.48809204 0.97363216 0.6073345 0.12814698 0.14471541 0.6210889 0.14486437 0.123038866
0.32391304 0.4735196 0.57075036 0.64904565 0.2200673 0.2826686 0.32684052 -0.22357698
0.5139059 0.19285864 -0.28857523 0.40589926 -0.014221703 0.336693 0.18629819 0.5616393
0.32604352 -0.048329495 -0.043620992 0.11696299 -0.016010592 0.40133557 0.14531012 0.19472487
0.13815226 1.0670303 -0.014539781 1.4240742 0.078122556 0.07437845 -0.012887473 0.44238842
-0.25576526 0.18138406 -0.22979774 0.56920224 -0.04988723 -0.01778248 -0.22226548 -0.3429186
-0.13063832 0.26659265 0.23811203 -0.022032976 -0.01854584 0.48617226 0.5778131 0.035162438
0.5858487 -0.2180641 0.10588406 0.077214435 1.2348545 0.003008697 0.2698615 0.08929697
-0.22652666 -0.01587964 0.119556874 -0.028675795 0.12106953 -0.010337302 0.18025248 0.6359234
0.1725904 0.39182517 -0.12443469 -0.1544466 0.47778904 0.10648327 -0.016948013 -0.18762182
