ddqn_sumo/saves/sumo_single_intersection/ddqn_model_period_10.pth (torch, 752349 bytes, 24 tensors)

network.0.weight f4 [200, 24]
-0.20939884 -0.014104792 -0.18651876 -0.89152765 -1.1553087 -0.9427863 0.23955435 -0.55750865
-0.4199436 -0.35788724 -1.0583254 -1.2742682 -0.4713633 1.2569984 -1.9614487 -1.44566
0.7333371 -2.4540138 0.5426322 0.4122549 1.0299231 0.19163454 -0.06973872 -0.054345116
0.19520903 0.10640376 -0.045408666 0.43552142 0.3026851 0.338362 0.535795 0.24722217
0.35259092 0.53862923 0.4955247 0.2382242 -1.4845117 -1.8703148 0.50961596 -1.4797307
-1.740998 0.8223701 0.64370733 0.27167097 -0.024171116 0.43391645 0.5682634 0.3663318
0.22770067 0.10530917 0.3284077 0.30386776 0.38702807 0.29010737 0.40263727 0.25296104
0.6188916 0.3080359 0.32456043 0.44734395 0.4152708 0.3076637 0.242984 0.34932134
0.31570733 0.37920693 0.55384374 0.26199135 -0.0014844693 0.41625044 0.4941556 0.3547898
0.36722487 0.04168007 0.13233109 0.08226966 0.49905917 0.17611809 0.4665228 0.17621586
0.6158036 0.40640658 0.26576477 0.35756597 0.5275291 -0.0533361 0.3057111 0.38914526
0.25980276 0.33767778 0.5225315 0.3246579 -0.21827266 0.049810927 0.40615448 0.0471137
0.14724813 -0.15905823 0.41817063 0.35319835 -0.11627048 0.49883294 -0.050074715 -0.10579029
0.5676758 0.122735135 -0.38242248 0.50749916 0.20790811 -0.19531022 0.33264628 0.073877335
-0.028655667 0.2727771 0.32550752 0.14963974 0.39701986 0.24335147 -0.1616804 0.34763667
0.15217906 -0.0066310586 0.036583304 0.089956954 0.35465735 0.17368999 0.25438905 0.14613688
0.4116331 0.300073 0.21016966 0.47230828 0.43742505 0.0010270212 0.124487184 0.28460395
0.15901792 0.1846326 0.3856171 0.29437557 -0.1255356 0.26833677 0.042592518 0.21698229
0.40852436 0.114992805 0.21009849 0.36902586 0.39789242 0.49505472 0.25205955 0.020779705
0.51171434 0.090205535 0.07938129 0.5554494 0.34889877 0.26888376 0.30004287 0.5409097
0.3296204 0.59234667 0.26439628 0.22627851 -0.023766905 0.38124943 0.42764252 0.2257188
0.25201362 0.16928059 0.24437667 0.338256 0.25842506 0.3409272 0.34252083 0.18769364
0.67787236 0.3152788 0.21094361 0.54175645 0.36607024 0.35557556 0.46678138 0.41746625
0.25082582 0.3622524 0.30257064 0.18954305 0.21382277 0.48488435 0.31422734 0.5462413
-0.47122782 -1.0703793 0.19009142 0.42606166 -0.67442787 0.81484544 -0.19204399 -0.4511276
0.34929523 0.20070639 0.48349142 0.6062417 -0.5828058 -0.8418915 0.62379956 -0.06900865
-0.9274877 0.35442245 0.3971331 -0.24529402 -0.3709893 0.572263 0.3723663 -0.10771105
0.20313522 -0.15751107 0.34804168 0.35427102 0.2270258 0.29606864 0.1124864 0.047755234
0.4981826 0.15285291 0.09643802 0.54419315 0.45221606 0.17024578 0.28487733 0.28172496
0.33085462 0.5438305 0.35268876 0.13928162 0.074310444 -0.00999256 0.275224 0.11546315
0.18563522 0.21401718 0.3468854 0.17076509 0.3292764 0.45402187 0.19163743 0.053404547
0.34996226 0.16933993 0.17396349 0.2296783 0.5683316 0.28077587 0.32552445 0.2837388
00000000: a66c 56be c917 67bc c6fe 3ebe 283b 64bf
00000010: 28e1 93bf 715a 71bf bc4d 753e e3b8 0ebf
00000020: d902 d7be ff3c b7be 3577 87bf 381b a3bf
00000030: 8856 f1be 53e5 a03f c010 fbbf 630b b9bf
00000040: fbbb 3b3f 900e 1dc0 f2e9 0a3f 1313 d33e
00000050: 85d4 833f d83b 443e 2dd3 8ebd fc98 5ebd
00000060: e0e4 473e 37ea d93d 70fe 39bd aafc de3e
00000070: 8bf9 9a3e c93d ad3e dc29 093f cf27 7d3e
00000080: cc86 b43e 9be3 093f 6ab5 fd3e 0bf1 733e
00000090: 7b04 bebf 7a66 efbf 3176 023f d167 bdbf
000000a0: 06d9 debf d986 523f 01ca 243f 7518 8b3e
000000b0: 8102 c6bc 4c2a de3e b679 113f d78f bb3e
000000c0: 5d2a 693e 56ac d73d 0e25 a83e 8e94 9b3e
000000d0: 8b28 c63e f488 943e 7926 ce3e 1c84 813e
000000e0: ae6f 1e3f e2b6 9d3e c92c a63e 440a e53e
000000f0: 609e d43e 1986 9d3e ccd0 783e 3fda b23e
00000100: 64a4 a13e 6927 c23e b4c8 0d3f bb23 863e
00000110: 8692 c2ba c71e d53e f601 fd3e 02a7 b53e
00000120: e604 bc3e b9b8 2a3d cd81 073e ff7c a83d
00000130: af84 ff3e 4d58 343e 14dc ee3e ee71 343e
00000140: 4ea5 1d3f 8614 d03e 5212 883e e312 b73e
00000150: 260c 073f f476 5abd 2a86 9c3e 0c3e c73e
00000160: de04 853e 1ae4 ac3e a0c4 053f 8f39 a63e
00000170: de82 5fbe 8b06 4c3d 7bf3 cf3e 4cfa 403d
00000180: 37c8 163e 29e0 22be 761a d63e 6ad6 b43e
00000190: 381f eebd 0867 ff3e 251b 4dbd 94a8 d8bd
000001a0: 3453 113f 8f5c fb3d e1cc c3be 77eb 013f
000001b0: dde5 543e 67ff 47be 9d50 aa3e 004d 973d
000001c0: 4abf eabc 71a9 8b3e eca8 a63e 293b 193e
000001d0: 3046 cb3e 2131 793e 8c8f 25be 6ffd b13e
000001e0: d4d4 1b3e 5a49 d9bb 60d8 153d 5a3b b83d
000001f0: a695 b53e cadb 313e 483f 823e e8a4 153e
00000200: 93c1 d23e 2ba3 993e b736 573e 64d2 f13e
00000210: 2df6 df3e 1d9d 863a 23f3 fe3d 9cb7 913e
00000220: 98d5 223e 5410 3d3e 9b6f c53e 65b8 963e
00000230: 688c 00be 7063 893e 7e75 2e3d 9b30 5e3e
00000240: 1b2a d13e 5981 eb3d 0f24 573e f5f0 bc3e
00000250: 8eb8 cb3e d077 fd3e f30d 813e 333a aa3c
00000260: b6ff 023f aebd b83d a892 a23d ef31 0e3f
00000270: dca2 b23e 22ab 893e 389f 993e 0f79 0a3f
00000280: 01c4 a83e 08a4 173f f35e 873e 8eb5 673e
00000290: d0b2 c2bc 2033 c33e f6f3 da3e d422 673e
000002a0: ee07 813e e457 2d3e e13d 7a3e e42f ad3e
000002b0: 4a50 843e 038e ae3e e45e af3e c332 403e
000002c0: 0b89 2d3f 396c a13e 9a01 583e 8db0 0a3f
000002d0: 8f6d bb3e 000e b63e f8fd ee3e 23be d53e
000002e0: 3e6c 803e 2679 b93e 8aea 9a3e 9317 423e
000002f0: 5bf4 5a3e c342 f83e 68e2 a03e 78d6 0b3f
00000300: c644 f1be 3002 89bf 53a7 423e c124 da3e
00000310: 4ea7 2cbf b699 503f 2ea7 44be 32fa e6be
00000320: d3d6 b23e fa85 4d3e 308c f73e a832 1b3f
00000330: c332 15bf 3486 57bf 54b1 1f3f 6854 8dbd
00000340: d56f 6dbf dc76 b53e 0855 cb3e 5b2e 7bbe
00000350: 4ff2 bdbe d47f 123f cca6 be3e 9c97 dcbd
00000360: ae02 503e 954a 21be 8532 b23e 0363 b53e
00000370: 7479 683e 4f96 973e 455f e63d fe9a 433d
00000380: ca11 ff3e 7985 1c3e 4c81 c53d 3e50 0b3f
00000390: dd88 e73e e954 2e3e 71db 913e 413e 903e
000003a0: c765 a93e 7a38 0b3f 9f93 b43e d79f 0e3e
000003b0: 1330 983d d6b7 23bc 29ea 8c3e f277 ec3d
000003c0: 2917 3e3e 5227 5b3e f79a b13e 0bdd 2e3e
000003d0: eb96 a83e 8e75 e83e 9a3c 443e babe 5a3d
000003e0: 412e b33e 7267 2d3e 7c23 323e ca30 6b3e
000003f0: 2e7e 113f dbc1 8f3e 24ab a63e 3646 913e

network.0.bias f4 [200]
0.7934047 0.35028818 0.061542712 -0.07694747 0.6470472 0.044960856 0.060214028 0.25531268
-0.11824181 0.05380361 0.008293319 -0.5188221 0.43591055 0.039893087 0.9534783 0.29058504
0.33810163 0.31486708 0.23307905 0.9360153 0.29667255 0.09605358 -0.124083795 -0.005141263
-0.10671414 0.1425099 -0.15583748 0.31607947 -0.46918878 0.12443035 0.2936448 0.5676568
-0.88285524 -0.5843716 1.6759509 0.47739312 -0.2375876 -0.08225393 0.20283565 0.08858352
-0.26734638 -0.26986736 0.5302496 0.34960544 0.13294584 0.029667132 0.46446046 0.1752389
1.6240901 -1.28732 1.1666274 0.13588476 0.024446577 0.27501312 0.3712635 0.21157122
-0.036435958 0.10033973 -0.028695548 0.04722376 0.22401056 -0.27027407 0.06902791 0.78241265
0.20091881 0.112655014 0.15549482 0.15675314 -0.11106194 0.20137437 0.32492775 1.2302438
-0.04525132 0.31048867 -0.10316056 0.033129618 0.15901317 0.25030977 -0.217954 1.3600795
-0.37831798 0.13513337 0.026331482 0.164112 0.17178413 0.089327894 0.04573442 1.2236214
0.95524716 -0.22936451 0.44669926 -0.28269166 0.24446957 -0.95535463 -0.34339303 0.05998427
0.5346505 0.41850087 0.16562559 0.11534448 -0.09139212 -0.026287343 0.05444128 0.15726766
-0.07922406 -0.06738315 0.3481335 0.5017573 0.8014157 -0.22773354 0.115112394 0.0718403
0.6603543 0.07180576 0.084580764 -0.06946118 0.45363674 -0.5151108 0.17669824 -0.2417356
0.46464017 -0.42123753 -0.14640553 -0.05020532 0.14589287 0.04614668 0.2330721 -0.7754158
0.084698915 0.17881913 0.64508176 0.22213148 0.008289841 -0.048918888 0.27470905 0.0662302
0.11443215 0.26836953 1.1516237 -0.109485105 0.18291047 0.08623714 -0.07457221 0.9505231
1.0872724 0.03581226 0.35217226 0.19555937 0.6480758 0.24331044 0.550059 -0.11033003
0.22647531 -0.07772287 -0.020421842 1.6596086 0.2698141 0.037893765 0.09713709 0.2699458
0.26774094 0.72979474 -0.029422384 0.11334554 0.62455165 0.70286965 -0.12400823 -0.083250724
0.18387464 0.98259795 0.047277153 0.22687311 0.24144192 -0.19723985 0.112133875 0.08522106
0.5078907 -0.09120435 0.31519073 0.7733152 -0.04835338 0.14504679 0.16278854 0.11371656
0.8102769 0.27007827 1.0930665 -0.070464395 0.77852905 -0.15950696 -0.07046726 -0.1258346
0.7605153 -0.10529632 0.0006136279 0.22453108 0.39812195 0.3031082 0.17286503 0.24183786
00000000: 921c 4b3f f958 b33e 3614 7c3d a396 9dbd
00000010: e3a4 253f e028 383d fca2 763d 58b8 823e
00000020: c328 f2bd 2d61 5c3d b3e0 073c 86d1 04bf
00000030: ab2f df3e ef66 233d 2717 743f 90c7 943e
00000040: a81b ad3e 4236 a13e 46ac 6e3e b39e 6f3f
00000050: 77e5 973e bdb7 c43d a51f febd 0a78 a8bb
00000060: f18c dabd 1dee 113e dc93 1fbe 2bd5 a13e
00000070: 8339 f0be 57d5 fe3d 9c58 963e f551 113f
00000080: cd02 62bf 6199 15bf 8f85 d63f df6c f43e
00000090: 2a4a 73be c074 a8bd 26b4 4f3e 476b b53d
000000a0: a0e1 88be 0e2c 8abe 70be 073f 7cff b23e
000000b0: f422 083e 7c08 f33c c3cd ed3e d471 333e
000000c0: 2fe2 cf3f e7c6 a4bf 0c54 953f 6025 0b3e
000000d0: 3044 c83c 85ce 8c3e 4016 be3e 20a6 583e
000000e0: df3d 15bd eb7e cd3d ed12 ebbc b46d 413d
000000f0: 0663 653e 5d61 8abe 815e 8d3d 324c 483f
00000100: a9bd 4d3e acb7 e63d 093a 1f3e e583 203e
00000110: 7174 e3bd 1535 4e3e ee5c a63e a178 9d3f
00000120: 7359 39bd 5ff8 9e3e d845 d3bd ecb2 073d
00000130: 59d4 223e 9a28 803e 552f 5fbe 1617 ae3f
00000140: e5b2 c1be 6760 0a3e 1fb5 d73c fa0c 283e
00000150: 2ee8 2f3e 8bf1 b63d 0454 3b3d a09f 9c3f
00000160: 148b 743f 88de 6abe c4b5 e43e f6bc 90be
00000170: 3b56 7a3e 1f92 74bf 36d1 afbe 11b2 753d
00000180: dbde 083f bf45 d63e c199 293e ba39 ec3d
00000190: cb2b bbbd 8e58 d7bc d2fd 5e3d c60a 213e
000001a0: 3940 a2bd 2d00 8abd 8e3e b23e 2b73 003f
000001b0: 9429 4d3f fb32 69be 0cc0 eb3d 0221 933d
000001c0: fb0c 293f e60e 933d ae38 ad3d aa41 8ebd
000001d0: 1343 e83e 4dde 03bf 62f0 343e 8a89 77be
000001e0: 51e5 ed3e 72ac d7be 55eb 15be 18a4 4dbd
000001f0: f164 153e 4d04 3d3d 74aa 6e3e a681 46bf
00000200: a076 ad3d 5d1c 373e 1424 253f 6f76 633e
00000210: 1dd2 073c 2c5f 48bd aaa6 8c3e b3a3 873d
00000220: 675b ea3d bb67 893e 6868 933f ba39 e0bd
00000230: e24c 3b3e 199d b03d 51b9 98bd 7b55 733f
00000240: be2b 8b3f e0af 123d ec4f b43e b740 483e
00000250: 4ce8 253f 5f26 793e abd0 0c3f b6f4 e1bd
00000260: 25e9 673e 2b2d 9fbd b54b a7bc 0e6e d43f
00000270: 1325 8a3e 7e36 1b3d d0ef c63d 5636 8a3e
00000280: 5715 893e d4d3 3a3f 3607 f1bc b521 e83d
00000290: 9ee2 1f3f 44ef 333f 07f8 fdbd 5b7f aabd
000002a0: a249 3c3e 8a8b 7b3f b0a5 413d 6d51 683e
000002b0: 8d3c 773e 3ef9 49be 72a6 e53d 6188 ae3d
000002c0: 2005 023f 59c9 babd ae60 a13e fcf7 453f
000002d0: 320e 46bd 2587 143e 0ab2 263e 3ae4 e83d
000002e0: 4f6e 4f3f b347 8a3e 9ae9 8b3f a34f 90bd
000002f0: ae4d 473f cb55 23be 2451 90bd c9da 00be
00000300: 21b1 423f 99a5 d7bd dfdb 203a 7aeb 653e
00000310: a4d6 cb3e ff30 9b3e 8803 313e 58a4 773e

network.2.weight f4 [200, 200]
-3.2621117 0.99645716 0.32569733 0.29563585 0.08883579 0.22650027 0.19962488 0.2998162
0.77522224 0.10382995 0.065312326 0.48660788 1.4781264 0.1715948 -2.4826906 0.05110378
0.15717176 0.09056546 -0.16112645 -3.4148629 -0.057944726 0.16623075 0.082404524 -0.008683071
0.1097588 0.2435624 -0.16573998 -0.039642975 0.20075731 -0.4600459 0.042598255 -2.9354854
-0.42814752 0.43958998 -4.14112 0.93575084 -0.38144156 0.13290349 0.43707103 0.27717578
3.4830713 0.14325339 0.21277161 0.04889881 -0.14948186 0.39843586 -4.8664193 0.9483902
-5.241929 -1.127199 -0.20362724 0.14445171 0.1722142 0.23959975 -0.040081687 0.14148504
0.030720377 0.365833 0.24966362 0.3076302 0.31803137 0.020824842 -0.0028695369 0.4927185
0.21031804 0.40892386 0.14276057 0.14716308 0.09029908 0.1658744 -0.3501953 -0.24281284
0.03486215 0.34297076 0.077888586 -0.01624448 0.13469869 0.14986113 0.2228631 -0.19395682
3.423579 0.016359905 0.019453634 0.2857814 0.09813682 0.17305863 0.08398195 -0.08770082
-3.7969515 0.17527044 0.8285605 -0.034278218 0.18653002 -1.6543268 -1.8173923 0.4021176
-3.7052324 -0.80734164 0.20259123 0.29515755 0.08087399 -2.0158281 0.2659618 0.13989
0.0058858274 0.31364217 0.041317552 -2.7756758 -3.9306955 0.078365944 0.3141118 0.33705533
-1.3475125 0.17697224 2.1196148 0.40913162 -0.15277144 -1.4852331 0.31959432 0.12981303
-0.08509779 -1.9076407 0.4622333 0.13621917 0.023695914 0.0017203437 0.28832817 -0.83285576
0.35852957 0.23689377 -2.8932865 -0.056054417 -0.26577657 0.090270355 -0.049319897 0.24522169
0.23837891 1.6719934 -3.974069 0.19672334 0.074369386 0.22880581 0.2665091 -0.08961562
-2.5885246 0.11332531 0.21247159 0.0306979 -3.7681396 0.19912812 1.9209797 0.1606996
0.21784383 1.466794 0.09433876 -3.7477589 0.29696146 0.17099856 0.29701924 0.24206051
0.3609462 -3.6910188 0.08240294 0.16757093 -3.7818668 -2.9344876 0.21909092 -0.10259516
-0.0031521034 -3.7876 0.154255 -0.14223568 0.1323487 0.038994394 0.25523418 1.452801
-0.008852253 0.07460623 -0.1690785 -4.1217375 1.9688882 0.19696382 0.39452392 0.3027105
-4.087684 0.1531057 0.016803153 1.2360431 1.6055342 0.055479065 -0.20362352 0.3559557
-3.0142097 0.0032647722 -0.33594713 0.07915887 -0.008868992 0.077275254 0.13378932 0.2766633
0.07723759 -0.037325557 -0.07878143 -0.067168154 -0.0752015 -0.07411645 -0.09252418 -0.006485606
-0.06316678 0.04132237 -0.07224317 -0.124629356 0.015637629 -0.12088838 0.04206059 -0.13911302
-0.10058169 0.008521399 -0.17135192 -0.07682858 0.036636412 -0.13071965 -0.13207774 -0.17374341
-0.071994245 -0.107521474 0.017860714 -0.16937186 -0.03345189 -0.0728606 -0.067152604 0.018668948
0.028539216 0.026281402 0.05236242 -0.1471499 -0.046668828 -0.076246075 -0.054244984 -0.053418823
0.01617196 0.0010699611 -0.14957534 -0.089741275 -0.10222474 -0.0959842 0.06622112 0.084315345
-0.007419627 0.025253506 -0.01759231 0.004734016 -0.12610728 -0.11796845 -0.09048339 0.018791206
00000000: 70c6 50c0 d117 7f3f cdc1 a63e 955d 973e
00000010: 8aef b53d b0ef 673e 776a 4c3e 8281 993e
00000020: f774 463f cca4 d43d 78c2 853d ab24 f93e
00000030: 3f33 bd3f 8cb6 2f3e 67e4 1ec0 3252 513d
00000040: a2f1 203e 627a b93d 55fe 24be 1d8d 5ac0
00000050: 7357 6dbd 6538 2a3e b4c3 a83d 7043 0ebc
00000060: 39c9 e03d 6c68 793e beb7 29be ac60 22bd
00000070: 5393 4d3e 238b ebbe 827b 2e3d fede 3bc0
00000080: 2736 dbbe f011 e13e 0e84 84c0 5e8d 6f3f
00000090: 4f4c c3be da17 083e c6c7 df3e fce9 8d3e
000000a0: a4ea 5e40 04b1 123e cde0 593e 1e4a 483d
000000b0: c611 19be c9ff cb3e b5b9 9bc0 b3c9 723f
000000c0: e2bd a7c0 0f48 90bf a983 50be 26eb 133e
000000d0: eb58 303e a359 753e b22c 24bd 74e1 103e
000000e0: 4da9 fb3c 774e bb3e d2a7 7f3e b581 9d3e
000000f0: 02d5 a23e dc98 aa3c d70e 3cbb 9945 fc3e
00000100: 9d5d 573e 785e d13e d42f 123e ebb1 163e
00000110: b9ee b83d fbda 293e cc4c b3be eea3 78be
00000120: 9dcb 0e3d dd99 af3e 0d84 9f3d 2513 85bc
00000130: 74ee 093e 3275 193e 3936 643e 9e9c 46be
00000140: eb1b 5b40 3505 863c 3a5d 9f3c f151 923e
00000150: f5fb c83d 4836 313e bbfe ab3d 7d9c b3bd
00000160: 4101 73c0 187a 333e 8a1c 543f 5167 0cbd
00000170: ba01 3f3e fbc0 d3bf 50a0 e8bf 5ce2 cd3e
00000180: 8722 6dc0 f1ad 4ebf 1374 4f3e e41e 973e
00000190: 43a1 a53d 5403 01c0 252c 883e 533f 0f3e
000001a0: e6dd c03b b595 a03e 983c 293d aca4 31c0
000001b0: 8490 7bc0 537e a03d 43d3 a03e 8492 ac3e
000001c0: 4a7b acbf 3638 353e c5a7 0740 b379 d13e
000001d0: 1e70 1cbe 1e1c bebf dea1 a33e b5ed 043e
000001e0: c047 aebd 922d f4bf d8a9 ec3e 0a7d 0b3e
000001f0: ef1d c23c 287d e13a c09f 933e 0936 55bf
00000200: 3091 b73e 4894 723e 9b2b 39c0 5199 65bd
00000210: de13 88be aadf b83d a903 4abd 651b 7b3e
00000220: 9a19 743e e103 d63f 2657 7ec0 d871 493e
00000230: fa4e 983d 124c 6a3e e173 883e 6588 b7bd
00000240: 63aa 25c0 1a17 e83d 2792 593e 2a7a fb3c
00000250: 3329 71c0 3ee8 4b3e aae2 f53f 708e 243e
00000260: 7412 5f3e e8bf bb3f ae34 c13d 48db 6fc0
00000270: 550b 983e 3f1a 2f3e e812 983e b6de 773e
00000280: f1cd b83e a739 6cc0 dfc2 a83d b797 2b3e
00000290: 1b0a 72c0 a5ce 3bc0 5f59 603e 691d d2bd
000002a0: 8593 4ebb 0a68 72c0 06f5 1d3e 3ba6 11be
000002b0: 6b86 073e 96b8 1f3d 0eae 823e 62f5 b93f
000002c0: 0a09 11bc 27cb 983d ea22 2dbe 46e5 83c0
000002d0: 8704 fc3f e2b0 493e 0aff c93e dffc 9a3e
000002e0: 4fce 82c0 bec7 1c3e c4a6 893c a936 9e3f
000002f0: 2582 cd3f 043e 633d af82 50be d33f b63e
00000300: d0e8 40c0 caf5 553b 4301 acbe 0c1e a23d
00000310: 404f 11bc 7d42 9e3d 1100 093e d0a6 8d3e
00000320: be2e 9e3d afe2 18bd 2958 a1bd 758f 89bd
00000330: 3e03 9abd 5eca 97bd 517d bdbd 3585 d4bb
00000340: 965d 81bd a541 293d 3af4 93bd ad3d ffbd
00000350: 7c1a 803c 5494 f7bd ba47 2c3d a573 0ebe
00000360: c6fd cdbd 579d 0b3c e176 2fbe 4d58 9dbd
00000370: 1010 163d 5fdb 05be 633f 07be cbe9 31be
00000380: b871 93bd 3834 dcbd a250 923c d16f 2dbe
00000390: d904 09bd f037 95bd 4e87 89bd 9fef 983c
000003a0: 13cb e93c 184c d73c fa79 563d 77ae 16be
000003b0: d027 3fbd e726 9cbd fd2f 5ebd b2cd 5abd
000003c0: 0f7b 843c f03d 8c3a 472a 19be 46ca b7bd
000003d0: 345b d1bd 5d93 c4bd f09e 873d 86ad ac3d
000003e0: 5820 f3bb 71e0 ce3c c01d 90bc ce1f 9b3b
000003f0: 4422 01be 7199 f1bd 5b4f b9bd 04f0 993c

network.2.bias f4 [200]
-0.37943023 -0.028054552 -0.044070896 0.09942478 -0.0139011815 -0.039958727 1.1990447 0.80825394
-0.006003286 -1.3817912 -0.01850671 -0.31037647 -0.018568475 1.0911648 -0.50706404 -0.018355712
-0.022177558 -0.023688022 -0.010621556 -0.017117465 -0.0054907924 -0.41553053 -0.030694366 -0.00023223428
-0.8469949 -0.012693569 1.2319578 -0.01138215 0.29705775 0.26993468 0.17311738 -1.0058116
-0.3617148 -0.37790492 -0.008191623 -0.23147982 0.37241453 0.003680902 -0.030339954 -0.034399815
0.8601036 1.2930368 1.115612 -0.42640322 -0.031019531 -0.03870977 0.49444214 -0.041064702
0.49721327 -0.027785836 -0.3591716 0.48456046 -0.010647707 -0.0405006 0.1428711 1.2511477
0.05403102 -0.010255704 -0.02228635 -0.008894939 -0.044923753 0.27645344 -0.041995067 -0.026211904
-0.03035622 -0.02023108 0.8934352 -0.003158514 0.97697943 0.7465 0.0998967 1.0229286
-0.0017797363 -0.0060054683 0.41982293 -0.01956885 1.44028 -0.043841623 0.85033506 -0.008127453
-0.02026641 -0.4192381 -0.67123854 -0.007463205 -0.52101845 1.5268381 0.91169745 1.0412663
-0.042986304 1.1775692 -0.006292314 -0.018346315 0.047294587 1.1404474 0.0007911457 0.27636352
-0.0005936996 -0.98323095 0.0058130715 -0.7574386 -0.086756915 0.07844294 0.9626915 -0.021359773
-0.64811695 -1.0008506 -0.034649402 1.8107407 0.0 -0.011495123 -1.1024436 0.018621728
-0.5388686 -0.020505091 -3.340175e-05 0.28667098 -0.15160255 -0.031671267 0.22806582 0.6247968
-0.04111589 -0.2967194 0.0057684667 -0.19940847 0.113614194 1.0402135 -0.009789206 -0.036123272
0.052866865 -0.19205414 -0.20478934 -0.8812111 -0.015824953 -0.07412391 -0.022508442 0.0050495677
0.01188284 -0.0031762896 0.5074362 1.2333859 1.2676787 -0.77890736 -0.04327424 -0.0106909815
-1.0159426 -0.0064287568 0.9384663 0.026886733 -0.032281443 -0.038925134 -0.021774309 -0.20863828
0.7746917 -0.89646006 0.58986914 -0.7219247 0.8094708 0.11244091 0.4532143 0.45061803
-0.47185948 0.00071183353 -0.027737655 -0.25750965 -0.015149111 0.08253105 0.18451186 0.34961054
-0.48375422 0.1295833 0.012080425 0.856876 0.33706844 -0.9358671 -0.05089689 -0.029834745
0.40221828 1.0823029 0.4200072 -0.09755784 0.0071653295 0.5752464 -0.04040975 1.3232116
-0.23309554 -0.0013968541 0.33395112 0.7095259 0.90157217 -0.5889272 0.8845759 -0.0051131696
1.1172076 0.09253479 1.1443233 0.0066079358 0.00085225474 0.5895772 -0.9555668 -0.011559421
00000000: ae44 c2be a9d2 e5bc af83 34bd 389f cb3d
00000010: c8c1 63bc c3ab 23bd 4c7a 993f bbe9 4e3f
00000020: 37b7 c4bb 89de b0bf 629b 97bc aae9 9ebe
00000030: ea1c 98bc 4aab 8b3f f3ce 01bf b85e 96bc
00000040: b6ad b5bc 620d c2bc 0906 2ebc ed39 8cbc
00000050: 1bec b3bb 6bc0 d4be c072 fbbc ea83 73b9
00000060: a8d4 58bf b0f8 4fbc cbb0 9d3f 337c 3abc
00000070: f417 983e e134 8a3e af45 313e 6fbe 80bf
00000080: af32 b9be c17c c1be 2836 06bc 0c09 6dbe
00000090: 1ead be3e 4a3b 713b 7f8b f8bc d2e6 0cbd
000000a0: c02f 5c3f 3b82 a53f 60cc 8e3f 8651 dabe
000000b0: ac1c febc 238e 1ebd 8527 fd3e 7633 28bd
000000c0: bd92 fe3e 1f9f e3bc 57e5 b7be 4f18 f83e
000000d0: b873 2ebc f5e3 25bd cd4c 123e 9c25 a03f
000000e0: a14f 5d3d 8a07 28bc dd91 b6bc 14bc 11bc
000000f0: f801 38bd 4e8b 8d3e 0503 2cbd 59ba d6bc
00000100: 9cad f8bc a6bb a5bc 2bb8 643f 12ff 4ebb
00000110: 531b 7a3f a01a 3f3f a496 cc3d 53ef 823f
00000120: 0a46 e9ba 85c9 c4bb 08f3 d63e da4e a0bc
00000130: 185b b83f 4693 33bd 8faf 593f 0229 05bc
00000140: be05 a6bc 60a6 d6be 4ad6 2bbf e78d f4bb
00000150: 7761 05bf 6e6f c33f 0165 693f 3748 853f
00000160: 6812 30bd 96ba 963f c12f cebb 034b 96bc
00000170: f8b7 413d 2efa 913f e464 4f3a 857f 8d3e
00000180: 81a2 1bba 06b5 7bbf 947b be3b 7fe7 41bf
00000190: 9cad b1bd b1a6 a03d f372 763f b1fa aebc
000001a0: feea 25bf df1b 80bf 88ec 0dbd 5ac6 e73f
000001b0: 0000 0000 0a56 3cbc df1c 8dbf 988c 983c
000001c0: 4bf3 09bf 4bfa a7bc db18 0cb8 8ac6 923e
000001d0: b33d 1bbe bbb9 01bd 168a 693e aff2 1f3f
000001e0: 2369 28bd 9beb 97be 6805 bd3b bc31 4cbe
000001f0: 8fae e83d b725 853f e862 20bc fff5 13bd
00000200: ed8a 583d d7a9 44be 4cb4 51be 0d97 61bf
00000210: 55a3 81bc 47ce 97bd a063 b8bc d876 a53b
00000220: 3eb0 423c 4c29 50bb 57e7 013f 97df 9d3f
00000230: 4c43 a23f 7966 47bf 5440 31bd 3a29 2fbc
00000240: 680a 82bf 52a8 d2bb 543f 703f 9141 dc3c
00000250: 8c39 04bd f66f 1fbd 0960 b2bc 46a5 55be
00000260: 3252 463f 687e 65bf aa01 173f 0fd0 38bf
00000270: 7a39 4f3f 6b47 e63d b40b e83e 68b7 e63e
00000280: 9197 f1be 579a 3a3a 143a e3bc 4ed8 83be
00000290: fa33 78bc 0a06 a93d adf0 3c3e 2700 b33e
000002a0: a2ae f7be 7cb1 043e faec 453c 3a5c 5b3f
000002b0: 3c94 ac3e fc94 6fbf 4279 50bd ff67 f4bc
000002c0: 8eef cd3e e788 8a3f 2f0b d73e 68cc c7bd
000002d0: 24cb ea3b 5943 133f b284 25bd ff5e a93f
000002e0: 99b0 6ebe a516 b7ba a4fb aa3e 7da3 353f
000002f0: 6fcd 663f efc3 16bf 9173 623f 608c a7bb
00000300: a900 8f3f e182 bd3d 3079 923f 6287 d83b
00000310: d969 5f3a 88ee 163f 07a0 74bf ba63 3dbc

network.4.weight f4 [6, 200]
-0.6491884 -0.031002654 0.1549586 -0.545251 0.03685592 0.12503628 0.04439698 2.310254
-0.14526762 -2.719487 0.009231852 -0.56008255 -0.014924146 -0.40676415 -0.80962574 0.05990681
-0.03235229 0.06352835 0.111978754 0.14872381 -0.486974 -0.78861713 0.068452306 0.12604794
0.18444511 -0.025610752 0.18041097 0.0264386 -0.6895986 -0.5818377 -0.5983077 2.1466117
-0.8505152 1.2578235 0.104492836 -0.5478503 1.5755409 0.13059404 0.030504536 -0.10241794
-0.44363698 -0.33910805 -0.36588135 -0.7603126 0.05793514 -0.085106574 2.8607936 -0.062198892
-0.52644414 0.04648191 -0.62621087 1.432783 -0.10271477 -0.16696766 -0.6457056 -0.278061
-0.6704429 -0.10156849 -0.06893615 0.10578479 -0.073997855 -0.46591204 0.059917975 -0.13754052
-0.067947455 0.14018254 -0.6821593 0.055614293 -0.5305212 -0.28937578 -0.6505233 -0.4440086
0.0005989195 -0.10849568 -0.48036823 0.06725273 -0.28477696 0.14106664 -0.60444885 0.078549504
-0.15402968 -0.68033534 -0.96876884 -0.096487 2.3936398 -1.7641752 -0.45888463 -0.3525027
0.14762488 -0.3411828 -0.043851882 0.14815235 -0.33586907 -5.5956798 0.14714476 -0.47896293
-0.09679578 -0.72150815 -0.2755506 -1.3784931 -0.44670305 -0.59681153 -0.38332078 0.14563674
-0.9043099 2.4205382 0.07249627 1.3565748 0.13123599 0.010700323 -2.1500916 -0.055146087
-0.9453827 0.107365265 0.0012007718 -0.6285248 -0.49213052 -0.08668458 -0.38596407 -0.28596246
-0.06207617 -0.59666586 0.012552862 -0.50984186 1.9387467 -0.46570826 0.08695727 -0.037446763
2.084111 -0.51175976 -0.77428883 -1.6726215 -0.06749254 -0.502551 0.15332983 0.03956671
0.06584804 0.1435196 -0.5343215 -0.38978848 -0.39213023 -1.3778589 0.102742024 -0.14513463
-0.5295156 -0.06253574 -2.7271855 -0.6723756 -0.15088849 0.008981311 0.002356079 0.9680932
0.49891466 -1.6592944 -1.7038205 -1.402552 -1.8673446 -0.6384241 -0.57501847 -0.4516241
0.9409412 0.07786782 0.060256813 -0.5212675 -0.036830474 -0.40037534 -0.5552597 -0.60993207
-0.91564924 -0.7270835 -0.018329976 -0.42344356 -0.4920825 0.31717333 0.16184826 0.14523937
-0.4187524 -0.40587318 1.8050412 -0.55818456 0.13718294 -0.34444383 0.16026442 -1.3433944
-0.54156655 0.09359538 -0.47211662 -0.4631551 -0.45632678 -1.0170522 -2.4542828 -0.121055916
-0.4401474 1.667029 -0.36034572 -0.08832333 0.020191967 -0.4622408 -1.2821254 -0.09008874
-0.8228779 -0.041265495 0.071674064 -0.75273514 0.12171382 -0.18281375 -0.57678175 1.6361344
-0.004429629 -0.6607885 -0.03599951 -0.7066187 0.10784873 -0.35619953 -0.8304514 0.057011805
0.22147831 -0.008089045 0.14116625 0.004351765 -0.69946676 -0.61470497 0.034402445 -0.15700248
0.626965 -0.13433081 -1.0420984 0.15003903 -0.43634573 -0.63309145 -0.363988 1.1029034
-0.8873364 1.099775 0.15117541 -0.49198475 1.5083821 -0.0767684 0.02374264 -0.02709308
-0.60657656 -0.47415745 -0.33885178 -0.7398931 -0.1842163 0.13192871 0.1760561 0.00014204223
-0.617362 -0.16612744 -0.597572 1.309954 0.13335523 0.10372454 -0.6825282 -0.37592277
00000000: 3631 26bf 47f9 fdbc 78ad 1e3e 9295 0bbf
00000010: 3cf6 163d 8309 003e 9cd9 353d 34db 1340
00000020: 09c1 14be 130c 2ec0 3241 173c 9261 0fbf
00000030: 6884 74bc 6443 d0be a243 4fbf d860 753d
00000040: d683 04bd 271b 823d 1e55 e53d 0e4b 183e
00000050: a854 f9be d0e2 49bf b930 8c3d b612 013e
00000060: 2edf 3c3e a4cd d1bc a7bd 383e c395 d83c
00000070: 8989 30bf 51f3 14bf b22a 19bf 1662 0940
00000080: 5dbb 59bf 5c00 a13f 5700 d63d eb3f 0cbf
00000090: 53ab c93f 72ba 053e a6e4 f93c 7fc0 d1bd
000000a0: 6324 e3be 929f adbe cd54 bbbe d9a3 42bf
000000b0: 664d 6d3d 5b4c aebd 3e17 3740 44c4 7ebd
000000c0: 0bc5 06bf d163 3e3d 5b4f 20bf 6f65 b73f
000000d0: 1f5c d2bd 92f9 2abe f64c 25bf 035e 8ebe
000000e0: 25a2 2bbf 2403 d0bd 652e 8dbd b2a5 d83d
000000f0: 308c 97bd 068c eebe 8d6c 753d 6cd7 0cbe
00000100: 0928 8bbd 038c 0f3e fea1 2ebf d0cb 633d
00000110: 3dd0 07bf 1029 94be b288 26bf 1855 e3be
00000120: cf00 1d3a fc32 debd d3f2 f5be cdbb 893d
00000130: 49ce 91be c673 103e 29bd 1abf 90de a03d
00000140: f5b9 1dbe 752a 2ebf 3c01 78bf fa9a c5bd
00000150: 6531 1940 7ed0 e1bf edf2 eabe 3c7b b4be
00000160: fa2a 173e 83af aebe 089e 33bd 40b5 173e
00000170: 08f7 abbe cf0f b3c0 1ead 163e a13a f5be
00000180: de3c c6bd c2b4 38bf f814 8dbe 7672 b0bf
00000190: 43b6 e4be a4c8 18bf 9f42 c4be cc21 153e
000001a0: db80 67bf 19ea 1a40 ed78 943d 3ea4 ad3f
000001b0: ba62 063e 6850 2f3c 1a9b 09c0 dde0 61bd
000001c0: 9a04 72bf 52e2 db3d 3763 9d3a 00e7 20bf
000001d0: 88f8 fbbe af87 b1bd 159d c5be ac69 92be
000001e0: 9543 7ebd 18bf 18bf 85aa 4d3c ff84 02bf
000001f0: da28 f83f 5071 eebe a716 b23d c761 19bd
00000200: 1362 0540 b002 03bf cb37 46bf 7618 d6bf
00000210: 8739 8abd 2fa7 00bf 7f02 1d3e b410 223d
00000220: 56db 863d cdf6 123e 4bc9 08bf 5b92 c7be
00000230: 4bc5 c8be ae5d b0bf 696a d23d 2c9e 14be
00000240: 568e 07bf bd12 80bd 358a 2ec0 cf20 2cbf
00000250: 8382 1abe 5926 133c 7268 1a3b f5d4 773f
00000260: be71 ff3e c263 d4bf ca16 dabf d386 b3bf
00000270: 2605 efbf c36f 23bf 6934 13bf 463b e7be
00000280: 86e1 703f 2a79 9f3d d9cf 763d c971 05bf
00000290: 8ddb 16bd fffd ccbe 8025 0ebf 8224 1cbf
000002a0: fd67 6abf 2522 3abf bf28 96bc 98cd d8be
000002b0: 3df2 fbbe 8b64 a23e 8dbb 253e a1b9 143e
000002c0: b766 d6be 9cce cfbe 970b e73f 2fe5 0ebf
000002d0: af79 0c3e f15a b0be 5b1c 243e 59f4 abbf
000002e0: 1ba4 0abf efae bf3d 45b9 f1be aa22 edbe
000002f0: aaa3 e9be c42e 82bf f812 1dc0 2aec f7bd
00000300: 005b e1be 3561 d53f 3c7f b8be dde2 b4bd
00000310: a069 a53c d3aa ecbe af1c a4bf 7280 b8bd
00000320: 20a8 52bf 0206 29bd dac9 923d 40b3 40bf
00000330: 1845 f93d 8733 3bbe f8a7 13bf da6c d13f
00000340: 6c26 91bb 6f29 29bf 3974 13bd f7e4 34bf
00000350: ccdf dc3d c95f b6be 7798 54bf 3685 693d
00000360: 36cb 623e ea87 04bc e38d 103e 4099 8e3b
00000370: 4110 33bf 4e5d 1dbf 94e9 0c3d 42c5 20be
00000380: c780 203f 048e 09be 7b63 85bf d5a3 193e
00000390: b568 dfbe 4812 22bf a35c babe f02b 8d3f
000003a0: 7a28 63bf 6dc5 8c3f bacd 1a3e 6de5 fbbe
000003b0: aa12 c13f c038 9dbd ed7f c23c 4ff2 ddbc
000003c0: 9a48 1bbf c4c4 f2be fb7d adbe a269 3dbf
000003d0: 33a3 3cbe 5218 073e 0d48 343e 2cf1 1439
000003e0: 700b 1ebf 501d 2abe 7bfa 18bf 93ac a73f
000003f0: 468e 083e 886d d43d 2bba 2ebf f378 c0be

network.4.bias f4 [6]
0.38240534 -0.6864975 -0.46832472 -0.8725063 -0.90452 -0.90560454
00000000: a2ca c33e 4dbe 2fbf 42c8 efbe 935c 5fbf
00000010: 9f8e 67bf b3d5 67bf

network.0.weight f4 [200, 24]
-0.2094671 -0.014342789 -0.18640116 -0.8914421 -1.155269 -0.9426864 0.24068251 -0.55634737
-0.4189852 -0.3562682 -1.0572768 -1.2730014 -0.47118115 1.2570028 -1.961164 -1.4456041
0.7333403 -2.4540684 0.5433 0.41248438 1.0304669 0.19204174 -0.0695542 -0.054091316
0.1939835 0.10587174 -0.046481777 0.43470848 0.30169195 0.3377527 0.53528005 0.2471149
0.35229862 0.5386063 0.4956966 0.23813841 -1.4843446 -1.8690735 0.509318 -1.479251
-1.7388909 0.82242143 0.64270496 0.27191263 -0.025018008 0.4326503 0.5684382 0.36494708
0.22707342 0.10481571 0.32783768 0.30383208 0.38628942 0.29013535 0.40249857 0.25181705
0.61917365 0.30814087 0.32375783 0.44763356 0.41581637 0.30835223 0.24309734 0.35030404
0.31693384 0.3797784 0.5533615 0.26234198 -0.0017985794 0.41539577 0.4942951 0.35371846
0.36661333 0.041173875 0.13176073 0.08230894 0.49834156 0.17616162 0.4663253 0.17508888
0.61596733 0.40648225 0.26498866 0.3577883 0.52801377 -0.05264346 0.30579957 0.39004743
0.26104304 0.33813393 0.5220248 0.324987 -0.21861514 0.048904616 0.40625012 0.046041198
0.1466564 -0.15970151 0.41775143 0.3529719 -0.11714309 0.49872273 -0.050428838 -0.10724437
0.56785494 0.122469574 -0.3836484 0.5074849 0.20850424 -0.19493154 0.33306774 0.07495952
-0.027888048 0.2737766 0.32528564 0.15026703 0.3966668 0.24286005 -0.1611787 0.34653905
0.15160604 -0.007113913 0.03608515 0.08997052 0.35395366 0.17376506 0.25423375 0.14492011
0.41191816 0.30014566 0.20928302 0.47257194 0.43801504 0.0016947422 0.124671996 0.28565386
0.16021006 0.18531454 0.38518053 0.2947763 -0.12583572 0.26754686 0.042785995 0.21594933
0.40790358 0.1144766 0.20954025 0.3689959 0.39715308 0.49507454 0.25185367 0.019615507
0.51191366 0.09022352 0.07853549 0.5556317 0.34937406 0.26948598 0.30013388 0.54180634
0.33072948 0.5928598 0.26393777 0.22664985 -0.024089165 0.38042745 0.4278127 0.22464232
0.25136873 0.16873895 0.24381982 0.33815405 0.2576392 0.34091386 0.3423447 0.18647543
0.67815673 0.31530857 0.21003866 0.5419925 0.36663756 0.3561932 0.46695346 0.4184762
0.25194296 0.36290705 0.30212364 0.18994434 0.2134909 0.4840864 0.3144363 0.5451477
-0.47265446 -1.0715058 0.18880036 0.4250987 -0.6762553 0.81402206 -0.19259268 -0.45130318
0.34864363 0.20046489 0.4838209 0.60584897 -0.58283144 -0.84013337 0.6232101 -0.06897966
-0.9253575 0.3540618 0.39592123 -0.24576828 -0.37184617 0.57081884 0.37186065 -0.10914432
0.2024258 -0.1580965 0.34739217 0.35414192 0.22618754 0.2959863 0.112260215 0.046565864
0.49837112 0.15286814 0.095576145 0.5443928 0.45276666 0.17091632 0.28500557 0.2826826
0.33203527 0.5443997 0.3521743 0.13963102 0.07393897 -0.010862854 0.2753849 0.114326656
0.1849806 0.21350865 0.34628016 0.17070909 0.3285277 0.45401576 0.19148393 0.05231038
0.3502243 0.16941866 0.17319971 0.22993366 0.5688431 0.2814479 0.32558224 0.2846446
00000000: 8b7e 56be 04fe 6abc f2df 3ebe 8d35 64bf
00000010: dbdf 93bf e553 71bf 7a75 763e c86c 0ebf
00000020: 3a85 d6be c968 b6be d954 87bf b6f1 a2bf
00000030: a83e f1be 78e5 a03f 6c07 fbbf 8e09 b9bf
00000040: 31bc 3b3f 750f 1dc0 b515 0b3f 2731 d33e
00000050: 57e6 833f 97a6 443e 6f72 8ebd db8e 5dbd
00000060: 9ca3 463e 48d3 d83d ad63 3ebd 1c92 de3e
00000070: 5e77 9a3e eced ac3e 1d08 093f b00b 7d3e
00000080: 7c60 b43e 1ae2 093f f2cb fd3e 8eda 733e
00000090: 01ff bdbf cd3d efbf aa62 023f 1958 bdbf
000000a0: fa93 debf 368a 523f 5088 243f 2238 8b3e
000000b0: 91f2 ccbc 5784 dd3e 2a85 113f 58da ba3e
000000c0: ef85 683e 9ea9 d63d 57da a73e e18f 9b3e
000000d0: bac7 c53e 9f8c 943e 4b14 ce3e 2aee 803e
000000e0: 2a82 1e3f a4c4 9d3e 96c3 a53e 3a30 e53e
000000f0: e2e5 d43e 58e0 9d3e 82ee 783e 0d5b b33e
00000100: 2745 a23e 5072 c23e 19a9 0d3f b051 863e
00000110: 4fbe ebba c1ae d43e 3f14 fd3e 961a b53e
00000120: beb4 bb3e f0a5 283d 49ec 063e 9791 a83d
00000130: a026 ff3e b663 343e 31c2 ee3e 804a 333e
00000140: 09b0 1d3f 711e d03e 98ac 873e 0730 b73e
00000150: e92b 073f aba0 57bd c391 9c3e 4cb4 c73e
00000160: 6fa7 853e e41f ad3e 6ba3 053f b264 a63e
00000170: a6dc 5fbe 3550 483d 0400 d03e b295 3c3d
00000180: 182d 163e cb88 23be 84e3 d53e bcb8 b43e
00000190: b7e8 efbd 9658 ff3e 788e 4ebd f0a2 dbbd
000001a0: f15e 113f 54d1 fa3d 906d c4be 88ea 013f
000001b0: 2382 553e 229c 47be db87 aa3e 6084 993d
000001c0: 7a75 e4bc 722c 8c3e d78b a63e 9adf 193e
000001d0: e917 cb3e 4eb0 783e 070c 25be 916d b13e
000001e0: 9d3e 1b3e d41b e9bb 06ce 133d 7742 b83d
000001f0: 6a39 b53e 78ef 313e ed2a 823e f065 143e
00000200: f0e6 d23e b1ac 993e 4a4e 563e f3f4 f13e
00000210: 8243 e03e 1d22 de3a 0854 ff3d 3941 923e
00000220: 1b0e 243e 18c3 3d3e 6236 c53e ebec 963e
00000230: 14db 00be e7fb 883e 5e40 2f3d d221 5d3e
00000240: bdd8 d03e b572 ea3d b891 563e 08ed bc3e
00000250: a657 cb3e 697a fd3e f7f2 803e b3b0 a03c
00000260: c60c 033f 1cc7 b83d 37d7 a03d e13d 0e3f
00000270: 28e1 b23e 11fa 893e 26ab 993e d2b3 0a3f
00000280: 6055 a93e a9c5 173f da22 873e e616 683e
00000290: a456 c5bc 63c7 c23e 440a db3e a308 663e
000002a0: 67b3 803e e7c9 2c3e e7ab 793e 8722 ad3e
000002b0: 49e9 833e 438c ae3e ce47 af3e 6af3 3e3e
000002c0: ae9b 2d3f 2070 a13e 6014 573e 05c0 0a3f
000002d0: ebb7 bb3e f55e b63e 8614 ef3e 8342 d63e
000002e0: abfe 803e f4ce b93e f3af 9a3e c580 423e
000002f0: 5c9d 5a3e 2cda f73e cbfd a03e cd8e 0b3f
00000300: c4ff f1be 1a27 89bf e254 413e 89a6 d93e
00000310: 111f 2dbf c063 503f 0437 45be 3611 e7be
00000320: 6b81 b23e ab46 4d3e 5fb7 f73e eb18 1b3f
00000330: 7134 15bf fb12 57bf b28a 1f3f 3545 8dbd
00000340: 3be4 6cbf 9747 b53e 30b6 ca3e aeaa 7bbe
00000350: 9f62 bebe 2f21 123f 8564 be3e 0f87 dfbd
00000360: b548 4f3e 0de4 21be 63dd b13e 1752 b53e
00000370: b59d 673e 848b 973e afe8 e53d d9bb 3e3d
00000380: 802a ff3e 7789 1c3e 6dbd c33d 545d 0b3f
00000390: 08d1 e73e b004 2f3e 40ec 913e c6bb 903e
000003a0: 8700 aa3e c75d 0b3f 3150 b43e 6ffb 0e3e
000003b0: 516d 973d 1dfa 31bc 40ff 8c3e 1824 ea3d
000003c0: 8e6b 3d3e 03a2 5a3e a24b b13e 5dce 2e3e
000003d0: c834 a83e c174 e83e 5d14 443e 6943 563d
000003e0: 9950 b33e 167c 2d3e 445b 313e bb73 6b3e
000003f0: b49f 113f f019 903e b7b2 a63e f0bc 913e

network.0.bias f4 [200]
0.7939679 0.34958157 0.061303508 -0.07740391 0.64671785 0.044844333 0.05989465 0.2550375
-0.1197456 0.053412724 0.007893345 -0.51869833 0.43618932 0.039481733 0.95340896 0.29020485
0.33758858 0.3144415 0.2327823 0.93713593 0.2960904 0.095726065 -0.12490487 -0.005021438
-0.107901506 0.14228041 -0.1574321 0.31468955 -0.46928918 0.12296178 0.29314548 0.5685729
-0.8839818 -0.5847707 1.6765088 0.47747895 -0.23576868 -0.08267298 0.20260923 0.08820389
-0.267896 -0.2694406 0.52990216 0.3500725 0.13165276 0.0293742 0.4652063 0.17335759
1.6244197 -1.2879322 1.1663104 0.13559759 0.023782587 0.27475923 0.37066162 0.21132994
-0.036435958 0.100024566 -0.029101597 0.046908848 0.22382884 -0.27008626 0.06855473 0.7821601
0.2006291 0.112466484 0.15525557 0.15647367 -0.11193121 0.20116879 0.32479963 1.230566
-0.04615143 0.31016028 -0.10414161 0.0321884 0.15875408 0.2500037 -0.21757028 1.3595673
-0.37962028 0.13476686 0.025737617 0.16393226 0.17121474 0.089068465 0.04528713 1.2232902
0.9551452 -0.22998454 0.44617492 -0.28211945 0.24410787 -0.95518476 -0.34623587 0.0596576
0.5376503 0.41722438 0.16532263 0.11505602 -0.092058524 -0.026810555 0.05407705 0.15704027
-0.079805724 -0.06851008 0.34820494 0.5015911 0.8022119 -0.22847801 0.11484513 0.071491554
0.6601384 0.0716375 0.08448474 -0.069726415 0.4537842 -0.5157929 0.17650309 -0.2405555
0.46428582 -0.4203913 -0.14654292 -0.051610578 0.14554372 0.04637057 0.23285598 -0.77727556
0.084475204 0.17861833 0.64747083 0.22138664 0.007287118 -0.050940122 0.27416167 0.065874726
0.114063255 0.2682311 1.153325 -0.11026269 0.1825104 0.08592535 -0.07507164 0.9508901
1.0871059 0.035254348 0.35181245 0.19508876 0.64906526 0.24285418 0.5505381 -0.11094042
0.22628157 -0.078192756 -0.020905655 1.6602491 0.26937458 0.037546717 0.09691807 0.26969147
0.2675197 0.7317184 -0.029422384 0.1130057 0.6222362 0.7010268 -0.12326867 -0.084811755
0.18333785 0.98359156 0.04703765 0.22626202 0.2411914 -0.19572909 0.11181858 0.083291136
0.5072601 -0.092502795 0.31535828 0.7761561 -0.048581216 0.14479569 0.16262406 0.11351159
0.8097225 0.26976264 1.0926443 -0.06989553 0.77893054 -0.15975414 -0.07103217 -0.126326
0.7608807 -0.10708969 0.00057596964 0.22437176 0.397655 0.30264 0.17243582 0.24143893
00000000: 7b41 4b3f 5bfc b23e 6319 7b3d f185 9ebd
00000010: 4d8f 253f b1ae 373d 1854 753d 4694 823e
00000020: 2e3d f5bd 4dc7 5a3d 1753 013c 6ac9 04bf
00000030: 3554 df3e 99b7 213d 9c12 743f bb95 943e
00000040: 69d8 ac3e 7afe a03e 7c5e 6e3e 24e8 6f3f
00000050: 2999 973e 070c c43d 20ce ffbd e08a a4bb
00000060: 77fb dcbd f5b1 113e e135 21be fd1e a13e
00000070: ac46 f0be 63d3 fb3d 2a17 963e fe8d 113f
00000080: a24c 62bf 88b3 15bf d797 d63f 1f78 f43e
00000090: 586d 71be 7450 a9bd cb78 4f3e 3ea4 b43d
000000a0: aa29 89be 1ef4 89be aba7 073f b43c b33e
000000b0: fbcf 063e 2aa2 f03c 852f ee3e a784 313e
000000c0: fcec cf3f f6da a4bf a949 953f 18da 0a3e
000000d0: b3d3 c23c 3ead 8c3e 5cc7 bd3e e066 583e
000000e0: df3d 15bd aed9 cc3d 7966 eebc 7e23 403d
000000f0: 6333 653e bf48 8abe 6c66 8c3d a53b 483f
00000100: b771 4d3e d454 e63d 51fb 1e3e a23a 203e
00000110: 313c e5bd 31ff 4d3e 234c a63e 3083 9d3f
00000120: 4809 3dbd 54cd 9e3e 3248 d5bd fcd7 033d
00000130: 6e90 223e 7c00 803e beca 5ebe 4d06 ae3f
00000140: 975d c2be 5300 0a3e b2d7 d23c dcdd 273e
00000150: eb52 2f3e 8769 b63d ff7e 393d c694 9c3f
00000160: 6584 743f 1181 6bbe 0a71 e43e f671 90be
00000170: 6af7 793e fd86 74bf d445 b1be 875b 743d
00000180: 73a3 093f 6f9e d53e 564a 293e 7ea2 eb3d
00000190: 2e89 bcbd cfa1 dbbc e67f 5d3d 2acf 203e
000001a0: 2f71 a3bd 034f 8cbd eb47 b23e 4668 003f
000001b0: c25d 4d3f 24f6 69be ec33 eb3d 2a6a 923d
000001c0: d5fe 283f aeb6 923d 5606 ad3d b9cc 8ebd
000001d0: 6756 e83e 010b 04bf 3abd 343e 2e54 76be
000001e0: dfb6 ed3e 873d d7be 590f 16be 9d65 53bd
000001f0: 6a09 153e 11ef 3d3d cc71 6e3e 88fb 46bf
00000200: 5601 ad3d b9e7 363e a6c0 253f 2eb3 623e
00000210: c7c8 ee3b 97a6 50bd eb5e 8c3e 54e9 863d
00000220: ff99 e93d 9655 893e 27a0 933f 68d1 e1bd
00000230: 02e4 3a3e a1f9 af3d 29bf 99bd 896d 733f
00000240: 4926 8b3f dd66 103d c320 b43e 59c5 473e
00000250: 2429 263f c4ae 783e 11f0 0c3f bb34 e3bd
00000260: 5bb6 673e 8623 a0bd 5642 abbc 0b83 d43f
00000270: 77eb 893e 96ca 193d fb7c c63d 0015 8a3e
00000280: 58f8 883e e651 3b3f 3607 f1bc 886f e73d
00000290: df4a 1f3f 7e76 333f 4974 fcbd c9b1 adbd
000002a0: ebbc 3b3e a8cc 7b3f 8daa 403d 3bb1 673e
000002b0: e1fa 763e 356d 48be 2401 e53d 8b94 aa3d
000002c0: ccdb 013f 1b72 bdbd a476 a13e 2bb2 463f
000002d0: 19fd 46bd 5245 143e ec86 263e c478 e83d
000002e0: f949 4f3f 541e 8a3e c5db 8b3f 6325 8fbd
000002f0: fe67 473f 9796 23be 5079 91bd 9a5b 01be
00000300: 14c9 423f d751 dbbd abfc 163a b6c1 653e
00000310: 7099 cb3e a1f3 9a3e 0493 303e c43b 773e

network.2.weight f4 [200, 200]
-3.2624032 0.99534386 0.32574683 0.2957767 0.08896745 0.22653992 0.19985928 0.2998665
0.77450895 0.104123645 0.06553568 0.48744282 1.4781866 0.17178307 -2.4825103 0.051303606
0.15743846 0.09081304 -0.161008 -3.4146183 -0.05771989 0.16641432 0.08274362 -0.006562657
0.1100458 0.24374327 -0.1672669 -0.038674664 0.20092098 -0.45894405 0.04280051 -2.9365087
-0.42805797 0.43917722 -4.1411934 0.9356077 -0.3827601 0.13314563 0.43725684 0.27738792
3.4825542 0.14224859 0.21244404 0.049782313 -0.1483243 0.39864236 -4.8664193 0.9470399
-5.2425795 -1.1269037 -0.20368528 0.14458299 0.17261353 0.23975304 -0.039793625 0.14171849
0.030720377 0.3660644 0.24983259 0.3077669 0.31818786 0.021296024 -0.002693186 0.49266884
0.21049334 0.4090458 0.14291334 0.14737393 0.09056394 0.1660263 -0.34778348 -0.24298398
0.034590717 0.34306967 0.07817009 -0.0161684 0.13481756 0.15012023 0.22312342 -0.19366199
3.4226048 0.016643418 0.019899717 0.28592417 0.09847573 0.17319098 0.084235586 -0.08762268
-3.797798 0.1759568 0.8279683 -0.03597467 0.18677413 -1.6549172 -1.8177208 0.4022408
-3.706356 -0.80614156 0.2028528 0.2953694 0.0810394 -2.016149 0.26616195 0.14007561
0.0063264775 0.31482232 0.042931043 -2.7757285 -3.9308338 0.07904301 0.31439063 0.3373187
-1.3477986 0.17712049 2.1186419 0.40928158 -0.15242061 -1.4850786 0.31972796 0.12907584
-0.08487731 -1.9079074 0.46238127 0.13694197 0.023862852 0.0029856241 0.2884113 -0.8319962
0.35859588 0.2370291 -2.8957589 -0.05573673 -0.26533243 0.09104001 -0.04910546 0.24538496
0.23860492 1.6700904 -3.9759474 0.19702443 0.07462019 0.22904596 0.26663306 -0.08965317
-2.5894496 0.113716505 0.21261762 0.030947667 -3.7691672 0.19916353 1.9209309 0.16086705
0.21799405 1.4684649 0.09469801 -3.7479293 0.2971497 0.17125298 0.29710698 0.24211994
0.3611375 -3.6916442 0.08240294 0.16761649 -3.779497 -2.9333587 0.21688525 -0.10228469
-0.0030439952 -3.7875986 0.15433505 -0.14187932 0.13251528 0.038881272 0.2554813 1.4515879
-0.008197687 0.07577497 -0.16888733 -4.123063 1.968887 0.19708443 0.39461303 0.3028303
-4.085643 0.15328218 0.016837424 1.2379004 1.605629 0.05591095 -0.2043339 0.35628292
-3.0136209 0.003726099 -0.33709055 0.07927676 -0.008606703 0.07746169 0.13418972 0.27684164
0.07723759 -0.037325557 -0.07878143 -0.067168154 -0.0752015 -0.07411645 -0.09252418 -0.006485606
-0.06316678 0.04132237 -0.07224317 -0.124629356 0.015637629 -0.12088838 0.04206059 -0.13911302
-0.10058169 0.008521399 -0.17135192 -0.07682858 0.036636412 -0.13071965 -0.13207774 -0.17374341
-0.071994245 -0.107521474 0.017860714 -0.16937186 -0.03345189 -0.0728606 -0.067152604 0.018668948
0.028539216 0.026281402 0.05236242 -0.1471499 -0.046668828 -0.076246075 -0.054244984 -0.053418823
0.01617196 0.0010699611 -0.14957534 -0.089741275 -0.10222474 -0.0959842 0.06622112 0.084315345
-0.007419627 0.025253506 -0.01759231 0.004734016 -0.12610728 -0.11796845 -0.09048339 0.018791206
00000000: 37cb 50c0 dbce 7e3f 4ac8 a63e 0b70 973e
00000010: 9134 b63d 15fa 673e e9a7 4c3e 1a88 993e
00000020: 3846 463f c73e d53d 9237 863d 1b92 f93e
00000030: 3835 bd3f e7e7 2f3e 73e1 1ec0 bb23 523d
00000040: 8c37 213e 30fc b93d 48df 24be 1b89 5ac0
00000050: b16b 6cbd 8468 2a3e 7d75 a93d 8f0b d7bb
00000060: b15f e13d d697 793e 0448 2bbe 5369 1ebd
00000070: 3bbe 4d3e b7fa eabe 964f 2f3d c2ef 3bc0
00000080: 6a2a dbbe d6db e03e a884 84c0 fc83 6f3f
00000090: 22f9 c3be 5457 083e 21e0 df3e ca05 8e3e
000000a0: 2be2 5e40 9da9 113e ee8a 593e 8ae8 4b3d
000000b0: 53e2 17be da1a cc3e b5b9 9bc0 3571 723f
000000c0: 36c3 a7c0 613e 90bf e092 50be 900d 143e
000000d0: 9ac1 303e d281 753e a4fe 22bd a71e 113e
000000e0: 4da9 fb3c cb6c bb3e 1dd4 7f3e a093 9d3e
000000f0: 85e9 a23e 0075 ae3c 2a80 30bb 173f fc3e
00000100: 918b 573e 736e d13e e057 123e 31e9 163e
00000110: 9679 b93d cc02 2a3e ad10 b2be cbd0 78be
00000120: ffae 0d3d d4a6 af3e a417 a03d 9873 84bc
00000130: 9d0d 0a3e 1eb9 193e 777a 643e 544f 46be
00000140: f50b 5b40 c757 883c bb04 a33c a764 923e
00000150: a5ad c93d fa58 313e b583 ac3d 8573 b3bd
00000160: 1f0f 73c0 052e 343e bbf5 533f 2d5a 13bd
00000170: b841 3f3e 54d4 d3bf 13ab e8bf 82f2 cd3e
00000180: f034 6dc0 4b5f 4ebf a5b8 4f3e a83a 973e
00000190: fcf7 a53d 9608 01c0 6146 883e fb6f 0f3e
000001a0: 574e cf3b 6430 a13e 76d8 2f3d 89a5 31c0
000001b0: c892 7bc0 4de1 a13d cff7 a03e 09b5 ac3e
000001c0: aa84 acbf 135f 353e d497 0740 5b8d d13e
000001d0: 2614 1cbe 0e17 bebf 62b3 a33e 752c 043e
000001e0: 28d4 adbd 4f36 f4bf 3dbd ec3e 843a 0c3e
000001f0: 077c c33c 76aa 433b a5aa 933e b4fd 54bf
00000200: e199 b73e c2b7 723e 1d54 39c0 334c 64bd
00000210: a7d9 87be 2f73 ba3d cf22 49bd 3246 7b3e
00000220: d954 743e 86c5 d53f ec75 7ec0 c6c0 493e
00000230: 78d2 983d 068b 6a3e 2184 883e 159c b7bd
00000240: 8bb9 25c0 33e4 e83d 6fb8 593e f685 fd3c
00000250: 093a 71c0 86f1 4b3e 10e1 f53f 55ba 243e
00000260: d539 5f3e a8f6 bb3f 08f1 c13d 13de 6fc0
00000270: 0124 983e f15c 2f3e 681e 983e 4aee 773e
00000280: 04e7 b83e e643 6cc0 dfc2 a83d a8a3 2b3e
00000290: 47e3 71c0 26bc 3bc0 2b17 5e3e a37a d1bd
000002a0: c47d 47bb 0468 72c0 020a 1e3e d048 11be
000002b0: 16b2 073e f841 1f3d 72ce 823e a2cd b93f
000002c0: 974f 06bc e82f 9b3d cdf0 2cbe 22f0 83c0
000002d0: 7d04 fc3f 80d0 493e b80a ca3e 930c 9b3e
000002e0: 96bd 82c0 01f6 1c3e a3ee 893c 8573 9e3f
000002f0: 4085 cd3f e102 653d e83c 51be b76a b63e
00000300: 2adf 40c0 9131 743b 2297 acbe db5b a23d
00000310: 2103 0dbc 3ca4 9e3d 0869 093e 30be 8d3e
00000320: be2e 9e3d afe2 18bd 2958 a1bd 758f 89bd
00000330: 3e03 9abd 5eca 97bd 517d bdbd 3585 d4bb
00000340: 965d 81bd a541 293d 3af4 93bd ad3d ffbd
00000350: 7c1a 803c 5494 f7bd ba47 2c3d a573 0ebe
00000360: c6fd cdbd 579d 0b3c e176 2fbe 4d58 9dbd
00000370: 1010 163d 5fdb 05be 633f 07be cbe9 31be
00000380: b871 93bd 3834 dcbd a250 923c d16f 2dbe
00000390: d904 09bd f037 95bd 4e87 89bd 9fef 983c
000003a0: 13cb e93c 184c d73c fa79 563d 77ae 16be
000003b0: d027 3fbd e726 9cbd fd2f 5ebd b2cd 5abd
000003c0: 0f7b 843c f03d 8c3a 472a 19be 46ca b7bd
000003d0: 345b d1bd 5d93 c4bd f09e 873d 86ad ac3d
000003e0: 5820 f3bb 71e0 ce3c c01d 90bc ce1f 9b3b
000003f0: 4422 01be 7199 f1bd 5b4f b9bd 04f0 993c

network.2.bias f4 [200]
-0.37951 -0.028054552 -0.044070896 0.09922981 -0.0139011815 -0.039958727 1.1979419 0.8086064
-0.006003286 -1.3819854 -0.01850671 -0.3105961 -0.018568475 1.0909327 -0.5072097 -0.018355712
-0.022177558 -0.023688022 -0.010621556 -0.017117465 -0.005691553 -0.4155742 -0.030694366 -0.00023223428
-0.8469949 -0.012693569 1.2316403 -0.01138215 0.297151 0.26976818 0.17317091 -1.0052733
-0.3619888 -0.37790492 -0.008191623 -0.23156835 0.37297696 0.003680902 -0.030339954 -0.034399815
0.86012477 1.2927413 1.1152563 -0.42676723 -0.031019531 -0.03870977 0.49423495 -0.041064702
0.4971123 -0.027785836 -0.35948828 0.48453766 -0.010647707 -0.0405006 0.14290105 1.2508699
0.0541784 -0.010255704 -0.02228635 -0.008894939 -0.044923753 0.27621028 -0.041995067 -0.026211904
-0.03035622 -0.02023108 0.89325297 -0.003158514 0.9767374 0.74609154 0.09987058 1.0225978
-0.0017797363 -0.0060054683 0.41958305 -0.01956885 1.4399436 -0.043841623 0.85009915 -0.008127453
-0.02026641 -0.41926032 -0.67176086 -0.007463205 -0.51988345 1.5273976 0.91148454 1.0407003
-0.042986304 1.1771106 -0.006292314 -0.018346315 0.047294587 1.1420617 0.0007911457 0.27617058
-0.0005936996 -0.98334724 0.005227718 -0.75747013 -0.08801307 0.0780775 0.96194655 -0.021359773
-0.6479992 -1.000164 -0.034649402 1.8108282 0.0 -0.011495123 -1.101901 0.018621728
-0.53918654 -0.020505091 -3.340175e-05 0.28651592 -0.15185367 -0.031671267 0.22774585 0.6242383
-0.04111589 -0.29691416 0.0057684667 -0.19975756 0.11598039 1.0398446 -0.009789206 -0.036123272
0.053315002 -0.19236512 -0.20491639 -0.8815899 -0.015824953 -0.07459785 -0.022508442 0.0050495677
0.01188284 -0.0031762896 0.5071617 1.2330728 1.2674482 -0.77876985 -0.04327424 -0.0106909815
-1.0156751 -0.0064287568 0.93831456 0.026900753 -0.032281443 -0.038925134 -0.021774309 -0.20769744
0.7746897 -0.89678764 0.5898717 -0.72232103 0.8092098 0.112447664 0.45320243 0.4503373
-0.47195646 0.00071183353 -0.027737655 -0.25785923 -0.015149111 0.082103506 0.18421233 0.34969953
-0.4841335 0.12968694 0.012080425 0.8566699 0.3370184 -0.93493456 -0.05089689 -0.029834745
0.40218157 1.0819074 0.4206441 -0.097747296 0.0071653295 0.5748882 -0.04040975 1.3229088
-0.2332853 -0.0013968541 0.33368868 0.70949274 0.901431 -0.5889233 0.8846398 -0.0051131696
1.1169682 0.09289618 1.1443056 0.0066079358 0.00085225474 0.5895998 -0.95572156 -0.011559421
00000000: 224f c2be a9d2 e5bc af83 34bd 0039 cb3d
00000010: c8c1 63bc c3ab 23bd 2956 993f d400 4f3f
00000020: 37b7 c4bb e6e4 b0bf 629b 97bc 7406 9fbe
00000030: ea1c 98bc afa3 8b3f 7fd8 01bf b85e 96bc
00000040: b6ad b5bc 620d c2bc 0906 2ebc ed39 8cbc
00000050: 3580 babb 24c6 d4be c072 fbbc ea83 73b9
00000060: a8d4 58bf b0f8 4fbc 64a6 9d3f 337c 3abc
00000070: 2d24 983e 0e1f 8a3e b753 313e ccac 80bf
00000080: 9956 b9be c17c c1be 2836 06bc 4120 6dbe
00000090: d6f6 be3e 4a3b 713b 7f8b f8bc d2e6 0cbd
000000a0: 2331 5c3f 8c78 a53f b8c0 8e3f 3c81 dabe
000000b0: ac1c febc 238e 1ebd 5d0c fd3e 7633 28bd
000000c0: 8185 fe3e 1f9f e3bc d90e b8be 5215 f83e
000000d0: b873 2ebc f5e3 25bd a754 123e 811c a03f
000000e0: 2cea 5d3d 8a07 28bc dd91 b6bc 14bc 11bc
000000f0: f801 38bd 6f6b 8d3e 0503 2cbd 59ba d6bc
00000100: 9cad f8bc a6bb a5bc 3aac 643f 12ff 4ebb
00000110: 760b 7a3f dbff 3e3f f288 cc3d 7ce4 823f
00000120: 0a46 e9ba 85c9 c4bb 97d3 d63e da4e a0bc
00000130: 1250 b83f 4693 33bd 19a0 593f 0229 05bc
00000140: be05 a6bc 4aa9 d6be 85f8 2bbf e78d f4bb
00000150: 1517 05bf c481 c33f 0d57 693f ab35 853f
00000160: 6812 30bd 8fab 963f c12f cebb 034b 96bc
00000170: f8b7 413d 142f 923f e464 4f3a 3b66 8d3e
00000180: 81a2 1bba a5bc 7bbf 474d ab3b 90e9 41bf
00000190: 3240 b4bd 19e7 9f3d 2142 763f b1fa aebc
000001a0: 47e3 25bf 6005 80bf 88ec 0dbd 38c9 e73f
000001b0: 0000 0000 0a56 3cbc 180b 8dbf 988c 983c
000001c0: 2108 0abf 4bfa a7bc db18 0cb8 37b2 923e
000001d0: 877f 1bbe bbb9 01bd 3536 693e 15ce 1f3f
000001e0: 2369 28bd 2205 98be 6805 bd3b 3f8d 4cbe
000001f0: 2087 ed3d a119 853f e862 20bc fff5 13bd
00000200: d560 5a3d 5dfb 44be 9ad5 51be e0af 61bf
00000210: 55a3 81bc c2c6 98bd a063 b8bc d876 a53b
00000220: 3eb0 423c 4c29 50bb 59d5 013f 54d5 9d3f
00000230: be3b a23f 765d 47bf 5440 31bd 3a29 2fbc
00000240: a401 82bf 52a8 d2bb 6235 703f f85e dc3c
00000250: 8c39 04bd f66f 1fbd 0960 b2bc a3ae 54be
00000260: 1052 463f e093 65bf d501 173f 08ea 38bf
00000270: 6028 4f3f f64a e63d 260a e83e 9c92 e63e
00000280: 47a4 f1be 579a 3a3a 143a e3bc 2006 84be
00000290: fa33 78bc e225 a83d 28a2 3c3e d10b b33e
000002a0: 59e0 f7be a7cc 043e faec 453c b84e 5b3f
000002b0: ad8d ac3e df57 6fbf 4279 50bd ff67 f4bc
000002c0: beea cd3e f17b 8a3f aa5e d73e bc2f c8bd
000002d0: 24cb ea3b e02b 133f b284 25bd 1355 a93f
000002e0: 57e2 6ebe a516 b7ba 3ed9 aa3e 51a1 353f
000002f0: 2fc4 663f adc3 16bf c177 623f 608c a7bb
00000300: d0f8 8e3f 5a40 be3d 9b78 923f 6287 d83b
00000310: d969 5f3a 03f0 163f 2baa 74bf ba63 3dbc
