ddqn_sumo/saves/sumo_single_intersection/ddqn_model_period_10.pth (torch, 784246 bytes, 24 tensors)

network.0.weight f4 [200, 36]
0	0xc023dec5	-2.5604718
1	0x3e5f5c04	0.21812445
2	0xc0652b12	-3.5807538
3	0xc0259685	-2.587312
4	0x3ddb1efd	0.1069927
5	0xc061312f	-3.518627
6	0xc010a3bb	-2.2599933
7	0x3ec13d1b	0.37741932
8	0xbfe09831	-1.7546445
9	0xc0070d20	-2.110176
10	0x3e8c01d3	0.27345142
11	0xbfd43c99	-1.6580993
12	0xc00656f4	-2.0990572
13	0x3e43b2dc	0.19111198
14	0xbfd575f2	-1.6676619
15	0xc0375478	-2.8645306
16	0x3e9d8afc	0.307701
17	0xbff451ac	-1.9087424
18	0xc038d4ca	-2.8879876
19	0x3f0eb4ee	0.55744827
20	0xbffaf0c6	-1.9604728
21	0xc0044b4e	-2.0670962
22	0x3d97665f	0.073925726
23	0xc000062a	-2.0003762
24	0xc0097e04	-2.1483164
25	0x3e7be5cc	0.2459938
26	0xbffc0422	-1.9688761
27	0xc014ce7b	-2.3251026
28	0x3e07d7af	0.1326587
29	0xc00df271	-2.2179224
30	0xc047d3b2	-3.1222959
31	0x3d1dd282	0.038530834
32	0xc03fccfb	-2.996886
33	0xc042c5c0	-3.0433197
34	0x3d6b2a9f	0.057413694
35	0xc04736f0	-3.112728
36	0xc032a5cb	-2.7913692
37	0x3ebd015b	0.36915097
38	0xc0c61fb7	-6.1913714
39	0xc02e55ce	-2.723987
40	0x3f03fdd5	0.5155919
41	0xc0c8ca47	-6.274692
42	0xbfe145b6	-1.7599399
43	0x3e977987	0.29584906
44	0xc0472bdc	-3.112052
45	0xbfe93a69	-1.822095
46	0x3e0a83a7	0.13526784
47	0xc0486695	-3.131261
48	0xbfee1b41	-1.8602067
49	0x3e77e26f	0.24207471
50	0xc04b0c40	-3.1726227
51	0xc05e934a	-3.4777398
52	0x3f1b031f	0.6055164
53	0xc02848d9	-2.6294463
54	0xc05d4195	-3.4571278
55	0x3f151fb9	0.5825153
56	0xc01e45df	-2.4730146
57	0xc0080563	-2.1253288
58	0x3e98ffb2	0.2988258
59	0xbfa7e8b2	-1.3117888
60	0xc010fbc0	-2.2653656
61	0x3ecb178f	0.3966641
62	0xbfaca0c4	-1.3486562
63	0xc00c7548	-2.1946583
64	0x3f0843be	0.53228366
65	0xbfae40da	-1.3613541
66	0xc047e9ef	-3.1236532
67	0xbd299f2d	-0.041411567
68	0xbbdebec6	-0.0067976443
69	0xc047aaec	-3.1198072
70	0xbd0f7640	-0.03502488
71	0x3c5c309a	0.013439322
72	0xc02b3135	-2.6748784
73	0x3e22dceb	0.15904586
74	0xc039af97	-2.9013422
75	0xc02acd46	-2.668779
76	0x3e7ee0d5	0.24890454
77	0xc034bb30	-2.823925
78	0xc027c8a5	-2.6216214
79	0x3d8d1f65	0.06890754
80	0xc00eddd5	-2.2322896
81	0xc038a09b	-2.8848026
82	0x3ebc280e	0.3674931
83	0xc0105d8c	-2.2557096
84	0xc03a9ee8	-2.9159489
85	0x3e919623	0.28434858
86	0xc012befe	-2.2929072
87	0xc03501a8	-2.828226
88	0x3f17ccc3	0.59296817
89	0xbfeb0199	-1.8359863
90	0xc03a53cb	-2.9113643
91	0x3e984c79	0.29745844
92	0xbfe9681e	-1.8234899
93	0xc018f9ea	-2.3902535
94	0x3e544264	0.20728451
95	0xc00b11ae	-2.172954
96	0xc0279671	-2.6185572
97	0x3e65c2ab	0.22437541
98	0xc00a1348	-2.1574268
99	0xc021a70e	-2.5258212
100	0xbd362a9d	-0.044474233
101	0xc007bd54	-2.1209307
102	0xc02be54c	-2.6858702
103	0x3ded5596	0.1158859
104	0xc01f90df	-2.4932172
105	0xc0343073	-2.815457
106	0x3d9bd0d4	0.0760819
107	0xc01f8b16	-2.4928641
108	0x400a8947	2.1646287
109	0xbd683f45	-0.056700964
110	0x3f696ae6	0.9117874
111	0x3fff677c	1.9953456
112	0xbe289b11	-0.16465403
113	0x3f576796	0.84142435
114	0x3fdb87b5	1.715079
115	0xbdc5edb1	-0.09664477
116	0x3f85a864	1.0442014
117	0x3fe6a678	1.8019552
118	0xbe3cfcad	-0.18455763
119	0x3f95a89f	1.1692084
120	0x3ff32206	1.8994758
121	0xbe0ab5e8	-0.13545954
122	0x3f9ae631	1.2101499
123	0x3f0fba78	0.56143904
124	0x3edd6a23	0.43245038
125	0x3f962d9d	1.173267
126	0x3ec89dff	0.3918304
127	0x3f079695	0.52964145
128	0x3fa8facf	1.3201541
129	0xbf7d3d2b	-0.9892146
130	0xbd9b2c14	-0.075767666
131	0x3fa964a8	1.3233843
132	0xbf82fa4c	-1.0232635
133	0xbe30fec6	-0.17284688
134	0x3fa80df8	1.3129263
135	0xbf8f53fe	-1.1197507
136	0x3c960e68	0.018317416
137	0x3fa10b79	1.2581626
138	0x3fc67d74	1.5507035
139	0xbe04d597	-0.12972103
140	0x3eba57aa	0.36395007
141	0x3fc50187	1.5391091
142	0xbdcb7424	-0.099342614
143	0x3ea857b4	0.32879412
144	0xbfdc49d4	-1.721003
145	0x3d4588a4	0.048226014
146	0xbfca6a92	-1.5813773
147	0xbfd6d38a	-1.6783307
148	0x3e5dcdc7	0.21660529
149	0xbfcec876	-1.6154926
150	0xc028c6bd	-2.63713
151	0x3de14a72	0.110005274
152	0xbf847de6	-1.0350921
153	0xc023c39b	-2.5588138
154	0x3e0cd618	0.13753545
155	0xbf84f9c9	-1.0388728
156	0xc02698d3	-2.6030777
157	0x3e87e251	0.26539853
158	0xbf61a907	-0.8814854
159	0xbff3f4b7	-1.9059056
160	0x3f02c86c	0.5108707
161	0xc01a7f54	-2.4140215
162	0xc0056ecc	-2.0848875
163	0x3ee1f9fb	0.44136032
164	0xc0212bf7	-2.5183084
165	0xbfbf1378	-1.4927816
166	0x3e8ff1c9	0.28114155
167	0xc05301ab	-3.2969768
168	0xbfbabf30	-1.4589596
169	0x3d9de19d	0.07709048
170	0xc060dcb0	-3.5134697
171	0xbfac557d	-1.3463589
172	0x3ebd4c21	0.36972144
173	0xc0595f26	-3.3964324
174	0xbfa72d1e	-1.3060644
175	0x3eaed6e2	0.34148318
176	0xc0424faa	-3.0361123
177	0xbfb20fad	-1.3911034
178	0x3e0df5bd	0.13863273
179	0xc047a704	-3.1195688
180	0xc02cc9fd	-2.6998284
181	0xbec24a0e	-0.37947124
182	0xc07a8849	-3.9145682
183	0xc023dfa7	-2.5605257
184	0xbe4794a2	-0.19490293
185	0xc07a4fc0	-3.9111176
186	0xbfeeee9e	-1.866657
187	0x3dbd29de	0.09236501
188	0xbff4be15	-1.9120508
189	0xbfea8cb7	-1.8324193
190	0x3cf31c44	0.029676564
191	0xbff2d71c	-1.8971896
192	0xbfe66601	-1.7999879
193	0xbd265073	-0.040604066
194	0xbfebf495	-1.8434016
195	0xc026b76a	-2.6049447
196	0x3d9a4a6f	0.07533728
197	0xbfd615a9	-1.672536
198	0xc02e4011	-2.7226603
199	0x3dc94d20	0.098291636
200	0xbfd653f7	-1.6744374
201	0xc018d68a	-2.3880944
202	0xbdbe75df	-0.09299826
203	0xc00bf9e7	-2.1871278
204	0xc00d20a9	-2.2051184
205	0x3e1b5294	0.1516822
206	0xc0051ac6	-2.0797591
207	0xc01b2e0e	-2.424686
208	0x3e01e641	0.12685491
209	0xc001de07	-2.0291765
210	0xc030bc1a	-2.7614808
211	0x3e62ceff	0.22149275
212	0xc0337ca7	-2.8044832
213	0xc034b342	-2.823441
214	0x3ed30b8f	0.41219756
215	0xc028f3d3	-2.6398818
216	0xbe959e74	-0.29222453
217	0x3dd4b314	0.10385719
218	0xbf2fe5c7	-0.6870999
219	0xbdf79eef	-0.12090861
220	0xbca85e75	-0.020552853
221	0xbf117e65	-0.5683349
222	0xbf7bcc1f	-0.9835834
223	0x3e82563d	0.2545642
224	0xbf0c7c30	-0.54876995
225	0xbf8c343b	-1.095344
226	0x3e415e13	0.18883543
227	0xbed97fb3	-0.4248024
228	0xbf700a38	-0.9376559
229	0x3ebc5834	0.36786044
230	0xbf196476	-0.59918916
231	0xbedea7cc	-0.43487394
232	0x3e9936b9	0.29924563
233	0xbeddf749	-0.43352726
234	0xbf23b02e	-0.63940704
235	0x3e3922da	0.18079701
236	0xbe864aa9	-0.26228836
237	0xc02d3e7d	-2.706939
238	0xbe1fc6c8	-0.15603173
239	0x3e323049	0.17401232
240	0xc033d230	-2.8097038
241	0xbda408da	-0.08009501
242	0x3e7de08b	0.24792688
243	0xc038865b	-2.8832004
244	0xbe28ffcf	-0.16503833
245	0x3da2fa72	0.07957925
246	0x3c83147c	0.016000979
247	0x3d31f003	0.043441784
248	0xbe0cae70	-0.13738418
249	0x3e8576f6	0.26067322
250	0x3ca79e9d	0.020461375
251	0xbea654dc	-0.32486618
252	0xbfdc6ded	-1.7221047
253	0x3e0f255f	0.139791
254	0xbffe2a4a	-1.9856656
255	0xbfee058e	-1.8595445

network.0.bias f4 [200]
0	0xbf46f25b	-0.77713555
1	0xbe718e3e	-0.23589417
2	0xbf381be5	-0.71917564
3	0x3f1c71e7	0.611113
4	0xbef0fc32	-0.4706741
5	0xbe9c3e68	-0.30516362
6	0x3ef2812d	0.47364178
7	0xbf194c81	-0.5988236
8	0xbf3c9c69	-0.7367616
9	0x3f073c3e	0.528263
10	0xbf221f84	-0.6332934
11	0xbf537697	-0.8260283
12	0xbf4edb95	-0.80803806
13	0x3f9f0c9f	1.2425727
14	0xbf357739	-0.70885044
15	0xbf190639	-0.5977512
16	0xbde1910b	-0.11013993
17	0xbe0184fd	-0.12648387
18	0xbd263db7	-0.0405862
19	0xbf3de534	-0.7417786
20	0xbf27d5b9	-0.6556049
21	0xbeae17c4	-0.34002507
22	0xbea4f173	-0.3221546
23	0xbea3413b	-0.31885704
24	0xbebc38e8	-0.36762166
25	0x3f3b97e2	0.7327863
26	0xbefd9a38	-0.49531722
27	0xbf29e599	-0.66365963
28	0xbe84e238	-0.2595384
29	0x3f442008	0.76611376
30	0xbf0ed361	-0.5579129
31	0xbf016701	-0.50547796
32	0xbe8cd9ed	-0.27510014
33	0x3ee92687	0.45537207
34	0xbf33dd97	-0.70259994
35	0x3f0fd1e6	0.56179655
36	0xbe8c8782	-0.27447134
37	0xbdec2f12	-0.115324154
38	0xbf1ecdd7	-0.62032837
39	0xbeb33ca3	-0.350072
40	0xbe90ba88	-0.28267312
41	0xbf4216e7	-0.75816196
42	0xbebb8187	-0.3662226
43	0xbf432446	-0.76227224
44	0x3ea17e52	0.31541687
45	0x3f6c44c5	0.92292434
46	0x3f65cb87	0.89763683
47	0x3edf10e7	0.43567583
48	0x3d93321b	0.07187291
49	0xbf3d5b62	-0.73967564
50	0xbe400a94	-0.18754035
51	0x3ec715dc	0.38883865
52	0x3f15003a	0.5820347
53	0xbf3b536a	-0.73174155
54	0x3e9b9265	0.30385128
55	0xbeb6a077	-0.356693
56	0xbdd23a21	-0.102649935
57	0xbecdc4e6	-0.40189284
58	0x3ee983ad	0.45608273
59	0xbf18a908	-0.5963292
60	0xbf149d30	-0.5805235
61	0xbf084f53	-0.5324604
62	0xbf0ee4ac	-0.55817676
63	0xbea1ea1c	-0.31623924
64	0x3f269809	0.6507574
65	0x3e28d402	0.16487125
66	0xbf1f02e7	-0.62113804
67	0xbe388c52	-0.18022278
68	0xbdd08be2	-0.101829305
69	0x3f8574e4	1.0426297
70	0x3cb54841	0.02212918
71	0xbf127639	-0.57211643
72	0xbf449bd1	-0.76800257
73	0xbf4620a4	-0.77393556
74	0xbf10845e	-0.56451976
75	0xbe5ce33c	-0.21571058
76	0x3f0322aa	0.5122477
77	0x3e855cdb	0.26047406
78	0x3f5cb7b8	0.8621783
79	0x3f8640fd	1.0488583
80	0xbebb07a9	-0.36529282
81	0xbefb1ae0	-0.49043941
82	0xbf434e85	-0.76291686
83	0xbecb0796	-0.39654225
84	0xbf1c7bdb	-0.6112649
85	0xbf27a865	-0.65491325
86	0xbc91ed1a	-0.017813254
87	0xbeff403c	-0.49853694
88	0x3f190746	0.59776723
89	0xbe95cb71	-0.29256776
90	0x3eeb9323	0.46010694
91	0xbe900649	-0.28129795
92	0x3dd7ca56	0.105366394
93	0xbf457733	-0.7713501
94	0xbf3ff781	-0.74987036
95	0xbf3f115b	-0.7463586
96	0x3f0a1c46	0.5394939
97	0xbf3b7048	-0.732182
98	0xbf254c01	-0.645691
99	0xbea78c16	-0.32724065
100	0xbf2e013f	-0.6797065
101	0xbeba4922	-0.3638392
102	0xbf0d3663	-0.5516111
103	0xbd5596d9	-0.052145813
104	0xbf4adf05	-0.7924655
105	0x3c5534fc	0.013013121
106	0xbf3b9d5a	-0.73286974
107	0xbee04370	-0.4380145
108	0xbf04a206	-0.5180973
109	0xbf1ff0cf	-0.6247682
110	0xbf2e166f	-0.6800298
111	0xbec38389	-0.3818629
112	0xbf1bde0d	-0.608857
113	0xbf273561	-0.65315825
114	0x3b2b1b19	0.002610868
115	0x3eaf543c	0.34243953
116	0x3f2c9bd5	0.6742528
117	0xbf271985	-0.65273315
118	0xbf48b903	-0.78407305
119	0x3ede25c9	0.43388203
120	0x3e660c26	0.22465572
121	0xbf41a824	-0.7564719
122	0xbeaabe40	-0.33348274
123	0xbeeae3c2	-0.4587689
124	0x3f32dee7	0.6987137
125	0xbf3fa562	-0.7486173
126	0x3f538d57	0.8263754
127	0xbe6f68c1	-0.23379804
128	0x3e8a9411	0.2706609
129	0x3eb4561c	0.35221946
130	0x3f1f1d06	0.6215366
131	0xbe4709fa	-0.194374
132	0xbe9cccde	-0.3062505
133	0x3ed9e6bb	0.42558846
134	0xbf49673a	-0.78673136
135	0xbefafdbe	-0.49021715
136	0xbebbb47d	-0.3666114
137	0x3f66685f	0.9000301
138	0xbeac8350	-0.33693933
139	0x3f476fa2	0.77904713
140	0xbdcceccd	-0.10006104
141	0xbf1efd40	-0.6210518
142	0xbf2efc1e	-0.6835345
143	0x3f86ed90	1.0541248
144	0xbedc359c	-0.4300965
145	0x3f95e88b	1.1711591
146	0x3f12f323	0.5740225
147	0x3f66fca6	0.9022926
148	0x3f041991	0.5160151
149	0xbf279ef3	-0.6547691
150	0x3e96b7dc	0.2943715
151	0xbf2c8096	-0.67383707
152	0xbf51f93f	-0.82020944
153	0xbebdb679	-0.37053278
154	0x3edaeb33	0.42757568
155	0xbf2c8618	-0.6739211
156	0xbf1faca6	-0.62372816
157	0xbed23e6d	-0.41063252
158	0xbef1a79f	-0.47198197
159	0xbf44cf1f	-0.7687854
160	0x3e870522	0.26371104
161	0xbf3426b7	-0.70371574
162	0x3eb52612	0.35380608
163	0xbf48b6bd	-0.78403836
164	0xbe144ab4	-0.14481622
165	0xbf1b13e8	-0.6057725
166	0xbe6f53e4	-0.23371845
167	0xbf21a689	-0.6314474
168	0x3efbadbb	0.49155983
169	0x3ea2a5dd	0.3176717
170	0xbe88373d	-0.26604643
171	0xbe699d94	-0.22814018
172	0xbeb0065d	-0.34379855
173	0x3f1ae856	0.60510767
174	0xbf3873c4	-0.72051644
175	0xbf4b1e2c	-0.79342914
176	0xbf017879	-0.5057445
177	0xbe9b53d4	-0.30337393
178	0x3f2271cc	0.6345489
179	0x3f2ee6b4	0.68320775
180	0xbea31554	-0.3185221
181	0xbf394ade	-0.72379863
182	0x3ea72d26	0.32651633
183	0xbef4901e	-0.47766203
184	0xbf457e84	-0.7714617
185	0xbf188a4a	-0.5958601
186	0xbf4a4443	-0.7901041
187	0xbf4ab363	-0.7917997
188	0xbe786f25	-0.24261148
189	0x3eb92832	0.3616348
190	0x3e7141bd	0.23560233
191	0xbf44bc83	-0.76850146
192	0x3f103d17	0.56343216
193	0x3fa42287	1.2823037
194	0xbf274cc1	-0.6535149
195	0x00000000	0.0
196	0xbe91a240	-0.284441
197	0xbf3fe387	-0.74956554
198	0xbebe4f95	-0.3717009
199	0x3f249e9a	0.64304507

network.2.weight f4 [200, 200]
0	0x3baaeeba	0.0052164467
1	0x3dab673a	0.08369298
2	0xbd991127	-0.07473975
3	0xbe09e7b2	-0.13467291
4	0x3a2caf5c	0.000658741
5	0xbd1aeec5	-0.037825365
6	0x3d2df88e	0.04247337
7	0xbac36259	-0.0014906629
8	0xbda59275	-0.08084575
9	0xbdae74a8	-0.08518344
10	0x3cfe9753	0.031078016
11	0x3c498b83	0.012301329
12	0xbe0843c8	-0.13307106
13	0x3d619831	0.05507678
14	0x3dbf9d6b	0.09356197
15	0x3dd28d6d	0.10280881
16	0x3c6765bc	0.014123376
17	0xbe0ffd39	-0.1406144
18	0xbd5fa49f	-0.054600354
19	0x3d9e5314	0.0773069
20	0xbd8b188d	-0.06791792
21	0xbd9de916	-0.07710473
22	0xbd803daf	-0.06261765
23	0x3d0e4d6d	0.034741808
24	0xbcbba40a	-0.022905368
25	0xbe0b3dfb	-0.13597862
26	0x3cba86c6	0.022769343
27	0xbccf7f02	-0.025329117
28	0x3ca5a033	0.02021799
29	0xbaeb7177	-0.0017962892
30	0xbd66b26a	-0.056322493
31	0xbda8f38c	-0.08249578
32	0x3d0f482f	0.03498095
33	0xbdd9234c	-0.106024355
34	0x3b1ed6b6	0.0024236864
35	0x3c42ba49	0.011885234
36	0x3db4f86c	0.08836445
37	0x3d93140f	0.0718156
38	0xbd7a8b80	-0.061168194
39	0x3c731d1e	0.014838485
40	0xbc0d2d14	-0.0086167045
41	0xbd2584a0	-0.040409684
42	0x3da9e3e8	0.08295423
43	0x3e0a6a22	0.13517049
44	0x3bf746e8	0.0075462945
45	0xbd8bf97d	-0.068346955
46	0xbd3fe25f	-0.046846744
47	0x3d38ad98	0.045087427
48	0xbd419464	-0.047260657
49	0x3ca25870	0.01981756
50	0x3b556b77	0.0032565275
51	0x3d161e93	0.03665025
52	0x3d77ddc5	0.06051423
53	0xbd7d04c4	-0.061772123
54	0xbe0510be	-0.12994668
55	0xbd2a9c08	-0.04165271
56	0xbded16fb	-0.11576649
57	0xbda22d30	-0.07918775
58	0xbd73fe82	-0.05956889
59	0xba6fa141	-0.0009141155
60	0x3d475a68	0.048670202
61	0x3da80fa4	0.08206108
62	0x3d7646ce	0.06012612
63	0xbdc57456	-0.0964133
64	0x3d447877	0.047966447
65	0x3cebb029	0.028770523
66	0x3db6f032	0.08932532
67	0x3d55a1ba	0.052156188
68	0x393d5859	0.00018057357
69	0x3dc416eb	0.09574684
70	0x3da798f4	0.0818347
71	0xbdd31812	-0.103073254
72	0x3d62d874	0.055382207
73	0xbd0995d2	-0.033590145
74	0xbdbbb7a6	-0.091658875
75	0x3c7141ab	0.014725129
76	0xbe016d3a	-0.12639323
77	0x3d1f316c	0.03886549
78	0xbc493717	-0.012281201
79	0xbd44ef7b	-0.04807995
80	0xbbb628ef	-0.005559079
81	0xbd9654dc	-0.073404044
82	0xbe11c250	-0.1423428
83	0x3d483426	0.048877858
84	0x3d306092	0.043060847
85	0xbdf53bbb	-0.11974283
86	0x3d65311e	0.055955045
87	0xbdc29d92	-0.095027104
88	0xbd260abb	-0.040537577
89	0x3dcb2022	0.09918238
90	0x3cf964ea	0.030443627
91	0xbd862bbc	-0.065513104
92	0xbdf6783d	-0.120346524
93	0x3d4f8bcd	0.050670434
94	0xbdb9ea15	-0.09077851
95	0xbc817e0b	-0.015807172
96	0xbdaf0ed8	-0.08547753
97	0x3d83812a	0.064211205
98	0xbe0af206	-0.13568887
99	0xbce95d63	-0.028486913
100	0x3ca5bbbb	0.020231118
101	0xbd44864b	-0.047979634
102	0x3db327d9	0.08747835
103	0xbe0db765	-0.1383949
104	0xbc77c45c	-0.015122499
105	0x3caf73c6	0.02141751
106	0x3c76f4e6	0.015073037
107	0x3cf36a7f	0.029713867
108	0xbdd7d7b5	-0.1053919
109	0x3d63b191	0.055589262
110	0xbd9be099	-0.07611198
111	0x3df7b498	0.120949924
112	0xbdf12621	-0.11774851
113	0xbd6f7bd0	-0.058467686
114	0xbd5ef4f2	-0.054432817
115	0xbdbaac79	-0.09114928
116	0xbcaeaabe	-0.02132165
117	0xbdcc7b5a	-0.09984465
118	0xbddcfef8	-0.10790819
119	0xbda9faf0	-0.08299816
120	0xbd88c192	-0.066775456
121	0xbb86abc2	-0.0041098306
122	0xbcc74f67	-0.024329854
123	0x3db56a05	0.08858112
124	0x3d29f0da	0.04148946
125	0xbdb17969	-0.08665735
126	0xbd81f525	-0.06345586
127	0xbd5855fb	-0.052816372
128	0xbd8d52e5	-0.069005765
129	0xbd6446eb	-0.055731695
130	0x3b85e0f7	0.004085656
131	0x3d899301	0.06717492
132	0x3bc03841	0.005866081
133	0xbd94b4a5	-0.07261018
134	0x3accbe9d	0.0015620772
135	0xbd9d0529	-0.07667
136	0x3c894e65	0.016761014
137	0x3daf8880	0.08570957
138	0xbce2a1fe	-0.027665135
139	0x3d7acf23	0.061232697
140	0xbbf0f9cb	-0.0073539964
141	0xbce3cf99	-0.027808951
142	0x3dba860f	0.09107601
143	0xbd4f09ed	-0.050546575
144	0x3dba30ae	0.09091316
145	0x3c89f84d	0.016842032
146	0xbdf12c6a	-0.117760494
147	0xbc332eed	-0.010936481
148	0x3d56d3dd	0.052448142
149	0xbd9ff939	-0.07811207
150	0xbd7accee	-0.061230592
151	0x3d7e90c9	0.062149797
152	0x3d711873	0.058861207
153	0xbd8a13ab	-0.067420326
154	0xbd583362	-0.052783377
155	0xbcfda5d3	-0.03096286
156	0xbe0736db	-0.1320452
157	0xbdd16964	-0.1022518
158	0x3d51e00c	0.05123906
159	0x3e0a13b7	0.13484083
160	0x3d8e30f4	0.06942931
161	0xbd50e341	-0.050997976
162	0xbd0b6208	-0.034029037
163	0x3c860b4d	0.01636281
164	0xbbeb3230	-0.0071776137
165	0x3cda2264	0.026627727
166	0x3dc633b1	0.09677828
167	0x3dc18cd4	0.09450689
168	0x3dae91c9	0.085239
169	0xbd5be36b	-0.05368368
170	0xbdd65184	-0.104647666
171	0xbd379186	-0.044816516
172	0xbdabc5c8	-0.08387333
173	0x3d7bb6d1	0.061453644
174	0x3dbe4cc0	0.09291983
175	0xbdee1c87	-0.11626535
176	0xbd6fef3b	-0.058577757
177	0xbc0a38ce	-0.008436395
178	0xbd73deb1	-0.059538547
179	0xbd4387b0	-0.047736824
180	0xbded2950	-0.11580145
181	0x3ceb2204	0.028702743
182	0xbce6d0ea	-0.02817579
183	0xbde4fbfc	-0.11180875
184	0x3dba9e4d	0.09112225
185	0x3de8344b	0.11338099
186	0xbca75716	-0.020427268
187	0x3d602e90	0.054731905
188	0x3d6718a7	0.056419995
189	0xbdfd573f	-0.123701565
190	0x3d25390f	0.04033762
191	0x3cf54730	0.029941171
192	0xbcb78d9b	-0.02240639
193	0xbdf430dd	-0.119233824
194	0x3d304d29	0.043042336
195	0xb9710000	-0.00022983551
196	0x3d370596	0.04468306
197	0x3b9b5c82	0.0047412524
198	0xbcb73d26	-0.022368025
199	0xbdf53315	-0.11972634
200	0x3e912998	0.28352046
201	0x4010dac9	2.2633536
202	0x3fb051ff	1.3775023
203	0xbfc69929	-1.5515491
204	0x3f80cc7a	1.0062401
205	0x3f7e35aa	0.99300635
206	0x3f58f66d	0.84751016
207	0x3f886b8f	1.0657824
208	0x3f2d02f4	0.6758263
209	0x3f59fe44	0.85153604
210	0x3f1fa942	0.6236764
211	0x3f8c39da	1.0955155
212	0x3f88ae82	1.0678256
213	0xbfbdf19b	-1.4839357
214	0x3fa9b0de	1.32571
215	0x3f3fbe66	0.748999
216	0x3f96027f	1.1719512
217	0x3f377be3	0.7167341
218	0xbcd3370e	-0.025783088
219	0x3fbbda87	1.4676064
220	0x3f6046e4	0.8760817
221	0x3fcd504b	1.6040128
222	0x3ecc737a	0.39931852
223	0x3f5c9226	0.86160505
224	0xbe85623e	-0.26051515
225	0xbf991e9d	-1.1962467
226	0x3fa300f9	1.2734672
227	0xbef139a5	-0.47114292
228	0x3fd0adc5	1.630303
229	0xbfbb978c	-1.4655623
230	0x3fe0a63a	1.7550728
231	0x3e9a15a9	0.3009465
232	0x3f811c48	1.0086756
233	0x3f457965	0.7713836
234	0x3ed6c444	0.41946614
235	0x3f73f208	0.95291185
236	0x3ffb6c89	1.9642497
237	0x3ff9a414	1.9503198
238	0x3ed18d9c	0.40928352
239	0x3fdc6d2a	1.7220814
240	0xbc7fd141	-0.015613855
241	0x3f2be9b4	0.6715348
242	0x3ff5ba52	1.9197485
243	0x3f3ce683	0.7378923
244	0x3e9e322a	0.30897647
245	0x3f76b438	0.9636874
246	0xbf78969b	-0.97104806
247	0x3f61dd9e	0.88228786
248	0xc07047bc	-3.7543783
249	0x3f8de79f	1.108631
250	0x40045368	2.0675907
251	0xbf7d208f	-0.98877805
252	0x3f7c7b4e	0.9862565
253	0x3f3ab038	0.7292514
254	0x3f17dadb	0.5931832
255	0x3fc204b5	1.5157686

network.2.bias f4 [200]
0	0xbd1dec15	-0.038555223
1	0xbd8c244d	-0.06842861
2	0xbc5def27	-0.013545788
3	0x3f17cb72	0.5929481
4	0x3f1f72d9	0.6228462
5	0x3f2b6b3d	0.6696051
6	0x3e17dd50	0.14830518
7	0x3e43f4cc	0.19136351
8	0xbdf0edea	-0.117641285
9	0xbc400abc	-0.011721309
10	0x3c95160c	0.01819899
11	0x3f13376c	0.5750644
12	0x3f9d9847	1.2312096
13	0xbc78a214	-0.015175361
14	0xbe88a026	-0.26684684
15	0x3f36fdb9	0.714809
16	0xbcf119b8	-0.029431209
17	0xbe3040dd	-0.17212243
18	0x3f2e4c8b	0.68085545
19	0xbc0feb25	-0.00878409
20	0xbc89a722	-0.016803328
21	0xbcb44a56	-0.022008102
22	0x3ef23f5e	0.4731397
23	0x3f29ee5d	0.6637934
24	0x3f2517ad	0.6448925
25	0xbca0d873	-0.019634461
26	0xbdec5b45	-0.11540846
27	0xbe559a62	-0.20859674
28	0xbf40abd8	-0.7526221
29	0x3f3be2d6	0.73393
30	0xbef8cd0d	-0.4859394
31	0x3f238f15	0.638902
32	0x3f2e2f69	0.6804109
33	0x3f1393c8	0.5764737
34	0x3ea65729	0.32488373
35	0x3f2a182a	0.6644312
36	0x3bbfa2b6	0.005848254
37	0x3e22a8f3	0.15884762
38	0x3f8b491d	1.0881687
39	0xbc8ec178	-0.017426237
40	0xbeefc0ac	-0.46826684
41	0xbc965049	-0.01834883
42	0xbc9aa67f	-0.01887822
43	0xbe049089	-0.12945761
44	0x3f117866	0.5682434
45	0xbc0b2a5b	-0.008493985
46	0x3f2c2746	0.67247427
47	0xbf4216c3	-0.7581598
48	0x3e2cc2b4	0.16871148
49	0x3f2f612c	0.6850765
50	0xbd2383e7	-0.039920714
51	0xbf4dc78b	-0.80382603
52	0x3e183a85	0.14866073
53	0x3d939acb	0.07207259
54	0xbc7a7468	-0.0152865425
55	0x3f29450f	0.66121
56	0x3eacf549	0.33780888
57	0xbc804ac3	-0.01566065
58	0x3f10e6c3	0.56602114
59	0xbeea39a2	-0.45747095
60	0x3f123752	0.5711566
61	0xbcbb37f0	-0.022853822
62	0x3f12cab8	0.57340574
63	0x3f30cd33	0.6906311
64	0xbc92b46e	-0.017908301
65	0x3f1e92d9	0.6194282
66	0xbd808d10	-0.062769055
67	0x3f0de3c6	0.5542568
68	0x3ee18114	0.4404379
69	0x3fe39a61	1.7781488
70	0x3f274bed	0.6535023
71	0xbe59cbcf	-0.21269153
72	0x3f2cddcf	0.67525953
73	0x3f487c00	0.7831421
74	0x3e91f72f	0.285089
75	0x3ef65da8	0.4811833
76	0x3f327330	0.6970701
77	0x3da3f540	0.08005762
78	0x3f36afb5	0.7136186
79	0x3fc60d48	1.5472803
80	0xbc25b61c	-0.010114219
81	0x3f472886	0.7779621
82	0x3f4ea63c	0.80722404
83	0x3f12f7a8	0.57409143
84	0xbc85b4f9	-0.016321646
85	0x3f391a95	0.72306186
86	0xbcd0b467	-0.025476648
87	0xbcde033c	-0.027101152
88	0xbc7eda53	-0.015554982
89	0x3f2f710e	0.6853188
90	0xbc40f28c	-0.011776578
91	0x3f3240f8	0.69630384
92	0x3e42d28a	0.19025627
93	0x3f16e76b	0.58946866
94	0x3f22d8aa	0.63611853
95	0xbcda49bd	-0.02664649
96	0x3de03b72	0.10948838
97	0x3f3e59d8	0.7435584
98	0x3f2e627c	0.68119025
99	0xbe4b74f1	-0.19868828
100	0x3ea39564	0.31949914
101	0xbd3047ee	-0.043037347
102	0x3f3a765d	0.7283686
103	0x3e4def70	0.2011087
104	0x3e738395	0.23780663
105	0x3f18b615	0.59652835
106	0xbb4e60a8	-0.0031490717
107	0x3d55396c	0.052056715
108	0xbeef899f	-0.46784684
109	0x3f311252	0.6916858
110	0xbee2c617	-0.44291756
111	0xbea7e0b4	-0.32788622
112	0x3ec7dc14	0.39035094
113	0x3ec05c78	0.37570548
114	0xbd00d1bb	-0.031450015
115	0xbc89591a	-0.01676612
116	0xbd0b4330	-0.033999622
117	0xbf73899d	-0.95131856
118	0x3ed6d5d6	0.4196002
119	0x3f17f418	0.5935683
120	0x3f3055d3	0.6888096
121	0x3f96914a	1.1763089
122	0x3f33bc89	0.70209557
123	0x3e1da656	0.15395483
124	0x3e9f189c	0.31073463
125	0x3f36b441	0.71368796
126	0x3e5e0336	0.21680912
127	0x3e42ff85	0.19042785
128	0x3ea1ca62	0.31599718
129	0x3f25a6f5	0.6470788
130	0x3f31c942	0.6944772
131	0x3f39640f	0.724183
132	0x3f0160ff	0.5053863
133	0x3ef756fd	0.48308554
134	0x3eeefa2a	0.46675235
135	0x3e0eefa0	0.13958597
136	0x3f1f970f	0.6233987
137	0x3e78a78c	0.24282664
138	0xbe6650de	-0.22491786
139	0x3ef9d1da	0.48792917
140	0xbd3c3c79	-0.04595611
141	0xbd3f6e55	-0.04673608
142	0x3e93bfa1	0.2885714
143	0x3f25859c	0.64656997
144	0x3efd6ef4	0.49498713
145	0xbd45fc75	-0.048336465
146	0xbc4410b1	-0.01196687
147	0xbd13a385	-0.036044616
148	0xbc832899	-0.01601057
149	0x3ef5e304	0.48024762
150	0x3e95a3ae	0.2922644
151	0x3e474c63	0.19462733
152	0x3e8573a0	0.26064777
153	0x3f9d366b	1.2282232
154	0xbc6d18e3	-0.0144712655
155	0x3fc22368	1.5167055
156	0x3e4f43a9	0.20240654
157	0x3e569f5f	0.20959233
158	0xbcfa39c0	-0.030545115
159	0x3f0026d4	0.50059247
160	0xbef826d2	-0.48467118
161	0x3e7fea5e	0.24991748
162	0xbf1edbe3	-0.6205427
163	0x3f2c5918	0.67323446
164	0xbdb55abe	-0.08855198
165	0xbc91ac8f	-0.017782478
166	0xbeacb3d1	-0.3373094
167	0xbed9847a	-0.42483884
168	0xbe062acc	-0.13102263
169	0x3e8a8dd4	0.2706133
170	0x3e433f72	0.19067171
171	0xbd9a1ce1	-0.075250395
172	0xbc97ed72	-0.01854584
173	0x3f1df274	0.6169808
174	0x3f2be699	0.6714874
175	0xbd099e45	-0.033598203
176	0x3f39f4b4	0.7263901
177	0x3e68e8e6	0.22745094
178	0x3f207cee	0.6269063
179	0x3dc06358	0.09393948
180	0x3fb79ddc	1.434505
181	0xbe750079	-0.23925962
182	0x3f4023c3	0.7505457
183	0x3e1e0392	0.1543105
184	0x3e42744e	0.18989679
185	0xbce1fdf0	-0.027586907
186	0x3e1fce1e	0.15605971
187	0xbd162819	-0.036659334
188	0x3e9ce725	0.306451
189	0xbc295dcd	-0.010337305
190	0x3ebabea3	0.3647357
191	0x3f3a4ad7	0.72770447
192	0x3ed7769b	0.42082676
193	0x3f159f54	0.5844624
194	0xbe14e285	-0.14539535
195	0x3e8308a5	0.25592533
196	0x3f06d38d	0.5266655
197	0xbee19500	-0.4405899
198	0xbc8ad68e	-0.01694801
199	0xbe41dac2	-0.18931106

network.4.weight f4 [4, 200]
0	0x3db123e2	0.08649422
1	0x3f8c39b8	1.0955114
2	0xbddc220c	-0.107486814
3	0xbf5bd1b6	-0.8586687
4	0xbf7df297	-0.9919829
5	0x3f2d243c	0.67633414
6	0xbfba768c	-1.4567428
7	0x3f9505a7	1.164235
8	0xbf800e2c	-1.0004325
9	0xbe216a75	-0.15763266
10	0xbfc55be8	-1.5418673
11	0xbf91b1ef	-1.1382426
12	0x3fcd36cd	1.6032349
13	0xbb346824	-0.0027527893
14	0x3fb93296	1.4468563
15	0xbf66c025	-0.9013694
16	0x3e289d81	0.16466333
17	0x3fdac818	1.7092314
18	0xbf4c7c2f	-0.7987699
19	0x3dc3e146	0.09564452
20	0x3d487e54	0.0489486
21	0x3d5a50a3	0.053299557
22	0xbfb4ccc1	-1.4124986
23	0xbf6e6a3f	-0.9313087
24	0xbf54ac46	-0.8307537
25	0x3d7fccd6	0.062451206
26	0xbf9fbf22	-1.2480204
27	0x3fdc9fee	1.7236307
28	0xbfe28338	-1.7696295
29	0xbf627c17	-0.88470596
30	0xbfced569	-1.6158878
31	0xbf826818	-1.0188017
32	0xbf82a4d5	-1.0206553
33	0xbf4dbd03	-0.80366534
34	0xbf2c7e58	-0.67380285
35	0xbf84b6a7	-1.0368241
36	0xc002df60	-2.0448837
37	0xbf92e528	-1.1476183
38	0x3fca7c82	1.5819247
39	0xbd586bc7	-0.05283716
40	0xbfec4ba9	-1.846059
41	0xbe14bfd0	-0.14526296
42	0xbde5c210	-0.11218655
43	0x3f8e7328	1.1128893
44	0xbf78ad80	-0.9713974
45	0xbe149165	-0.14508589
46	0xbf48fac2	-0.78507626
47	0xc00cf605	-2.2025158
48	0xbff74b99	-1.9319946
49	0xbf555698	-0.83335257
50	0x3e1c232e	0.15247795
51	0xbff8fba0	-1.945179
52	0xbf92de6c	-1.1474128
53	0x3f88b0df	1.0678977
54	0x3ca6f13a	0.020378698
55	0xbf8f13dc	-1.1177936
56	0xbf014216	-0.50491464
57	0xbd9cd972	-0.07658662
58	0xbf562eaf	-0.83664984
59	0x3fa332e1	1.2749902
60	0xbfbcca66	-1.4749267
61	0x3d787c8c	0.060665652
62	0xbf8f8d36	-1.1214969
63	0xbf63561b	-0.8880326
64	0xbd3a8a67	-0.045542147
65	0xbf5526db	-0.83262414
66	0x3fc3422c	1.5254569
67	0xbf79faae	-0.9764813
68	0xbf638da4	-0.88888
69	0xbf91c3ee	-1.1387918
70	0xbf70cb6f	-0.94060415
71	0x3fa53fea	1.291013
72	0xbf61cbf1	-0.88201815
73	0xbf4d4740	-0.80186844
74	0xbfea7c0d	-1.8319107
75	0xbf49981a	-0.78747714
76	0xbf806990	-1.0032215
77	0x3e8d7b06	0.27632922
78	0xbf7b8820	-0.98254585
79	0xbf6a5081	-0.9152909
80	0xbe04c0a2	-0.12964109
81	0xbf54eddc	-0.83175445
82	0x3fdf4f35	1.7446047
83	0xbf71933d	-0.9436529
84	0x3dea725a	0.11447592
85	0xbf61e67a	-0.88242304
86	0xbe1bb346	-0.15205106
87	0xbfb78e3f	-1.4340285
88	0x3d8302eb	0.06397041
89	0xbfdd9387	-1.7310647
90	0x3c73edd0	0.014888242
91	0xbf5b6996	-0.85707986
92	0xbfd07787	-1.6286477
93	0xbfb84b23	-1.439793
94	0xbf715164	-0.9426482
95	0x3da4aa76	0.08040325
96	0x3fad0e9d	1.3520085
97	0xbf6e981d	-0.93200856
98	0xbf8f5b07	-1.1199654
99	0x3fc95287	1.572831
100	0xbf4afabb	-0.79288834
101	0x3e1a232b	0.15052478
102	0xbf44adb5	-0.76827556
103	0xbf7ee5f0	-0.99569607
104	0xbff4b751	-1.9118444
105	0xbf6fc946	-0.93666494
106	0x3f8079e5	1.0037199
107	0x3fc22116	1.5166347
108	0xbf55750b	-0.8338172
109	0xbf5a924c	-0.8537948
110	0xbfde2a6c	-1.7356696
111	0x3f031b44	0.5121348
112	0xbf2b4de9	-0.66915756
113	0xbf1d4ffa	-0.6145016
114	0xbd582109	-0.05276588
115	0xbd92f802	-0.0717621
116	0xbfc89a95	-1.5672175
117	0xc0177927	-2.3667696
118	0xbf6faa6a	-0.93619406
119	0xbf82f5c6	-1.0231254
120	0xbf64cbd5	-0.89373523
121	0x3feee61b	1.8663973
122	0xbf395ef7	-0.7241053
123	0xbf61fca3	-0.8827612
124	0xbfa21b81	-1.2664644
125	0xbf63bb8f	-0.88958067
126	0xc0113d45	-2.2693646
127	0x3f7f1267	0.99637455
128	0xbf35bc10	-0.70990086
129	0xbf86fd68	-1.0546083
130	0xbf74d733	-0.9564087
131	0xbf887244	-1.0659871
132	0xbf488256	-0.78323877
133	0x3fc1dad1	1.5144902
134	0xbfc0d889	-1.5066081
135	0xbffffc1c	-1.9998813
136	0xbf82a1f4	-1.0205674
137	0xbf8e88ce	-1.11355
138	0x3fba6f13	1.4565147
139	0xbf539d4f	-0.8266191
140	0x3da6f345	0.08151869
141	0x3c592ad0	0.013254836
142	0xbf8dc5f0	-1.1076031
143	0xbf714a72	-0.9425422
144	0xbfdbbacd	-1.7166382
145	0xbd0a4e9c	-0.033766374
146	0x3e099667	0.1343628
147	0xbfa37133	-1.2768921
148	0xbd82b9ba	-0.06383081
149	0xbf762210	-0.96145725
150	0xbf81f364	-1.0152402
151	0xbf7bf2ec	-0.98417544
152	0xc03b7b0a	-2.9293847
153	0x3fbe76ac	1.4879966
154	0x3dc05d45	0.0939279
155	0x3e84880e	0.2588505
156	0x3e80b31b	0.25136647
157	0x3f83e9fb	1.030578
158	0x3ce8995b	0.028393438
159	0xbf4d3fe9	-0.80175644
160	0xbf32e239	-0.6987644
161	0xbf86cfec	-1.0532203
162	0xbf8db611	-1.1071187
163	0xbf4790f0	-0.7795553
164	0xbf9fcb28	-1.2483873
165	0xbdb285a5	-0.08716897
166	0x3fa85e24	1.315373
167	0xbf9f99ac	-1.2468772
168	0xbf89f1b8	-1.0776892
169	0xbf83bf30	-1.0292721
170	0xbed673f3	-0.41885337
171	0xbdbb9112	-0.09158529
172	0x3e07839a	0.13233796
173	0xbf7cb18a	-0.98708403
174	0xbf7d7227	-0.9900231
175	0x3dc377a0	0.09544301
176	0xbf5dcb06	-0.86637914
177	0xbfb0815e	-1.378948
178	0xbfc8e6be	-1.5695417
179	0x3f8c6b05	1.097016
180	0xc001bfbf	-2.0273283
181	0xbf93ed54	-1.1556802
182	0xbf5a7492	-0.8533412
183	0x3fa50cd3	1.2894539
184	0x3fde05ca	1.7345517
185	0x3e04d837	0.12973104
186	0xbfa9cef7	-1.3266286
187	0xbd2c1da2	-0.042020448
188	0xbf3160b3	-0.69288176
189	0x3e16f8cb	0.14743344
190	0xbf1ba9de	-0.6080607
191	0xbf5d94d9	-0.8655525
192	0xbf9330ff	-1.1499327
193	0xbf4a5af0	-0.7904501
194	0xbf899716	-1.0749233
195	0xbfd35f09	-1.6513377
196	0xbf492e88	-0.78586626
197	0xbfd61f32	-1.672827
198	0xbcc56236	-0.024094682
199	0x3fa925ac	1.3214622
200	0x3d4c6d61	0.049909
201	0xbeff9d03	-0.49924478
202	0x3d345559	0.044026706
203	0xbf148f74	-0.5803139
204	0xbf391f52	-0.72313416
205	0xbf827202	-1.0191042
206	0xc007ecdd	-2.123832
207	0xbf76add9	-0.9635902
208	0x3fa2d883	1.2722324
209	0x3de8f389	0.11374576
210	0xbf27b56a	-0.6551119
211	0xbf8cf6ca	-1.1012814
212	0xbff85172	-1.9399855
213	0x3d89017a	0.06689735
214	0xbf85f20e	-1.0464494
215	0xbf57999f	-0.8421878
216	0x3da70860	0.08155894
217	0xbf1f8fa2	-0.6232854
218	0xbf516d34	-0.81807256
219	0x3de08fd4	0.10964933
220	0x3d92451b	0.07142087
221	0x3d391165	0.045182604
222	0x3fd0bc92	1.6307547
223	0xbf269832	-0.6507598
224	0xbf8fa39a	-1.1221802
225	0x3d9cf6be	0.0766425
226	0x3fc932dd	1.5718647
227	0xbf271bb2	-0.65276635
228	0xbf80551a	-1.0025971
229	0xbf8a3a51	-1.0799047
230	0xbfbb9179	-1.465377
231	0xbf731817	-0.94958633
232	0xbf79fe8f	-0.9765405
233	0xbfa2f316	-1.2730434
234	0xbfd31f69	-1.6493961
235	0xbf7db2e8	-0.99101114
236	0xbf3b3f96	-0.731439
237	0xbfe2f1cd	-1.7730042
238	0xbfc1f7e6	-1.5153778
239	0x3d3354f4	0.04378219
240	0xbfc32795	-1.5246454
241	0xbd482944	-0.04886748
242	0x3d582db6	0.05277797
243	0xbf70f449	-0.9412275
244	0xbf2335dc	-0.6375406
245	0x3dbcdc96	0.09221761
246	0xbf951e8d	-1.1649948
247	0x3fa82b4e	1.3138216
248	0xc001eb89	-2.030001
249	0xbf8e9c55	-1.1141459
250	0x3c332020	0.010932952
251	0xbce433ab	-0.027856668
252	0xbe729092	-0.23687962
253	0xbf7ce9b5	-0.9879411
254	0x3c1c2871	0.009531126
255	0xbf843266	-1.032788

network.4.bias f4 [4]
0	0xbf0cedf7	-0.55050606
1	0xbebc88f1	-0.36823228
2	0xbd01c621	-0.03168309
3	0xbece744a	-0.40323097

network.0.weight f4 [200, 36]
0	0xc023dec5	-2.5604718
1	0x3e5f5c04	0.21812445
2	0xc0652b12	-3.5807538
3	0xc0259685	-2.587312
4	0x3ddb1efd	0.1069927
5	0xc061312f	-3.518627
6	0xc010a3bb	-2.2599933
7	0x3ec13d1b	0.37741932
8	0xbfe09831	-1.7546445
9	0xc0070d20	-2.110176
10	0x3e8c01d3	0.27345142
11	0xbfd43c99	-1.6580993
12	0xc00656f4	-2.0990572
13	0x3e43b2dc	0.19111198
14	0xbfd575f2	-1.6676619
15	0xc0375478	-2.8645306
16	0x3e9d8afc	0.307701
17	0xbff451ac	-1.9087424
18	0xc038d4ca	-2.8879876
19	0x3f0eb4ee	0.55744827
20	0xbffaf0c6	-1.9604728
21	0xc0044b4e	-2.0670962
22	0x3d97665f	0.073925726
23	0xc000062a	-2.0003762
24	0xc0097e04	-2.1483164
25	0x3e7be5cc	0.2459938
26	0xbffc0422	-1.9688761
27	0xc014ce7b	-2.3251026
28	0x3e07d7af	0.1326587
29	0xc00df271	-2.2179224
30	0xc047d3b2	-3.1222959
31	0x3d1dd282	0.038530834
32	0xc03fccfb	-2.996886
33	0xc042c5c0	-3.0433197
34	0x3d6b2a9f	0.057413694
35	0xc04736f0	-3.112728
36	0xc0326908	-2.7876606
37	0x3ebed725	0.37273517
38	0xc0c5be8c	-6.17951
39	0xc02e190b	-2.7202785
40	0x3f04e8bc	0.51917624
41	0xc0c8691c	-6.2628307
42	0xbfe16fc1	-1.761223
43	0x3e956f74	0.29186594
44	0xc046d4cf	-3.1067388
45	0xbfe96474	-1.8233781
46	0x3e066f7f	0.1312847
47	0xc0480f88	-3.125948
48	0xbfee454c	-1.8614898
49	0x3e73ce47	0.23809157
50	0xc04ab533	-3.1673095
51	0xc05ec396	-3.4806876
52	0x3f1a8c6b	0.6037051
53	0xc0282859	-2.6274626
54	0xc05d71e1	-3.4600756
55	0x3f14a905	0.58070403
56	0xc01e255f	-2.471031
57	0xc007cdc7	-2.1219347
58	0x3e9baed3	0.30406818
59	0xbfa7c3a9	-1.3106586
60	0xc010c424	-2.2619715
61	0x3ecdc6b0	0.4019065
62	0xbfac7bbb	-1.347526
63	0xc00c3dac	-2.1912642
64	0x3f099b4e	0.537526
65	0xbfae1bd1	-1.3602239
66	0xc047e517	-3.1233575
67	0xbd280268	-0.04101792
68	0xbc922ebe	-0.017844554
69	0xc047a614	-3.1195116
70	0xbd0dd97b	-0.034631234
71	0x3b1cc9ff	0.002392411
72	0xc02b3135	-2.6748784
73	0x3e22dceb	0.15904586
74	0xc039af97	-2.9013422
75	0xc02acd46	-2.668779
76	0x3e7ee0d5	0.24890454
77	0xc034bb30	-2.823925
78	0xc027c8a5	-2.6216214
79	0x3d8d1f65	0.06890754
80	0xc00eddd5	-2.2322896
81	0xc038a09b	-2.8848026
82	0x3ebc280e	0.3674931
83	0xc0105d8c	-2.2557096
84	0xc03a9ee8	-2.9159489
85	0x3e919623	0.28434858
86	0xc012befe	-2.2929072
87	0xc03501a8	-2.828226
88	0x3f17ccc3	0.59296817
89	0xbfeb0199	-1.8359863
90	0xc03a53cb	-2.9113643
91	0x3e984c79	0.29745844
92	0xbfe9681e	-1.8234899
93	0xc018f9ea	-2.3902535
94	0x3e544264	0.20728451
95	0xc00b11ae	-2.172954
96	0xc0279671	-2.6185572
97	0x3e65c2ab	0.22437541
98	0xc00a1348	-2.1574268
99	0xc021a70e	-2.5258212
100	0xbd362a9d	-0.044474233
101	0xc007bd54	-2.1209307
102	0xc02be54c	-2.6858702
103	0x3ded5596	0.1158859
104	0xc01f90df	-2.4932172
105	0xc0343073	-2.815457
106	0x3d9bd0d4	0.0760819
107	0xc01f8b16	-2.4928641
108	0x400aba9d	2.16764
109	0xbd753bc0	-0.059871435
110	0x3f68ca6f	0.9093389
111	0x3fffca28	1.9983568
112	0xbe2bda31	-0.16782452
113	0x3f56c71f	0.83897585
114	0x3fdb0a5d	1.7112538
115	0xbdcac019	-0.09899921
116	0x3f853428	1.0406542
117	0x3fe62920	1.79813
118	0xbe3f65e1	-0.18691207
119	0x3f953463	1.1656612
120	0x3ff2a4ae	1.8956506
121	0xbe0d1f1c	-0.13781399
122	0x3f9a71f5	1.2066027
123	0x3f0f806d	0.5605534
124	0x3edb32f8	0.42812324
125	0x3f96e79c	1.1789432
126	0x3ec829e5	0.39094463
127	0x3f067b00	0.52531433
128	0x3fa9b4ce	1.3258302
129	0xbf776761	-0.9664212
130	0xbd841d44	-0.064508945
131	0x3faa3021	1.3295938
132	0xbf800f64	-1.0004697
133	0xbe25775f	-0.16158818
134	0x3fa8d971	1.3191358
135	0xbf8c6916	-1.096957
136	0x3cf249a6	0.029576134
137	0x3fa1d6f2	1.2643721
138	0x3fc5abbe	1.5443037
139	0xbe089075	-0.13336356
140	0x3ebc4e79	0.3677862
141	0x3fc42fd1	1.5327092
142	0xbdd2e9e0	-0.10298514
143	0x3eaa4e83	0.33263025
144	0xbfdc4c8d	-1.7210861
145	0x3d45150e	0.048115782
146	0xbfca1980	-1.5789032
147	0xbfd6d643	-1.6784137
148	0x3e5db0dc	0.21649498
149	0xbfce7764	-1.6130185
150	0xc028c7a5	-2.6371853
151	0x3de119dd	0.10991261
152	0xbf8408f4	-1.0315232
153	0xc023c483	-2.5588691
154	0x3e0cbdc8	0.13744271
155	0xbf8484d7	-1.035304
156	0xc02699bb	-2.603133
157	0x3e87d62d	0.2653059
158	0xbf60bf2f	-0.87791723
159	0xbff22f10	-1.8920612
160	0x3f05ddf3	0.5229179
161	0xc01983ef	-2.3986776
162	0xc0048bfc	-2.071044
163	0x3ee82507	0.4534075
164	0xc0203092	-2.5029645
165	0xbfbde221	-1.4834634
166	0x3e949640	0.29020882
167	0xc0526aa3	-3.2877586
168	0xbfb98dd9	-1.4496413
169	0x3db07379	0.08615775
170	0xc06045a8	-3.5042515
171	0xbfab2426	-1.3370407
172	0x3ec1f098	0.3787887
173	0xc058c81e	-3.3872142
174	0xbfa7308f	-1.3061694
175	0x3eaeca8f	0.34138915
176	0xc0420935	-3.031812
177	0xbfb2131e	-1.3912084
178	0x3e0ddd15	0.13853867
179	0xc047608f	-3.1152685
180	0xc02cc9fd	-2.6998284
181	0xbec24a0e	-0.37947124
182	0xc07a8849	-3.9145682
183	0xc023dfa7	-2.5605257
184	0xbe4794a2	-0.19490293
185	0xc07a4fc0	-3.9111176
186	0xbfeeee9e	-1.866657
187	0x3dbd29de	0.09236501
188	0xbff4be15	-1.9120508
189	0xbfea8cb7	-1.8324193
190	0x3cf31c44	0.029676564
191	0xbff2d71c	-1.8971896
192	0xbfe66601	-1.7999879
193	0xbd265073	-0.040604066
194	0xbfebf495	-1.8434016
195	0xc026b76a	-2.6049447
196	0x3d9a4a6f	0.07533728
197	0xbfd615a9	-1.672536
198	0xc02e4011	-2.7226603
199	0x3dc94d20	0.098291636
200	0xbfd653f7	-1.6744374
201	0xc018d68a	-2.3880944
202	0xbdbe75df	-0.09299826
203	0xc00bf9e7	-2.1871278
204	0xc00d20a9	-2.2051184
205	0x3e1b5294	0.1516822
206	0xc0051ac6	-2.0797591
207	0xc01b2e0e	-2.424686
208	0x3e01e641	0.12685491
209	0xc001de07	-2.0291765
210	0xc030bc1a	-2.7614808
211	0x3e62ceff	0.22149275
212	0xc0337ca7	-2.8044832
213	0xc034b342	-2.823441
214	0x3ed30b8f	0.41219756
215	0xc028f3d3	-2.6398818
216	0xbe9b826d	-0.30372944
217	0x3dcb7dda	0.09936114
218	0xbf3189d8	-0.6935096
219	0xbe079762	-0.13241342
220	0xbccd335e	-0.025048908
221	0xbf132276	-0.5747446
222	0xbf7c976b	-0.98668545
223	0x3e822a36	0.2542283
224	0xbf0d5c68	-0.55219126
225	0xbf8c99e0	-1.0984459
226	0x3e410602	0.18849948
227	0xbedb4026	-0.4282238
228	0xbf70d584	-0.940758
229	0x3ebc2c2d	0.36752453
230	0xbf1a44ae	-0.60261047
231	0xbed7e2f1	-0.4216533
232	0x3e9ec190	0.3100705
233	0xbed92697	-0.42412254
234	0xbf204dc5	-0.62618667
235	0x3e44388a	0.19162193
236	0xbe8179f7	-0.25288364
237	0xc02ceb1e	-2.7018504
238	0xbe156c99	-0.14592208
239	0x3e2abb16	0.1667293
240	0xc0337ed1	-2.8046153
241	0xbd8f5477	-0.06998532
242	0x3e766b58	0.24064386
243	0xc03832fc	-2.8781118
244	0xbe1ea5a0	-0.15492868
245	0x3d94101a	0.07229634
246	0x3c3b3f8a	0.011428723
247	0x3d1286dd	0.035773147
248	0xbe1396fd	-0.14413066
249	0x3e831faf	0.2561011
250	0x3c51989a	0.012792731
251	0xbea9c921	-0.33161262
252	0xbfdc6ded	-1.7221047
253	0x3e0f255f	0.139791
254	0xbffe2a4a	-1.9856656
255	0xbfee058e	-1.8595445

network.0.bias f4 [200]
0	0xbf46f25b	-0.77713555
1	0xbe726e12	-0.23674801
2	0xbf381be5	-0.71917564
3	0x3f1b25ea	0.6060473
4	0xbeeb73df	-0.4598684
5	0xbe9c3e68	-0.30516362
6	0x3ef229a9	0.4729741
7	0xbf194c81	-0.5988236
8	0xbf3c9c69	-0.7367616
9	0x3f082f00	0.53196716
10	0xbf221f84	-0.6332934
11	0xbf537697	-0.8260283
12	0xbf4edb95	-0.80803806
13	0x3f9f07a5	1.2424208
14	0xbf357739	-0.70885044
15	0xbf18e1b7	-0.59719414
16	0xbdc55b37	-0.096365385
17	0xbe029ba7	-0.12754689
18	0xbd23222b	-0.039827507
19	0xbf3de534	-0.7417786
20	0xbf276c63	-0.6539976
21	0xbeade278	-0.33961844
22	0xbea7c63d	-0.3276843
23	0xbea4f654	-0.32219183
24	0xbebf0612	-0.3730932
25	0x3f3b7f22	0.73240864
26	0xbefd9a38	-0.49531722
27	0xbf283571	-0.65706545
28	0xbe85ac12	-0.26107842
29	0x3f3ff692	0.7498561
30	0xbf0ed361	-0.5579129
31	0xbf040245	-0.51565963
32	0xbe8cd9ed	-0.27510014
33	0x3eeacc50	0.45859003
34	0xbf33dd97	-0.70259994
35	0x3f0cc77c	0.5499189
36	0xbe8858ad	-0.26630154
37	0xbdf681a0	-0.12036443
38	0xbf19aba4	-0.6002753
39	0xbeafc480	-0.34329605
40	0xbe8cace5	-0.27475658
41	0xbf4216e7	-0.75816196
42	0xbebb1388	-0.3653834
43	0xbf432446	-0.76227224
44	0x3ea926c4	0.33037388
45	0x3f6daa15	0.9283765
46	0x3f65b8a5	0.8973487
47	0x3edc968c	0.43083608
48	0x3db98c1f	0.09059929
49	0xbf3d5b62	-0.73967564
50	0xbe46f47d	-0.19429202
51	0x3ecab646	0.3959219
52	0x3f1898c1	0.59608084
53	0xbf3b536a	-0.73174155
54	0x3e96f4cd	0.29483643
55	0xbeb6a077	-0.356693
56	0xbdd0d356	-0.10196559
57	0xbecd9ed1	-0.4016023
58	0x3ee8f63d	0.45500365
59	0xbf1a19fe	-0.6019591
60	0xbf176bb0	-0.59148693
61	0xbf091118	-0.5354171
62	0xbf0f25d0	-0.5591707
63	0xbea7fab1	-0.3280845
64	0x3f26058f	0.6485223
65	0x3e2611d4	0.16217738
66	0xbf1f02e7	-0.62113804
67	0xbe3ab217	-0.18231998
68	0xbdd2d04f	-0.10293638
69	0x3f8555fc	1.0416865
70	0x3bdcc420	0.006737247
71	0xbf127639	-0.57211643
72	0xbf449bd1	-0.76800257
73	0xbf4620a4	-0.77393556
74	0xbf0ea3fe	-0.5571898
75	0xbe5fa243	-0.21839242
76	0x3f02d318	0.51103354
77	0x3e7def45	0.24798305
78	0x3f5beb0f	0.85905546
79	0x3f85e1f4	1.045958
80	0xbebbb071	-0.36658052
81	0xbef88cb9	-0.48544863
82	0xbf434e85	-0.76291686
83	0xbecb0796	-0.39654225
84	0xbf1df4aa	-0.6170145
85	0xbf27a865	-0.65491325
86	0xbc4f82b1	-0.012665437
87	0xbefe4784	-0.49663937
88	0x3f19a789	0.60021263
89	0xbe9b853e	-0.30375093
90	0x3eeeb989	0.46625927
91	0xbe8c9eef	-0.27465007
92	0x3dd4773d	0.103743054
93	0xbf457733	-0.7713501
94	0xbf3ff781	-0.74987036
95	0xbf3f115b	-0.7463586
96	0x3f0ad26b	0.5422732
97	0xbf3b7048	-0.732182
98	0xbf254c01	-0.645691
99	0xbea78c16	-0.32724065
100	0xbf2e013f	-0.6797065
101	0xbeb99f31	-0.36254266
102	0xbf0d3663	-0.5516111
103	0xbd7fcad4	-0.06244929
104	0xbf4adf05	-0.7924655
105	0x3b994a6f	0.0046780626
106	0xbf3b9d5a	-0.73286974
107	0xbede82a5	-0.4345905
108	0xbf06068e	-0.5235375
109	0xbf1ff0cf	-0.6247682
110	0xbf2e166f	-0.6800298
111	0xbec6b6ab	-0.3881124
112	0xbf1bde0d	-0.608857
113	0xbf273561	-0.65315825
114	0x3bda5418	0.006662857
115	0x3eaf1814	0.34198058
116	0x3f2a609d	0.6655367
117	0xbf271985	-0.65273315
118	0xbf48b903	-0.78407305
119	0x3edb676d	0.42852345
120	0x3e6a234c	0.22865027
121	0xbf41a824	-0.7564719
122	0xbeaddaab	-0.33955893
123	0xbee8d546	-0.45475215
124	0x3f32fda0	0.6991825
125	0xbf3fa562	-0.7486173
126	0x3f576391	0.841363
127	0xbe6f818a	-0.23389259
128	0x3e8a630a	0.27028686
129	0x3eb4c62d	0.35307446
130	0x3f1f1860	0.6214657
131	0xbe4a9236	-0.19782338
132	0xbe9b2455	-0.30301157
133	0x3ed839b6	0.4223153
134	0xbf49673a	-0.78673136
135	0xbef73697	-0.48283836
136	0xbebe46d1	-0.37163404
137	0x3f65eeef	0.8981771
138	0xbeab2879	-0.33429316
139	0x3f43f093	0.7653896
140	0xbdd0216a	-0.10162623
141	0xbf1efd40	-0.6210518
142	0xbf2efc1e	-0.6835345
143	0x3f86ef5b	1.0541795
144	0xbedc359c	-0.4300965
145	0x3f960299	1.1719543
146	0x3f138c61	0.57636076
147	0x3f683489	0.9070516
148	0x3f040faa	0.515864
149	0xbf279ef3	-0.6547691
150	0x3e9536db	0.29143414
151	0xbf2c8096	-0.67383707
152	0xbf51f93f	-0.82020944
153	0xbebc7fc7	-0.36816236
154	0x3edaa9fd	0.42707816
155	0xbf2c8618	-0.6739211
156	0xbf1dbc61	-0.6161557
157	0xbed23e6d	-0.41063252
158	0xbef3e3c0	-0.47634697
159	0xbf44cf1f	-0.7687854
160	0x3e8bce69	0.27305916
161	0xbf3426b7	-0.70371574
162	0x3eb111f2	0.34584004
163	0xbf48b6bd	-0.78403836
164	0xbe0955c3	-0.13411622
165	0xbf1b13e8	-0.6057725
166	0xbe74c9e5	-0.23905142
167	0xbf213d86	-0.629845
168	0x3f01ea7e	0.5074843
169	0x3ea0d469	0.31412056
170	0xbe88373d	-0.26604643
171	0xbe633a9a	-0.22190323
172	0xbea7129f	-0.32631394
173	0x3f1b3e7d	0.60642225
174	0xbf3873c4	-0.72051644
175	0xbf4b1e2c	-0.79342914
176	0xbf010df6	-0.5041193
177	0xbe9b53d4	-0.30337393
178	0x3f215c74	0.630317
179	0x3f2ee941	0.6832467
180	0xbea31554	-0.3185221
181	0xbf394ade	-0.72379863
182	0x3ea6133d	0.32436553
183	0xbef3c2cf	-0.47609565
184	0xbf457e84	-0.7714617
185	0xbf188a4a	-0.5958601
186	0xbf4a4443	-0.7901041
187	0xbf4ab363	-0.7917997
188	0xbe802a84	-0.25032437
189	0x3eb80490	0.3594098
190	0x3e77bb9f	0.24192666
191	0xbf44bc83	-0.76850146
192	0x3f0ec2ff	0.5576629
193	0x3fa40359	1.2813522
194	0xbf274cc1	-0.6535149
195	0x00000000	0.0
196	0xbe9a78d3	-0.30170307
197	0xbf3fe387	-0.74956554
198	0xbebe0c5a	-0.37118798
199	0x3f254cb0	0.6457014

network.2.weight f4 [200, 200]
0	0x3baaeeba	0.0052164467
1	0x3dab673a	0.08369298
2	0xbd991127	-0.07473975
3	0xbe09e7b2	-0.13467291
4	0x3a2caf5c	0.000658741
5	0xbd1aeec5	-0.037825365
6	0x3d2df88e	0.04247337
7	0xbac36259	-0.0014906629
8	0xbda59275	-0.08084575
9	0xbdae74a8	-0.08518344
10	0x3cfe9753	0.031078016
11	0x3c498b83	0.012301329
12	0xbe0843c8	-0.13307106
13	0x3d619831	0.05507678
14	0x3dbf9d6b	0.09356197
15	0x3dd28d6d	0.10280881
16	0x3c6765bc	0.014123376
17	0xbe0ffd39	-0.1406144
18	0xbd5fa49f	-0.054600354
19	0x3d9e5314	0.0773069
20	0xbd8b188d	-0.06791792
21	0xbd9de916	-0.07710473
22	0xbd803daf	-0.06261765
23	0x3d0e4d6d	0.034741808
24	0xbcbba40a	-0.022905368
25	0xbe0b3dfb	-0.13597862
26	0x3cba86c6	0.022769343
27	0xbccf7f02	-0.025329117
28	0x3ca5a033	0.02021799
29	0xbaeb7177	-0.0017962892
30	0xbd66b26a	-0.056322493
31	0xbda8f38c	-0.08249578
32	0x3d0f482f	0.03498095
33	0xbdd9234c	-0.106024355
34	0x3b1ed6b6	0.0024236864
35	0x3c42ba49	0.011885234
36	0x3db4f86c	0.08836445
37	0x3d93140f	0.0718156
38	0xbd7a8b80	-0.061168194
39	0x3c731d1e	0.014838485
40	0xbc0d2d14	-0.0086167045
41	0xbd2584a0	-0.040409684
42	0x3da9e3e8	0.08295423
43	0x3e0a6a22	0.13517049
44	0x3bf746e8	0.0075462945
45	0xbd8bf97d	-0.068346955
46	0xbd3fe25f	-0.046846744
47	0x3d38ad98	0.045087427
48	0xbd419464	-0.047260657
49	0x3ca25870	0.01981756
50	0x3b556b77	0.0032565275
51	0x3d161e93	0.03665025
52	0x3d77ddc5	0.06051423
53	0xbd7d04c4	-0.061772123
54	0xbe0510be	-0.12994668
55	0xbd2a9c08	-0.04165271
56	0xbded16fb	-0.11576649
57	0xbda22d30	-0.07918775
58	0xbd73fe82	-0.05956889
59	0xba6fa141	-0.0009141155
60	0x3d475a68	0.048670202
61	0x3da80fa4	0.08206108
62	0x3d7646ce	0.06012612
63	0xbdc57456	-0.0964133
64	0x3d447877	0.047966447
65	0x3cebb029	0.028770523
66	0x3db6f032	0.08932532
67	0x3d55a1ba	0.052156188
68	0x393d5859	0.00018057357
69	0x3dc416eb	0.09574684
70	0x3da798f4	0.0818347
71	0xbdd31812	-0.103073254
72	0x3d62d874	0.055382207
73	0xbd0995d2	-0.033590145
74	0xbdbbb7a6	-0.091658875
75	0x3c7141ab	0.014725129
76	0xbe016d3a	-0.12639323
77	0x3d1f316c	0.03886549
78	0xbc493717	-0.012281201
79	0xbd44ef7b	-0.04807995
80	0xbbb628ef	-0.005559079
81	0xbd9654dc	-0.073404044
82	0xbe11c250	-0.1423428
83	0x3d483426	0.048877858
84	0x3d306092	0.043060847
85	0xbdf53bbb	-0.11974283
86	0x3d65311e	0.055955045
87	0xbdc29d92	-0.095027104
88	0xbd260abb	-0.040537577
89	0x3dcb2022	0.09918238
90	0x3cf964ea	0.030443627
91	0xbd862bbc	-0.065513104
92	0xbdf6783d	-0.120346524
93	0x3d4f8bcd	0.050670434
94	0xbdb9ea15	-0.09077851
95	0xbc817e0b	-0.015807172
96	0xbdaf0ed8	-0.08547753
97	0x3d83812a	0.064211205
98	0xbe0af206	-0.13568887
99	0xbce95d63	-0.028486913
100	0x3ca5bbbb	0.020231118
101	0xbd44864b	-0.047979634
102	0x3db327d9	0.08747835
103	0xbe0db765	-0.1383949
104	0xbc77c45c	-0.015122499
105	0x3caf73c6	0.02141751
106	0x3c76f4e6	0.015073037
107	0x3cf36a7f	0.029713867
108	0xbdd7d7b5	-0.1053919
109	0x3d63b191	0.055589262
110	0xbd9be099	-0.07611198
111	0x3df7b498	0.120949924
112	0xbdf12621	-0.11774851
113	0xbd6f7bd0	-0.058467686
114	0xbd5ef4f2	-0.054432817
115	0xbdbaac79	-0.09114928
116	0xbcaeaabe	-0.02132165
117	0xbdcc7b5a	-0.09984465
118	0xbddcfef8	-0.10790819
119	0xbda9faf0	-0.08299816
120	0xbd88c192	-0.066775456
121	0xbb86abc2	-0.0041098306
122	0xbcc74f67	-0.024329854
123	0x3db56a05	0.08858112
124	0x3d29f0da	0.04148946
125	0xbdb17969	-0.08665735
126	0xbd81f525	-0.06345586
127	0xbd5855fb	-0.052816372
128	0xbd8d52e5	-0.069005765
129	0xbd6446eb	-0.055731695
130	0x3b85e0f7	0.004085656
131	0x3d899301	0.06717492
132	0x3bc03841	0.005866081
133	0xbd94b4a5	-0.07261018
134	0x3accbe9d	0.0015620772
135	0xbd9d0529	-0.07667
136	0x3c894e65	0.016761014
137	0x3daf8880	0.08570957
138	0xbce2a1fe	-0.027665135
139	0x3d7acf23	0.061232697
140	0xbbf0f9cb	-0.0073539964
141	0xbce3cf99	-0.027808951
142	0x3dba860f	0.09107601
143	0xbd4f09ed	-0.050546575
144	0x3dba30ae	0.09091316
145	0x3c89f84d	0.016842032
146	0xbdf12c6a	-0.117760494
147	0xbc332eed	-0.010936481
148	0x3d56d3dd	0.052448142
149	0xbd9ff939	-0.07811207
150	0xbd7accee	-0.061230592
151	0x3d7e90c9	0.062149797
152	0x3d711873	0.058861207
153	0xbd8a13ab	-0.067420326
154	0xbd583362	-0.052783377
155	0xbcfda5d3	-0.03096286
156	0xbe0736db	-0.1320452
157	0xbdd16964	-0.1022518
158	0x3d51e00c	0.05123906
159	0x3e0a13b7	0.13484083
160	0x3d8e30f4	0.06942931
161	0xbd50e341	-0.050997976
162	0xbd0b6208	-0.034029037
163	0x3c860b4d	0.01636281
164	0xbbeb3230	-0.0071776137
165	0x3cda2264	0.026627727
166	0x3dc633b1	0.09677828
167	0x3dc18cd4	0.09450689
168	0x3dae91c9	0.085239
169	0xbd5be36b	-0.05368368
170	0xbdd65184	-0.104647666
171	0xbd379186	-0.044816516
172	0xbdabc5c8	-0.08387333
173	0x3d7bb6d1	0.061453644
174	0x3dbe4cc0	0.09291983
175	0xbdee1c87	-0.11626535
176	0xbd6fef3b	-0.058577757
177	0xbc0a38ce	-0.008436395
178	0xbd73deb1	-0.059538547
179	0xbd4387b0	-0.047736824
180	0xbded2950	-0.11580145
181	0x3ceb2204	0.028702743
182	0xbce6d0ea	-0.02817579
183	0xbde4fbfc	-0.11180875
184	0x3dba9e4d	0.09112225
185	0x3de8344b	0.11338099
186	0xbca75716	-0.020427268
187	0x3d602e90	0.054731905
188	0x3d6718a7	0.056419995
189	0xbdfd573f	-0.123701565
190	0x3d25390f	0.04033762
191	0x3cf54730	0.029941171
192	0xbcb78d9b	-0.02240639
193	0xbdf430dd	-0.119233824
194	0x3d304d29	0.043042336
195	0xb9710000	-0.00022983551
196	0x3d370596	0.04468306
197	0x3b9b5c82	0.0047412524
198	0xbcb73d26	-0.022368025
199	0xbdf53315	-0.11972634
200	0x3e912998	0.28352046
201	0x40113c84	2.2693186
202	0x3fb051ff	1.3775023
203	0xbfc69992	-1.5515616
204	0x3f80cedb	1.0063127
205	0x3f7e35aa	0.99300635
206	0x3f59291c	0.8482835
207	0x3f886b8f	1.0657824
208	0x3f2d02f4	0.6758263
209	0x3f5a3dd5	0.852506
210	0x3f1fa942	0.6236764
211	0x3f8c39da	1.0955155
212	0x3f88ae82	1.0678256
213	0xbfbd9ccd	-1.4813477
214	0x3fa9b0de	1.32571
215	0x3f3fbe66	0.748999
216	0x3f95ee10	1.1713276
217	0x3f37f899	0.71863705
218	0xbcba85ec	-0.022768937
219	0x3fbbda87	1.4676064
220	0x3f5faf39	0.87376744
221	0x3fcd3534	1.6031861
222	0x3ed1ad06	0.4095232
223	0x3f5f3a48	0.87198305
224	0xbe7dbd78	-0.24779308
225	0xbf990f37	-1.1957768
226	0x3fa300f9	1.2734672
227	0xbeefa93f	-0.46808812
228	0x3fd01f8c	1.6259627
229	0xbfbb7da6	-1.464772
230	0x3fe0a63a	1.7550728
231	0x3e9af5e6	0.3026573
232	0x3f811c48	1.0086756
233	0x3f460ce2	0.7736341
234	0x3ed6c444	0.41946614
235	0x3f74ba1d	0.95596486
236	0x3ffb6c89	1.9642497
237	0x3ffa8d4a	1.9574368
238	0x3ed18d9c	0.40928352
239	0x3fdd3215	1.7280909
240	0xbc7fa258	-0.015602671
241	0x3f2be9b4	0.6715348
242	0x3ff57262	1.9175532
243	0x3f3ce683	0.7378923
244	0x3e9e9501	0.30973056
245	0x3f7691fd	0.9631651
246	0xbf78337e	-0.9695357
247	0x3f61b569	0.88167435
248	0xc0702a1c	-3.7525702
249	0x3f8de79f	1.108631
250	0x4004a146	2.0723433
251	0xbf7b4b26	-0.9816154
252	0x3f7c6d50	0.986043
253	0x3f3ab038	0.7292514
254	0x3f18cf4b	0.59691304
255	0x3fc204b5	1.5157686
