ddqn_sumo/saves/sumo_single_intersection/ddqn_model_period_20.pth (torch, 784246 bytes, 24 tensors)

network.0.weight f4 [200, 36]
0	0xc02863f8	-2.6311016
1	0x3ea8ea49	0.32991245
2	0xc06ca7e3	-3.697747
3	0xc02a1bb8	-2.6579418
4	0x3e6007a4	0.21877915
5	0xc068ae00	-3.63562
6	0xc031507c	-2.7705374
7	0x3f0e83fd	0.5567015
8	0xc015bb32	-2.3395505
9	0xc027b9e1	-2.6207201
10	0x3ee7cc67	0.45273134
11	0xc00f8d8a	-2.2430139
12	0xc02703b5	-2.6096013
13	0x3ebda406	0.37039202
14	0xc0102a33	-2.2525756
15	0xc0373161	-2.8623888
16	0x3ee355f1	0.44401506
17	0xc00a00bd	-2.156295
18	0xc038b1b3	-2.885846
19	0x3f319aab	0.6937663
20	0xc00d5070	-2.2080345
21	0xbfcb06f5	-1.5861498
22	0x3d54c83d	0.051948775
23	0xbfd8b44c	-1.6930022
24	0xbfd56c66	-1.6673706
25	0x3e6564c4	0.2240172
26	0xbfd4ac35	-1.6615053
27	0xbfec0d48	-1.8441553
28	0x3de2ad2a	0.11068185
29	0xbff48cd7	-1.9105481
30	0xc04f3b3e	-3.2379909
31	0xbe9d78d7	-0.30756256
32	0xc050201d	-3.25196
33	0xc04a2d4c	-3.1590147
34	0xbe93cdc5	-0.28867927
35	0xc0578a12	-3.3678021
36	0xc0360d70	-2.8445702
37	0x3e644b0c	0.22294253
38	0xc0e314a8	-7.0962715
39	0xc031bd73	-2.777188
40	0x3ebd1ef3	0.36937675
41	0xc0e5bf38	-7.179592
42	0x3e364e9e	0.17803428
43	0xbd15ab32	-0.036540218
44	0xc034c459	-2.824484
45	0x3ded51b6	0.11587851
46	0xbe49dace	-0.19712374
47	0xc035ff12	-2.8436933
48	0x3d9f4419	0.077766605
49	0xbdb8f687	-0.09031396
50	0xc038a4bd	-2.8850548
51	0xc0285f8d	-2.630832
52	0x3f3d415b	0.7392785
53	0xc0468b41	-3.1022494
54	0xc0270dd8	-2.61022
55	0x3f375df5	0.7162774
56	0xc03c8847	-2.9458177
57	0xc00f2cf1	-2.237118
58	0x3e9b4c1b	0.303315
59	0xbfd582a1	-1.668049
60	0xc018234e	-2.3771548
61	0x3ecd63f8	0.40115333
62	0xbfda3ab3	-1.7049164
63	0xc0139cd6	-2.3064475
64	0x3f096a73	0.53678054
65	0xbfdbdac9	-1.7176143
66	0xc06bc06d	-3.6836197
67	0xbea5df82	-0.32397085
68	0x3fd7e894	1.6867852
69	0xc06b816a	-3.6797738
70	0xbea29a5a	-0.31758386
71	0x3fda7fb5	1.7070223
72	0xc035bbe1	-2.8395922
73	0x3ea948c4	0.33063328
74	0xc06d93ac	-3.7121382
75	0xc03557f2	-2.8334928
76	0x3ed74aca	0.42049247
77	0xc0689f45	-3.634721
78	0xc040fabe	-3.015304
79	0x3e7c451a	0.24635735
80	0xc03a91ec	-2.9151564
81	0xc051d2b4	-3.2784853
82	0x3f0b813a	0.5449406
83	0xc03c11a3	-2.9385765
84	0xc053d101	-3.3096316
85	0x3eec70e9	0.46179894
86	0xc03e7315	-2.975774
87	0xc032708f	-2.78812
88	0x3f33b9ed	0.70205575
89	0xc00a9dfb	-2.1658924
90	0xc037c2b2	-2.8712583
91	0x3ed024fd	0.4065322
92	0xc009d13a	-2.1533952
93	0xbff9d699	-1.9518615
94	0x3e68f638	0.22750175
95	0xc002989f	-2.0405653
96	0xc00b879e	-2.1801524
97	0x3e7a76a3	0.24459319
98	0xc0019a3a	-2.0250382
99	0xc005983b	-2.0874164
100	0xbcc6b47b	-0.024255982
101	0xbffe8862	-1.9885371
102	0xc042c533	-3.043286
103	0xbe7be0f8	-0.24597538
104	0xc05fcf16	-3.4970145
105	0xc04b105a	-3.172873
106	0xbe9251aa	-0.2857793
107	0xc05fc94d	-3.4966614
108	0x401d5928	2.4585667
109	0xbe54d04d	-0.20782585
110	0x3f97e3db	1.1866411
111	0x401283a2	2.2892842
112	0xbea1ade6	-0.31577986
113	0x3f8ee23f	1.1162795
114	0x4002e0d2	2.044972
115	0xbe81cba2	-0.25350672
116	0x40231583	2.548188
117	0x40087029	2.1318457
118	0xbeaeced8	-0.34142184
119	0x402b158d	2.6731904
120	0x400eadd9	2.2293608
121	0xbe95ab3d	-0.29232207
122	0x402db45b	2.714133
123	0x3f3f97ca	0.74840987
124	0x3ca5fa4f	0.020260958
125	0x3fad9c6c	1.3563361
126	0x3f142c5f	0.57880205
127	0x3df0894f	0.117449395
128	0x3fc0699e	1.5032232
129	0xbff5d684	-1.920609
130	0xbe6eae46	-0.23308668
131	0x3f5d8afd	0.86540204
132	0xbffa3247	-1.9546593
133	0xbea90b20	-0.330163
134	0x3f5add19	0.8549362
135	0xc00345ea	-2.0511422
136	0xbe0e557e	-0.138998
137	0x3f4cd757	0.8001608
138	0x3ff64e06	1.9242561
139	0xbec59288	-0.38588357
140	0xbd8e7b6f	-0.06957137
141	0x3ff4d227	1.9126633
142	0xbeb604bc	-0.35550487
143	0xbdd67aa4	-0.104726106
144	0xbfe5024c	-1.7891326
145	0x3e47cbe8	0.19511378
146	0xc05e3ca9	-3.4724524
147	0xbfdf8c02	-1.7464602
148	0x3eba1c27	0.36349604
149	0xc0606b98	-3.506567
150	0xc04e6f82	-3.225556
151	0x3ceca17e	0.0288856
152	0xbed6223a	-0.41822988
153	0xc0496c60	-3.1472397
154	0x3d6713c6	0.05641534
155	0xbed811db	-0.42201123
156	0xc04c4198	-3.1915035
157	0x3e3cb378	0.18427837
158	0xbe877c64	-0.2646209
159	0xc00b2487	-2.1741045
160	0x3f262614	0.6490185
161	0xc04252c6	-3.036302
162	0xc0169925	-2.3530972
163	0x3f145a55	0.57950336
164	0xc048ff69	-3.140589
165	0xbff924ae	-1.9464319
166	0x3de337ed	0.11094651
167	0xc04602ff	-3.0939329
168	0xbff4d066	-1.9126098
169	0xbdbead1c	-0.09310362
170	0xc053de04	-3.3104258
171	0xbfe666b3	-1.8000091
172	0x3e4c50f9	0.19952764
173	0xc04c607a	-3.1933885
174	0xbfbc6fe2	-1.4721644
175	0x3e34d2be	0.17658517
176	0xc04e5990	-3.2242165
177	0xbfc75271	-1.5572034
178	0xbcd72bd3	-0.026266014
179	0xc053b0ea	-3.307673
180	0xc02cc9fd	-2.6998284
181	0xbec24a0e	-0.37947124
182	0xc07a8849	-3.9145682
183	0xc023dfa7	-2.5605257
184	0xbe4794a2	-0.19490293
185	0xc07a4fc0	-3.9111176
186	0xbfeeee9e	-1.866657
187	0x3dbd29de	0.09236501
188	0xbff4be15	-1.9120508
189	0xbfea8cb7	-1.8324193
190	0x3cf31c44	0.029676564
191	0xbff2d71c	-1.8971896
192	0xbfe66601	-1.7999879
193	0xbd265073	-0.040604066
194	0xbfebf495	-1.8434016
195	0xc026b76a	-2.6049447
196	0x3d9a4a6f	0.07533728
197	0xbfd615a9	-1.672536
198	0xc02e4011	-2.7226603
199	0x3dc94d20	0.098291636
200	0xbfd653f7	-1.6744374
201	0xc018d68a	-2.3880944
202	0xbdbe75df	-0.09299826
203	0xc00bf9e7	-2.1871278
204	0xc00d20a9	-2.2051184
205	0x3e1b5294	0.1516822
206	0xc0051ac6	-2.0797591
207	0xc01b2e0e	-2.424686
208	0x3e01e641	0.12685491
209	0xc001de07	-2.0291765
210	0xc030bc1a	-2.7614808
211	0x3e62ceff	0.22149275
212	0xc0337ca7	-2.8044832
213	0xc034b342	-2.823441
214	0x3ed30b8f	0.41219756
215	0xc028f3d3	-2.6398818
216	0xbe9015ff	-0.28141782
217	0xbe5a1f74	-0.21301061
218	0xbfa8728e	-1.3159959
219	0xbde17fd6	-0.11010711
220	0xbeacc1fb	-0.33741745
221	0xbf993ed1	-1.1972295
222	0xbee1d300	-0.44106293
223	0x3e36af81	0.17840387
224	0xbf0179bd	-0.5057638
225	0xbf0d85aa	-0.5528208
226	0x3de6c2e4	0.11267641
227	0xbec37b18	-0.3817985
228	0xbeca4f11	-0.39513448
229	0x3e9559db	0.29170117
230	0xbf0e6229	-0.5561853
231	0x3c1f30ac	0.009716194
232	0x3eeb217d	0.45923987
233	0x3f86d171	1.0532666
234	0xbe477e40	-0.19481754
235	0x3eae7c06	0.34078997
236	0x3f9cbc95	1.2245051
237	0xbffcea3d	-1.9758984
238	0xbe41acc0	-0.18913555
239	0xc0297f5e	-2.6483989
240	0xc00508a6	-2.0786529
241	0xbde7d3d4	-0.113197
242	0xc024c438	-2.5744762
243	0xc009bcd6	-2.1521506
244	0xbe4ae5c1	-0.19814207
245	0xc02f8aa1	-2.7428362
246	0x3f51faa0	0.8202305
247	0x3e29c42d	0.16578741
248	0xbf5749ce	-0.8409699
249	0x3f884e91	1.0648977
250	0x3e123c31	0.14280774
251	0xbf83a45d	-1.0284535
252	0xbff4de56	-1.9130352
253	0x3e8ce8dc	0.27521408
254	0xc0100d2e	-2.2508044
255	0xc0033b31	-2.0504878

network.0.bias f4 [200]
0	0xbf89d2e6	-1.0767486
1	0xbed510f3	-0.41614494
2	0xbf698a26	-0.9122642
3	0x3f0d2776	0.5513834
4	0xbf064b70	-0.5245886
5	0xbe9c3e68	-0.30516362
6	0x3ee38803	0.44439706
7	0xbf563b10	-0.8368387
8	0xbf827cac	-1.0194297
9	0x3edfa87e	0.43683237
10	0xbf6e60e6	-0.93116605
11	0xbf8e3c26	-1.1112106
12	0xbf8eef88	-1.1166849
13	0x3fa2bb1b	1.271335
14	0xbf747cf6	-0.95503175
15	0xbf7b9b36	-0.9828371
16	0xbe99c527	-0.30033228
17	0x3d96945a	0.073525146
18	0xbe1e85c3	-0.15480714
19	0xbf803ba1	-1.0018197
20	0xbf6b68dd	-0.91956884
21	0xbf182148	-0.59425783
22	0xbf0a05e8	-0.5391526
23	0xbe024119	-0.12720145
24	0xbea0e77f	-0.31426618
25	0x3f4c4dc7	0.7980618
26	0xbf066667	-0.52500004
27	0xbf21683a	-0.6304966
28	0xbed477a7	-0.41497537
29	0x3f8cbc45	1.0994955
30	0xbedeff10	-0.43553972
31	0xbf329203	-0.69754046
32	0xbe8cd9ed	-0.27510014
33	0x3ebb4a1d	0.3657998
34	0xbf814b08	-1.0101023
35	0x3f143e8f	0.57907957
36	0xbebc36bb	-0.36760506
37	0xbd98bd85	-0.07458023
38	0xbf7dda9c	-0.99161696
39	0xbf02184d	-0.5081833
40	0xbebabb54	-0.36471045
41	0xbf81ccf0	-1.0140667
42	0xbf0fcf77	-0.5617594
43	0xbf8aa97e	-1.0832975
44	0x3eeda53f	0.46415135
45	0x3f28cd1a	0.6593796
46	0x3f703d0b	0.93843144
47	0x3edfcd17	0.4371116
48	0x3dc52655	0.09626452
49	0xbf848c86	-1.0355384
50	0xbeedb21a	-0.46424943
51	0x3f1a9e5a	0.60397875
52	0x3e9251d5	0.28578058
53	0xbf82ebf8	-1.0228262
54	0x3eef14d6	0.46695584
55	0xbef06e71	-0.4695926
56	0xbe6798c6	-0.22616872
57	0xbea24449	-0.31692722
58	0x3ecdfcc2	0.402319
59	0xbf492651	-0.7857409
60	0xbf643d18	-0.8915572
61	0xbef93264	-0.48671257
62	0xbed6df0c	-0.41967046
63	0xbec15596	-0.3776061
64	0x3f2aefd8	0.6677222
65	0x3e3db7ed	0.18527193
66	0xbf66c565	-0.9014495
67	0xbee1f86b	-0.4413484
68	0xbd15d3e9	-0.036579046
69	0x3f8660d4	1.04983
70	0xbc83126d	-0.015999997
71	0xbf5a9fa6	-0.85399854
72	0xbf7626ad	-0.96152765
73	0xbf8bf81a	-1.093509
74	0xbf62fbb8	-0.8866534
75	0xbe7c43dd	-0.24635263
76	0x3f1592e4	0.5842726
77	0x3ea0576a	0.31316692
78	0x3f758659	0.95908123
79	0x3f8d1964	1.1023374
80	0xbef461c0	-0.47730827
81	0xbf1ee687	-0.62070507
82	0xbf846ac5	-1.0345083
83	0xbf2e2db3	-0.6803848
84	0xbf71fa5c	-0.94522643
85	0xbf5c4537	-0.86043113
86	0xbddd4838	-0.1080479
87	0xbf481aef	-0.781661
88	0x3f2de9f3	0.67935103
89	0xbcfd8b46	-0.0309502
90	0x3f1db6d5	0.61607105
91	0xbe9dd725	-0.30828205
92	0x3d0e4003	0.034729015
93	0xbf87adf5	-1.0599962
94	0xbf838ff6	-1.0278308
95	0xbf87be57	-1.0604962
96	0x3e9b3a02	0.30317694
97	0xbf7c9914	-0.9867108
98	0xbf63b27d	-0.88944227
99	0xbea78c16	-0.32724065
100	0xbf74beac	-0.9560344
101	0xbebb391c	-0.36567008
102	0xbf40527a	-0.7512585
103	0xbd89b7e7	-0.0672453
104	0xbf898f2a	-1.0746815
105	0xbe21b546	-0.15791807
106	0xbf800714	-1.000216
107	0xbef4d974	-0.47822154
108	0xbf817da4	-1.0116467
109	0xbf6f1800	-0.93395996
110	0xbf5c9435	-0.86163646
111	0xbf123cc6	-0.5712398
112	0xbf6a52ff	-0.9153289
113	0xbf706cde	-0.9391612
114	0x3df3d7a1	0.11906362
115	0x3e811af8	0.25215888
116	0x3f4e3105	0.8054355
117	0xbf706aca	-0.9391295
118	0xbf89d1fc	-1.0767207
119	0x3f0dae85	0.5534442
120	0x3d87586a	0.066086605
121	0xbf8a8eef	-1.082487
122	0xbe9f786d	-0.31146565
123	0xbf13d1b7	-0.57741874
124	0x3f383da4	0.71969056
125	0xbf82ea7f	-1.0227813
126	0x3efebdc5	0.49754158
127	0xbea108ce	-0.3145203
128	0x3e91351f	0.2836084
129	0x3e902f8d	0.28161278
130	0x3f186e28	0.59543085
131	0xbde018d2	-0.10942234
132	0xbe8afeae	-0.2714743
133	0x3ef17959	0.47162893
134	0xbf88fa7d	-1.0701443
135	0xbed079a2	-0.40717798
136	0xbf0450e6	-0.5168594
137	0x3f7c8818	0.9864516
138	0xbea4ae2e	-0.3216414
139	0x3f3f64b4	0.74763036
140	0xbe1d96f0	-0.1538961
141	0xbf4212f0	-0.75810146
142	0xbf6e98df	-0.9320201
143	0x3f8f06ec	1.1173987
144	0xbf2c61ef	-0.67336935
145	0x3f9cb39a	1.224231
146	0x3f4dcdfa	0.8039242
147	0x3f6b235d	0.91850835
148	0x3ef64933	0.48102722
149	0xbf63786b	-0.8885562
150	0x3f120996	0.57045877
151	0xbf684fb3	-0.9074661
152	0xbf8f12d2	-1.1177619
153	0xbef50702	-0.4785691
154	0x3efb6ee9	0.49108055
155	0xbf6daf5a	-0.9284569
156	0xbf882a01	-1.0637819
157	0xbec60e74	-0.38682902
158	0xbf23ed35	-0.64033824
159	0xbf841fa0	-1.0322151
160	0x3e8f012f	0.2793059
161	0xbf6f9b4a	-0.9359633
162	0x3e25b9a8	0.16184103
163	0xbf84d750	-1.0378208
164	0x3dfcd9e5	0.123462476
165	0xbf5f880a	-0.87316954
166	0xbf1d62da	-0.6147896
167	0xbf7e8c72	-0.9943305
168	0xbd834024	-0.06408718
169	0x3e825f93	0.25463542
170	0xbe88373d	-0.26604643
171	0xbe4e8a73	-0.20170002
172	0xbec77087	-0.3895304
173	0x3f211ab9	0.629314
174	0xbf775d26	-0.9662651
175	0xbf898e2b	-1.0746511
176	0xbf670ff8	-0.9025874
177	0xbe9b53d4	-0.30337393
178	0x3f614767	0.87999576
179	0x3f33d1bb	0.702419
180	0xbdcdccc2	-0.1004882
181	0xbf7ddd94	-0.99166226
182	0x3e6f8493	0.23390417
183	0xbf32546a	-0.69660056
184	0xbf8b7cb0	-1.0897427
185	0xbf62f204	-0.88650537
186	0xbf85b40b	-1.044557
187	0xbf8a9488	-1.0826578
188	0xbf048dd1	-0.51778895
189	0x3ef2fe5d	0.4745969
190	0x3f2c9b49	0.67424446
191	0xbf8a21d8	-1.0791578
192	0x3f201953	0.6253864
193	0x3fa7eee0	1.3119774
194	0xbf7a528e	-0.9778222
195	0x00000000	0.0
196	0xbea2fbe7	-0.3183281
197	0xbf85963d	-1.0436474
198	0xbe888edb	-0.2667149
199	0x3ee78fa1	0.45226768

network.2.weight f4 [200, 200]
0	0x3baaeeba	0.0052164467
1	0x3dab673a	0.08369298
2	0xbd991127	-0.07473975
3	0xbe09e7b2	-0.13467291
4	0x3a2caf5c	0.000658741
5	0xbd1aeec5	-0.037825365
6	0x3d2df88e	0.04247337
7	0xbac36259	-0.0014906629
8	0xbda59275	-0.08084575
9	0xbdae74a8	-0.08518344
10	0x3cfe9753	0.031078016
11	0x3c498b83	0.012301329
12	0xbe0843c8	-0.13307106
13	0x3d619831	0.05507678
14	0x3dbf9d6b	0.09356197
15	0x3dd28d6d	0.10280881
16	0x3c6765bc	0.014123376
17	0xbe0ffd39	-0.1406144
18	0xbd5fa49f	-0.054600354
19	0x3d9e5314	0.0773069
20	0xbd8b188d	-0.06791792
21	0xbd9de916	-0.07710473
22	0xbd803daf	-0.06261765
23	0x3d0e4d6d	0.034741808
24	0xbcbba40a	-0.022905368
25	0xbe0b3dfb	-0.13597862
26	0x3cba86c6	0.022769343
27	0xbccf7f02	-0.025329117
28	0x3ca5a033	0.02021799
29	0xbaeb7177	-0.0017962892
30	0xbd66b26a	-0.056322493
31	0xbda8f38c	-0.08249578
32	0x3d0f482f	0.03498095
33	0xbdd9234c	-0.106024355
34	0x3b1ed6b6	0.0024236864
35	0x3c42ba49	0.011885234
36	0x3db4f86c	0.08836445
37	0x3d93140f	0.0718156
38	0xbd7a8b80	-0.061168194
39	0x3c731d1e	0.014838485
40	0xbc0d2d14	-0.0086167045
41	0xbd2584a0	-0.040409684
42	0x3da9e3e8	0.08295423
43	0x3e0a6a22	0.13517049
44	0x3bf746e8	0.0075462945
45	0xbd8bf97d	-0.068346955
46	0xbd3fe25f	-0.046846744
47	0x3d38ad98	0.045087427
48	0xbd419464	-0.047260657
49	0x3ca25870	0.01981756
50	0x3b556b77	0.0032565275
51	0x3d161e93	0.03665025
52	0x3d77ddc5	0.06051423
53	0xbd7d04c4	-0.061772123
54	0xbe0510be	-0.12994668
55	0xbd2a9c08	-0.04165271
56	0xbded16fb	-0.11576649
57	0xbda22d30	-0.07918775
58	0xbd73fe82	-0.05956889
59	0xba6fa141	-0.0009141155
60	0x3d475a68	0.048670202
61	0x3da80fa4	0.08206108
62	0x3d7646ce	0.06012612
63	0xbdc57456	-0.0964133
64	0x3d447877	0.047966447
65	0x3cebb029	0.028770523
66	0x3db6f032	0.08932532
67	0x3d55a1ba	0.052156188
68	0x393d5859	0.00018057357
69	0x3dc416eb	0.09574684
70	0x3da798f4	0.0818347
71	0xbdd31812	-0.103073254
72	0x3d62d874	0.055382207
73	0xbd0995d2	-0.033590145
74	0xbdbbb7a6	-0.091658875
75	0x3c7141ab	0.014725129
76	0xbe016d3a	-0.12639323
77	0x3d1f316c	0.03886549
78	0xbc493717	-0.012281201
79	0xbd44ef7b	-0.04807995
80	0xbbb628ef	-0.005559079
81	0xbd9654dc	-0.073404044
82	0xbe11c250	-0.1423428
83	0x3d483426	0.048877858
84	0x3d306092	0.043060847
85	0xbdf53bbb	-0.11974283
86	0x3d65311e	0.055955045
87	0xbdc29d92	-0.095027104
88	0xbd260abb	-0.040537577
89	0x3dcb2022	0.09918238
90	0x3cf964ea	0.030443627
91	0xbd862bbc	-0.065513104
92	0xbdf6783d	-0.120346524
93	0x3d4f8bcd	0.050670434
94	0xbdb9ea15	-0.09077851
95	0xbc817e0b	-0.015807172
96	0xbdaf0ed8	-0.08547753
97	0x3d83812a	0.064211205
98	0xbe0af206	-0.13568887
99	0xbce95d63	-0.028486913
100	0x3ca5bbbb	0.020231118
101	0xbd44864b	-0.047979634
102	0x3db327d9	0.08747835
103	0xbe0db765	-0.1383949
104	0xbc77c45c	-0.015122499
105	0x3caf73c6	0.02141751
106	0x3c76f4e6	0.015073037
107	0x3cf36a7f	0.029713867
108	0xbdd7d7b5	-0.1053919
109	0x3d63b191	0.055589262
110	0xbd9be099	-0.07611198
111	0x3df7b498	0.120949924
112	0xbdf12621	-0.11774851
113	0xbd6f7bd0	-0.058467686
114	0xbd5ef4f2	-0.054432817
115	0xbdbaac79	-0.09114928
116	0xbcaeaabe	-0.02132165
117	0xbdcc7b5a	-0.09984465
118	0xbddcfef8	-0.10790819
119	0xbda9faf0	-0.08299816
120	0xbd88c192	-0.066775456
121	0xbb86abc2	-0.0041098306
122	0xbcc74f67	-0.024329854
123	0x3db56a05	0.08858112
124	0x3d29f0da	0.04148946
125	0xbdb17969	-0.08665735
126	0xbd81f525	-0.06345586
127	0xbd5855fb	-0.052816372
128	0xbd8d52e5	-0.069005765
129	0xbd6446eb	-0.055731695
130	0x3b85e0f7	0.004085656
131	0x3d899301	0.06717492
132	0x3bc03841	0.005866081
133	0xbd94b4a5	-0.07261018
134	0x3accbe9d	0.0015620772
135	0xbd9d0529	-0.07667
136	0x3c894e65	0.016761014
137	0x3daf8880	0.08570957
138	0xbce2a1fe	-0.027665135
139	0x3d7acf23	0.061232697
140	0xbbf0f9cb	-0.0073539964
141	0xbce3cf99	-0.027808951
142	0x3dba860f	0.09107601
143	0xbd4f09ed	-0.050546575
144	0x3dba30ae	0.09091316
145	0x3c89f84d	0.016842032
146	0xbdf12c6a	-0.117760494
147	0xbc332eed	-0.010936481
148	0x3d56d3dd	0.052448142
149	0xbd9ff939	-0.07811207
150	0xbd7accee	-0.061230592
151	0x3d7e90c9	0.062149797
152	0x3d711873	0.058861207
153	0xbd8a13ab	-0.067420326
154	0xbd583362	-0.052783377
155	0xbcfda5d3	-0.03096286
156	0xbe0736db	-0.1320452
157	0xbdd16964	-0.1022518
158	0x3d51e00c	0.05123906
159	0x3e0a13b7	0.13484083
160	0x3d8e30f4	0.06942931
161	0xbd50e341	-0.050997976
162	0xbd0b6208	-0.034029037
163	0x3c860b4d	0.01636281
164	0xbbeb3230	-0.0071776137
165	0x3cda2264	0.026627727
166	0x3dc633b1	0.09677828
167	0x3dc18cd4	0.09450689
168	0x3dae91c9	0.085239
169	0xbd5be36b	-0.05368368
170	0xbdd65184	-0.104647666
171	0xbd379186	-0.044816516
172	0xbdabc5c8	-0.08387333
173	0x3d7bb6d1	0.061453644
174	0x3dbe4cc0	0.09291983
175	0xbdee1c87	-0.11626535
176	0xbd6fef3b	-0.058577757
177	0xbc0a38ce	-0.008436395
178	0xbd73deb1	-0.059538547
179	0xbd4387b0	-0.047736824
180	0xbded2950	-0.11580145
181	0x3ceb2204	0.028702743
182	0xbce6d0ea	-0.02817579
183	0xbde4fbfc	-0.11180875
184	0x3dba9e4d	0.09112225
185	0x3de8344b	0.11338099
186	0xbca75716	-0.020427268
187	0x3d602e90	0.054731905
188	0x3d6718a7	0.056419995
189	0xbdfd573f	-0.123701565
190	0x3d25390f	0.04033762
191	0x3cf54730	0.029941171
192	0xbcb78d9b	-0.02240639
193	0xbdf430dd	-0.119233824
194	0x3d304d29	0.043042336
195	0xb9710000	-0.00022983551
196	0x3d370596	0.04468306
197	0x3b9b5c82	0.0047412524
198	0xbcb73d26	-0.022368025
199	0xbdf53315	-0.11972634
200	0x3e3f4f3a	0.18682566
201	0x3ff4fe71	1.9140149
202	0x3fb27a31	1.394354
203	0xbfca2ba5	-1.5794569
204	0x3fe3356a	1.7750676
205	0x3f7e35aa	0.99300635
206	0x3f88ce1b	1.0687898
207	0x3f8b17e0	1.0866661
208	0x3f182de8	0.5944505
209	0x3f641321	0.8909169
210	0x3f2ce738	0.6754031
211	0x3f808e75	1.0043474
212	0x3f7d0b15	0.98845035
213	0xbfa3cf93	-1.2797722
214	0x3fa13527	1.2594346
215	0x3f3b8a1c	0.73257613
216	0x4025af0a	2.5888085
217	0x3f619ceb	0.8813006
218	0x3d9c5f86	0.07635407
219	0x3fb1be13	1.3886131
220	0x3f7bb967	0.98329777
221	0x4008ac48	2.1355152
222	0x3ee6238d	0.44948998
223	0x3f9f81b8	1.2461462
224	0xbf3d214b	-0.73878926
225	0xbf7b8bcc	-0.9826019
226	0x4008125e	2.126121
227	0xbe4deae6	-0.20109138
228	0x3ffabf8c	1.9589705
229	0xbfa116c3	-1.2585071
230	0x40215f79	2.5214522
231	0x40053e82	2.0819402
232	0x3f811c48	1.0086756
233	0x3f82395e	1.0173757
234	0x3eab20f3	0.33423576
235	0x3f8ec67f	1.1154326
236	0x401f0278	2.4845257
237	0x40533dee	3.300655
238	0x3ed3ad00	0.41342926
239	0x3fb93334	1.4468751
240	0xbf3ba915	-0.73304874
241	0x3f1b953a	0.60774577
242	0x3fd0ba59	1.6306869
243	0x3f345311	0.7043925
244	0xbdadb49e	-0.084817156
245	0x3f6eb734	0.93248296
246	0xbf516f5b	-0.8181054
247	0x3f62db89	0.88616234
248	0xc04059de	-3.005485
249	0x3f87d2a2	1.0611155
250	0x3f9d382a	1.2282765
251	0xc011f221	-2.2804034
252	0x3f882821	1.0637246
253	0x3f2032c2	0.6257745
254	0x3f833137	1.0249394
255	0x3fea6e57	1.8314923

network.2.bias f4 [200]
0	0xbd1dec15	-0.038555223
1	0xbccff934	-0.025387384
2	0xbc5def27	-0.013545788
3	0x3f1f1fa2	0.6215764
4	0x3f368e78	0.7131114
5	0x3f25f1e0	0.64822197
6	0x3e5f5692	0.21810368
7	0x3cb74081	0.022369625
8	0xbdfeaefc	-0.12435719
9	0xbd253411	-0.040332858
10	0x3d3b8717	0.04578313
11	0x3f491af5	0.7855676
12	0x3fa5aa9f	1.2942694
13	0xbcd04a6a	-0.025426108
14	0x3d053963	0.03252543
15	0x3f472e28	0.77804804
16	0xbcf119b8	-0.029431209
17	0xbee4970d	-0.44646493
18	0x3f37750f	0.7166299
19	0xbc0feb25	-0.00878409
20	0xbd42a688	-0.047522098
21	0xbd129295	-0.035784323
22	0x3f0d41cc	0.55178523
23	0x3f37d576	0.7181009
24	0x3f3a1543	0.7268869
25	0xbca0d873	-0.019634461
26	0xbe29d88d	-0.16586514
27	0xbe8870e5	-0.26648632
28	0xbf7e4cd1	-0.9933596
29	0x3f4df06f	0.80445
30	0xbf45a821	-0.7720967
31	0x3f36490c	0.7120521
32	0x3f4f40f1	0.8095847
33	0x3f2c37cb	0.67272633
34	0x3ee9328e	0.45546383
35	0x3f2932c3	0.6609308
36	0x3e041100	0.1289711
37	0x3e168929	0.1470076
38	0x3f9cdfaf	1.2255763
39	0xbd305529	-0.043049965
40	0xbf2a47f4	-0.6651604
41	0xbc965049	-0.01834883
42	0x3dc0604c	0.09393367
43	0xbeb33a3f	-0.35005376
44	0x3f198c3b	0.599796
45	0xbc0b2a5b	-0.008493985
46	0x3f38f2a5	0.72245246
47	0xbf75380b	-0.9578864
48	0x3e845121	0.25843146
49	0x3f3a0757	0.7266745
50	0xbd911a59	-0.070851035
51	0xbf66427a	-0.89945185
52	0x3e8db975	0.27680555
53	0xbd945e54	-0.07244554
54	0xbc7a7468	-0.0152865425
55	0x3f35b0d1	0.70972925
56	0x3ed29719	0.41130903
57	0xbc804ac3	-0.01566065
58	0x3f1a7778	0.60338545
59	0xbefe70dc	-0.4969548
60	0x3f6b6960	0.91957664
61	0xbd3a0cc8	-0.045422345
62	0x3f113572	0.56722176
63	0x3f469fb3	0.7758743
64	0xbc92b46e	-0.017908301
65	0x3f2265f0	0.63436794
66	0xbda3c127	-0.07995825
67	0x3f20cc74	0.6281197
68	0x3f02975d	0.5101221
69	0x3ff2310f	1.8921221
70	0x3f3750c3	0.7160761
71	0xbe1638ae	-0.14670059
72	0x3f42773f	0.75963205
73	0x3f542085	0.8286212
74	0x3ea40654	0.32036078
75	0x3f098718	0.5372176
76	0x3f4dfd63	0.8046476
77	0x3e63157b	0.22176163
78	0x3f4f5896	0.80994546
79	0x3fd4e15c	1.6631274
80	0xbc25b61c	-0.010114219
81	0x3f483828	0.7821069
82	0x3f75c5ce	0.9600495
83	0x3f382af6	0.71940553
84	0xbd3d02a3	-0.046145093
85	0x3f43d7ec	0.76501346
86	0xbcd0b467	-0.025476648
87	0x3d1127c8	0.03543833
88	0xbc7eda53	-0.015554982
89	0x3f8930bc	1.0717998
90	0xbc40f28c	-0.011776578
91	0x3f41f4a7	0.75763935
92	0x3e6a5013	0.22882108
93	0x3f555868	0.8333802
94	0x3f36fceb	0.7147967
95	0xbcda49bd	-0.02664649
96	0x3da41d16	0.0801336
97	0x3f52e3c0	0.8237877
98	0x3f40a345	0.7524913
99	0xbeca424d	-0.39503708
100	0x3eeec8e2	0.46637636
101	0xbd3047ee	-0.043037347
102	0x3f49114d	0.78542024
103	0x3ee8af33	0.45446166
104	0x3eb83150	0.35975122
105	0x3f1e62f7	0.6186976
106	0xb9b0c94e	-0.0003371932
107	0xbe24db7f	-0.16099356
108	0xbe80434d	-0.25051346
109	0x3f3c4faf	0.7355909
110	0xbf3eb0c8	-0.74488497
111	0xbeb326dc	-0.34990585
112	0x3ec1afae	0.37829345
113	0x3efd47e9	0.49468926
114	0xbd00d1bb	-0.031450015
115	0xbc89591a	-0.01676612
116	0x3e3ab656	0.18233618
117	0xbf88c6de	-1.068569
118	0x3f02eed9	0.511457
119	0x3f298b8f	0.66228575
120	0x3f3d825e	0.7402705
121	0x3fa623b0	1.2979641
122	0x3f408035	0.7519563
123	0x3e6276d0	0.22115636
124	0x3edd794f	0.43256614
125	0x3f405e01	0.7514344
126	0x3ebc2301	0.36745456
127	0x3cc1adb7	0.023642404
128	0x3e98a9bc	0.29816997
129	0x3f3613c0	0.71123886
130	0x3f3a9f12	0.7289897
131	0x3f6586d7	0.89658874
132	0x3ec633b6	0.38711327
133	0x3f074500	0.5283966
134	0x3f01ae64	0.50656724
135	0x3e87ad2d	0.2649931
136	0x3f34951c	0.7054002
137	0x3e9c84ea	0.30570155
138	0xbe7772c6	-0.24164876
139	0x3f1fe668	0.6246095
140	0xbd3c3c79	-0.04595611
141	0xbd3f6e55	-0.04673608
142	0x3ebdcb08	0.37068963
143	0x3f334ea8	0.70041895
144	0x3f07fca0	0.5311985
145	0xbd45fc75	-0.048336465
146	0xbc4410b1	-0.01196687
147	0xbc35ee96	-0.011104247
148	0xbd3bb636	-0.045828067
149	0x3f59e7d5	0.8511937
150	0x3ee51ca6	0.4474842
151	0x3edc9a38	0.4308641
152	0x3eee30fd	0.4652175
153	0x3fa6b2ed	1.3023354
154	0xbd0140c8	-0.03155592
155	0x3fcccb7d	1.59996
156	0x3e9c19a5	0.30488315
157	0x3e543695	0.20723946
158	0xbcfa39c0	-0.030545115
159	0x3f0b07e0	0.5430889
160	0xbf608ae2	-0.8771192
161	0x3ec2e974	0.38068736
162	0xbf50f32c	-0.8162105
163	0x3f4421aa	0.7661387
164	0xbd3e62a1	-0.04648078
165	0xbd4a0469	-0.049320612
166	0xbf04f819	-0.51941067
167	0xbeb4144b	-0.35171732
168	0xba4bfc40	-0.00077814236
169	0x3e3998f3	0.18124752
170	0x3ea692c4	0.32533848
171	0xbd9a1ce1	-0.075250395
172	0xbc97ed72	-0.01854584
173	0x3f317af1	0.6932822
174	0x3f27b18b	0.65505284
175	0xbd099e45	-0.033598203
176	0x3f4b819d	0.7949465
177	0x3e4acf86	0.19805726
178	0x3f86820e	1.050844
179	0xbd10ca1f	-0.035349008
180	0x3fca8b03	1.5823673
181	0xbed4989b	-0.4152268
182	0x3f4cd892	0.8001796
183	0xbc733ae6	-0.014845585
184	0x3dec899b	0.11549684
185	0xbce1fdf0	-0.027586907
186	0x3e1aa2ee	0.15101215
187	0xbd162819	-0.036659334
188	0x3ee8e0ae	0.45483917
189	0xbc295dcd	-0.010337305
190	0x3ee2042c	0.44143808
191	0x3f449bd7	0.7680029
192	0x3efa5d8e	0.48899502
193	0x3f1ea3af	0.6196851
194	0x3da9bc15	0.08287827
195	0x3eb6232e	0.35573715
196	0x3f0817cd	0.5316132
197	0xbf3cc159	-0.73732525
198	0xbc8ad68e	-0.01694801
199	0xbee878c1	-0.45404628

network.4.weight f4 [4, 200]
0	0x3db123e2	0.08649422
1	0x3fad28f9	1.3528129
2	0xbddc220c	-0.107486814
3	0xbf36e492	-0.7144252
4	0xbf9e89dd	-1.2385823
5	0x3f2eea76	0.6832651
6	0xc04b875b	-3.1801364
7	0x3fa0bcee	1.2557657
8	0xbd9e2380	-0.07721615
9	0xbe0ca239	-0.13733758
10	0xc028a939	-2.6353285
11	0xc00fa5fa	-2.2445054
12	0x3fd9a3ff	1.7003173
13	0xbca7fe51	-0.02050701
14	0x401cb437	2.4484994
15	0xbf7629cc	-0.96157527
16	0x3e289d81	0.16466333
17	0x4000527d	2.0050347
18	0xbf2c2779	-0.6724773
19	0x3dc3e146	0.09564452
20	0x3d0094e1	0.031391982
21	0x3d5a50a3	0.053299557
22	0xbfb4bd1e	-1.4120214
23	0xbf7dbfca	-0.9912077
24	0xbe6cfa9e	-0.23142478
25	0x3d7fccd6	0.062451206
26	0xbf478b56	-0.77946985
27	0x402452c0	2.5675507
28	0xbfc71f7e	-1.5556486
29	0xbf356ff0	-0.7087393
30	0xbfb2c543	-1.396645
31	0xbf2a3335	-0.66484386
32	0xbf83f635	-1.0309511
33	0x3c2ebfe2	0.010665866
34	0xbf040b10	-0.5157938
35	0xbf43f68f	-0.76548094
36	0xc022e714	-2.545354
37	0xbfcfd2df	-1.6236228
38	0x3fe5891a	1.7932465
39	0xbd586bc7	-0.05283716
40	0xbfd36999	-1.6516601
41	0xbe14bfd0	-0.14526296
42	0xc0140ad6	-2.3131614
43	0x3fb384db	1.4024919
44	0xbf30fb1b	-0.69133157
45	0xbe149165	-0.14508589
46	0xbf1ab4b8	-0.60432005
47	0xbff6a45f	-1.9268912
48	0xc0851107	-4.1583285
49	0xbee8c4fa	-0.4546278
50	0x3e1c232e	0.15247795
51	0xbfd922fb	-1.69638
52	0xc021ee00	-2.5301514
53	0x3fcb5744	1.5886006
54	0x3ca6f13a	0.020378698
55	0xbf934367	-1.1504945
56	0xbf01b830	-0.5067167
57	0xbd9cd972	-0.07658662
58	0xbf1b3926	-0.60634077
59	0x40185971	2.380459
60	0xc0781891	-3.8764994
61	0x3d021d27	0.031766083
62	0xbf61d230	-0.88211346
63	0xbf0ee1ab	-0.5581309
64	0xbd3a8a67	-0.045542147
65	0xbed124f6	-0.4084851
66	0x40527725	3.288522
67	0xbf157256	-0.5837759
68	0xbf6c7106	-0.9235996
69	0xbf8a08f4	-1.0783982
70	0xbf6c6ae9	-0.9235063
71	0x3fa7b701	1.3102723
72	0xbe331f68	-0.1749245
73	0xbf318845	-0.69348556
74	0xc08563eb	-4.168447
75	0xbf406b1b	-0.7516343
76	0xbfdc879b	-1.7228884
77	0x3f61fb8c	0.88274455
78	0xbf699dc4	-0.91256356
79	0xbf559422	-0.8342916
80	0xbe04c0a2	-0.12964109
81	0xbf23b3be	-0.6394614
82	0x3feedcd6	1.8661144
83	0xbf1f30a9	-0.62183625
84	0x3dea725a	0.11447592
85	0xbf14cfe1	-0.581297
86	0xbe1bb346	-0.15205106
87	0xbfcaa642	-1.5831988
88	0x3d8302eb	0.06397041
89	0xc0a7a95e	-5.2394247
90	0x3c73edd0	0.014888242
91	0xbf57bab8	-0.84269285
92	0xc05eebae	-3.4831347
93	0xc063b949	-3.558184
94	0xbf551158	-0.8322959
95	0x3da4aa76	0.08040325
96	0x401f63cb	2.4904659
97	0xbf6c38a0	-0.922739
98	0xbfac8521	-1.3478128
99	0x402b4e46	2.6766524
100	0xbf8ab749	-1.0837184
101	0x3e1a232b	0.15052478
102	0xbf13b189	-0.5769277
103	0xbffade46	-1.9599082
104	0xc081b4e1	-4.05333
105	0xbf025ab4	-0.5091965
106	0x3fa8e4b3	1.3194793
107	0x403a41a0	2.9102554
108	0xbe15b8cb	-0.14621274
109	0x3eb2cf33	0.34923705
110	0xbfbe5d9e	-1.487232
111	0x3fe96f24	1.8237042
112	0xbf187b10	-0.5956278
113	0xbf243dc8	-0.6415677
114	0xbd582109	-0.05276588
115	0xbd92f802	-0.0717621
116	0xbec8d0bb	-0.3922175
117	0xc0061060	-2.0947495
118	0xbf9be8ae	-1.2180383
119	0xbf8d6fc4	-1.1049733
120	0xbf54e26c	-0.8315799
121	0x4006e048	2.107439
122	0xbf06b251	-0.5261584
123	0xbeff9c5c	-0.4992398
124	0xc03541ef	-2.8321493
125	0xbf2d7775	-0.677604
126	0xc0bef19e	-5.9669943
127	0x3f8a8e0a	1.0824597
128	0xbf5cde9c	-0.86277175
129	0xbf719bf2	-0.9437858
130	0xbd1455d5	-0.03621467
131	0xbfe24e45	-1.7680136
132	0xc039cdf8	-2.9031963
133	0x3fd4bb89	1.6619731
134	0xbfb84c9c	-1.4398379
135	0xc088c66a	-4.2742205
136	0xbff14998	-1.8850584
137	0xbfc2e1bd	-1.522514
138	0x3fd1ce12	1.6391013
139	0xbedf0db0	-0.4356513
140	0x3da6f345	0.08151869
141	0x3c592ad0	0.013254836
142	0xbf5b671a	-0.85704195
143	0xbf7ad1ef	-0.97976583
144	0xbfe5eaa4	-1.7962232
145	0xbd0a4e9c	-0.033766374
146	0x3e099667	0.1343628
147	0xbf1c6de7	-0.611052
148	0xbd82b9ba	-0.06383081
149	0xc035b078	-2.8388958
150	0xbfd096bf	-1.6296004
151	0xc00410ed	-2.063533
152	0xc119ebbf	-9.620055
153	0x3fd316b9	1.649131
154	0x3dc05d45	0.0939279
155	0x3f2e45ac	0.6807506
156	0x3ec0730d	0.37587777
157	0x3f8f35b6	1.1188266
158	0x3ce8995b	0.028393438
159	0xbf07ad81	-0.5299912
160	0xbef89fad	-0.48559323
161	0xc01a3799	-2.4096434
162	0xbf666546	-0.8999828
163	0xbe965f69	-0.29369667
164	0xbf2bd5f0	-0.6712332
165	0xbdb285a5	-0.08716897
166	0x3fa744ee	1.3067911
167	0xbf6fd5b3	-0.93685454
168	0xbf616b65	-0.88054496
169	0xbf6ce49e	-0.9253634
170	0xbe4ab4c9	-0.19795527
171	0xbdbb9112	-0.09158529
172	0x3e07839a	0.13233796
173	0xbf7fe737	-0.9996218
174	0xbf3dc840	-0.7413368
175	0x3dc377a0	0.09544301
176	0xbf2f3255	-0.68436176
177	0xc0191156	-2.391683
178	0xc060dc45	-3.5134442
179	0x3fe2907d	1.7700344
180	0xc00557ac	-2.083476
181	0xbf7c5f31	-0.9858275
182	0xbf738e1c	-0.95138717
183	0x3fae9337	1.3638676
184	0x40342cd8	2.815237
185	0x3e04d837	0.12973104
186	0xbed8a074	-0.42309916
187	0xbd2c1da2	-0.042020448
188	0xbf43c12f	-0.7646665
189	0x3e16f8cb	0.14743344
190	0xbf5bb4b4	-0.85822606
191	0x3e5ad57d	0.21370502
192	0xbe991aa5	-0.2990314
193	0xbf2afca9	-0.6679178
194	0xbf4fe757	-0.8121237
195	0xc071dfbc	-3.7792807
196	0xbf3d8ff1	-0.7404776
197	0xbfba2c33	-1.4544739
198	0xbcc56236	-0.024094682
199	0x4034edca	2.8270135
200	0x3d4c6d61	0.049909
201	0xbe640613	-0.22267942
202	0x3d345559	0.044026706
203	0xbf1d9a53	-0.61563605
204	0xbf7e8e4c	-0.9943588
205	0xbfa241e3	-1.2676357
206	0xc04076d5	-3.007253
207	0xbfc27765	-1.5192686
208	0x3f998055	1.1992289
209	0x3de8f389	0.11374576
210	0xc0080b0a	-2.1256738
211	0xbf03a15d	-0.51418096
212	0xc0091bb7	-2.1423166
213	0x3d95925b	0.07303306
214	0x3e9635d4	0.29337943
215	0xbf7cc59f	-0.98739046
216	0x3da70860	0.08155894
217	0xbfb5fe6e	-1.4218271
218	0xbf75eb4e	-0.9606217
219	0x3de08fd4	0.10964933
220	0x3d92451b	0.07142087
221	0x3d9d9042	0.076935306
222	0x3fd570c2	1.6675036
223	0xbf50f2bf	-0.816204
224	0xbfcaa2f4	-1.5830979
225	0x3d9cf6be	0.0766425
226	0x3fbafbf5	1.4608141
227	0x3f90262d	1.126165
228	0xbf9823df	-1.1885947
229	0xbf5ea24e	-0.8696641
230	0xbfe391ea	-1.7778904
231	0xbf18c42f	-0.5967435
232	0xbfa505f5	-1.2892443
233	0xbfbd1091	-1.4770681
234	0xbffcb014	-1.9741235
235	0xbf220732	-0.6329223
236	0xbfdad4c0	-1.7096176
237	0xc00daea4	-2.2137842
238	0xbfda348b	-1.7047285
239	0x3d3354f4	0.04378219
240	0xbfe49594	-1.7858148
241	0xbd482944	-0.04886748
242	0xbfe7a069	-1.8095828
243	0xbfe5dc2e	-1.7957819
244	0xbf314f66	-0.6926178
245	0x3dbcdc96	0.09221761
246	0xbf8d97bd	-1.1061932
247	0x3fd2a7b4	1.6457429
248	0xbff2765c	-1.894237
249	0xbf276074	-0.6538155
250	0x3c332020	0.010932952
251	0xbe68e2cb	-0.22742765
252	0xbe0f994a	-0.14023319
253	0xbef977a6	-0.48724097
254	0x3c1c2871	0.009531126
255	0xbf1b9e20	-0.60788155

network.4.bias f4 [4]
0	0xbf315d2d	-0.692828
1	0xbf403ee6	-0.75095975
2	0xbbee9fe1	-0.0072822426
3	0xbe9f49e5	-0.31111065

network.0.weight f4 [200, 36]
0	0xc02863f8	-2.6311016
1	0x3ea8ea49	0.32991245
2	0xc06ca7e3	-3.697747
3	0xc02a1bb8	-2.6579418
4	0x3e6007a4	0.21877915
5	0xc068ae00	-3.63562
6	0xc031507c	-2.7705374
7	0x3f0e83fd	0.5567015
8	0xc015bb32	-2.3395505
9	0xc027b9e1	-2.6207201
10	0x3ee7cc67	0.45273134
11	0xc00f8d8a	-2.2430139
12	0xc02703b5	-2.6096013
13	0x3ebda406	0.37039202
14	0xc0102a33	-2.2525756
15	0xc0373161	-2.8623888
16	0x3ee355f1	0.44401506
17	0xc00a00bd	-2.156295
18	0xc038b1b3	-2.885846
19	0x3f319aab	0.6937663
20	0xc00d5070	-2.2080345
21	0xbfcb06f5	-1.5861498
22	0x3d54c83d	0.051948775
23	0xbfd8b44c	-1.6930022
24	0xbfd56c66	-1.6673706
25	0x3e6564c4	0.2240172
26	0xbfd4ac35	-1.6615053
27	0xbfec0d48	-1.8441553
28	0x3de2ad2a	0.11068185
29	0xbff48cd7	-1.9105481
30	0xc04f3b3e	-3.2379909
31	0xbe9d78d7	-0.30756256
32	0xc050201d	-3.25196
33	0xc04a2d4c	-3.1590147
34	0xbe93cdc5	-0.28867927
35	0xc0578a12	-3.3678021
36	0xc0360d70	-2.8445702
37	0x3e644b0c	0.22294253
38	0xc0e2c59e	-7.086623
39	0xc031bd73	-2.777188
40	0x3ebd1ef3	0.36937675
41	0xc0e5702e	-7.169944
42	0x3e367a69	0.17820133
43	0xbd146a8d	-0.036234427
44	0xc034f5ad	-2.8274949
45	0x3deda94c	0.116045564
46	0xbe498aa5	-0.19681795
47	0xc0363066	-2.846704
48	0x3d9f9baf	0.07793366
49	0xbdb85635	-0.09000818
50	0xc038d611	-2.8880656
51	0xc0282e77	-2.627836
52	0x3f3eaf58	0.74486303
53	0xc0464a05	-3.0982678
54	0xc026dcc2	-2.607224
55	0x3f38cbf2	0.72186196
56	0xc03c470b	-2.941836
57	0xc00f1d99	-2.2361815
58	0x3e9c15ae	0.3048529
59	0xbfd4de08	-1.6630259
60	0xc01813f6	-2.3762183
61	0x3ece2d8b	0.40269122
62	0xbfd9961a	-1.6998932
63	0xc0138d7e	-2.305511
64	0x3f09cf39	0.5383182
65	0xbfdb3630	-1.7125912
66	0xc069c0f0	-3.652401
67	0xbe95e229	-0.2927411
68	0x3fd7eaad	1.6868492
69	0xc06981ed	-3.648555
70	0xbe929d01	-0.2863541
71	0x3fda81ce	1.7070863
72	0xc035bbe1	-2.8395922
73	0x3ea948c4	0.33063328
74	0xc06d93ac	-3.7121382
75	0xc03557f2	-2.8334928
76	0x3ed74aca	0.42049247
77	0xc0689f45	-3.634721
78	0xc040fabe	-3.015304
79	0x3e7c451a	0.24635735
80	0xc03a91ec	-2.9151564
81	0xc051d2b4	-3.2784853
82	0x3f0b813a	0.5449406
83	0xc03c11a3	-2.9385765
84	0xc053d101	-3.3096316
85	0x3eec70e9	0.46179894
86	0xc03e7315	-2.975774
87	0xc032708f	-2.78812
88	0x3f33b9ed	0.70205575
89	0xc00a9dfb	-2.1658924
90	0xc037c2b2	-2.8712583
91	0x3ed024fd	0.4065322
92	0xc009d13a	-2.1533952
93	0xbff9d699	-1.9518615
94	0x3e68f638	0.22750175
95	0xc002989f	-2.0405653
96	0xc00b879e	-2.1801524
97	0x3e7a76a3	0.24459319
98	0xc0019a3a	-2.0250382
99	0xc005983b	-2.0874164
100	0xbcc6b47b	-0.024255982
101	0xbffe8862	-1.9885371
102	0xc042c533	-3.043286
103	0xbe7be0f8	-0.24597538
104	0xc05fcf16	-3.4970145
105	0xc04b105a	-3.172873
106	0xbe9251aa	-0.2857793
107	0xc05fc94d	-3.4966614
108	0x401c8d62	2.4461293
109	0xbe5a49a7	-0.21317159
110	0x3f966421	1.1749307
111	0x4011b7dc	2.276847
112	0xbea46a92	-0.32112557
113	0x3f8d6285	1.1045691
114	0x4002d2cf	2.0441167
115	0xbe8221f7	-0.25416538
116	0x40238d75	2.5555089
117	0x40086226	2.1309905
118	0xbeaf252d	-0.3420805
119	0x402b8d7f	2.6805112
120	0x400e9fd6	2.2285056
121	0xbe960192	-0.29298073
122	0x402e2c4d	2.721454
123	0x3f406741	0.7515755
124	0x3ce63c25	0.028104851
125	0x3fadc6c7	1.3576287
126	0x3f14fbd6	0.5819677
127	0x3e004ce0	0.12529325
128	0x3fc093f9	1.5045158
129	0xbff4a639	-1.9113227
130	0xbe6b4b74	-0.22978002
131	0x3f5fe387	0.87456554
132	0xbff901fc	-1.945373
133	0xbea759b3	-0.32685623
134	0x3f5d35a3	0.8640997
135	0xc002adc4	-2.0418558
136	0xbe0af2ac	-0.13569134
137	0x3f4f2fe1	0.8093243
138	0x3ff56a3b	1.9173044
139	0xbec8a376	-0.3918721
140	0xbd9c20ed	-0.076234676
141	0x3ff3ee5c	1.9057117
142	0xbeb915aa	-0.3614934
143	0xbde42022	-0.11138941
144	0xbfe5024c	-1.7891326
145	0x3e47cbe8	0.19511378
146	0xc05eec34	-3.4831667
147	0xbfdf8c02	-1.7464602
148	0x3eba1c27	0.36349604
149	0xc0611b23	-3.5172813
150	0xc04e6f82	-3.225556
151	0x3ceca17e	0.0288856
152	0xbeda5ed8	-0.42650485
153	0xc0496c60	-3.1472397
154	0x3d6713c6	0.05641534
155	0xbedc4e79	-0.4302862
156	0xc04c4198	-3.1915035
157	0x3e3cb378	0.18427837
158	0xbe8bb902	-0.27289587
159	0xc00a70d8	-2.1631374
160	0x3f277b42	0.6542245
161	0xc041de8f	-3.029209
162	0xc015e576	-2.3421302
163	0x3f15af83	0.58470935
164	0xc0488b32	-3.1334958
165	0xbff97b7d	-1.9490811
166	0x3dde873a	0.10865636
167	0xc0463bff	-3.0974119
168	0xbff52735	-1.915259
169	0xbdc35dcf	-0.09539377
170	0xc0541704	-3.3139048
171	0xbfe6bd82	-1.8026583
172	0x3e49f89e	0.19723746
173	0xc04c997a	-3.1968675
174	0xbfbc6fe2	-1.4721644
175	0x3e34d2be	0.17658517
176	0xc04d83eb	-3.2111766
177	0xbfc75271	-1.5572034
178	0xbcd72bd3	-0.026266014
179	0xc052db45	-3.2946332
180	0xc02cc9fd	-2.6998284
181	0xbec24a0e	-0.37947124
182	0xc07a8849	-3.9145682
183	0xc023dfa7	-2.5605257
184	0xbe4794a2	-0.19490293
185	0xc07a4fc0	-3.9111176
186	0xbfeeee9e	-1.866657
187	0x3dbd29de	0.09236501
188	0xbff4be15	-1.9120508
189	0xbfea8cb7	-1.8324193
190	0x3cf31c44	0.029676564
191	0xbff2d71c	-1.8971896
192	0xbfe66601	-1.7999879
193	0xbd265073	-0.040604066
194	0xbfebf495	-1.8434016
195	0xc026b76a	-2.6049447
196	0x3d9a4a6f	0.07533728
197	0xbfd615a9	-1.672536
198	0xc02e4011	-2.7226603
199	0x3dc94d20	0.098291636
200	0xbfd653f7	-1.6744374
201	0xc018d68a	-2.3880944
202	0xbdbe75df	-0.09299826
203	0xc00bf9e7	-2.1871278
204	0xc00d20a9	-2.2051184
205	0x3e1b5294	0.1516822
206	0xc0051ac6	-2.0797591
207	0xc01b2e0e	-2.424686
208	0x3e01e641	0.12685491
209	0xc001de07	-2.0291765
210	0xc030bc1a	-2.7614808
211	0x3e62ceff	0.22149275
212	0xc0337ca7	-2.8044832
213	0xc034b342	-2.823441
214	0x3ed30b8f	0.41219756
215	0xc028f3d3	-2.6398818
216	0xbe8fa6e5	-0.28057018
217	0xbe53b2a9	-0.20673622
218	0xbfa76977	-1.307906
219	0xbddfc37a	-0.10925956
220	0xbea98b95	-0.33114305
221	0xbf9835ba	-1.1891396
222	0xbee1a038	-0.4406755
223	0x3e3bdeb6	0.18346676
224	0xbf019d1e	-0.50630367
225	0xbf0d6c46	-0.5524334
226	0x3df1214f	0.11773931
227	0xbec3c1dc	-0.3823384
228	0xbeca1c49	-0.39474705
229	0x3e97f175	0.29676405
230	0xbf0e858a	-0.55672514
231	0x3bf0ad16	0.007344852
232	0x3ee9d924	0.45673478
233	0x3f85d9ce	1.0457094
234	0xbe49ebe0	-0.19718885
235	0x3ead33ad	0.33828488
236	0x3f9bc4f2	1.2169478
237	0xbffd92f2	-1.9810469
238	0xbe3e6f02	-0.18597034
239	0xc029bc3a	-2.6521134
240	0xc0055d02	-2.0838017
241	0xbde15865	-0.11003188
242	0xc0250114	-2.5781908
243	0xc00a1132	-2.1572995
244	0xbe47a803	-0.19497685
245	0xc02fc77d	-2.7465508
246	0x3f52fbde	0.8241557
247	0x3e283399	0.16425933
248	0xbf55acd9	-0.8346687
249	0x3f88cf30	1.0688229
250	0x3e10ab9d	0.14127965
251	0xbf82d5e3	-1.0221523
252	0xbff4de56	-1.9130352
253	0x3e8ce8dc	0.27521408
254	0xc0100d2e	-2.2508044
255	0xc0033b31	-2.0504878

network.0.bias f4 [200]
0	0xbf89d2e6	-1.0767486
1	0xbed3d427	-0.41372797
2	0xbf698a26	-0.9122642
3	0x3f0d08db	0.5509164
4	0xbf04f86d	-0.5194157
5	0xbe9c3e68	-0.30516362
6	0x3ee2cf65	0.44298854
7	0xbf563b10	-0.8368387
8	0xbf827cac	-1.0194297
9	0x3edf75d4	0.43644583
10	0xbf6e60e6	-0.93116605
11	0xbf8e3c26	-1.1112106
12	0xbf8eef88	-1.1166849
13	0x3fa22d74	1.2670121
14	0xbf747cf6	-0.95503175
15	0xbf7b9b36	-0.9828371
16	0xbe97889b	-0.2959641
17	0x3d90086e	0.07032858
18	0xbe1a2423	-0.15052848
19	0xbf803ba1	-1.0018197
20	0xbf6b68dd	-0.91956884
21	0xbf182148	-0.59425783
22	0xbf0a05e8	-0.5391526
23	0xbe00ed75	-0.12590583
24	0xbe9ef560	-0.3104658
25	0x3f4bcf8b	0.7961356
26	0xbf0b245b	-0.5435235
27	0xbf202594	-0.6255734
28	0xbed5d887	-0.4176676
29	0x3f8c6e3c	1.0971141
30	0xbedd907b	-0.43274292
31	0xbf32b069	-0.6980043
32	0xbe8cd9ed	-0.27510014
33	0x3eb6ef20	0.35729313
34	0xbf814b08	-1.0101023
35	0x3f14638d	0.579644
36	0xbebd24e4	-0.36942208
37	0xbd9fa1a3	-0.07794502
38	0xbf7dda9c	-0.99161696
39	0xbf021f5b	-0.50829095
40	0xbebb31e3	-0.36561498
41	0xbf81ccf0	-1.0140667
42	0xbf11dc2d	-0.56976587
43	0xbf8aa97e	-1.0832975
44	0x3eee33b3	0.46523818
45	0x3f2a79c4	0.6659205
46	0x3f6f71c5	0.93532974
47	0x3edc149a	0.42984468
48	0x3dc40c92	0.0957271
49	0xbf848c86	-1.0355384
50	0xbeecdd2a	-0.46262485
51	0x3f1be292	0.60892594
52	0x3e934ca4	0.2876941
53	0xbf82ebf8	-1.0228262
54	0x3eef3db7	0.46726772
55	0xbef30bbe	-0.47469896
56	0xbe61b9a3	-0.22043471
57	0xbea01125	-0.3126308
58	0x3ecf8fc4	0.40539372
59	0xbf49fcdb	-0.7890145
60	0xbf643d18	-0.8915572
61	0xbefa8014	-0.4892584
62	0xbed2cc4b	-0.41171488
63	0xbec0a3bc	-0.3762492
64	0x3f29503e	0.66138065
65	0x3e3ba509	0.18324675
66	0xbf66c565	-0.9014495
67	0xbee35b5f	-0.44405648
68	0xbcb199c1	-0.02167976
69	0x3f86053f	1.0470351
70	0xbcc42699	-0.023944186
71	0xbf5a9fa6	-0.85399854
72	0xbf7626ad	-0.96152765
73	0xbf8bf81a	-1.093509
74	0xbf62fbb8	-0.8866534
75	0xbe81517d	-0.25257483
76	0x3f163f7c	0.5869062
77	0x3ea3581d	0.31903163
78	0x3f750c90	0.95722294
79	0x3f8c9206	1.0982063
80	0xbef8dba2	-0.48605067
81	0xbf1f0be5	-0.62127525
82	0xbf846ac5	-1.0345083
83	0xbf2e2db3	-0.6803848
84	0xbf719589	-0.943688
85	0xbf5d4007	-0.8642582
86	0xbde093bf	-0.1096568
87	0xbf480888	-0.7813802
88	0x3f2e02c9	0.67973
89	0xbd0cc58a	-0.034368075
90	0x3f1c7ce3	0.6112806
91	0xbe9a2a22	-0.3011027
92	0x3d0d6857	0.034523334
93	0xbf87adf5	-1.0599962
94	0xbf838ff6	-1.0278308
95	0xbf87be57	-1.0604962
96	0x3e9d0c25	0.30673328
97	0xbf7c9914	-0.9867108
98	0xbf63b27d	-0.88944227
99	0xbea78c16	-0.32724065
100	0xbf74beac	-0.9560344
101	0xbeb951c5	-0.36195198
102	0xbf40527a	-0.7512585
103	0xbd8da8d8	-0.0691697
104	0xbf898f2a	-1.0746815
105	0xbe1faa10	-0.15592217
106	0xbf800714	-1.000216
107	0xbef2a2de	-0.47389883
108	0xbf81fda0	-1.0155525
109	0xbf6f1800	-0.93395996
110	0xbf5c9435	-0.86163646
111	0xbf11af41	-0.5690804
112	0xbf6a52ff	-0.9153289
113	0xbf706cde	-0.9391612
114	0x3df3a245	0.11896185
115	0x3e80363c	0.25041378
116	0x3f4f86cc	0.8106506
117	0xbf706aca	-0.9391295
118	0xbf89d1fc	-1.0767207
119	0x3f0ed790	0.5579767
120	0x3d86665a	0.06562491
121	0xbf8a8eef	-1.082487
122	0xbea1ec63	-0.3162566
123	0xbf14bcf2	-0.5810081
124	0x3f376c86	0.7164997
125	0xbf82ea7f	-1.0227813
126	0x3eff6e80	0.49888992
127	0xbea01b90	-0.3127103
128	0x3e90b478	0.28262687
129	0x3e9064ed	0.28202
130	0x3f16fe8b	0.5898215
131	0xbde85226	-0.113437936
132	0xbe8c989a	-0.27460176
133	0x3eef8f42	0.46788985
134	0xbf88fa7d	-1.0701443
135	0xbed21cd3	-0.41037616
136	0xbf02a226	-0.5102867
137	0x3f7cea9f	0.98795503
138	0xbea55617	-0.32292244
139	0x3f40a2ff	0.7524871
140	0xbe233212	-0.15937069
141	0xbf421e16	-0.7582716
142	0xbf6e98df	-0.9320201
143	0x3f8e1128	1.1098986
144	0xbf2c61ef	-0.67336935
145	0x3f9c2293	1.2198051
146	0x3f4d3f2a	0.80174506
147	0x3f6add22	0.9174367
148	0x3ef391ce	0.47572178
149	0xbf63786b	-0.8885562
150	0x3f11278e	0.5670098
151	0xbf684fb3	-0.9074661
152	0xbf8f12d2	-1.1177619
153	0xbef445a2	-0.47709376
154	0x3ef98345	0.48732963
155	0xbf6daf5a	-0.9284569
156	0xbf882a01	-1.0637819
157	0xbec59016	-0.3858649
158	0xbf26a624	-0.6509726
159	0xbf841fa0	-1.0322151
160	0x3e8fe7f7	0.28106663
161	0xbf6f9b4a	-0.9359633
162	0x3e2b08ca	0.16702572
163	0xbf850878	-1.039321
164	0x3df6aeb8	0.12045044
165	0xbf5f880a	-0.87316954
166	0xbf1d3ee2	-0.61424077
167	0xbf7e8c72	-0.9943305
168	0xbd5e717e	-0.054307453
169	0x3e8133e5	0.25234905
170	0xbe88373d	-0.26604643
171	0xbe49d50e	-0.1971018
172	0xbec86006	-0.3913576
173	0x3f20ce97	0.6281523
174	0xbf775d26	-0.9662651
175	0xbf898e2b	-1.0746511
176	0xbf670ff8	-0.9025874
177	0xbe9b53d4	-0.30337393
178	0x3f6004fa	0.87507594
179	0x3f333ac7	0.7001156
180	0xbdcb13d9	-0.09915895
181	0xbf7ddd94	-0.99166226
182	0x3e6e52da	0.23273793
183	0xbf3480b6	-0.705089
184	0xbf8b7cb0	-1.0897427
185	0xbf62eafb	-0.886398
186	0xbf85b40b	-1.044557
187	0xbf8a9488	-1.0826578
188	0xbf04d316	-0.5188459
189	0x3ef55f37	0.47924206
190	0x3f2ceabb	0.6754567
191	0xbf8a21d8	-1.0791578
192	0x3f2059c6	0.62636983
193	0x3fa7706b	1.3081182
194	0xbf7a528e	-0.9778222
195	0x00000000	0.0
196	0xbea2f37a	-0.31826383
197	0xbf85963d	-1.0436474
198	0xbe8ba31c	-0.2727288
199	0x3ee9f03c	0.45691097

network.2.weight f4 [200, 200]
0	0x3baaeeba	0.0052164467
1	0x3dab673a	0.08369298
2	0xbd991127	-0.07473975
3	0xbe09e7b2	-0.13467291
4	0x3a2caf5c	0.000658741
5	0xbd1aeec5	-0.037825365
6	0x3d2df88e	0.04247337
7	0xbac36259	-0.0014906629
8	0xbda59275	-0.08084575
9	0xbdae74a8	-0.08518344
10	0x3cfe9753	0.031078016
11	0x3c498b83	0.012301329
12	0xbe0843c8	-0.13307106
13	0x3d619831	0.05507678
14	0x3dbf9d6b	0.09356197
15	0x3dd28d6d	0.10280881
16	0x3c6765bc	0.014123376
17	0xbe0ffd39	-0.1406144
18	0xbd5fa49f	-0.054600354
19	0x3d9e5314	0.0773069
20	0xbd8b188d	-0.06791792
21	0xbd9de916	-0.07710473
22	0xbd803daf	-0.06261765
23	0x3d0e4d6d	0.034741808
24	0xbcbba40a	-0.022905368
25	0xbe0b3dfb	-0.13597862
26	0x3cba86c6	0.022769343
27	0xbccf7f02	-0.025329117
28	0x3ca5a033	0.02021799
29	0xbaeb7177	-0.0017962892
30	0xbd66b26a	-0.056322493
31	0xbda8f38c	-0.08249578
32	0x3d0f482f	0.03498095
33	0xbdd9234c	-0.106024355
34	0x3b1ed6b6	0.0024236864
35	0x3c42ba49	0.011885234
36	0x3db4f86c	0.08836445
37	0x3d93140f	0.0718156
38	0xbd7a8b80	-0.061168194
39	0x3c731d1e	0.014838485
40	0xbc0d2d14	-0.0086167045
41	0xbd2584a0	-0.040409684
42	0x3da9e3e8	0.08295423
43	0x3e0a6a22	0.13517049
44	0x3bf746e8	0.0075462945
45	0xbd8bf97d	-0.068346955
46	0xbd3fe25f	-0.046846744
47	0x3d38ad98	0.045087427
48	0xbd419464	-0.047260657
49	0x3ca25870	0.01981756
50	0x3b556b77	0.0032565275
51	0x3d161e93	0.03665025
52	0x3d77ddc5	0.06051423
53	0xbd7d04c4	-0.061772123
54	0xbe0510be	-0.12994668
55	0xbd2a9c08	-0.04165271
56	0xbded16fb	-0.11576649
57	0xbda22d30	-0.07918775
58	0xbd73fe82	-0.05956889
59	0xba6fa141	-0.0009141155
60	0x3d475a68	0.048670202
61	0x3da80fa4	0.08206108
62	0x3d7646ce	0.06012612
63	0xbdc57456	-0.0964133
64	0x3d447877	0.047966447
65	0x3cebb029	0.028770523
66	0x3db6f032	0.08932532
67	0x3d55a1ba	0.052156188
68	0x393d5859	0.00018057357
69	0x3dc416eb	0.09574684
70	0x3da798f4	0.0818347
71	0xbdd31812	-0.103073254
72	0x3d62d874	0.055382207
73	0xbd0995d2	-0.033590145
74	0xbdbbb7a6	-0.091658875
75	0x3c7141ab	0.014725129
76	0xbe016d3a	-0.12639323
77	0x3d1f316c	0.03886549
78	0xbc493717	-0.012281201
79	0xbd44ef7b	-0.04807995
80	0xbbb628ef	-0.005559079
81	0xbd9654dc	-0.073404044
82	0xbe11c250	-0.1423428
83	0x3d483426	0.048877858
84	0x3d306092	0.043060847
85	0xbdf53bbb	-0.11974283
86	0x3d65311e	0.055955045
87	0xbdc29d92	-0.095027104
88	0xbd260abb	-0.040537577
89	0x3dcb2022	0.09918238
90	0x3cf964ea	0.030443627
91	0xbd862bbc	-0.065513104
92	0xbdf6783d	-0.120346524
93	0x3d4f8bcd	0.050670434
94	0xbdb9ea15	-0.09077851
95	0xbc817e0b	-0.015807172
96	0xbdaf0ed8	-0.08547753
97	0x3d83812a	0.064211205
98	0xbe0af206	-0.13568887
99	0xbce95d63	-0.028486913
100	0x3ca5bbbb	0.020231118
101	0xbd44864b	-0.047979634
102	0x3db327d9	0.08747835
103	0xbe0db765	-0.1383949
104	0xbc77c45c	-0.015122499
105	0x3caf73c6	0.02141751
106	0x3c76f4e6	0.015073037
107	0x3cf36a7f	0.029713867
108	0xbdd7d7b5	-0.1053919
109	0x3d63b191	0.055589262
110	0xbd9be099	-0.07611198
111	0x3df7b498	0.120949924
112	0xbdf12621	-0.11774851
113	0xbd6f7bd0	-0.058467686
114	0xbd5ef4f2	-0.054432817
115	0xbdbaac79	-0.09114928
116	0xbcaeaabe	-0.02132165
117	0xbdcc7b5a	-0.09984465
118	0xbddcfef8	-0.10790819
119	0xbda9faf0	-0.08299816
120	0xbd88c192	-0.066775456
121	0xbb86abc2	-0.0041098306
122	0xbcc74f67	-0.024329854
123	0x3db56a05	0.08858112
124	0x3d29f0da	0.04148946
125	0xbdb17969	-0.08665735
126	0xbd81f525	-0.06345586
127	0xbd5855fb	-0.052816372
128	0xbd8d52e5	-0.069005765
129	0xbd6446eb	-0.055731695
130	0x3b85e0f7	0.004085656
131	0x3d899301	0.06717492
132	0x3bc03841	0.005866081
133	0xbd94b4a5	-0.07261018
134	0x3accbe9d	0.0015620772
135	0xbd9d0529	-0.07667
136	0x3c894e65	0.016761014
137	0x3daf8880	0.08570957
138	0xbce2a1fe	-0.027665135
139	0x3d7acf23	0.061232697
140	0xbbf0f9cb	-0.0073539964
141	0xbce3cf99	-0.027808951
142	0x3dba860f	0.09107601
143	0xbd4f09ed	-0.050546575
144	0x3dba30ae	0.09091316
145	0x3c89f84d	0.016842032
146	0xbdf12c6a	-0.117760494
147	0xbc332eed	-0.010936481
148	0x3d56d3dd	0.052448142
149	0xbd9ff939	-0.07811207
150	0xbd7accee	-0.061230592
151	0x3d7e90c9	0.062149797
152	0x3d711873	0.058861207
153	0xbd8a13ab	-0.067420326
154	0xbd583362	-0.052783377
155	0xbcfda5d3	-0.03096286
156	0xbe0736db	-0.1320452
157	0xbdd16964	-0.1022518
158	0x3d51e00c	0.05123906
159	0x3e0a13b7	0.13484083
160	0x3d8e30f4	0.06942931
161	0xbd50e341	-0.050997976
162	0xbd0b6208	-0.034029037
163	0x3c860b4d	0.01636281
164	0xbbeb3230	-0.0071776137
165	0x3cda2264	0.026627727
166	0x3dc633b1	0.09677828
167	0x3dc18cd4	0.09450689
168	0x3dae91c9	0.085239
169	0xbd5be36b	-0.05368368
170	0xbdd65184	-0.104647666
171	0xbd379186	-0.044816516
172	0xbdabc5c8	-0.08387333
173	0x3d7bb6d1	0.061453644
174	0x3dbe4cc0	0.09291983
175	0xbdee1c87	-0.11626535
176	0xbd6fef3b	-0.058577757
177	0xbc0a38ce	-0.008436395
178	0xbd73deb1	-0.059538547
179	0xbd4387b0	-0.047736824
180	0xbded2950	-0.11580145
181	0x3ceb2204	0.028702743
182	0xbce6d0ea	-0.02817579
183	0xbde4fbfc	-0.11180875
184	0x3dba9e4d	0.09112225
185	0x3de8344b	0.11338099
186	0xbca75716	-0.020427268
187	0x3d602e90	0.054731905
188	0x3d6718a7	0.056419995
189	0xbdfd573f	-0.123701565
190	0x3d25390f	0.04033762
191	0x3cf54730	0.029941171
192	0xbcb78d9b	-0.02240639
193	0xbdf430dd	-0.119233824
194	0x3d304d29	0.043042336
195	0xb9710000	-0.00022983551
196	0x3d370596	0.04468306
197	0x3b9b5c82	0.0047412524
198	0xbcb73d26	-0.022368025
199	0xbdf53315	-0.11972634
200	0x3e3f4f3a	0.18682566
201	0x3ff4fe71	1.9140149
202	0x3fb27a31	1.394354
203	0xbfc92086	-1.571305
204	0x3fe3356a	1.7750676
205	0x3f7e35aa	0.99300635
206	0x3f88c970	1.0686474
207	0x3f8b17e0	1.0866661
208	0x3f182de8	0.5944505
209	0x3f639f66	0.889151
210	0x3f2ce738	0.6754031
211	0x3f808e75	1.0043474
212	0x3f7d0b15	0.98845035
213	0xbfa2fee3	-1.2734035
214	0x3fa13527	1.2594346
215	0x3f3b8a1c	0.73257613
216	0x4025af0a	2.5888085
217	0x3f611ca6	0.8793434
218	0x3da71426	0.0815814
219	0x3fb1be13	1.3886131
220	0x3f7bb967	0.98329777
221	0x4008ac48	2.1355152
222	0x3ee6238d	0.44948998
223	0x3f9f0537	1.2423466
224	0xbf3d3172	-0.7390357
225	0xbf7a223b	-0.9770848
226	0x40082fdb	2.1279209
227	0xbe4fcb82	-0.20292476
228	0x3ffb09be	1.9612348
229	0xbfa0a920	-1.2551613
230	0x40216d25	2.5222867
231	0x40059c95	2.087682
232	0x3f811c48	1.0086756
233	0x3f821dab	1.0165304
234	0x3eab20f3	0.33423576
235	0x3f8ed5b9	1.1158973
236	0x401f0278	2.4845257
237	0x4052f65b	3.2962863
238	0x3ed3ad00	0.41342926
239	0x3fb93334	1.4468751
240	0xbf3c4014	-0.73535275
241	0x3f1b953a	0.60774577
242	0x3fd19e67	1.6376466
243	0x3f345311	0.7043925
244	0xbd9f18d8	-0.077684104
245	0x3f6f78e7	0.9354386
246	0xbf513908	-0.8172765
247	0x3f62befc	0.8857267
248	0xc0405e89	-3.00577
249	0x3f87d2a2	1.0611155
250	0x3f9d5dfa	1.2294304
251	0xc011aab4	-2.276044
252	0x3f89091a	1.0705903
253	0x3f2032c2	0.6257745
254	0x3f84d2e6	1.0376861
255	0x3feb44d5	1.8380381
