ddqn_sumo/saves/sumo_single_intersection/ddqn_model_period_30.pth (torch, 784246 bytes, 24 tensors)

network.0.weight f4 [200, 36]
000000 53 46 4a c0 b6 fa 40 be ce 3b 88 c0 13 fe 4b c0
       -3.1605422 -0.18845639 -4.2573004 -3.1873825
000010 c1 63 99 be de 3e 86 c0 8f 64 4e c0 ae 16 1f 3f
       -0.2995892 -4.195174 -3.2248876 0.6214398
000020 fe 1b 34 c0 f4 cd 44 c0 d8 78 04 3f 56 ee 2d c0
       -2.8142085 -3.0750704 0.5174689 -2.7176719
000030 c8 17 44 c0 65 c9 de 3e ff 8a 2e c0 c3 ee 36 c0
       -3.0639515 0.43513027 -2.7272336 -2.8583229
000040 05 ea ec 3e 59 ce 06 c0 15 6f 38 c0 d2 64 36 3f
       0.46272293 -2.1063445 -2.88178 0.7124759
000050 0c 1e 0a c0 aa fa 93 bf 3a f8 0a be f9 e0 b5 bf
       -2.158084 -1.1560872 -0.13571253 -1.4209281
000060 1b 60 9e bf e2 e9 14 3d e2 d8 b1 bf fd 00 b5 bf
       -1.2373079 0.03635586 -1.3894312 -1.4140927
000070 81 a7 9d bd 84 b9 d1 bf 49 8e 4c c0 74 d3 fb be
       -0.076979645 -1.638474 -3.1961844 -0.49184763
000080 0b 81 45 c0 57 80 47 c0 64 28 f2 be 00 eb 4c c0
       -3.0860012 -3.1172082 -0.4729644 -3.2018433
000090 e9 07 36 c0 cf dc c5 3d 80 1e 09 c1 ec b7 31 c0
       -2.8442328 0.096612565 -8.569946 -2.7768507
0000a0 fd e0 78 3e d8 73 0a c1 18 b0 98 3f 8a 35 9a be
       0.24304576 -8.653282 1.192874 -0.30118972
0000b0 08 69 3e c0 76 bb 90 3f f5 6d ec be c1 a3 3f c0
       -2.9751606 1.1307209 -0.4617764 -2.9943697
0000c0 a9 da 8b 3f ee bd b5 be 6c 49 42 c0 02 4a cc bf
       1.0926105 -0.35496467 -3.0357313 -1.5960085
0000d0 da 7d 23 3f 24 4b 59 c0 82 a6 c9 bf 74 9a 1d 3f
       0.6386391 -3.3952112 -1.5753939 0.615638
0000e0 2a 48 4f c0 48 9b 08 c0 b5 97 97 3e 9b 72 ed bf
       -3.2387795 -2.1344776 0.2960793 -1.85506
0000f0 a5 91 11 c0 92 af c9 3e 89 2a f2 bf 2d 0b 0d c0
       -2.2745144 0.39391762 -1.8919231 -2.203807
000100 27 90 07 3f b8 ca f3 bf b3 85 55 c0 a6 b6 5f 3e
       0.52954334 -1.904624 -3.3362854 0.21847019
000110 27 3d 89 40 b0 46 55 c0 e0 40 66 3e eb e2 89 40
       4.288715 -3.3324394 0.22485685 4.30895
000120 61 e2 48 c0 b4 34 16 be 44 a7 86 c0 72 7e 48 c0
       -3.138817 -0.14668542 -4.207918 -3.1327176
000130 82 c1 68 bd 42 2d 84 c0 d6 eb 7a c0 ab 9a 0f 3f
       -0.05682517 -4.1305246 -3.9206443 0.5609538
000140 39 20 80 c0 c9 e1 85 c0 3c 0a 5c 3f 16 e0 80 c0
       -4.0039334 -4.1838117 0.85953116 -4.0273542
000150 ec e0 86 c0 75 c1 46 3f d9 10 82 c0 f5 b7 45 c0
       -4.2149563 0.7763894 -4.0645566 -3.0893528
000160 ca 25 37 3f 33 76 1d c0 18 0a 4b c0 cc fc d6 3e
       0.71542037 -2.4603393 -3.172491 0.41989744
000170 6e a9 1c c0 7a e8 a4 bf c4 e6 7b 3e ac 04 be bf
       -2.4478412 -1.2883446 0.24599749 -1.4845176
000180 60 21 c2 bf 85 b3 86 3e 12 08 bc bf ea 42 b6 bf
       -1.5166435 0.26308838 -1.4689963 -1.423917
000190 eb d7 bc bb 25 5c b7 bf f4 d6 2c c0 05 e9 98 be
       -0.005763044 -1.4324995 -2.7006197 -0.2986528
0001a0 81 3f 30 c0 1b 22 35 c0 2b 4a ad be b8 39 30 c0
       -2.753876 -2.8302066 -0.33845648 -2.7535229
0001b0 e9 d7 02 40 2c 38 81 be c8 7f a0 3f 1a 05 f0 3f
       2.044428 -0.25238168 1.2538996 1.8751557
0001c0 d7 7d b8 be 2c 7e 97 3f 7a d7 1a 40 ee 0f 37 3d
       -0.36033508 1.183538 2.4194016 0.044692926
0001d0 41 7e 6a 40 b6 66 20 40 cf 0b 31 bd 4b 7e 72 40
       3.663956 2.506269 -0.043224152 3.7889583
0001e0 66 a4 26 40 c7 91 c0 3b 19 1d 75 40 1d 17 88 bd
       2.603784 0.005876753 3.829901 -0.066450335
0001f0 ce bd c2 3e a8 6a 85 3f d7 b8 71 be 60 80 f4 3e
       0.38035434 1.0423174 -0.23605667 0.47754192
000200 da 37 98 3f 68 38 fb bf 3a 2b 33 be a3 12 81 be
       1.1892045 -1.9626589 -0.17496958 -0.2520953
000210 05 94 ff bf a1 49 8b be 49 6e 86 be e0 f6 05 c0
       -1.9967047 -0.27204612 -0.26256016 -2.093193
000220 71 a5 a5 bd 91 7a a2 be d3 98 cc 3e db b0 3c bf
       -0.08088196 -0.31734136 0.39960346 -0.7370736
000230 75 c9 02 3f 4d a9 c6 3e 00 ea 34 bf 3a 93 f3 3e
       0.5108865 0.3880104 -0.70669556 0.47573262
000240 60 8e a0 bf 0d 17 dd 3e 1c da 77 c0 16 18 9b bf
       -1.2543449 0.4318165 -3.8726873 -1.2116725
000250 6c a6 19 3f 10 09 7a c0 56 a6 44 c0 ff 4f c9 3e
       0.60019565 -3.9068031 -3.0726523 0.39318845
000260 96 2b 91 bf 34 a3 3f c0 3c 68 d7 3e 7e a7 91 bf
       -1.1341426 -2.9943361 0.42071712 -1.137924
000270 6c 78 42 c0 e7 6f 0c 3f 7d 04 7b bf 7c 14 03 c0
       -3.0386 0.5485825 -0.98053724 -2.0481253
000280 0c 9e ee 3e 45 18 7b c0 d5 88 0e c0 bb 06 cb 3e
       0.46604955 -3.9233563 -2.2271016 0.39653572
000290 77 e2 80 c0 37 8b 16 c0 8b 57 85 bd a1 e5 4d c0
       -4.0276446 -2.352247 -0.06510838 -3.2171404
0002a0 35 61 14 c0 71 cf 89 be a6 c0 5b c0 70 2c 0d c0
       -2.318433 -0.26916078 -3.4336333 -2.2058372
0002b0 63 48 c0 3c 1c 43 54 c0 6d d0 b0 bf 56 df 55 3e
       0.023472017 -3.316596 -1.3813607 0.20885977
0002c0 f6 fb 5d c0 fc b2 bb bf b2 d5 c4 3b 50 53 63 c0
       -3.4685035 -1.4663997 0.00600692 -3.55196
0002d0 fd c9 2c c0 0e 4a c2 be 49 88 7a c0 a7 df 23 c0
       -2.6998284 -0.37947124 -3.9145682 -2.5605257
0002e0 a2 94 47 be c0 4f 7a c0 9e ee ee bf de 29 bd 3d
       -0.19490293 -3.9111176 -1.866657 0.09236501
0002f0 15 be f4 bf b7 8c ea bf 44 1c f3 3c 1c d7 f2 bf
       -1.9120508 -1.8324193 0.029676564 -1.8971896
000300 01 66 e6 bf 73 50 26 bd 95 f4 eb bf 6a b7 26 c0
       -1.7999879 -0.040604066 -1.8434016 -2.6049447
000310 6f 4a 9a 3d a9 15 d6 bf 11 40 2e c0 20 4d c9 3d
       0.07533728 -1.672536 -2.7226603 0.098291636
000320 f7 53 d6 bf 8a d6 18 c0 df 75 be bd e7 f9 0b c0
       -1.6744374 -2.3880944 -0.09299826 -2.1871278
000330 a9 20 0d c0 94 52 1b 3e c6 1a 05 c0 0e 2e 1b c0
       -2.2051184 0.1516822 -2.0797591 -2.424686
000340 41 e6 01 3e 07 de 01 c0 1a bc 30 c0 ff ce 62 3e
       0.12685491 -2.0291765 -2.7614808 0.22149275
000350 a7 7c 33 c0 42 b3 34 c0 8f 0b d3 3e d3 f3 28 c0
       -2.8044832 -2.823441 0.41219756 -2.6398818
000360 20 ed 53 bf bb e4 ac be c1 28 06 3e f0 11 28 bf
       -0.827837 -0.33768257 0.13101484 -0.6565237
000370 2e 97 ec be ef c7 7f 3e c4 3d 73 3e ec f8 b4 3d
       -0.4620909 0.24978612 0.2375403 0.088365406
000380 fa e5 03 be b4 cc 00 3e 96 71 b9 3c 41 80 9e bb
       -0.12880698 0.12578088 0.02263717 -0.0048370664
000390 d0 22 91 3e a0 80 4e 3e de 86 37 be 6e 62 1b 3f
       0.28346872 0.20166254 -0.17922541 0.60697067
0003a0 3b 5d e6 3e 15 46 04 40 4b 0c ce 3e 63 b7 a9 3e
       0.44993004 2.0667775 0.40243754 0.33147725
0003b0 a5 3b 0f 40 f5 57 30 c0 6f 4f 51 bd a1 0a 51 c0
       2.2380154 -2.7553685 -0.051101144 -3.2662737
0003c0 8f eb 36 c0 fa 79 cb 3c 7b 4f 4c c0 bf 9f 3b c0
       -2.8581274 0.024838436 -3.192351 -2.9316251
0003d0 92 33 76 bd e4 15 57 c0 64 67 bb 3f 57 b7 1e 3e
       -0.060107775 -3.360711 1.4640927 0.15499626
0003e0 5b 9a a3 bf 8b b8 da 3f 36 2f 07 3e 03 9a bb bf
       -1.278148 1.7087568 0.13201603 -1.4656376
0003f0 ce 3f 16 c0 e5 36 e2 bd db fb 34 c0 f5 0b 1f c0
       -2.3476443 -0.110456266 -2.827872 -2.4851048

network.0.bias f4 [200]
000000 4e 2a a2 bf 40 b4 95 be 0f 71 9d bf d5 2f 16 3f
       -1.266916 -0.29239082 -1.2300128 0.58666736
000010 29 75 08 bf 68 3e 9c be aa de 52 3e a9 f2 83 bf
       -0.5330377 -0.30516362 0.20592752 -1.0308429
000020 5c ce 95 bf 3b 31 aa 3e 74 e0 87 bf 81 ef a6 bf
       -1.1703601 0.33240685 -1.0615373 -1.3041841
000030 f1 ec a1 bf cb 17 94 3f 92 0c 93 bf 12 b9 9c bf
       -1.2650434 1.1569761 -1.1488211 -1.2243979
000040 4c 6b 28 bf 6a 8f 33 bc 0f d2 1a be 47 ad aa bf
       -0.6578872 -0.010959486 -0.15119193 -1.333413
000050 ff 39 9a bf 48 21 18 bf e8 05 0a bf c9 d2 96 be
       -1.2048949 -0.59425783 -0.5391526 -0.2945769
000060 68 9e 98 be c4 91 53 3f 3f 05 49 bf cf fb d7 be
       -0.29808354 0.82644296 -0.7852363 -0.42184302
000070 f6 2e be be 03 1a a1 3f cf 68 9f be 6c f8 5f bf
       -0.37145203 1.2586063 -0.3113465 -0.87488437
000080 ed d9 8c be fc a0 fc 3d ba 64 a6 bf ab bc 43 3e
       -0.27510014 0.12335393 -1.2999489 0.1911494
000090 40 7f c9 be b9 92 91 bc 76 88 8d bf 49 31 fa be
       -0.39354897 -0.017770158 -1.105727 -0.48865727
0000a0 6b 17 bc be 0d 31 96 bf 46 da 17 bf 2e 73 97 bf
       -0.36736616 -1.1733719 -0.59317434 -1.1832025
0000b0 e3 15 f0 3e 98 81 1d 3f ed 1f 64 3f 32 d5 ff 3e
       0.46891698 0.6152587 0.89111215 0.49967343
0000c0 2a 99 96 3e 8c 49 a7 bf 69 a3 1c bf c5 b6 25 3f
       0.2941373 -1.306932 -0.61186844 0.6473201
0000d0 a4 ba b0 bb 73 b9 94 bf d8 49 f8 3e 6a 5b f9 be
       -0.005393343 -1.1619095 0.48493838 -0.48702556
0000e0 9a 93 e6 be f4 33 bc be ae d5 ab 3e 99 50 31 bf
       -0.45034486 -0.36758387 0.33561462 -0.6926361
0000f0 da 7c 94 bf 94 34 b7 be d0 21 e2 be b1 76 4e bf
       -1.1600602 -0.357823 -0.44166422 -0.8064986
000100 d3 7e 18 3f 24 94 f1 bc 24 77 8c bf 7c 9d 2e bf
       0.5956852 -0.029489584 -1.0973859 -0.6820905
000110 ba f1 a6 bd 35 cd 79 3f f5 e6 70 bd 17 88 90 bf
       -0.081515744 0.97578746 -0.058814008 -1.1291531
000120 25 43 92 bf 40 88 a4 bf 13 8c 84 bf 66 e1 f6 bd
       -1.1426741 -1.285408 -1.0355247 -0.1205471
000130 df e7 06 3f 03 c6 aa 3e 75 d4 a9 3f a2 51 89 3f
       0.5269756 0.33354196 1.3267962 1.0728037
000140 74 23 e2 be 30 38 46 bf 89 ee ac bf 0c ea 74 bf
       -0.44167674 -0.77429485 -1.3510295 -0.9566963
000150 fa ba 44 bf 55 65 6b bf ab 49 c1 bd ec 8b 3f bf
       -0.76847804 -0.91951495 -0.09437879 -0.7482288
000160 98 94 3f 3f d8 7f 49 3d 4b 54 09 3f 1c c5 7f be
       0.7483611 0.049194187 0.53644246 -0.24977535
000170 ab 60 da 3d 03 49 97 bf 34 a5 98 bf 31 13 a1 bf
       0.10662969 -1.1819156 -1.1925416 -1.2583982
000180 d7 1f 50 3d df 8b 93 bf a5 35 86 bf 16 8c a7 be
       0.050811615 -1.152706 -1.0485121 -0.32724065
000190 75 43 97 bf 17 87 e7 be 42 bc 55 bf 2c 0a 65 bd
       -1.1817461 -0.45220253 -0.83490384 -0.055917904
0001a0 14 8d 9a bf 75 a5 85 be 21 a0 a3 bf 71 24 0b bf
       -1.2074304 -0.26102796 -1.2783242 -0.5435248
0001b0 c1 72 8d bf 8c 88 8c bf aa b4 91 bf 82 b6 2f bf
       -1.1050645 -1.0979171 -1.1383259 -0.6863786
0001c0 2e ef 90 bf b9 7c 90 bf 84 dc 28 bd 36 21 bc 3e
       -1.1322992 -1.1288062 -0.041225925 0.36744088
0001d0 25 26 64 3f 25 26 8d bf e2 04 ae bf 2d 50 f1 3e
       0.89120704 -1.1027266 -1.359524 0.47131482
0001e0 82 7a 53 bd 97 8a a8 bf f5 8f 07 bf 99 7f 2d bf
       -0.051630504 -1.3167294 -0.52954036 -0.67772824
0001f0 65 db 4a 3f 06 d1 95 bf f0 23 57 3e bc 11 ca be
       0.7924102 -1.1704414 0.21009803 -0.39466655
000200 de e2 42 3e 16 47 ed 3e 98 89 bb 3e eb 12 80 be
       0.19031855 0.46343297 0.36628413 -0.25014433
000210 f1 89 65 be 7a 16 e4 3e be 7c a9 bf d4 0c c3 be
       -0.22415902 0.44548398 -1.3241193 -0.38095725
000220 ab dc 22 bf 96 fb 76 3f f8 a8 7c be ed f9 50 3f
       -0.6361796 0.9647764 -0.24673831 0.81631356
000230 60 b9 00 be 8a 8f 66 bf b7 8c 8e bf e2 c8 a4 3f
       -0.12570715 -0.90062773 -1.1136693 1.2873805
000240 99 b1 31 bf 79 ee 96 3f 5a 63 50 3f 9b 2f 51 3f
       -0.6941162 1.1791526 0.814016 0.81713265
000250 d6 b3 e3 3e ef a5 88 bf 42 0d ce 3e 63 3c 9d bf
       0.4447314 -1.0675639 0.4024449 -1.2284054
000260 e6 b2 ae bf 31 9e fc be b4 da d6 3e ac a5 9e bf
       -1.3648345 -0.4933944 0.41963732 -1.2394309
000270 da 1b 95 bf a7 6f 92 be 19 85 32 bf 04 1b 9f bf
       -1.1649125 -0.2860081 -0.6973434 -1.243012
000280 e0 0a 93 3e d5 23 9d bf 2a 42 c2 3e c0 ee af bf
       0.28719234 -1.227656 0.37941104 -1.3744736
000290 b4 35 89 3e 34 33 85 bf 23 8f 13 bf 1b bf 93 bf
       0.26798785 -1.0406251 -0.57640284 -1.1542696
0002a0 de e9 83 be f6 ac 71 3e 3d 37 88 be 49 de 60 be
       -0.25764364 0.23601136 -0.26604643 -0.21959795
0002b0 1c f4 a1 be ab 2b 40 3f c4 39 a2 bf 37 d6 ae bf
       -0.31631553 0.7506663 -1.2673879 -1.3659123
0002c0 fc 9c 80 bf d4 53 9b be b9 25 43 3f 08 f3 4a 3f
       -1.0047908 -0.30337393 0.76229435 0.79277086
0002d0 b1 b7 fd bd b8 2b 9d bf 89 04 90 3e 13 2c 5d bf
       -0.12388552 -1.2278967 0.2812846 -0.86395377
0002e0 4d 78 98 bf 7e 87 91 bf 81 d6 ae bf 9d 78 a4 bf
       -1.1911713 -1.1369474 -1.3659211 -1.2849308
0002f0 ac dc 71 be b4 ae 11 3f 9f 8a 57 3f 37 f6 a2 bf
       -0.23619336 0.569072 0.84195894 -1.2731389
000300 84 a2 20 3f 97 4e 9f 3f 1e e9 9e bf 00 00 00 00
       0.6274798 1.2445859 -1.2414892 0.0
000310 b9 2f b3 be ba 24 a1 bf c2 51 62 be 23 2e a9 3e
       -0.34997347 -1.2589333 -0.221015 0.33043012

network.2.weight f4 [200, 200]
000000 ba ee aa 3b 3a 67 ab 3d 27 11 99 bd b2 e7 09 be
       0.0052164467 0.08369298 -0.07473975 -0.13467291
000010 5c af 2c 3a c5 ee 1a bd 8e f8 2d 3d 59 62 c3 ba
       0.000658741 -0.037825365 0.04247337 -0.0014906629
000020 75 92 a5 bd a8 74 ae bd 53 97 fe 3c 83 8b 49 3c
       -0.08084575 -0.08518344 0.031078016 0.012301329
000030 c8 43 08 be 31 98 61 3d 6b 9d bf 3d 6d 8d d2 3d
       -0.13307106 0.05507678 0.09356197 0.10280881
000040 bc 65 67 3c 39 fd 0f be 9f a4 5f bd 14 53 9e 3d
       0.014123376 -0.1406144 -0.054600354 0.0773069
000050 8d 18 8b bd 16 e9 9d bd af 3d 80 bd 6d 4d 0e 3d
       -0.06791792 -0.07710473 -0.06261765 0.034741808
000060 0a a4 bb bc fb 3d 0b be c6 86 ba 3c 02 7f cf bc
       -0.022905368 -0.13597862 0.022769343 -0.025329117
000070 33 a0 a5 3c 77 71 eb ba 6a b2 66 bd 8c f3 a8 bd
       0.02021799 -0.0017962892 -0.056322493 -0.08249578
000080 2f 48 0f 3d 4c 23 d9 bd b6 d6 1e 3b 49 ba 42 3c
       0.03498095 -0.106024355 0.0024236864 0.011885234
000090 6c f8 b4 3d 0f 14 93 3d 80 8b 7a bd 1e 1d 73 3c
       0.08836445 0.0718156 -0.061168194 0.014838485
0000a0 14 2d 0d bc a0 84 25 bd e8 e3 a9 3d 22 6a 0a 3e
       -0.0086167045 -0.040409684 0.08295423 0.13517049
0000b0 e8 46 f7 3b 7d f9 8b bd 5f e2 3f bd 98 ad 38 3d
       0.0075462945 -0.068346955 -0.046846744 0.045087427
0000c0 64 94 41 bd 70 58 a2 3c 77 6b 55 3b 93 1e 16 3d
       -0.047260657 0.01981756 0.0032565275 0.03665025
0000d0 c5 dd 77 3d c4 04 7d bd be 10 05 be 08 9c 2a bd
       0.06051423 -0.061772123 -0.12994668 -0.04165271
0000e0 fb 16 ed bd 30 2d a2 bd 82 fe 73 bd 41 a1 6f ba
       -0.11576649 -0.07918775 -0.05956889 -0.0009141155
0000f0 68 5a 47 3d a4 0f a8 3d ce 46 76 3d 56 74 c5 bd
       0.048670202 0.08206108 0.06012612 -0.0964133
000100 77 78 44 3d 29 b0 eb 3c 32 f0 b6 3d ba a1 55 3d
       0.047966447 0.028770523 0.08932532 0.052156188
000110 59 58 3d 39 eb 16 c4 3d f4 98 a7 3d 12 18 d3 bd
       0.00018057357 0.09574684 0.0818347 -0.103073254
000120 74 d8 62 3d d2 95 09 bd a6 b7 bb bd ab 41 71 3c
       0.055382207 -0.033590145 -0.091658875 0.014725129
000130 3a 6d 01 be 6c 31 1f 3d 17 37 49 bc 7b ef 44 bd
       -0.12639323 0.03886549 -0.012281201 -0.04807995
000140 ef 28 b6 bb dc 54 96 bd 50 c2 11 be 26 34 48 3d
       -0.005559079 -0.073404044 -0.1423428 0.048877858
000150 92 60 30 3d bb 3b f5 bd 1e 31 65 3d 92 9d c2 bd
       0.043060847 -0.11974283 0.055955045 -0.095027104
000160 bb 0a 26 bd 22 20 cb 3d ea 64 f9 3c bc 2b 86 bd
       -0.040537577 0.09918238 0.030443627 -0.065513104
000170 3d 78 f6 bd cd 8b 4f 3d 15 ea b9 bd 0b 7e 81 bc
       -0.120346524 0.050670434 -0.09077851 -0.015807172
000180 d8 0e af bd 2a 81 83 3d 06 f2 0a be 63 5d e9 bc
       -0.08547753 0.064211205 -0.13568887 -0.028486913
000190 bb bb a5 3c 4b 86 44 bd d9 27 b3 3d 65 b7 0d be
       0.020231118 -0.047979634 0.08747835 -0.1383949
0001a0 5c c4 77 bc c6 73 af 3c e6 f4 76 3c 7f 6a f3 3c
       -0.015122499 0.02141751 0.015073037 0.029713867
0001b0 b5 d7 d7 bd 91 b1 63 3d 99 e0 9b bd 98 b4 f7 3d
       -0.1053919 0.055589262 -0.07611198 0.120949924
0001c0 21 26 f1 bd d0 7b 6f bd f2 f4 5e bd 79 ac ba bd
       -0.11774851 -0.058467686 -0.054432817 -0.09114928
0001d0 be aa ae bc 5a 7b cc bd f8 fe dc bd f0 fa a9 bd
       -0.02132165 -0.09984465 -0.10790819 -0.08299816
0001e0 92 c1 88 bd c2 ab 86 bb 67 4f c7 bc 05 6a b5 3d
       -0.066775456 -0.0041098306 -0.024329854 0.08858112
0001f0 da f0 29 3d 69 79 b1 bd 25 f5 81 bd fb 55 58 bd
       0.04148946 -0.08665735 -0.06345586 -0.052816372
000200 e5 52 8d bd eb 46 64 bd f7 e0 85 3b 01 93 89 3d
       -0.069005765 -0.055731695 0.004085656 0.06717492
000210 41 38 c0 3b a5 b4 94 bd 9d be cc 3a 29 05 9d bd
       0.005866081 -0.07261018 0.0015620772 -0.07667
000220 65 4e 89 3c 80 88 af 3d fe a1 e2 bc 23 cf 7a 3d
       0.016761014 0.08570957 -0.027665135 0.061232697
000230 cb f9 f0 bb 99 cf e3 bc 0f 86 ba 3d ed 09 4f bd
       -0.0073539964 -0.027808951 0.09107601 -0.050546575
000240 ae 30 ba 3d 4d f8 89 3c 6a 2c f1 bd ed 2e 33 bc
       0.09091316 0.016842032 -0.117760494 -0.010936481
000250 dd d3 56 3d 39 f9 9f bd ee cc 7a bd c9 90 7e 3d
       0.052448142 -0.07811207 -0.061230592 0.062149797
000260 73 18 71 3d ab 13 8a bd 62 33 58 bd d3 a5 fd bc
       0.058861207 -0.067420326 -0.052783377 -0.03096286
000270 db 36 07 be 64 69 d1 bd 0c e0 51 3d b7 13 0a 3e
       -0.1320452 -0.1022518 0.05123906 0.13484083
000280 f4 30 8e 3d 41 e3 50 bd 08 62 0b bd 4d 0b 86 3c
       0.06942931 -0.050997976 -0.034029037 0.01636281
000290 30 32 eb bb 64 22 da 3c b1 33 c6 3d d4 8c c1 3d
       -0.0071776137 0.026627727 0.09677828 0.09450689
0002a0 c9 91 ae 3d 6b e3 5b bd 84 51 d6 bd 86 91 37 bd
       0.085239 -0.05368368 -0.104647666 -0.044816516
0002b0 c8 c5 ab bd d1 b6 7b 3d c0 4c be 3d 87 1c ee bd
       -0.08387333 0.061453644 0.09291983 -0.11626535
0002c0 3b ef 6f bd ce 38 0a bc b1 de 73 bd b0 87 43 bd
       -0.058577757 -0.008436395 -0.059538547 -0.047736824
0002d0 50 29 ed bd 04 22 eb 3c ea d0 e6 bc fc fb e4 bd
       -0.11580145 0.028702743 -0.02817579 -0.11180875
0002e0 4d 9e ba 3d 4b 34 e8 3d 16 57 a7 bc 90 2e 60 3d
       0.09112225 0.11338099 -0.020427268 0.054731905
0002f0 a7 18 67 3d 3f 57 fd bd 0f 39 25 3d 30 47 f5 3c
       0.056419995 -0.123701565 0.04033762 0.029941171
000300 9b 8d b7 bc dd 30 f4 bd 29 4d 30 3d 00 00 71 b9
       -0.02240639 -0.119233824 0.043042336 -0.00022983551
000310 96 05 37 3d 82 5c 9b 3b 26 3d b7 bc 15 33 f5 bd
       0.04468306 0.0047412524 -0.022368025 -0.11972634
000320 2b 63 1f 3f 65 38 12 40 28 ae c0 3f 0f d9 e6 bf
       0.62260693 2.284692 1.5053148 -1.8034991
000330 51 81 ea 3f aa 35 7e 3f 72 43 b5 3f 9a 75 c7 3f
       1.8320714 0.99300635 1.4161208 1.5582764
000340 c8 0e 40 3f 66 bb 03 3f 2d 2e 64 3f b7 bc b1 3f
       0.75022554 0.5145782 0.8913296 1.3885716
000350 c8 13 9e 3f 7f b9 96 bf 86 ae c0 3f 00 0e 5b 3f
       1.2349787 -1.1775359 1.505326 0.8556824
000360 17 2c 17 40 48 7a 2a 3f 91 56 45 be f2 24 bd 3f
       2.362066 0.66592836 -0.19271304 1.47769
000370 1b 4d a3 3f 48 ac 08 40 8d 23 e6 3e 70 2d 5e 3f
       1.2757906 2.1355152 0.44948998 0.8678808
000380 1a 23 cf bf 18 37 90 bf 91 b4 3f 40 e0 a9 c8 bf
       -1.6182587 -1.1266813 2.995396 -1.5676842
000390 e1 ab eb 3f 3f 10 c3 bf 56 51 03 40 7e d4 08 40
       1.8411828 -1.5239333 2.0518394 2.1379695
0003a0 48 1c 81 3f 2c e7 5f 3f 65 4d 0f 3f a5 63 9f 3f
       1.0086756 0.87462115 0.5597747 1.2452284
0003b0 61 d0 34 40 7c b2 40 40 bc 99 37 3f 3a 6d 10 40
       2.8252184 3.0108938 0.71718955 2.2566667
0003c0 16 aa 0f bf f9 b5 42 3f fb 32 d1 3f 5f 08 81 3f
       -0.56118906 0.7605892 1.6343683 1.008068
0003d0 4b 19 94 be 1e fc 81 3f 57 da 5c bf 3c 75 a5 3f
       -0.28925547 1.0155065 -0.8627066 1.2926402
0003e0 e7 48 ed bf d0 96 8b 3f 63 e9 62 3f 81 54 ec bf
       -1.8537873 1.0905399 0.8863737 -1.8463289
0003f0 fa 6d 3c 3f d7 01 59 3f 57 47 3f 3f 24 b0 c8 3f
       0.7360531 0.8476843 0.7471823 1.5678754

network.2.bias f4 [200]
000000 15 ec 1d bd 21 ee 92 be 27 ef 5d bc 7b 29 2a 3f
       -0.038555223 -0.28697303 -0.013545788 0.66469544
000010 4f da 36 3f 41 bf 24 3f 21 12 bc 3e 43 bb c9 be
       0.7142686 0.6435433 0.3673258 -0.39400682
000020 37 7c 6f bd 11 34 25 bd ef 77 f7 bd 1f 7c 5d 3f
       -0.05846807 -0.040332858 -0.120834224 0.8651752
000030 ff 80 98 3f 6a 4a d0 bc bc 8f 3a 3e a3 0e 57 3f
       1.1914366 -0.025426108 0.18218893 0.8400671
000040 b8 19 f1 bc d6 80 4c bf bb 5e 50 3f 64 1b 1a bd
       -0.029431209 -0.7988409 0.8139455 -0.037623778
000050 88 a6 42 bd c7 71 5c 3d dd a3 15 3f 0e 82 4c 3f
       -0.047522098 0.053819444 0.5845316 0.7988595
000060 b6 9d 37 3f 73 d8 a0 bc 0d 59 10 be 43 70 87 be
       0.7172502 -0.019634461 -0.1409647 -0.26452836
000070 63 03 6f bf be 22 5f 3f 28 b6 2d bf c7 df 3e 3f
       -0.9336454 0.8716239 -0.67856073 0.7456021
000080 bd b7 48 3f 8f 5d 26 3f ae da 07 3f 0e c4 34 3f
       0.7840536 0.6498651 0.53068054 0.70611656
000090 d8 34 c8 3c 79 6c 69 3e 0f 6b 90 3f 29 55 30 bd
       0.02443926 0.22795285 1.1282672 -0.043049965
0000a0 d9 2f 28 bf 49 50 96 bc 38 03 8a 3e a9 f6 00 bf
       -0.6569801 -0.01834883 0.2695558 -0.50376374
0000b0 e3 65 23 3f 5b 2a 0b bc 0c e5 54 3f d6 44 73 bf
       0.6382734 -0.008493985 0.83162 -0.9502691
0000c0 03 34 a7 3e f5 90 3e 3f 59 1a 91 bd 67 46 39 bf
       0.3265687 0.74439937 -0.070851035 -0.7237305
0000d0 0e 73 0f 3f 55 50 14 be 00 7a 3b bd 7b ac 40 3f
       0.56034935 -0.14483769 -0.045770645 0.75263184
0000e0 d4 d2 c8 3e c3 4a 80 bc fe ce 2a 3f 12 39 0d bf
       0.3922335 -0.01566065 0.66722095 -0.5516521
0000f0 c4 f1 a3 3f c8 0c 3a bd f0 18 e3 3e 8b 61 5f 3f
       1.2808156 -0.045422345 0.44354963 0.87258214
000100 6e b4 92 bc 52 44 2c 3f d8 0e 57 be 27 e2 2f 3f
       -0.017908301 0.6729175 -0.21001756 0.68704456
000110 e6 67 e9 3e b8 9c 03 40 88 7b 52 3f 8d b9 a7 bd
       0.4558708 2.0564404 0.82219744 -0.08189688
000120 3e 01 17 3f 6d ab 73 3f 3e bc 00 3f 55 7a 00 3f
       0.5898627 0.9518345 0.50287235 0.50186664
000130 00 6e 2f 3f b2 79 db 3e de 1f 3d 3f 18 42 e4 3f
       0.6852722 0.42866284 0.7387675 1.783267
000140 1c b6 25 bc 0a 59 69 3f fc 63 61 3f 85 ee 55 3f
       -0.010114219 0.9115149 0.8804319 0.83567077
000150 a3 02 3d bd 5f a0 56 3f 67 b4 d0 bc a1 61 21 bd
       -0.046145093 0.83838457 -0.025476648 -0.039399747
000160 53 da 7e bc 0a 14 99 3f 42 b8 31 bd ad 09 59 3f
       -0.015554982 1.195924 -0.043388613 0.8478039
000170 b0 19 8f 3e fd b8 8d 3f 5e c5 49 3f bd 49 da bc
       0.27949286 1.1072079 0.78816783 -0.02664649
000180 c7 fe 09 be 56 51 6b 3f b8 2e 53 3f 92 67 da be
       -0.13476096 0.91920984 0.8249316 -0.42657143
000190 15 0f 11 3f ee 47 30 bd 54 c6 5a 3f 44 f1 14 3f
       0.5666364 -0.043037347 0.85458875 0.5818064
0001a0 0c 98 ef 3e f9 9c 31 3f 4d 7b 2d be ae 3e 8f be
       0.4679569 0.69380146 -0.16941567 -0.27977508
0001b0 93 12 7b be e0 36 0a 3f 50 24 e4 be 15 cb 25 bf
       -0.24518804 0.5398998 -0.44558954 -0.64763004
0001c0 fb ca 87 3e 13 45 03 3f bb d1 00 bd 1a 59 89 bc
       0.2652205 0.51277274 -0.031450015 -0.01676612
0001d0 d2 60 3b 3e cd 89 9e bf ed fa 0e 3f 5b 20 0a 3f
       0.18298653 -1.2385803 0.5585163 0.5395562
0001e0 51 75 64 3f d9 78 aa 3f 08 b3 5e 3f 80 4a 9a 3e
       0.8924151 1.331813 0.8699193 0.30134964
0001f0 86 be 31 3f a2 03 42 3f 59 63 bc 3e 2c f1 90 be
       0.6943134 0.75786793 0.36794546 -0.28309
000200 ba 53 ba 3e 9d 97 47 3f f8 64 1c 3f fc fb 92 3f
       0.36392003 0.7796572 0.61091566 1.148315
000210 f4 13 c6 3e 22 36 d7 3e 09 76 eb 3e 09 77 c3 3e
       0.38687098 0.42033488 0.4598849 0.38176754
000220 53 5e 4b 3f 82 8d b9 3e 0d 3c 58 be 73 f3 3d 3f
       0.794408 0.36240774 -0.21116658 0.741996
000230 79 3c 3c bd 55 6e 3f bd 7b e9 da 3e 5d 8d 48 3f
       -0.04595611 -0.04673608 0.42756256 0.78340703
000240 13 7f f0 3e 75 fc 45 bd b1 10 44 bc 2f e0 50 3d
       0.4697195 -0.048336465 -0.01196687 0.050995048
000250 36 b6 3b bd f5 f9 9b 3f 24 16 14 3f ef 91 1d 3f
       -0.045828067 1.2185656 0.57846284 0.615508
000260 df ee fd 3e 4b 58 a1 3f c8 40 01 bd 8f 1c d3 3f
       0.49596307 1.260507 -0.03155592 1.649309
000270 c8 f5 3e 3e 60 ab 3d 3e c0 39 fa bc 47 89 04 3f
       0.18648446 0.18522406 -0.030545115 0.5177197
000280 52 67 66 bf 28 b7 f2 3e 56 e4 0d bf 51 da 5b 3f
       -0.90001404 0.47405362 -0.5542654 0.8588
000290 57 33 a5 3c 69 04 4a bd 9a 3e 31 bf 1c 76 99 be
       0.020166082 -0.049320612 -0.6923615 -0.29972923
0002a0 94 fc b0 3d 42 f0 86 3e e1 a5 d4 3e e1 1c 9a bd
       0.086419255 0.26355177 0.41532806 -0.075250395
0002b0 72 ed 97 bc a7 80 49 3f 08 4f 2e 3f 45 9e 09 bd
       -0.01854584 0.7871193 0.6808934 -0.033598203
0002c0 36 7c 69 3f 34 d6 07 3f 08 83 ae 3f 9a ae 19 bd
       0.91205156 0.53061223 1.3633738 -0.03752003
0002d0 c7 cc de 3f 56 a0 51 be 0d 86 6d 3f 09 67 a7 be
       1.7406243 -0.2047132 0.9278267 -0.32695797
0002e0 03 0e 0e 3c f0 fd e1 bc 71 0c b6 3d 19 28 16 bd
       0.008670333 -0.027586907 0.08889092 -0.036659334
0002f0 51 e2 03 3f f2 b1 01 bd 86 ea c1 3e 05 af 2b 3f
       0.51517206 -0.031663842 0.3787424 0.67063934
000300 4e f5 07 3f d2 00 43 3f 69 ec 26 3e 2f 8d eb 3e
       0.5310868 0.76173127 0.16301121 0.46006152
000310 10 c2 a5 3e 95 7e 45 bf ad c1 44 bd 11 b3 16 bf
       0.3237462 -0.77146274 -0.048036266 -0.58866984

network.4.weight f4 [4, 200]
000000 e2 23 b1 3d de 22 b1 3f 0c 22 dc bd 6a 5b ec be
       0.08649422 1.3838766 -0.107486814 -0.46163493
000010 65 20 ac bf 6a c2 3d 3f a2 2c 6f c0 fb bd 93 3f
       -1.3447386 0.7412478 -3.7370992 1.1542352
000020 40 25 82 3e 39 a2 0c be 71 34 40 c0 c7 04 40 c0
       0.25419044 -0.13733758 -3.0032008 -3.0002916
000030 a2 7c de 3f 51 fe a7 bc ec c9 87 40 a4 27 75 bf
       1.7381785 -0.02050701 4.2433987 -0.9576361
000040 81 9d 28 3e cc d9 06 40 a8 fd 18 bf 86 17 90 3d
       0.16466333 2.1070433 -0.5976205 0.07035737
000050 e1 94 00 3d 49 f1 92 bf 16 ba a8 bf 78 d2 65 bf
       0.031391982 -1.1479884 -1.3181789 -0.89774275
000060 c8 66 90 be d6 cc 7f 3d 19 29 83 bf 5b 8c 77 40
       -0.28203416 0.062451206 -1.0246917 3.8679416
000070 86 72 f1 bf 0f b9 2f bf 82 f8 05 c0 61 90 fe be
       -1.8863075 -0.6864175 -2.0932927 -0.49719527
000080 0a 9f 82 bf 12 33 ca 3c 48 44 b1 be 5b 08 9d bf
       -1.0204785 0.024682555 -0.34622407 -1.2268175
000090 71 14 16 c0 4e 98 f3 bf 04 cd e8 3f c7 6b 58 bd
       -2.3449976 -1.9030855 1.8187566 -0.05283716
0000a0 03 1e 12 c0 d0 bf 14 be bc 4b 2c c0 2c 0c 9c 3f
       -2.2830818 -0.14526296 -2.6921225 1.2191215
0000b0 23 82 df be 65 91 14 be ae 0e 0e bf 01 03 12 c0
       -0.43653974 -0.14508589 -0.5549115 -2.2814333
0000c0 46 97 98 c0 3f 10 9e be 2e 23 1c 3e ff b7 3d c0
       -4.768466 -0.3087177 0.15247795 -2.9643552
0000d0 81 11 2d c0 60 77 2f 40 3f 83 22 bc 78 8f ae bf
       -2.7041934 2.741661 -0.009918987 -1.3637533
0000e0 4e 78 c7 be 72 d9 9c bd 53 41 e5 be 6b c0 2c 40
       -0.38958973 -0.07658662 -0.447764 2.6992443
0000f0 b1 25 96 c0 27 1d 02 3d 1d d9 53 bf 59 72 1e bf
       -4.692101 0.031766083 -0.82753164 -0.6189323
000100 67 8a 3a bd da 97 24 be ab 4c 77 40 6f dc d8 be
       -0.045542147 -0.16073552 3.8640544 -0.42355677
000110 48 c3 61 bf 57 34 81 bf 12 9c 63 bf 78 6f 38 40
       -0.881886 -1.0094098 -0.8891002 2.8818035
000120 98 30 c5 3d 4f e2 2b bf cd 42 98 c0 62 19 27 bf
       0.09628409 -0.67142195 -4.7581544 -0.65273106
000130 7c bd 29 c0 b1 45 d8 3f f8 08 95 bf f9 e2 45 bf
       -2.6521902 1.6896268 -1.1643362 -0.7729946
000140 a2 c0 04 be c4 4f 06 bf 9a 46 ed 3f 01 79 2b bf
       -0.12964109 -0.5246546 1.8537171 -0.6698151
000150 5a 72 ea 3d dc 3d df be 46 b3 1b be b9 de dd bf
       0.11447592 -0.43601882 -0.15205106 -1.7333595
000160 eb 02 83 3d 8f 92 c8 c0 d0 ed 73 3c de 04 59 bf
       0.06397041 -6.2678905 0.014888242 -0.8477305
000170 59 b7 80 c0 ff 5e 89 c0 ef d1 45 bf 76 aa a4 3d
       -4.0223813 -4.292846 -0.7727346 0.08040325
000180 ab 79 41 40 40 36 75 bf 5a 9e a3 bf 0a 11 6d 40
       3.023051 -0.95785904 -1.27827 3.704165
000190 ea 42 76 bf 2b 23 1a 3e 21 ce 05 bf 84 18 fc bf
       -0.9619585 0.15052478 -0.5226765 -1.9694982
0001a0 fa c6 8b c0 d1 61 a3 be f5 19 b0 3f 38 30 55 40
       -4.368039 -0.31910565 1.3757921 3.331068
0001b0 90 e9 94 3f ee 93 a7 3f cc 67 27 c0 84 a5 13 40
       1.1633778 1.309202 -2.6157103 2.3069773
0001c0 67 73 0f bf bf 64 29 bf 09 21 58 bd 02 f8 92 bd
       -0.56035465 -0.6616935 -0.05276588 -0.0717621
0001d0 ed bd 16 bd dc 58 24 c0 6b fc 8f bf b3 67 a8 bf
       -0.03680222 -2.5679235 -1.1248907 -1.3156646
0001e0 46 56 4e bf cc 84 01 40 18 06 f4 be ac 06 27 bf
       -0.8060039 2.0237303 -0.476609 -0.65244555
0001f0 84 89 3c c0 16 de 0c bf b6 70 e3 c0 ad ec 77 3f
       -2.9458933 -0.55026376 -7.1075087 0.96845514
000200 fc cb 3a bf e1 02 53 bf db 04 95 3f 40 bb 06 c0
       -0.72967505 -0.8242627 1.1642107 -2.1051788
000210 a5 37 96 c0 0a f9 d9 3f bf e0 9e bf 93 95 93 c0
       -4.6942925 1.7029126 -1.2412337 -4.6120086
000220 75 b6 1b c0 b2 bf ed bf 88 c3 30 40 ed 12 a0 be
       -2.4330113 -1.8574126 2.7619343 -0.3126444
000230 45 f3 a6 3d d0 2a 59 3c 6b 99 de bf 98 23 58 bf
       0.08151869 0.013254836 -1.739057 -0.8442931
000240 c8 0f cb bf 9c 4e 0a bd 67 96 09 3e 4a f0 19 bf
       -1.5864191 -0.033766374 0.1343628 -0.60132277
000250 ba b9 82 bd db 6f 4b c0 d8 a6 01 c0 41 4a 10 c0
       -0.06383081 -3.178702 -2.0258083 -2.254532
000260 dd 2c 50 c1 94 91 d6 3f 45 5d c0 3d ce 4b 39 3f
       -13.010953 1.6763177 0.0939279 0.72381294
000270 61 8b bf 3e f2 24 76 3f 5b 99 e8 3c 27 c3 9b be
       0.37411025 0.96150124 0.028393438 -0.30422327
000280 cb 5e 64 bf b6 26 3b c0 e2 93 09 c0 f4 f6 05 be
       -0.8920714 -2.9242377 -2.149651 -0.13082486
000290 c5 bd 2e bf a5 85 b2 bd 04 03 80 3f 69 99 32 bf
       -0.68258315 -0.08716897 1.000092 -0.69765335
0002a0 d6 00 9d bf 90 89 9b bf 05 99 6e bd 12 91 bb bd
       -1.226588 -1.2151356 -0.0582514 -0.09158529
0002b0 9a 83 07 3e 4d 21 73 bf da 66 47 bf a0 77 c3 3d
       0.13233796 -0.9497269 -0.77891314 0.09544301
0002c0 42 0b 2a bf c1 45 15 c0 01 a5 74 c0 a0 74 57 40
       -0.6642343 -2.3323824 -3.822571 3.3664932
0002d0 6e 20 03 c0 4a 69 94 bf 8a 1e 7b bf 1b 7f a1 3f
       -2.0488544 -1.1594632 -0.98093474 1.2616915
0002e0 c2 18 33 40 37 d8 04 3e 38 f6 88 be a2 1d 2c bd
       2.798386 0.12973104 -0.2675035 -0.042020448
0002f0 91 c8 17 bf 8b 65 9e 3d 18 d8 8b bf bd 26 8d 3f
       -0.59290415 0.077342115 -1.0925322 1.1027447
000300 57 ac 4e bf db 7e 19 bf dc c2 51 bf 88 85 82 c0
       -0.8073172 -0.5995919 -0.81937957 -4.0788
000310 4b 9e 01 c0 e1 34 f3 bf 36 62 c5 bc 33 3e 55 40
       -2.0252864 -1.9000512 -0.024094682 3.3319213
000320 61 6d 4c 3d cf e5 c6 3d 59 55 34 3d e8 8e 5c bf
       0.049909 0.09711801 0.044026706 -0.8615556
000330 ff 8a b4 bf 93 47 a2 bf 3e 44 3f c0 da 32 04 c0
       -1.4104918 -1.2678093 -2.9885402 -2.0656037
000340 8e 70 95 3f 89 f3 e8 3d b0 83 53 c0 db a1 33 bf
       1.1674974 0.11374576 -3.3049126 -0.70168847
000350 df 26 09 c0 5b 92 95 3d 84 1b d0 be e5 01 95 bf
       -2.1429975 0.07303306 -0.40645993 -1.1641203
000360 60 08 a7 3d bb 74 04 c0 91 ba 8d bf d4 8f e0 3d
       0.08155894 -2.0696247 -1.107256 0.10964933
000370 1b 45 92 3d fc 8b 94 3f bc e1 f1 3f 35 27 86 bf
       0.07142087 1.160522 1.8897014 -1.0480715
000380 df 49 06 c0 be f6 9c 3d c8 f3 b8 3f 9f 23 88 3f
       -2.0982587 0.0766425 1.4449396 1.0635871
000390 b7 41 eb bf 20 b0 5b bf 6f ce f0 bf 07 62 0e bf
       -1.837943 -0.8581562 -1.8812999 -0.5561833
0003a0 ff 2f ea bf 5d 46 03 c0 88 28 34 c0 90 0d 51 bf
       -1.8295897 -2.0511696 -2.8149738 -0.8166132
0003b0 73 51 35 c0 c1 c0 16 c0 d5 e8 d4 bf f4 54 33 3d
       -2.8330963 -2.3555148 -1.6633555 0.04378219
0003c0 e9 f8 f6 bf 44 29 48 bd bd e7 10 c0 f6 d2 15 c0
       -1.9294711 -0.04886748 -2.2641442 -2.341001
0003d0 e4 fe 68 bf 96 dc bc 3d 5b c6 8c bf 4e 00 20 40
       -0.9101393 0.09221761 -1.0998033 2.5000186
0003e0 e6 9b 09 c0 f5 26 14 bf 20 20 33 3c a3 17 87 bf
       -2.1501403 -0.57871944 0.010932952 -1.0554088
0003f0 24 47 4a be 6e 12 b7 be 71 28 1c 3c 57 30 16 bf
       -0.197537 -0.35756248 0.009531126 -0.5866751

network.4.bias f4 [4]
000000 95 38 73 bf cc 4c 2b bf a9 ec 33 be 3a 10 db be
       -0.9500821 -0.6691406 -0.17570747 -0.42785817

network.0.weight f4 [200, 36]
000000 53 46 4a c0 b6 fa 40 be ce 3b 88 c0 13 fe 4b c0
       -3.1605422 -0.18845639 -4.2573004 -3.1873825
000010 c1 63 99 be de 3e 86 c0 8f 64 4e c0 ae 16 1f 3f
       -0.2995892 -4.195174 -3.2248876 0.6214398
000020 fe 1b 34 c0 f4 cd 44 c0 d8 78 04 3f 56 ee 2d c0
       -2.8142085 -3.0750704 0.5174689 -2.7176719
000030 c8 17 44 c0 65 c9 de 3e ff 8a 2e c0 c3 ee 36 c0
       -3.0639515 0.43513027 -2.7272336 -2.8583229
000040 05 ea ec 3e 59 ce 06 c0 15 6f 38 c0 d2 64 36 3f
       0.46272293 -2.1063445 -2.88178 0.7124759
000050 0c 1e 0a c0 aa fa 93 bf 3a f8 0a be f9 e0 b5 bf
       -2.158084 -1.1560872 -0.13571253 -1.4209281
000060 1b 60 9e bf e2 e9 14 3d e2 d8 b1 bf fd 00 b5 bf
       -1.2373079 0.03635586 -1.3894312 -1.4140927
000070 81 a7 9d bd 84 b9 d1 bf 49 8e 4c c0 74 d3 fb be
       -0.076979645 -1.638474 -3.1961844 -0.49184763
000080 0b 81 45 c0 57 80 47 c0 64 28 f2 be 00 eb 4c c0
       -3.0860012 -3.1172082 -0.4729644 -3.2018433
000090 dd b5 35 c0 03 7e e1 3d b2 2a 09 c1 e0 65 31 c0
       -2.839225 0.11010363 -8.572924 -2.771843
0000a0 cd 58 83 3e 0a 80 0a c1 98 a3 98 3f 45 08 9a be
       0.25653687 -8.65626 1.1924925 -0.30084434
0000b0 f4 93 3e c0 f6 ae 90 3f b0 40 ec be ad ce 3f c0
       -2.9777803 1.1303394 -0.46143103 -2.9969895
0000c0 29 ce 8b 3f a9 90 b5 be 58 74 42 c0 08 2d cd bf
       1.092229 -0.3546193 -3.038351 -1.6029367
0000d0 6a 0b 22 3f e2 8b 59 c0 88 89 ca bf 04 28 1c 3f
       0.63298666 -3.3991628 -1.5823221 0.6099856
0000e0 e8 88 4f c0 8f 82 09 c0 cf 76 93 3e 84 2b ef bf
       -3.242731 -2.1485937 0.2880158 -1.8685155
0000f0 ec 78 12 c0 ac 8e c5 3e 72 e3 f3 bf 74 f2 0d c0
       -2.2886305 0.38585413 -1.9053786 -2.2179232
000100 b3 7f 05 3f a1 83 f5 bf 33 ff 54 c0 fd d3 6c 3e
       0.5214798 -1.9180795 -3.3280761 0.23127742
000110 e2 b9 88 40 30 c0 54 c0 37 5e 73 3e a6 5f 89 40
       4.272691 -3.3242302 0.23766409 4.292926
000120 61 e2 48 c0 b4 34 16 be 44 a7 86 c0 72 7e 48 c0
       -3.138817 -0.14668542 -4.207918 -3.1327176
000130 82 c1 68 bd 42 2d 84 c0 d6 eb 7a c0 ab 9a 0f 3f
       -0.05682517 -4.1305246 -3.9206443 0.5609538
000140 39 20 80 c0 c9 e1 85 c0 3c 0a 5c 3f 16 e0 80 c0
       -4.0039334 -4.1838117 0.85953116 -4.0273542
000150 ec e0 86 c0 75 c1 46 3f d9 10 82 c0 f5 b7 45 c0
       -4.2149563 0.7763894 -4.0645566 -3.0893528
000160 ca 25 37 3f 33 76 1d c0 18 0a 4b c0 cc fc d6 3e
       0.71542037 -2.4603393 -3.172491 0.41989744
000170 6e a9 1c c0 7a e8 a4 bf c4 e6 7b 3e ac 04 be bf
       -2.4478412 -1.2883446 0.24599749 -1.4845176
000180 60 21 c2 bf 85 b3 86 3e 12 08 bc bf ea 42 b6 bf
       -1.5166435 0.26308838 -1.4689963 -1.423917
000190 eb d7 bc bb 25 5c b7 bf f4 d6 2c c0 05 e9 98 be
       -0.005763044 -1.4324995 -2.7006197 -0.2986528
0001a0 81 3f 30 c0 1b 22 35 c0 2b 4a ad be b8 39 30 c0
       -2.753876 -2.8302066 -0.33845648 -2.7535229
0001b0 e3 fd 02 40 2a 7b 80 be b5 e8 a0 3f 18 51 f0 3f
       2.046746 -0.25093967 1.2571017 1.8774748
0001c0 d5 c0 b7 be 19 e7 97 3f a1 d2 1a 40 d1 24 35 3d
       -0.35889307 1.18674 2.4191058 0.044224564
0001d0 17 a6 6a 40 dd 61 20 40 ec f6 32 bd 21 a6 72 40
       3.6663873 2.505973 -0.043692514 3.7913897
0001e0 8d 9f 26 40 d2 38 b1 3b ef 44 75 40 44 ed 8a bd
       2.6034882 0.005408385 3.8323324 -0.06783536
0001f0 ed 65 c0 3e e1 df 85 3f ed 23 73 be 7f 28 f2 3e
       0.37577763 1.0458947 -0.23744173 0.4729652
000200 13 ad 98 3f 69 05 fc bf f6 a0 32 be c1 e2 82 be
       1.1927818 -1.9689151 -0.17444214 -0.25563625
000210 83 30 00 c0 7b 04 8b be 67 3e 88 be 62 5d 06 c0
       -2.002961 -0.27151856 -0.2661011 -2.0994496
000220 f2 90 a4 bd af 4a a4 be 0c 45 d0 3e b6 2a 3c bf
       -0.080354586 -0.3208823 0.4067768 -0.7350267
000230 8b 40 05 3f 86 55 ca 3e db 63 34 bf 6b 81 f8 3e
       0.5205161 0.39518374 -0.7046487 0.48536238
000240 c6 6b a0 bf d7 b6 dd 3e dc bb 77 c0 7c f5 9a bf
       -1.253289 0.43303558 -3.870841 -1.2106166
000250 58 f6 19 3f d0 ea 79 c0 f2 ad 44 c0 bd 3a c9 3e
       0.60141516 -3.9049568 -3.0731168 0.39302626
000260 ac 36 91 bf d0 aa 3f c0 fa 52 d7 3e 94 b2 91 bf
       -1.134481 -2.9948006 0.42055494 -1.1382623
000270 08 80 42 c0 49 65 0c 3f b2 1a 7b bf 85 ae 02 c0
       -3.0390644 0.5484205 -0.9808761 -2.0419018
000280 da 9e ee 3e 07 47 7a c0 de 22 0e c0 89 07 cb 3e
       0.4660557 -3.9105852 -2.2208781 0.39654186
000290 d7 79 80 c0 24 8b 16 c0 7a 55 85 bd 04 0a 4e c0
       -4.014873 -2.3522425 -0.06510444 -3.2193613
0002a0 22 61 14 c0 ef ce 89 be 09 e5 5b c0 5d 2c 0d c0
       -2.3184285 -0.2691569 -3.4358542 -2.2058327
0002b0 a8 50 c0 3c 7f 67 54 c0 98 a6 b0 bf 1d 73 54 3e
       0.02347596 -3.318817 -1.380084 0.20747037
0002c0 9f e5 5d c0 27 89 bb bf 3d 4e 97 3b f9 3c 63 c0
       -3.46714 -1.465123 0.004617481 -3.5505965
0002d0 fd c9 2c c0 0e 4a c2 be 49 88 7a c0 a7 df 23 c0
       -2.6998284 -0.37947124 -3.9145682 -2.5605257
0002e0 a2 94 47 be c0 4f 7a c0 9e ee ee bf de 29 bd 3d
       -0.19490293 -3.9111176 -1.866657 0.09236501
0002f0 15 be f4 bf b7 8c ea bf 44 1c f3 3c 1c d7 f2 bf
       -1.9120508 -1.8324193 0.029676564 -1.8971896
000300 01 66 e6 bf 73 50 26 bd 95 f4 eb bf 6a b7 26 c0
       -1.7999879 -0.040604066 -1.8434016 -2.6049447
000310 6f 4a 9a 3d a9 15 d6 bf 11 40 2e c0 20 4d c9 3d
       0.07533728 -1.672536 -2.7226603 0.098291636
000320 f7 53 d6 bf 8a d6 18 c0 df 75 be bd e7 f9 0b c0
       -1.6744374 -2.3880944 -0.09299826 -2.1871278
000330 a9 20 0d c0 94 52 1b 3e c6 1a 05 c0 0e 2e 1b c0
       -2.2051184 0.1516822 -2.0797591 -2.424686
000340 41 e6 01 3e 07 de 01 c0 1a bc 30 c0 ff ce 62 3e
       0.12685491 -2.0291765 -2.7614808 0.22149275
000350 a7 7c 33 c0 42 b3 34 c0 8f 0b d3 3e d3 f3 28 c0
       -2.8044832 -2.823441 0.41219756 -2.6398818
000360 1e b9 53 bf 88 75 ad be 44 5b 08 3e ee dd 27 bf
       -0.8270434 -0.33878732 0.13316065 -0.6557301
000370 fb 27 ed be 37 fd 80 3e 62 1d 6c 3e 95 4e b3 3d
       -0.46319565 0.25193188 0.23058084 0.08755223
000380 bf a5 01 be ab 58 f3 3d 4c c8 b2 3c 41 f2 2c bb
       -0.12660883 0.118821464 0.021824025 -0.0026389512
000390 a4 92 8d 3e 78 ab 4d 3e a3 46 35 be f3 9d 1c 3f
       0.2765094 0.20084941 -0.17702727 0.6117851
0003a0 a1 2b e9 3e a6 af 04 40 55 83 d0 3e c9 85 ac 3e
       0.455411 2.0732207 0.40725198 0.3369582
0003b0 36 a5 0f 40 e2 b3 2f c0 0a 87 33 bd 0e 84 50 c0
       2.2444587 -2.7453542 -0.043829955 -3.25806
0003c0 7c 47 36 c0 62 85 03 3d e8 c8 4b c0 ac fb 3a c0
       -2.848113 0.032109626 -3.1841373 -2.9216108
0003d0 2d 6b 58 bd 51 8f 56 c0 99 b3 b9 3f 40 9e 16 3e
       -0.052836586 -3.3524973 1.4507934 0.14708805
0003e0 39 45 a4 bf c0 04 d9 3f 41 2c fe 3d e1 44 bc bf
       -1.2833625 1.6954575 0.124107845 -1.470852
0003f0 ce 3f 16 c0 e5 36 e2 bd db fb 34 c0 f5 0b 1f c0
       -2.3476443 -0.110456266 -2.827872 -2.4851048

network.0.bias f4 [200]
000000 4e 2a a2 bf a8 60 98 be 0f 71 9d bf 4e 76 16 3f
       -1.266916 -0.29761243 -1.2300128 0.5877427
000010 46 ef 07 bf 68 3e 9c be 0f d2 52 3e a9 f2 83 bf
       -0.5309948 -0.30516362 0.20587943 -1.0308429
000020 5c ce 95 bf 68 1d ab 3e 74 e0 87 bf 81 ef a6 bf
       -1.1703601 0.33420873 -1.0615373 -1.3041841
000030 f1 ec a1 bf 43 3e 94 3f 92 0c 93 bf 12 b9 9c bf
       -1.2650434 1.1581501 -1.1488211 -1.2243979
000040 9e b3 2a bf ae 50 1c bc 12 8e 1b be 47 ad aa bf
       -0.66680324 -0.00954072 -0.15190914 -1.333413
000050 ff 39 9a bf 48 21 18 bf e8 05 0a bf 7e bc 96 be
       -1.2048949 -0.59425783 -0.5391526 -0.29440683
000060 c1 64 98 be 75 71 53 3f 3f 05 49 bf 5c f8 da be
       -0.2976437 0.82594997 -0.7852363 -0.42767608
000070 66 17 bd be 6e ca a1 3f 31 ed a2 be a7 cf 61 bf
       -0.36931914 1.2639902 -0.31821588 -0.8820748
000080 ed d9 8c be f0 1a 02 3e ba 64 a6 bf 47 0b 3d 3e
       -0.27510014 0.12705588 -1.2999489 0.18461333
000090 c0 ac c9 be 3f 73 88 bc 76 88 8d bf 78 43 f5 be
       -0.3938961 -0.016656516 -1.105727 -0.47903037
0000a0 4d bd b7 be 0d 31 96 bf 90 69 16 bf 2e 73 97 bf
       -0.35886613 -1.1733719 -0.58754826 -1.1832025
0000b0 b9 bc f2 3e b0 c4 1e 3f 2e 0c 65 3f 77 9e fd 3e
       0.4740961 0.6201887 0.8947171 0.49534962
0000c0 7c 2b 98 3e 8c 49 a7 bf 67 ab 1b bf 3f 26 27 3f
       0.29720676 -1.306932 -0.60808414 0.65292734
0000d0 a1 54 2c bc 73 b9 94 bf 0d 1a fa 3e 6d 28 fd be
       -0.010518224 -1.1619095 0.48848 -0.49444905
0000e0 82 a0 e8 be b0 97 bf be bb 0c ac 3e 8d cc 33 bf
       -0.45434958 -0.37420416 0.33603463 -0.70233995
0000f0 da 7c 94 bf 5c 50 ba be 59 de de be b1 76 4e bf
       -1.1600602 -0.36389434 -0.43529013 -0.8064986
000100 49 b0 19 3f 24 4f bd bc 24 77 8c bf f2 88 2c bf
       0.60034615 -0.023109026 -1.0973859 -0.6739646
000110 1d bd ac bd 5a b4 7b 3f 51 68 67 bd 17 88 90 bf
       -0.08434508 0.9832207 -0.05649597 -1.1291531
000120 25 43 92 bf 40 88 a4 bf 13 8c 84 bf 1d 75 fc bd
       -1.1426741 -1.285408 -1.0355247 -0.12327025
000130 15 1b 07 3f f4 a7 a7 3e d1 90 aa 3f 09 a9 89 3f
       0.527757 0.32745326 1.3325444 1.075471
000140 fb b2 df be 14 3e 46 bf 89 ee ac bf 0c ea 74 bf
       -0.4369124 -0.77438474 -1.3510295 -0.9566963
000150 1d 8d 45 bf 45 a4 6b bf 32 94 bb bd be 92 3e bf
       -0.77168447 -0.9204753 -0.091591254 -0.7444266
000160 61 5b 3f 3f bf 02 69 3d d5 88 0a 3f 7c 0d 84 be
       0.7474881 0.056887385 0.5411504 -0.25791538
000170 17 9b d6 3d 03 49 97 bf 34 a5 98 bf 31 13 a1 bf
       0.104788 -1.1819156 -1.1925416 -1.2583982
000180 6f ed 55 3d df 8b 93 bf a5 35 86 bf 16 8c a7 be
       0.052228387 -1.152706 -1.0485121 -0.32724065
000190 75 43 97 bf 8a d6 e4 be 42 bc 55 bf ac e4 48 bd
       -1.1817461 -0.4469493 -0.83490384 -0.049046203
0001a0 14 8d 9a bf c4 8b 87 be 21 a0 a3 bf 6e e5 0b bf
       -1.2074304 -0.2647382 -1.2783242 -0.54646957
0001b0 95 0a 8f bf 8c 88 8c bf aa b4 91 bf 42 6f 2f bf
       -1.1175104 -1.0979171 -1.1383259 -0.6852914
0001c0 2e ef 90 bf b9 7c 90 bf a7 4d 33 bd 29 ed b9 3e
       -1.1322992 -1.1288062 -0.043775227 0.3631375
0001d0 85 cc 63 3f 25 26 8d bf e2 04 ae bf 70 67 e9 3e
       0.8898395 -1.1027266 -1.359524 0.4558673
0001e0 bb 82 65 bd 97 8a a8 bf 23 b1 08 bf 99 7f 2d bf
       -0.056032877 -1.3167294 -0.5339529 -0.67772824
0001f0 c5 6b 4b 3f 06 d1 95 bf ab 37 53 3e 09 e6 c6 be
       0.7946132 -1.1704414 0.20626704 -0.38847378
000200 66 ab 3e 3e 17 c5 ee 3e 43 26 be 3e 1a 6f 83 be
       0.18620071 0.46634743 0.37138566 -0.256707
000210 98 61 65 be a9 9c e2 3e be 7c a9 bf 86 56 c8 be
       -0.2240051 0.44260147 -1.3241193 -0.39128512
000220 2e ab 23 bf 4f e9 76 3f dd 05 5a be b2 90 50 3f
       -0.63933074 0.9644975 -0.21291299 0.8147079
000230 67 cb d3 bd 91 90 66 bf b7 8c 8e bf 76 f7 a4 3f
       -0.1034153 -0.9006434 -1.1136693 1.2888019
000240 99 b1 31 bf 30 47 97 3f 67 02 50 3f 23 ba 51 3f
       -0.6941162 1.18186 0.81253666 0.8192465
000250 50 62 e3 3e ef a5 88 bf d2 6b ce 3e 63 3c 9d bf
       0.44410944 -1.0675639 0.40316635 -1.2284054
000260 e6 b2 ae bf f2 74 fc be 7e e4 d6 3e ac a5 9e bf
       -1.3648345 -0.49307972 0.419712 -1.2394309
000270 da 1b 95 bf b6 d2 94 be e8 16 2d bf 04 1b 9f bf
       -1.1649125 -0.2906701 -0.6761308 -1.243012
000280 ff 7f 94 3e d5 23 9d bf f1 1f c5 3e c0 ee af bf
       0.29003903 -1.227656 0.38500932 -1.3744736
000290 8c 02 8a 3e 34 33 85 bf 66 73 13 bf 1b bf 93 bf
       0.26955068 -1.0406251 -0.5759796 -1.1542696
0002a0 0a 50 82 be 38 ed 7b 3e 3d 37 88 be 3c a1 5e be
       -0.2545169 0.2460221 -0.26604643 -0.21741194
0002b0 3e e8 a2 be 93 39 41 3f c4 39 a2 bf 37 d6 ae bf
       -0.31817812 0.75478476 -1.2673879 -1.3659123
0002c0 fc 9c 80 bf d4 53 9b be 07 55 42 3f 2b 14 4c 3f
       -1.0047908 -0.30337393 0.7591099 0.79718274
0002d0 e4 a6 0c be b8 2b 9d bf c1 6f 8e 3e 13 2c 5d bf
       -0.13735539 -1.2278967 0.27819636 -0.86395377
0002e0 4d 78 98 bf 7e 87 91 bf 81 d6 ae bf 9d 78 a4 bf
       -1.1911713 -1.1369474 -1.3659211 -1.2849308
0002f0 91 9e 70 be 90 e1 11 3f cf f4 58 3f 37 f6 a2 bf
       -0.23497988 0.56984806 0.8474855 -1.2731389
000300 0c a1 20 3f 59 77 9f 3f 1e e9 9e bf 00 00 00 00
       0.6274574 1.2458297 -1.2414892 0.0
000310 2d 63 b3 be ba 24 a1 bf 76 b5 5e be 64 84 a8 3e
       -0.35036603 -1.2589333 -0.2174891 0.32913506
