llirl_sumo/saves/120p4k/env_models.pth (torch, 295590 bytes, 6 tensors)

layer1.weight f4 [200, 160]
00000000: 5b9d f4bd a4c1 2bbd 1ee0 06bd 4012 433c
00000010: ffec 023e baa0 f23d 77c3 98bd 637a 01be
00000020: 7c7c 89bd 8396 babd 601f e73b d335 00be
00000030: ccbd 61bd a0fa 84bc d67b fa3d 60cc dabc
00000040: 7012 24bc b26f 68bd 7428 553d fae0 993d
00000050: 680e a6bd 40a1 283c 1660 8e3d 60f8 893b
00000060: 1b36 97bd 30bb edbd 80f5 a8bd 9268 bb3d
00000070: 7172 c1bd aa04 9c3d 4cec e2bc 2613 b9bd
00000080: 5847 c33d 8851 04bd 0f78 b2bd ba6e a5bd
00000090: fc72 d8bd 39a2 ebbd 7431 febc ce6d a6bd
000000a0: a0ba 3d3d fc87 8dbc 5456 3fbd 4caf 343d
000000b0: a842 a6bd a84e 48bd 33eb 02be 6cc6 023d
000000c0: 0995 d5bd 3e3c a43d 48c2 923d e060 41bc
000000d0: d828 9ebc 6460 823d ba00 d53d bf4d d8bd
000000e0: 3ae3 e73d d8f9 2d3d c1a2 013e 98be 83bd
000000f0: a8c9 70bd 3071 f6bd e0e8 603c 7055 043c
00000100: 14bd 29bd a4ae da3d 50a5 9b3d 3c5f e4bc
00000110: 842c e1bc 8cdf 7dbd b4dc 0dbd 8091 933d
00000120: de48 993d c021 12bb b427 de3d 107f a7bc
00000130: 50b9 03be 7856 b53c 9b4d b3bd 1e7b a2bd
00000140: 0ec5 0bbd fcbc 763d ebab 033e fc53 713d
00000150: f487 463d 4461 1bbd e6d9 9f3d fccf a73d
00000160: 2fba 033e e2c9 da3d 8c75 b73d feac 6bbd
00000170: bcca 9b3d 80df d03c 7049 8fbd 88a8 633d
00000180: b888 dabd 0032 a3bd 00dc 92b9 1bd9 02be
00000190: 363e bcbd 286d 39bd 26cb 46bd 4c8e d3bd
000001a0: c22c d03d 035a 82bd e437 8c3d 6383 03be
000001b0: c87c b2bd 06aa fb3d 82f1 0ebd 06cf 56bd
000001c0: 749d 2a3d 0210 1ebd 8c48 0dbd 5689 aa3d
000001d0: 00dd 39ba 0976 8cbd 006a c1ba b63c c7bd
000001e0: 44f4 743d 88cb bcbd a849 9e3d a053 d33b
000001f0: b0ce 393c 9c26 05bd 0269 f6bd c551 003e
00000200: f808 dfbc 62e2 f43d e83d e33c 2078 a5bb
00000210: 74b8 103d 6829 153d 42d1 bebd d065 343d
00000220: cd73 dfbd 00fe a4b9 1489 803d f688 4cbd
00000230: 8826 2e3d 00ee 3c3a 0c34 a0bd 982d f33d
00000240: d429 a9bc f869 01be ac50 5bbd 8c4c 713d
00000250: b1be 91bd 083d adbd efb0 003e 6893 abbd
00000260: 3961 fbbd 8099 32bd ba94 a43d c03f 403b
00000270: 0e60 88bd e416 dfbd aadc e7bd 208a f9bb
00000280: ae96 35bf 2236 bd3e 3bce 2ebf a833 0cbf
00000290: 4a88 a63e 89fd 20bf 841b 42bf bb2a 6d3e
000002a0: f7e0 3abf 44b4 32bf a142 e73e 675e 4dbf
000002b0: 7af3 11bf 03ea 853e 6817 3dbf fcd7 f5be
000002c0: 3524 d03e 18c3 4cbf be6e 0ebf 5408 f93e
000002d0: b645 15bf 7e62 18bf bce1 9d3e a8d1 2ebf
000002e0: b103 00bf 7b95 ed3e 7abb 2ebf a34e 2abf
000002f0: df15 743e 4ebc 20bf 2ab9 0bbf 630b 42bf
00000300: a8a8 0ebf 5e9e 34bf 27aa 4dbf 2346 2fbf
00000310: 70c8 12bf 0169 b63e 1f66 2fbf 38b3 3cbf
00000320: 53b4 e23e acb9 34bf 1653 4abf 0098 7b3e
00000330: 3368 1abf 55c6 44bf 8c27 da3e b1b4 1fbf
00000340: a23d 4bbf 1a8c 8d3e dda4 1fbf badb 00bf
00000350: 394e d63e 2a79 26bf 13e0 04bf c7a1 903e
00000360: 0cb4 1bbf e50e 36bf 75cf 473e 8e56 32bf
00000370: b993 2bbf 07e3 853e d3d0 23bf 3a49 1ebf
00000380: 1866 c73e a67f 36bf 1e0b 0dbf 46a7 42bf
00000390: 30b9 45bf f2a4 35bf 291d 4abf 3bed 26bf
000003a0: f3ab 22bf 4d73 d93e 0154 35bf 5c84 40bf
000003b0: 9318 d53e ad1e 2dbf 23f8 14bf 5e38 823e
000003c0: 8103 1fbf 29e0 2ebf 33ca a53e 9f60 4fbf
000003d0: 43ec 19bf f9f6 8c3e 5b5c 43bf 831b 06bf
000003e0: 463a 6c3e d7c5 17bf a21e 18bf 7957 883e
000003f0: 017b 1fbf bd62 27bf 9080 553e 8962 1bbf
-0.11944076 -0.041932717 -0.03292858 0.011906207 0.1278572 0.118470624 -0.07459157 -0.12644343
-0.06713197 -0.09110739 0.0070533007 -0.12520532 -0.055112645 -0.016232789 0.12230651 -0.026708782
-0.0100141615 -0.056747146 0.052040532 0.07513614 -0.081082165 0.010292351 0.06951921 0.004210517
-0.07383367 -0.11607969 -0.082499504 0.091508046 -0.09445656 0.07618077 -0.027700566 -0.090368554
0.09535092 -0.032304317 -0.087143056 -0.0807776 -0.105688065 -0.11505551 -0.03102944 -0.08126412
0.046320558 -0.017276756 -0.04671319 0.04411249 -0.081181824 -0.048903137 -0.12785034 0.03192751
-0.10428817 0.08019303 0.071659625 -0.011802882 -0.019306585 0.06366041 0.10400529 -0.10561704
0.11322637 0.042474598 0.12659742 -0.06432837 -0.058786064 -0.120333076 0.013727397 0.0080770105
-0.041440085 0.10677841 0.0759989 -0.027877443 -0.027487047 -0.06198077 -0.034634307 0.07205486
0.074846014 -0.0022297949 0.108474165 -0.02044633 -0.1286366 0.022135958 -0.087550364 -0.07933639
-0.034123473 0.060238823 0.1285855 0.058917984 0.0484695 -0.037934557 0.07805233 0.08193967
0.12863992 0.10683037 0.08957967 -0.057538025 0.07607028 0.025497198 -0.06996429 0.055580646
-0.10670608 -0.07968521 -0.00028011203 -0.12778132 -0.09191553 -0.045270115 -0.04853358 -0.10329875
0.10164787 -0.063648246 0.06846598 -0.12843089 -0.087152064 0.12288289 -0.03489829 -0.052443527
0.041654065 -0.038589485 -0.034493014 0.08326976 -0.00070901215 -0.06858451 -0.0014756322 -0.097283766
0.059803262 -0.09218508 0.077288926 0.006449178 0.011340782 -0.032507524 -0.120317474 0.12531193
-0.027225956 0.119572416 0.02773948 -0.0050497204 0.03533216 0.03641644 -0.093172565 0.04404241
-0.10910759 -0.00031469762 0.062761456 -0.049935304 0.042517215 0.00072070956 -0.07822427 0.11873931
-0.020649828 -0.1263808 -0.05354373 0.05891089 -0.071164496 -0.084589064 0.12567495 -0.08377725
-0.12274403 -0.04360342 0.0803618 0.0029334873 -0.06658946 -0.10893038 -0.11321385 -0.0076153427
-0.70933044 0.36955363 -0.6828343 -0.5476632 0.32525855 -0.62886864 -0.75823236 0.23160832
-0.7299952 -0.69806314 0.4516802 -0.8022217 -0.5701214 0.261551 -0.7386384 -0.48016346
0.40652624 -0.7998519 -0.5563773 0.48639166 -0.58309495 -0.5952529 0.30836284 -0.6828866
-0.5000563 0.46403107 -0.68254817 -0.6652624 0.23836468 -0.6278733 -0.5457941 -0.75798625
-0.557261 -0.7055415 -0.80337757 -0.68466395 -0.57337093 0.35626987 -0.685152 -0.73710966
0.442782 -0.7059581 -0.7903303 0.24569702 -0.60315245 -0.7686513 0.42608297 -0.6238509
-0.7939092 0.27645952 -0.62360936 -0.50335276 0.41856554 -0.6502863 -0.5190441 0.28248426
-0.60821605 -0.7111648 0.19512732 -0.6966332 -0.6702228 0.2614977 -0.63990515 -0.61830485
0.3894508 -0.71288526 -0.5509509 -0.7603649 -0.772357 -0.7095481 -0.78950745 -0.65205735
-0.63543624 0.4247078 -0.70831305 -0.75201964 0.4162031 -0.6762493 -0.58191127 0.2543363
-0.6211472 -0.6831079 0.32380828 -0.8100681 -0.6012613 0.27532175 -0.763128 -0.5238573
0.23069105 -0.59286255 -0.5942174 0.26629236 -0.62297064 -0.6538504 0.20849824 -0.6069723

layer1.bias f4 [200]
00000000: 0000 0000 6686 c8bb fc3a 2c3c ecc9 393c
00000010: 1749 803c 0481 383c 506a 593c 2af7 a23c
00000020: 91cc 6d3b 3e01 c23b ab46 393c 862d 143b
00000030: d302 b6bb 6eb3 24bc 062d 2f3c 0cd7 013c
00000040: 8a76 183a bb17 1c3c bd88 533c 18e6 663c
00000050: b99b 3a3c 368d 053c 5d9a a43c 698d fc3b
00000060: 8ed9 c93c 79dd 583c cd06 743c e514 3a3c
00000070: f360 cabb a0b8 8a3c 9257 eb3c ab6e 793c
00000080: 04a3 373c bf99 183d 3cfa a9bb d384 07bc
00000090: 634f fb3b 075d 3c3c ec2c 0a3c ed8b 5a3c
000000a0: fa1c 363c 4108 de3c 71f9 6fbc 17ea a33b
000000b0: 0000 0000 ae72 b3bb e1d1 643c e347 973c
000000c0: 8a5f b23c 0000 0000 9d9f c63b 7c6b 243c
000000d0: 1725 dd3d af8b 9a3c 3311 c53c f20a 193c
000000e0: 911d 1a3c 3917 8b3c 4d84 173d aed5 7bba
000000f0: ee31 3e3c e02c af36 0d55 203c 2794 fb3c
00000100: 0000 0000 02e7 0f3c 4a9a a73c 98e7 dabb
00000110: 98b1 5d3c 045a e2bb be79 453c 9612 263c
00000120: 6134 d13c 6f98 7f3c 39bd 3c3c 32a8 b53c
00000130: d3fb 293c 83de 10bc a5ca 9bbb 0000 0000
00000140: 5740 16bd f9e2 313c 7db4 373c 43ee 813c
00000150: 4e00 17bb 1bc8 573c c5af e23a f58f b7bb
00000160: 70ee 323c ed33 be3d f858 393c edfd 8a3c
00000170: 7f61 d43c 992e 6e3c 704a 6a3b 1141 913c
00000180: c50b 463d 7887 0fbc f692 0ebb 96bc 6bbc
00000190: b2fa 2bbb 0a0d 163c a82f dc3c e179 263c
000001a0: 0000 0000 af4a eebc bfcf ea3c f8a1 b83c
000001b0: 0c89 dbbb 0000 0000 90ac c13c d437 323c
000001c0: ccb3 d03c 0000 0000 d542 39bc db20 463c
000001d0: 005e 76bb 09db c5bb 44c8 40bc 7225 5bba
000001e0: 5093 ecbb a1a0 a6bc 2d5b 11bc 1c9d ccbc
000001f0: bef0 1a3c 04a3 e1bb 88fb 053d 6633 553c
00000200: a503 033c 28df ee3c b690 293c 077e 323c
00000210: 40dc 06bc f993 d33a 7bb1 4b3c 412a 703c
00000220: b8b1 453c 4332 243d 73ce 873c 83f8 c8bc
00000230: 6a52 273c 0000 0000 7fe1 bd3c 7a43 8c3b
00000240: 0000 0000 611d ac3a 61a0 5c3c 4a65 3abc
00000250: d269 8dbb bd4d 70bb c595 b93b 84f0 8eba
00000260: 0000 0000 b02e 383c 0fad 893c 59ff 6f3c
00000270: 4d9e a43c 5642 2dbc 8d0f 343c 471b 00bc
00000280: d6f1 bf3c 95b7 353c f8d9 a43b 4ab8 2f3c
00000290: b494 f5ba 5354 183d a334 27bb 6e1f 52bb
000002a0: 1f46 673c ecbb 543c 226a 263c 3848 8cbb
000002b0: fe23 063e 6df4 483b df12 ed3b c4fc 753c
000002c0: 9f8d bdbb b381 bf3c 4299 633c 0101 933b
000002d0: 261a d33b 0d52 b9bb 0e01 a83c 90e4 98bb
000002e0: 03be efbb 40d5 b33b 0000 0000 c7d6 8e3b
000002f0: 77d1 0dbc 0000 0000 5801 9c3c 0000 0000
00000300: a51e 1a3d 5c8d 6e3c 24fc 0a3c 0698 883a
00000310: d90c 553c 99ca 253b a607 193c 1dee a3bb
0.0 -0.006119537 0.01051211 0.011339646 0.015659852 0.0112612285 0.013269976 0.019893248
0.003628526 0.0059205582 0.011308352 0.0022610142 -0.005554536 -0.010052545 0.010691887 0.007924806
0.00058160035 0.009527142 0.012911019 0.014092945 0.011389666 0.008151343 0.020093137 0.007707287
0.024639871 0.013236397 0.0148942 0.011357521 -0.006176108 0.01693374 0.02872828 0.015224139
0.0112083 0.037256 -0.005187301 -0.008271414 0.0076693757 0.011496789 0.008433562 0.013339025
0.011115307 0.027103545 -0.014646874 0.005002271 0.0 -0.0054763174 0.013966055 0.018466895
0.021774072 0.0 0.006061508 0.010035392 0.1079809 0.018865434 0.024056053 0.0093409885
0.009406463 0.016978847 0.036991406 -0.0009606731 0.011608584 5.2206306e-06 0.009785903 0.030710293
0.0 0.008783104 0.020459313 -0.00668044 0.013531111 -0.0069077034 0.012052951 0.010136267
0.025537672 0.015600308 0.011519724 0.022174928 0.010374981 -0.008842113 -0.0047543817 0.0
-0.036682453 0.010857337 0.011212465 0.015860682 -0.0023040953 0.013170267 0.0017294815 -0.005601878
0.010921106 0.09287248 0.011312716 0.016966784 0.025925396 0.014537477 0.0035749935 0.017731221
0.048351068 -0.008760326 -0.0021755076 -0.014388224 -0.0026241955 0.009158382 0.026878193 0.010160894
0.0 -0.029088346 0.028663514 0.02253817 -0.006699687 0.0 0.023641855 0.010877568
0.025476359 0.0 -0.011307438 0.012092794 -0.003759265 -0.006038074 -0.011766497 -0.0008359767
-0.0072197095 -0.020340266 -0.008871836 -0.02497726 0.0094568115 -0.006885888 0.032710582 0.013012743
0.007996474 0.029159144 0.010349443 0.010894305 -0.008231223 0.0016142122 0.012432451 0.014658512
0.012066297 0.040086996 0.016577935 -0.024532562 0.01021252 0.0 0.023178814 0.004280505
0.0 0.0013131314 0.013465972 -0.011376688 -0.0043155933 -0.003666743 0.005663606 -0.001090542
0.0 0.0112416 0.016806154 0.014648282 0.020095015 -0.010574898 0.010990036 -0.007819003
0.023430746 0.011091133 0.0050308667 0.01072509 -0.0018736334 0.037189793 -0.0025513552 -0.003206219
0.014115839 0.012984257 0.01015714 -0.00428107 0.13099667 0.0030663267 0.0072349156 0.015013877
-0.005784705 0.023377275 0.01389152 0.0044862037 0.006442326 -0.005655533 0.020508315 -0.0046659186
-0.0073163523 0.005488068 0.0 0.0043590995 -0.008655897 0.0 0.01904361 0.0
0.03762688 0.01456007 0.008482967 0.0010421283 0.013003551 0.002529776 0.009340202 -0.0050027505

layer2.weight f4 [200, 200]
00000000: 0c0d 963c 7752 cdbd 524d ca3d 1f1c 7abd
00000010: b67c 513d 0587 193d 0861 923d 748e cc3d
00000020: 74cc d73b 6826 e53d 103d e93d b8b3 423d
00000030: 7b35 f73d eb87 0ebd 4784 553d 22b6 b33d
00000040: c295 ed3d eedf 883d 3375 823d b928 ffbc
00000050: 96e7 4ebd 44b6 7bba 39f1 ef3d dff0 1ebd
00000060: 3a29 51bd 3048 9c3d 03ee 663b 7299 96bc
00000070: 5e25 0b3d 9d08 b0bd 58ea 753d 90dd b9bd
00000080: db04 5cbd 3447 9b3d 7237 afbd c504 6c3d
00000090: 8540 003e aaeb d9bd 85f9 d3bd d9fd ce3d
000000a0: 2af5 3ebd 78ca f63d 00ea 50bd fa62 d7bd
000000b0: d7e0 e53d cf51 9c3d 88b7 fdbc e854 a2bd
000000c0: 5492 e4bd d16a e8bd c528 5abd 9927 9d3d
000000d0: f2ce cc3d 618b a9bd 3102 a53d bd53 683d
000000e0: ea19 c9bc fe3f 3d3d 4446 8fbd 7209 6fbd
000000f0: dd0a a33b a683 21bd 0bbb b83d d1a6 d3bd
00000100: d820 5fbd 7f9e c53c a47a 99bd 55b9 c8bd
00000110: 36d2 c3bd 002e 46bd 95dc 853d 5f6e 5e3d
00000120: 01e0 c33d fd51 94bd 1e8c 7b3c feae cdbc
00000130: a9e5 92bd c33a d1bc c1fa 0bbc e488 c33c
00000140: 6d14 b33d e960 e63c 51cd 37bd 2d95 3a3d
00000150: 8b42 643d aa16 cd3d 9076 a0bb 36ee 683d
00000160: 191c 80bd e06d 643d 8523 c83d f7db 74bd
00000170: 1301 cd3d 8985 0d3d 4fd5 e5bd 31d2 a0bd
00000180: f43e a9bc 0080 a6bd 2a29 b03d 0b92 283d
00000190: d296 9c3c a0c4 e13d 5bfd 2a3c 640e dfbc
000001a0: 9d93 7ebd d8a2 853d b60e 1a3d 2319 b2bd
000001b0: 0794 c63d 33a1 eb3d 6eda a6bd abe4 47bd
000001c0: 447b 613d e89c 37bc 99c7 123d 7227 d93d
000001d0: bf0d 1fbd 4073 593d 3948 933c 3a16 49bd
000001e0: a0f3 6d3d bcf9 623d f2a7 cb3d f2ce 7cbd
000001f0: 8afd dfbd d4ff 583d abb1 423d 4cd1 a7bd
00000200: 2319 babd 8ae4 bfbd e160 7d3b d15b a43d
00000210: 96c0 933d 701d f13c 5816 9b3c 18ae 4d3d
00000220: a843 adbd 0677 ac3d 4900 1d3c 9be5 81bd
00000230: ba95 6fbd a229 0a3d c8b5 c9bc 6d03 0bbd
00000240: 2088 5bbb f1a0 d03a 8384 66bd 82f5 8dbd
00000250: aa88 e93d d3db 77bd d774 993d e0e3 67bd
00000260: 0c0f b03c 0ab3 90bd aadd cdbd fb93 83bd
00000270: c9a5 f53a 08f5 a5bd 9580 e0bd 8f21 813d
00000280: 327e 8f3d 4f64 ac3d 004a c9bd 3b66 633c
00000290: 5ad7 3bbd 3636 c03d b416 3e3d b4e5 7abd
000002a0: a88e ebbd c770 113d 5c33 0f3c e16f fe3d
000002b0: fb17 f6bb 6f94 bbbd ad18 e23c f0fc b93d
000002c0: 0967 9d3d d48f cfbd 254b d4bd ae1e 9c3c
000002d0: 4b25 953d 6284 453d 08a3 98bd fc06 bfbc
000002e0: e35c 9ebd 08dd 80bb 0ea4 4c3d ad55 8cbd
000002f0: a049 10bc 3d29 d83d 1bf4 093e 86e9 f9bd
00000300: 4aca f53d 81bf 923d 372d 313d 0d06 653d
00000310: 3308 b7bc 0fca a83d a17b d9bd d909 b53d
00000320: 4050 6bbc 2725 1c3d 70d7 07bc 667a 553d
00000330: 0fa3 a53d d712 5a3d fb2e 98bc f340 833d
00000340: c223 a7bd a666 cdbd e0dd dbbd 88ee 55bc
00000350: f0e0 aabb 77f6 1c3d 7f18 e5bd 2067 453d
00000360: f962 9ebd 9724 593d 031a a53d 1c82 b23c
00000370: d96f a13d beb6 cdbb 70b7 a23c e4b0 5f3b
00000380: e900 83bc c343 b0bd 9863 02be 4549 883b
00000390: f45d 36bd b6cf 1dbd edf1 74bd fc9f 14bd
000003a0: f435 a1bd 6a95 93bd 68ab cdbd b252 863d
000003b0: 2a73 0dbe ac52 b23d db05 cb3d 653b 9cbd
000003c0: 0394 91bc 6639 953d cb68 823d 1877 4d3d
000003d0: fb35 ce3d 548d 17bd 16c7 a63d 20ea 0cbc
000003e0: ba14 a23d ca06 6b3d 3d4e ce3d 3c49 7c3d
000003f0: d690 a2bd c658 a83d 0cd3 8dbd 733d c7bd
0.018316768 -0.100254945 0.09878029 -0.061061975 0.051144324 0.03748228 0.071474135 0.09988108
0.006585652 0.11188966 0.113886 0.047534674 0.120707475 -0.03479759 0.052128103 0.087749735
0.1160083 0.06683336 0.0637001 -0.031147348 -0.050513826 -0.000960205 0.117159314 -0.03880393
-0.051064707 0.07630956 0.003523708 -0.018383715 0.033971183 -0.08595393 0.06003794 -0.09075463
-0.053715568 0.0758194 -0.08555497 0.057621736 0.12524612 -0.106406525 -0.103503264 0.10107011
-0.046620525 0.120503366 -0.05100441 -0.10516925 0.112245254 0.07632791 -0.030971304 -0.07926351
-0.111607224 -0.113484986 -0.053261537 0.07673568 0.10000409 -0.082785375 0.080570586 0.056720484
-0.02454849 0.046203606 -0.06995824 -0.058358617 0.0049756602 -0.03943219 0.090200506 -0.10334552
-0.05447468 0.024123428 -0.07494095 -0.09800974 -0.09561579 -0.048383713 0.06536213 0.054304477
0.0956421 -0.072422005 0.015353231 -0.025107857 -0.071727104 -0.025540715 -0.008543671 0.023868985
0.0874413 0.028122382 -0.04487354 0.04555242 0.055727523 0.100140885 -0.0048969463 0.0568678
-0.06255359 0.055768847 0.097724 -0.059780087 0.100099705 0.034551177 -0.11222326 -0.07852591
-0.020659901 -0.08129883 0.086016014 0.041154902 0.019114885 0.11023831 0.010436381 -0.027228542
-0.062152494 0.065252006 0.037611686 -0.08696201 0.09696203 0.11505356 -0.08147131 -0.04880206
0.055049196 -0.011206843 0.035834882 0.10603227 -0.03883147 0.053088427 0.017978774 -0.049093463
0.058093667 0.055413947 0.099441424 -0.061720796 -0.109370306 0.05297835 0.04753272 -0.08194217
-0.09086826 -0.09369762 0.003866248 0.08025325 0.07214467 0.029432982 0.018931553 0.050214857
-0.0846017 0.084211394 0.0095825875 -0.06342622 -0.0584924 0.03373111 -0.024622813 -0.033938814
-0.0033497885 0.0015917105 -0.056278717 -0.069315925 0.1140302 -0.060512375 0.074929886 -0.056613803
0.02149155 -0.07065399 -0.10052045 -0.064247094 0.0018741424 -0.081033766 -0.10962025 0.06305229
0.07006492 0.0841757 -0.098285675 0.013879354 -0.045859672 0.0938534 0.04640837 -0.06125422
-0.11501819 0.035507943 0.008740272 0.12423683 -0.007510183 -0.09159171 0.027599657 0.09081447
0.07685668 -0.10134855 -0.10365895 0.019057598 0.07282504 0.048221953 -0.07452971 -0.02331876
-0.077325605 -0.003932599 0.049961142 -0.06852279 -0.008806616 0.105547406 0.13472025 -0.12202744
0.12001474 0.07165433 0.04325601 0.055913974 -0.022342777 0.082416646 -0.106192835 0.08839769
-0.014362395 0.03812137 -0.00829111 0.05211868 0.080877416 0.053240623 -0.01857709 0.064088725
-0.08161117 -0.10029344 -0.10735679 -0.013057359 -0.005214803 0.038320985 -0.11186313 0.04819405
-0.07733721 0.05301341 0.08061602 0.021790557 0.07882661 -0.006277888 0.01986286 0.0034132535
-0.015991645 -0.086066745 -0.12733305 0.004159125 -0.044523194 -0.038528167 -0.05980103 -0.036285385
-0.07871619 -0.07206233 -0.10042459 0.06558742 -0.13813463 0.08707175 0.09913226 -0.07628516
-0.017770773 0.072863385 0.06367644 0.050162405 0.1006889 -0.037000015 0.081434414 -0.008600742
0.079141095 0.05737952 0.100735165 0.06159328 -0.079377815 0.08220057 -0.069250196 -0.097285174

layer2.bias f4 [200]
00000000: 10ff 3d3c 9566 b8bc 53c3 143d e8c5 cb3b
00000010: b074 81bc 4aaa 3c3c 4155 2c3c 3df5 b33a
00000020: 0a56 1dbc e08c a73b 9eb3 8ebc 0000 0000
00000030: c03a bbbc c786 3e3c 0000 0000 7bc8 2c3c
00000040: 0000 0000 2642 9abb a286 75bc 1395 403b
00000050: ca37 1d3c 4fdf 883d f997 783c 9813 96ba
00000060: 0000 0000 a4c3 8fbc cdc4 433c 0990 67bc
00000070: bb4e 313c cab2 3d3c 3127 453c 28bf 983d
00000080: 69fc 553c 119f 583c 7abe 6bbc 060f aa3c
00000090: 4f50 94bc 5898 b4bc 024c 4cbc 6dca 2d3c
000000a0: 9733 73bc 0c16 6fbc 7753 d53b 8814 703d
000000b0: e8a6 3c3c b999 84bc b674 353c 4551 173d
000000c0: c249 153c 19fb 86b9 0000 0000 0000 0000
000000d0: 86b9 893c 5a93 043c 5e3c 063c 76ff f93c
000000e0: 487e 4d3c 6c97 cfbc 549a 773c dc96 863c
000000f0: dadb 2abc 0000 0000 b1f8 88bc e033 86bc
00000100: 6419 d93b 6b88 a8bc 9ff1 3f3c d8db 6dbc
00000110: a032 513c d38b 09bc e94e 5c3c 4ef4 15bc
00000120: 033a 45bc 06c7 383c f195 8a3c a8bb 313c
00000130: 0652 203c a95c 4bbc 5e99 833c 6584 0a3c
00000140: c0d5 003c 2a96 c9bb 2c1c 0dbc a276 89bc
00000150: b6f2 0cbc 0000 0000 188e 0c3c 6eae b13c
00000160: f77d 2dbc 0a63 ba3c 5db2 c1bb 0000 0000
00000170: 374c 393c 7c81 323c d367 e23b 3a66 2a3c
00000180: 2d0e 563c 0b7c 123c 02de 33bc b39f c6bb
00000190: cf49 5dbc 0000 0000 456e 643c 10c1 35bc
000001a0: d96b 4a3d b7ba 463c 0000 0000 ae72 b3bb
000001b0: fce1 72bc 77ab 44bc 7b40 493c 59a6 5dbc
000001c0: 495f 56bc ef3a a1bb 6118 32bc 08df 803b
000001d0: bd00 60bc 2121 ec3b 4d37 65bc 5fad 95ba
000001e0: bb48 213c 8c1b 613c 4cda 3e3c eff4 b5bc
000001f0: e05b b83c 0000 0000 1ed7 193c 7174 4d3c
00000200: 7216 9c3c 6569 633b b8c0 103d cf03 873c
00000210: 575e ff3a f232 2fbc 0000 0000 0000 0000
00000220: 9269 153c bf6e c0bc 0852 623c 3260 483b
00000230: 6c4b 92bc 2a9d bbbb dbc9 c4bb 8b21 513c
00000240: f83d 523c dede 3d3d 372e 533c eb52 4b3c
00000250: 1718 843c baa3 e9bc d9c9 c4bb 4594 43bc
00000260: 686a 443c 15bb 893b 7dd7 89bb fb16 d43b
00000270: c0ae 9c3c bf7e 323a 0000 0000 8b1c 9abc
00000280: 7949 2a3c 0000 0000 1097 7c3c 0287 90bc
00000290: 70b3 25bc 2d94 33bb 9581 9abc a21f 5c3c
000002a0: 082b 183c 8a06 86bc 1b2d 3bbc a707 a1bc
000002b0: 0000 0000 b948 313c b7d6 0f3c 1d47 c13b
000002c0: 6842 87bc e5cc 173d 5a58 673c ea22 9dbc
000002d0: 8914 9bbc b0d3 f83c 3229 6bbc 8008 32bc
000002e0: db3a c1ba 352d 3fbc 1564 3ebc 578f 633c
000002f0: 3605 5e3b 0000 0000 4bb2 613a 469a 623c
00000300: 3ad9 0dbc d8d1 933d 41ee 353c 270a 02bc
00000310: 3ce1 56bc cb65 1dbc 89a3 373c 2451 e53b
0.011596456 -0.022509852 0.03631909 0.0062186606 -0.015802711 0.011515209 0.010518373 0.0013729703
-0.009603033 0.005113229 -0.017419633 0.0 -0.022855163 0.011628813 0.0 0.010545845
0.0 -0.0047075925 -0.014985712 0.002938573 0.009595821 0.06683218 0.015172952 -0.0011449931
0.0 -0.017549343 0.011948776 -0.014133462 0.010821993 0.011578271 0.01203327 0.07458335
0.013060668 0.013221518 -0.014388675 0.020759117 -0.0181047 -0.0220453 -0.012469294 0.010607344
-0.014843843 -0.014592659 0.006510194 0.05861333 0.011514403 -0.016186582 0.011075189 0.03694274
0.0091118235 -0.00025745554 0.0 0.0 0.016812097 0.008091772 0.008193104 0.030517321
0.012542315 -0.025340758 0.015112478 0.016429357 -0.010428393 0.0 -0.016720148 -0.016382158
0.0066253413 -0.020572862 0.011715322 -0.014517747 0.012768418 -0.008395153 0.013446548 -0.009152485
-0.012037757 0.01127792 0.0169172 0.010847963 0.009785181 -0.012412229 0.016064342 0.008454417
0.007863462 -0.006151934 -0.008612674 -0.016780201 -0.008602789 0.0 0.0085788 0.02168962
-0.010589114 0.022752304 -0.005911155 0.0 0.011309675 0.010895129 0.0069093495 0.010400349
0.013064903 0.008940707 -0.010978224 -0.006061518 -0.013506367 0.0 0.013942306 -0.011093393
0.049419258 0.012129477 0.0 -0.0054763174 -0.014824387 -0.012003771 0.01228344 -0.01352843
-0.013084241 -0.0049203555 -0.01087007 0.0039328374 -0.013672051 0.0072060977 -0.0139902355 -0.0011419466
0.009844 0.013739478 0.011648726 -0.02221152 0.022504747 0.0 0.009389667 0.012539969
0.019053672 0.0034700271 0.03534004 0.016481308 0.0019483072 -0.010693299 0.0 0.0
0.009119408 -0.023490308 0.013813503 0.0030574915 -0.01785823 -0.0057255225 -0.0060055084 0.012764345
0.012832157 0.04635512 0.012889436 0.012409906 0.016124768 -0.028520454 -0.0060055074 -0.011937206
0.01198826 0.00420321 -0.0042065964 0.006472466 0.019126296 0.0006809048 0.0 -0.018812438
0.010393494 0.0 0.0154168755 -0.017642502 -0.010113582 -0.0027401552 -0.018860618 0.013435276
0.009287603 -0.01636054 -0.011424328 -0.01965697 0.0 0.010820561 0.008779219 0.00589837
-0.016511157 0.037060637 0.014120186 -0.019181687 -0.01893069 0.030374378 -0.014353083 -0.010866284
-0.0014742272 -0.011668493 -0.011620541 0.013889155 0.0033877618 0.0 0.00086096366 0.013830727
-0.008657748 0.07217759 0.011104167 -0.007936991 -0.0131152235 -0.009606789 0.011208423 0.006998198

mu.weight f4 [4, 200]
00000000: 009e 003e 73cc 98bc f744 533e fbca a0be
00000010: 26a8 af3d 7cc5 a8be 95d2 a1be b0b6 76be
00000020: bf60 883c 170d d03d 6df0 8c3d c06b 773d
00000030: fcbe 38bd 2e7d 90be c0cb 28bd 2dd3 09be
00000040: 7acb c03d c282 9fbd db31 bcbd ac0b c53d
00000050: b501 69be 49f8 a33d 1c95 98bd 342b 6b3c
00000060: 48ef d4bc 118c 1fbe 1422 7cbe 6f0d df3d
00000070: 01de 97be 270e 48be e8b0 72be d1bf 5c3e
00000080: 2dc6 6dbd 84b5 d1bd 2ea0 0c3e 2d42 3ebe
00000090: 258d fbbd e173 163e 017a fc3d 7a44 9dbe
000000a0: 2ba7 8c3d 036a 853b 47bb 85be 7357 5f3e
000000b0: e1ff 80be 1d0d b8bb 9659 97be 1219 243e
000000c0: d8cd 9dbe 098e 97be b2c1 5cbd 0b20 efbd
000000d0: def4 5bbd b24e 74be 1af1 d7bd 1915 d3bc
000000e0: a8ca 7dbd 3e4a 333d 97d3 5cbd 9040 dc3d
000000f0: d0b2 8e3c 2f62 263e 351e 16be c607 0e3d
00000100: 152c a8be 2e6a 923d 1587 abbe 8157 0c3e
00000110: eb32 5ebe 87b2 8abd 86bd 37be 3e0c 85ba
00000120: 05bf 16bd 314c a0be 1b7d 13be cd5c 8abe
00000130: 5386 a2be 249e 073e 8bd6 a3bd 2e55 60be
00000140: e2b8 5dbe 8e14 e73c 77d3 ff3d 177e 8abe
00000150: f219 db3d 50dc 233c 67cb 77be 0ce2 a23c
00000160: b4b6 a8bd 47b4 45bd 19ff dbbd 2ef3 d43d
00000170: 1cd5 1bbe e10f 9dbe 517c 93be 9850 0dbe
00000180: 410a 8fbe 54b8 85be 83dc 883d a4ce e9bd
00000190: 8039 ae3d 8026 0cbb 31db 0abe 0518 153e
000001a0: 4436 783e bb4c 55be c0ce 6e3d ed9f b0bb
000001b0: c0de d73d 9ed9 903d 6141 97be fc59 c73c
000001c0: 8708 9c3d ccde 173e 5e0f 02bd 392c 74be
000001d0: 0fb8 19be ac48 a7be 60c2 f43d 45e7 d8bd
000001e0: 094c aabe de90 97bd cc2d f1bd a9b8 29be
000001f0: 06c3 973d a05d 2cbd 0b1d a5be a2f6 72bd
00000200: c1dd b9bc 5c6d 92be b876 043e c356 433e
00000210: 4eef 35be 2137 193e 9077 a1bd 0cae c5bd
00000220: 3f58 cdbd 0f62 353d becf 86be 2b6e d2bd
00000230: 841e c23d 221a 7dbd 7ca9 1b3e d13b 9fbd
00000240: 27f7 59be 49aa 8e3d 84c1 3bbe 54e0 acbe
00000250: 8847 0abe 7e89 533d c212 263e a616 e1bd
00000260: 262f fabd 95d1 66be 6d67 edbd 3df0 a2be
00000270: 1c88 7bbc 555a 33be 2027 b9bc dbc9 b23d
00000280: cae8 7bbe c8b8 2b3d 37cd 0ebe ae20 a53d
00000290: aa8b aabd 59b0 983d 3f7a 5abd 1c78 3cbe
000002a0: f235 68be 504b db3c ac1f a0bd 8a5c 3a3e
000002b0: 0038 883b 7675 8ebe af10 24be 427b 22be
000002c0: 14e5 fa3d 78c8 163e d73d a5be 24cf 183e
000002d0: 9547 d1bd bd4c 943c b3a3 7f3d 66fc 043e
000002e0: 5852 abbe 5a17 983d 0d20 003e 1204 6dbe
000002f0: 19a1 b0be 80cd 4bbc 45ee 9d3d 09d1 30be
00000300: c7c0 f8bd d5ca 6dbb 44b6 a3be cb39 6a3d
00000310: f6b6 053e 3856 173e dfcc 8ebe 31ce 91be
00000320: 83f0 c5bd a839 b13d d70e 003e 5d6e 94bd
00000330: 26e8 8e3d af20 ebbd bbe6 a7be 89fc d4bd
00000340: b0a4 153e 763d 00be 0f21 f13b b047 2c3d
00000350: 515f 78bd ca5e 99bd cd5a 023e 2434 05be
00000360: 04eb 80bd 2592 ec3d c7fc 6a3d fd21 ce3d
00000370: 6cf4 9fbe 2351 793d 6e04 66be 612f 9dbc
00000380: eb7d 143e b881 133e 3ae4 62be 8607 a83c
00000390: dd5b 2fbd a49f a3be fcba 72be a2f4 3f3e
000003a0: d7be 7abe 915f 2cbe 301b 4c3c c923 243e
000003b0: 9703 27bd 03c2 8b3c 8e9f c63d 771b bebd
000003c0: 9e04 a73d 5ceb cfbc 8060 4bbe 976d 0a3e
000003d0: ce37 54be 1aa9 1a3e a2b3 86be 0d6d 92bd
000003e0: 56bf 35be 179f 3bbe f4fe a9bd d7a0 0ebe
000003f0: 656b 3bbe d8bd 96be 9e55 96be 55e0 ff3d
0.12560272 -0.018652176 0.20631777 -0.31404862 0.08576994 -0.3296317 -0.31605974 -0.24093127
0.016647695 0.10158747 0.06881795 0.060405493 -0.045104012 -0.28220505 -0.041209936 -0.13459463
0.0941381 -0.07788612 -0.09189197 0.09621367 -0.22754557 0.08006341 -0.07450315 0.014353562
-0.025993004 -0.15580775 -0.24622375 0.10891234 -0.29661563 -0.19536649 -0.23700297 0.21557547
-0.058050323 -0.102396995 0.13732979 -0.18579932 -0.122827806 0.14692642 0.12327958 -0.30716306
0.06867822 0.0040714755 -0.26119444 0.21810703 -0.2519522 -0.0056167976 -0.29560536 0.16025189
-0.3082111 -0.29600552 -0.05389566 -0.116760336 -0.05370032 -0.23858145 -0.10544033 -0.025766896
-0.061960846 0.043771975 -0.053912725 0.10754502 0.017419249 0.16248392 -0.1465996 0.034675382
-0.32846132 0.071491584 -0.33501497 0.13705255 -0.21699111 -0.06772333 -0.17943391 -0.0010150743
-0.036803264 -0.3130813 -0.14403193 -0.27023926 -0.31743106 0.1324392 -0.07999905 -0.21907493
-0.21652558 0.028208043 0.124915056 -0.27049324 0.10698308 0.010001257 -0.24198686 0.019883178
-0.08237973 -0.04826763 -0.107420154 0.10397945 -0.15218014 -0.30676177 -0.28805783 -0.13800275
-0.2793751 -0.26117194 0.06682684 -0.11416367 0.08507061 -0.0021385252 -0.13560177 0.14559944
0.2423945 -0.20830052 0.05830264 -0.0053901584 0.10540533 0.07072757 -0.29542068 0.0243349
0.07618814 0.14831084 -0.031752937 -0.23844995 -0.15011619 -0.32672632 0.119511366 -0.10590986
-0.33261135 -0.07400678 -0.11776313 -0.16574349 0.07410245 -0.042081475 -0.3224872 -0.05931724
-0.022688748 -0.2859906 0.12935913 0.19076066 -0.17767069 0.14962436 -0.07884133 -0.096523374
-0.10026597 0.04428297 -0.2633037 -0.10274919 0.09478477 -0.0617925 0.15201372 -0.07775081
-0.21285687 0.06966073 -0.18335539 -0.337649 -0.1350385 0.051644795 0.16218093 -0.10990648
-0.12216024 -0.22540887 -0.115919925 -0.31823912 -0.015352275 -0.17514928 -0.022601664 0.08729907
-0.2460052 0.041924268 -0.13945471 0.08062874 -0.0832742 0.07455511 -0.05333924 -0.18405193
-0.22676829 0.02676931 -0.07818541 0.18199363 0.0041570663 -0.2782399 -0.1602199 -0.15867332
0.122507244 0.1472491 -0.32273743 0.14922768 -0.10218731 0.018102998 0.062411975 0.12986907
-0.3346126 0.07426329 0.12512226 -0.23146084 -0.34497908 -0.012439132 0.07711462 -0.1726724
-0.12146144 -0.0036284227 -0.31974995 0.057184022 0.13058075 0.14778984 -0.2789068 -0.28477624
-0.096650146 0.08653575 0.12505661 -0.072476126 0.069778726 -0.11480843 -0.3279322 -0.1039973
0.14613605 -0.12523445 0.007358677 0.042060554 -0.060637776 -0.07488783 0.1272995 -0.13008171
-0.06294826 0.11551312 0.057369974 0.100650765 -0.31241167 0.060868394 -0.22462627 -0.019187631
0.14501159 0.14404953 -0.22157374 0.0205114 -0.042812217 -0.31957734 -0.23704141 0.18745664
-0.24486862 -0.1683333 0.012457654 0.16029276 -0.040774908 0.017060285 0.096984014 -0.09282582
0.081551775 -0.025380783 -0.1986103 0.13518368 -0.20724413 0.1510357 -0.26308924 -0.07149706
-0.1774877 -0.18322407 -0.083005816 -0.13928543 -0.18302687 -0.29441714 -0.29362196 0.1249396

mu.bias f4 [4]
00000000: d6ae 77bc 5f18 61bc 282b ccbc cb7b 82bc
-0.015117368 -0.013738721 -0.024922922 -0.01592817
