llirl_sumo/saves/120p4k/env_models.pth (torch, 590050 bytes, 12 tensors)

layer1.weight f4 [200, 160]
0	0xbdf49d5b	-0.11944076
1	0xbd2bc1a4	-0.041932717
2	0xbd06e01e	-0.03292858
3	0x3c431240	0.011906207
4	0x3e02ecff	0.1278572
5	0x3df2a0ba	0.118470624
6	0xbd98c377	-0.07459157
7	0xbe017a63	-0.12644343
8	0xbd897c7c	-0.06713197
9	0xbdba9683	-0.09110739
10	0x3be71f60	0.0070533007
11	0xbe0035d3	-0.12520532
12	0xbd61bdcc	-0.055112645
13	0xbc84faa0	-0.016232789
14	0x3dfa7bd6	0.12230651
15	0xbcdacc60	-0.026708782
16	0xbc241270	-0.0100141615
17	0xbd686fb2	-0.056747146
18	0x3d552874	0.052040532
19	0x3d99e0fa	0.07513614
20	0xbda60e68	-0.081082165
21	0x3c28a140	0.010292351
22	0x3d8e6016	0.06951921
23	0x3b89f860	0.004210517
24	0xbd97361b	-0.07383367
25	0xbdedbb30	-0.11607969
26	0xbda8f580	-0.082499504
27	0x3dbb6892	0.091508046
28	0xbdc17271	-0.09445656
29	0x3d9c04aa	0.07618077
30	0xbce2ec4c	-0.027700566
31	0xbdb91326	-0.090368554
32	0x3dc34758	0.09535092
33	0xbd045188	-0.032304317
34	0xbdb2780f	-0.087143056
35	0xbda56eba	-0.0807776
36	0xbdd872fc	-0.105688065
37	0xbdeba239	-0.11505551
38	0xbcfe3174	-0.03102944
39	0xbda66dce	-0.08126412
40	0x3d3dbaa0	0.046320558
41	0xbc8d87fc	-0.017276756
42	0xbd3f5654	-0.04671319
43	0x3d34af4c	0.04411249
44	0xbda642a8	-0.081181824
45	0xbd484ea8	-0.048903137
46	0xbe02eb33	-0.12785034
47	0x3d02c66c	0.03192751
48	0xbdd59509	-0.10428817
49	0x3da43c3e	0.08019303
50	0x3d92c248	0.071659625
51	0xbc4160e0	-0.011802882
52	0xbc9e28d8	-0.019306585
53	0x3d826064	0.06366041
54	0x3dd500ba	0.10400529
55	0xbdd84dbf	-0.10561704
56	0x3de7e33a	0.11322637
57	0x3d2df9d8	0.042474598
58	0x3e01a2c1	0.12659742
59	0xbd83be98	-0.06432837
60	0xbd70c9a8	-0.058786064
61	0xbdf67130	-0.120333076
62	0x3c60e8e0	0.013727397
63	0x3c045570	0.0080770105
64	0xbd29bd14	-0.041440085
65	0x3ddaaea4	0.10677841
66	0x3d9ba550	0.0759989
67	0xbce45f3c	-0.027877443
68	0xbce12c84	-0.027487047
69	0xbd7ddf8c	-0.06198077
70	0xbd0ddcb4	-0.034634307
71	0x3d939180	0.07205486
72	0x3d9948de	0.074846014
73	0xbb1221c0	-0.0022297949
74	0x3dde27b4	0.108474165
75	0xbca77f10	-0.02044633
76	0xbe03b950	-0.1286366
77	0x3cb55678	0.022135958
78	0xbdb34d9b	-0.087550364
79	0xbda27b1e	-0.07933639
80	0xbd0bc50e	-0.034123473
81	0x3d76bcfc	0.060238823
82	0x3e03abeb	0.1285855
83	0x3d7153fc	0.058917984
84	0x3d4687f4	0.0484695
85	0xbd1b6144	-0.037934557
86	0x3d9fd9e6	0.07805233
87	0x3da7cffc	0.08193967
88	0x3e03ba2f	0.12863992
89	0x3ddac9e2	0.10683037
90	0x3db7758c	0.08957967
91	0xbd6bacfe	-0.057538025
92	0x3d9bcabc	0.07607028
93	0x3cd0df80	0.025497198
94	0xbd8f4970	-0.06996429
95	0x3d63a888	0.055580646
96	0xbdda88b8	-0.10670608
97	0xbda33200	-0.07968521
98	0xb992dc00	-0.00028011203
99	0xbe02d91b	-0.12778132
100	0xbdbc3e36	-0.09191553
101	0xbd396d28	-0.045270115
102	0xbd46cb26	-0.04853358
103	0xbdd38e4c	-0.10329875
104	0x3dd02cc2	0.10164787
105	0xbd825a03	-0.063648246
106	0x3d8c37e4	0.06846598
107	0xbe038363	-0.12843089
108	0xbdb27cc8	-0.087152064
109	0x3dfbaa06	0.12288289
110	0xbd0ef182	-0.03489829
111	0xbd56cf06	-0.052443527
112	0x3d2a9d74	0.041654065
113	0xbd1e1002	-0.038589485
114	0xbd0d488c	-0.034493014
115	0x3daa8956	0.08326976
116	0xba39dd00	-0.00070901215
117	0xbd8c7609	-0.06858451
118	0xbac16a00	-0.0014756322
119	0xbdc73cb6	-0.097283766
120	0x3d74f444	0.059803262
121	0xbdbccb88	-0.09218508
122	0x3d9e49a8	0.077288926
123	0x3bd353a0	0.006449178
124	0x3c39ceb0	0.011340782
125	0xbd05269c	-0.032507524
126	0xbdf66902	-0.120317474
127	0x3e0051c5	0.12531193
128	0xbcdf08f8	-0.027225956
129	0x3df4e262	0.119572416
130	0x3ce33de8	0.02773948
131	0xbba57820	-0.0050497204
132	0x3d10b874	0.03533216
133	0x3d152968	0.03641644
134	0xbdbed142	-0.093172565
135	0x3d3465d0	0.04404241
136	0xbddf73cd	-0.10910759
137	0xb9a4fe00	-0.00031469762
138	0x3d808914	0.062761456
139	0xbd4c88f6	-0.049935304
140	0x3d2e2688	0.042517215
141	0x3a3cee00	0.00072070956
142	0xbda0340c	-0.07822427
143	0x3df32d98	0.11873931
144	0xbca929d4	-0.020649828
145	0xbe0169f8	-0.1263808
146	0xbd5b50ac	-0.05354373
147	0x3d714c8c	0.05891089
148	0xbd91beb1	-0.071164496
149	0xbdad3d08	-0.084589064
150	0x3e00b0ef	0.12567495
151	0xbdab9368	-0.08377725
152	0xbdfb6139	-0.12274403
153	0xbd329980	-0.04360342
154	0x3da494ba	0.0803618
155	0x3b403fc0	0.0029334873
156	0xbd88600e	-0.06658946
157	0xbddf16e4	-0.10893038
158	0xbde7dcaa	-0.11321385
159	0xbbf98a20	-0.0076153427
160	0xbf05c695	-0.5225614
161	0x3ea4db1f	0.32198426
162	0xbefd72c8	-0.49501634
163	0xbeb8c715	-0.36089388
164	0x3e8e2d47	0.2776892
165	0xbee1d169	-0.4410508
166	0xbf0ff7f6	-0.56237733
167	0x3e46d0ac	0.1941554
168	0xbf09436b	-0.53618497
169	0xbf0090b6	-0.5022081
170	0x3ed41592	0.41422707
171	0xbf1bc0db	-0.6084115
172	0xbebf9fdb	-0.37426648
173	0x3e6579e9	0.22409786
174	0xbf0b79dc	-0.5448282
175	0xbe907297	-0.28212425
176	0x3eb52348	0.3537848
177	0xbf1a4d6d	-0.6027439
178	0xbeb77811	-0.3583379
179	0x3ede0767	0.43365023
180	0xbec5a01a	-0.3859871
181	0xbed161cb	-0.40894923
182	0x3e8661a1	0.2624636
183	0xbefe8ca8	-0.49716687
184	0xbea0a437	-0.31375286
185	0x3ed61560	0.41813183
186	0xbefe604b	-0.4968284
187	0xbef53a11	-0.47895864
188	0x3e4515ae	0.19246551
189	0xbee261f5	-0.4421536
190	0xbebc0f36	-0.36730355
191	0xbf10c88f	-0.5655603
192	0xbec0845a	-0.37600976
193	0xbf06ecc9	-0.52705055
194	0xbf1c6753	-0.6109516
195	0xbf00dfa4	-0.5034125
196	0xbec2fe88	-0.38084817
197	0x3e973cb7	0.2953851
198	0xbefe3812	-0.49652153
199	0xbf0b6a0d	-0.54458696
200	0x3ec38809	0.38189724
201	0xbf046f96	-0.51732767
202	0xbf183a2b	-0.5946376
203	0x3e5081be	0.20361993
204	0xbed0b112	-0.40760094
205	0xbf12ad6a	-0.5729586
206	0x3ec49c67	0.38400576
207	0xbedb4a0b	-0.42829928
208	0xbf1924b7	-0.5982165
209	0x3e7001eb	0.23438232
210	0xbedb2a63	-0.42805776
211	0xbea050fc	-0.31311786
212	0x3ec5180b	0.38494906
213	0xbee94c7b	-0.45566162
214	0xbea859b1	-0.3288093
215	0x3e7ed730	0.24886775
216	0xbed3c243	-0.41359147
217	0xbf02fa63	-0.5116331
218	0x3e2e7085	0.1703511
219	0xbf0001fb	-0.5000302
220	0xbef0fe69	-0.470691
221	0x3e72672c	0.2367217
222	0xbee2f88b	-0.44330248
223	0xbed6696f	-0.41877314
224	0x3ebab6a0	0.36467457
225	0xbf042b13	-0.51628226
226	0xbebc4dcd	-0.36778107
227	0xbf0f7e96	-0.5605253
228	0xbf1857fd	-0.5950926
229	0xbf06c0bd	-0.52637845
230	0xbf16f479	-0.58966786
231	0xbef3180e	-0.4747929
232	0xbee0aacf	-0.43880317
233	0x3eb0ffff	0.3457031
234	0xbf024fc9	-0.5090299
235	0xbf0e2dd3	-0.5553867
236	0x3eaca545	0.3371984
237	0xbef434eb	-0.47696623
238	0xbec09da2	-0.37620264
239	0x3e52c1ad	0.20581694
240	0xbed89689	-0.4230235
241	0xbef46da9	-0.47739914
242	0x3e8cf2ad	0.27528897
243	0xbf1ca864	-0.61194444
244	0xbeca85dd	-0.39555255
245	0x3e683ee9	0.22680248
246	0xbf10a420	-0.56500435
247	0xbea7ab4d	-0.3274788
248	0x3e699acb	0.22812955
249	0xbeca605d	-0.39526644
250	0xbecbb187	-0.3978388
251	0x3e8707b3	0.26373062
252	0xbed9caba	-0.4253748
253	0xbee9bd22	-0.4565211
254	0x3e637af7	0.22214876
255	0xbed0cabc	-0.40779674

layer1.bias f4 [200]
0	0x00000000	0.0
1	0x3cfd1b1a	0.030896712
2	0x3d418d83	0.047254097
3	0x3d44dbc1	0.048061136
4	0x3d36fd78	0.04467532
5	0x3d43c929	0.047799263
6	0x3d4c5bda	0.049892284
7	0x3d05149b	0.032490354
8	0x3cffa955	0.031208673
9	0x3d1d3150	0.038377106
10	0x3d42ea59	0.047586773
11	0x3cf5e721	0.030017437
12	0x00000000	0.0
13	0xbb91d6e3	-0.0044506653
14	0x3d415b79	0.047206376
15	0x3c9e988a	0.019359846
16	0x3d1425f1	0.036168996
17	0x3d3a778d	0.04552417
18	0x3d3f4e55	0.046705563
19	0x3d2c3b7d	0.04204892
20	0x3d44bf56	0.048034035
21	0x3d3a98aa	0.045555748
22	0x3d2d3219	0.042284105
23	0x3d37023e	0.044679873
24	0x3d12dc24	0.035854474
25	0x3d2d0648	0.04224232
26	0x3d362ba7	0.044475224
27	0x3d024991	0.03180844
28	0xbbca60f3	-0.006176108
29	0x3d384840	0.044990778
30	0x3d253558	0.040334076
31	0x3d39d36b	0.04536764
32	0x3cbebfdc	0.023284845
33	0xbba8f0c0	-0.0051556528
34	0x00000000	0.0
35	0x3ce8bc69	0.028410153
36	0x3d34dc73	0.04415555
37	0x3cc1545f	0.023599802
38	0x3d3a1b8f	0.04543644
39	0x3d40da3a	0.047083117
40	0x3d44888a	0.047981776
41	0x3d1409ae	0.036142044
42	0x3ca18410	0.019716293
43	0x3cd46b42	0.02593005
44	0x00000000	0.0
45	0xbbb372ae	-0.0054763174
46	0x3d4ce71a	0.050025083
47	0x3d0d9ecd	0.034575272
48	0x3d1ff3fa	0.039051034
49	0x00000000	0.0
50	0x3c9e949c	0.019357972
51	0x3d3c947c	0.046040043
52	0x3d92a613	0.071605824
53	0x3d323950	0.04351169
54	0x3d0b5705	0.034018535
55	0x3d3c920f	0.04603773
56	0x3d385bc3	0.045009386
57	0x3ce6f797	0.028194232
58	0x00000000	0.0
59	0xbbab3cb9	-0.0052257446
60	0x3d3e1db2	0.04641504
61	0x3c824026	0.015899729
62	0x3d3e5bbb	0.0464742
63	0x3d24e6d4	0.040259197
64	0x00000000	0.0
65	0x3d389303	0.045062076
66	0x3d1b58a9	0.03792635
67	0x3cf8e411	0.030382188
68	0x3cc362b7	0.023850782
69	0xbbe25a04	-0.0069077034
70	0x3d46add0	0.048505604
71	0x3d40c5c0	0.04706359
72	0x3d15f366	0.036609076
73	0x3d37ced3	0.044874977
74	0x3d48b915	0.049004633
75	0x3d0c8b65	0.034312624
76	0x3d40f09c	0.047104463
77	0x3986cdfe	0.00025711948
78	0x3d022150	0.03177005
79	0x00000000	0.0
80	0xbcaadaaa	-0.02085622
81	0x3d420093	0.04736383
82	0x3d425868	0.047447592
83	0x3d2f8d9a	0.04285965
84	0x3cd05f54	0.025436081
85	0x3d3e0d35	0.046399314
86	0xbb57da49	-0.0032936505
87	0x00000000	0.0
88	0x3d434e92	0.047682352
89	0x3d67d978	0.05660388
90	0x3d3b6b30	0.04575652
91	0x3d276226	0.040865086
92	0x3d1af8ac	0.03783481
93	0x3d19e034	0.037567332
94	0x00000000	0.0
95	0x3d33956c	0.04384367
96	0x3d65e482	0.056126125
97	0xbc0f8778	-0.008760326
98	0x3ce4334b	0.02785649
99	0xbc6bbc96	-0.014388224
100	0x3d04a4e9	0.032383833
101	0x3ccc04d6	0.02490465
102	0x3d1d7e2b	0.0384504
103	0x3d3fef11	0.04685885
104	0x00000000	0.0
105	0xbcac44a0	-0.021028817
106	0x3d211e6f	0.039335664
107	0x3d0c3cc3	0.034237634
108	0xbb5ac5f2	-0.0033382145
109	0x00000000	0.0
110	0x3d27586e	0.040855817
111	0x3d42216f	0.047395166
112	0x3d191422	0.037372716
113	0x00000000	0.0
114	0x3c032338	0.008004002
115	0x3d4815b8	0.048848838
116	0x3cca2cdc	0.024679594
117	0x3cfd6872	0.030933592
118	0x3c9b7a73	0.018979287
119	0x00000000	0.0
120	0x3bdba012	0.0067024315
121	0xbca6a0a1	-0.020340266
122	0x3ce21e0c	0.027602218
123	0x3c4305ed	0.011903268
124	0x3d3d198c	0.04616694
125	0xbbb62759	-0.00555889
126	0x3d375599	0.044759367
127	0x3d497e5c	0.04919277
128	0x3d1139fd	0.035455693
129	0x3d2a32e7	0.04155245
130	0x3d42038a	0.047366656
131	0x3d4119da	0.047143795
132	0x3cdf7b38	0.027280435
133	0x3d0b85fc	0.034063324
134	0x3d48e523	0.049046647
135	0x3d39023f	0.045168158
136	0x3d361f28	0.044463307
137	0x3d4f0f31	0.050551597
138	0x3cdcf649	0.026972907
139	0xbcc8f883	-0.024532562
140	0x3d4068f6	0.0469751
141	0x00000000	0.0
142	0x3d0eb938	0.034844607
143	0xbc40d307	-0.011769063
144	0x00000000	0.0
145	0x3d06e9e6	0.032937907
146	0xbbc1f60d	-0.005919224
147	0x3cd11a69	0.025525289
148	0x3ccf44d7	0.02530138
149	0xbb704dbd	-0.003666743
150	0x3d2bf399	0.04198036
151	0x3cba13b1	0.022714468
152	0x00000000	0.0
153	0x3d3c586a	0.045982756
154	0x3cf25422	0.029581133
155	0x3cc21cf2	0.023695443
156	0x3d26663f	0.040624853
157	0x3cc0a1b6	0.02351461
158	0x3d2ed4dc	0.042683467
159	0x3c9aa612	0.018878017
160	0x3d100559	0.03516135
161	0x3d4530a1	0.04814208
162	0x3d090b41	0.033458
163	0x3d403309	0.04692367
164	0x3cf9f0ae	0.030510273
165	0x3d438a99	0.0477396
166	0x3d0cac8c	0.03434424
167	0x3c9d5419	0.01920514
168	0x3d39cc42	0.04536081
169	0x3d3b4c31	0.04572696
170	0x3d3fdb67	0.046840098
171	0x3d0687a9	0.03284422
172	0x3dc1dd14	0.094659954
173	0x3d22ec5d	0.039776195
174	0x3d352c03	0.044231426
175	0x3d3cfde7	0.046140578
176	0xbbbd8d9f	-0.005784705
177	0x3d21e1bb	0.039521914
178	0x3d3c06fa	0.04590509
179	0x3d29caac	0.04145305
180	0x3cc04f99	0.023475455
181	0xbbb9520d	-0.005655533
182	0x3d2f4c4f	0.042797383
183	0x3d036699	0.032080267
184	0x3cf467a2	0.029834572
185	0x3d1dbfe7	0.03851309
186	0x00000000	0.0
187	0x3d26ed3b	0.040753584
188	0xbc0dd177	-0.008655897
189	0x00000000	0.0
190	0xbcb1adc8	-0.02168931
191	0x00000000	0.0
192	0xbc286e64	-0.010280225
193	0x3d335ca2	0.043789513
194	0x3d372c61	0.044720057
195	0x3cc93351	0.024560602
196	0x3d4c2fe1	0.04985035
197	0x3d20999c	0.039208993
198	0x3d3917d5	0.045188744
199	0x3d00a052	0.031402893

layer2.weight f4 [200, 200]
0	0x3c960d0c	0.018316768
1	0xbdf6df28	-0.120542824
2	0x3d99b71e	0.0750563
3	0xbdaefb58	-0.08544034
4	0x3d294455	0.041324932
5	0x3c67be70	0.014144525
6	0x3d3dcf44	0.046340242
7	0x3da69f63	0.08135869
8	0xbc1f29a7	-0.009714521
9	0x3dc52223	0.09625652
10	0x3db816b7	0.089887075
11	0x3d10c58d	0.03534465
12	0x3df7357b	0.120707475
13	0xbd0e87eb	-0.03479759
14	0x3ce8d75c	0.028423004
15	0x3d9d6539	0.07685322
16	0x3db79cf9	0.08965487
17	0x3d3bbbe3	0.04583348
18	0x3d3bde84	0.045866504
19	0xbd352d4e	-0.04423266
20	0xbd98d7b8	-0.0746302
21	0xbcd847c7	-0.026401414
22	0x3dc780ff	0.09741401
23	0xbd8213e4	-0.0635145
24	0xbd77fee7	-0.06054583
25	0x3d5cb0dc	0.053879604
26	0xbc3b5bb5	-0.011435439
27	0xbd1b7179	-0.037950013
28	0x3d0b255e	0.033971183
29	0xbdc95657	-0.09830921
30	0x3d4d3283	0.050097
31	0xbdd2d72c	-0.10294947
32	0xbd8503b2	-0.064948454
33	0x3d4edb36	0.050502025
34	0xbdaf3772	-0.08555497
35	0x3d14ddb6	0.036344253
36	0x3dd13936	0.1021599
37	0xbdfe18c2	-0.12407066
38	0xbe050e66	-0.12993774
39	0x3da56fd6	0.08077972
40	0xbd8a68fc	-0.067583054
41	0x3dd98683	0.10621359
42	0xbd857582	-0.065165535
43	0xbdee2213	-0.11627593
44	0x3de5e0d7	0.112245254
45	0x3d9c51cf	0.07632791
46	0xbd699ca3	-0.057034146
47	0xbdb5db8e	-0.08879767
48	0xbe01388a	-0.12619224
49	0xbde86ad1	-0.113484986
50	0xbd834d45	-0.06411222
51	0x3d601bef	0.05471414
52	0x3d8f6024	0.07000759
53	0xbdc58ee4	-0.09646395
54	0x3d834c35	0.0641102
55	0x3d0751c1	0.03303695
56	0xbd4609ea	-0.0483493
57	0x3d216dff	0.03941154
58	0xbdca322c	-0.09872851
59	0xbd6f0972	-0.058358617
60	0xbbf46d44	-0.0074593145
61	0xbd62300e	-0.05522161
62	0x3d821af3	0.063527964
63	0xbdf63c24	-0.1202319
64	0xbd5f20d8	-0.05447468
65	0xba937262	-0.0011249299
66	0xbdb25b30	-0.08708799
67	0xbdf4fc4b	-0.119621836
68	0xbdedde99	-0.11614723
69	0xbd462e00	-0.048383713
70	0x3d2db11f	0.042405244
71	0x3ce7b821	0.028286042
72	0x3daed9af	0.085376136
73	0xbdac9ce8	-0.08428365
74	0xbbe39b6f	-0.0069460194
75	0xbd2c7dc7	-0.042112138
76	0xbdbb828a	-0.09155758
77	0xbd1f7a81	-0.03893519
78	0xbcea2377	-0.028581364
79	0x3cc388e4	0.023868985
80	0x3d96a7b1	0.07356203
81	0x3be82fd2	0.0070857788
82	0xbd8bf67a	-0.06834121
83	0x3cfe273f	0.031024573
84	0x3d28853a	0.04114268
85	0x3da8a63c	0.08234832
86	0xbba07690	-0.0048969463
87	0x3d68ee36	0.0568678
88	0xbda37f4f	-0.079832666
89	0x3cd4dbcf	0.02598372
90	0x3d9daabf	0.07698583
91	0xbda564b0	-0.08075845
92	0x3db5608d	0.08856306
93	0x3c6eeda9	0.01458303
94	0xbdf59800	-0.11991882
95	0xbdbdb994	-0.09263912
96	0xbd07a126	-0.033112668
97	0xbda68000	-0.08129883
98	0x3d960b6b	0.073263966
99	0x3d28920b	0.041154902
100	0xbb2b5243	-0.002614156
101	0x3dbdfa9b	0.09276315
102	0x3a2203cf	0.0006180377
103	0xbd4f7b5c	-0.050654754
104	0xbd7e939d	-0.062152494
105	0x3d85a2d8	0.065252006
106	0x3cd969a0	0.026539624
107	0xbdcce8b7	-0.10005324
108	0x3dc69407	0.09696203
109	0x3deba133	0.11505356
110	0xbdc604fe	-0.09668921
111	0xbd8cef38	-0.06881565
112	0x3d1fde19	0.03903017
113	0xbc379ce8	-0.011206843
114	0x3cce95af	0.02521786
115	0x3da705a5	0.081553735
116	0xbd6bd9fb	-0.05758093
117	0x3ce426ce	0.027850535
118	0x3b8699d8	0.004107695
119	0xbd49163a	-0.049093463
120	0x3d44b823	0.04802717
121	0x3d62f9bc	0.055413947
122	0x3d9bddb3	0.07610645
123	0xbda97386	-0.082739875
124	0xbe0747be	-0.13210961
125	0x3d66a302	0.0563078
126	0x3d0d179c	0.034446344
127	0xbdd99ab8	-0.106252134
128	0xbdd3ad59	-0.10335798
129	0xbde0cd53	-0.109766625
130	0xbcb08dbe	-0.021551963
131	0x3d74efc3	0.059798967
132	0x3d5bf325	0.053698678
133	0x3c7c45d9	0.015397512
134	0xbbad7cff	-0.0052944417
135	0x3d09a592	0.033605166
136	0xbdcbeed5	-0.09957663
137	0x3d991783	0.07475188
138	0xbb872a94	-0.0041249488
139	0xbd81e59b	-0.06342622
140	0xbda636c2	-0.08115913
141	0x3d0a29a2	0.03373111
142	0xbd233e5d	-0.039854396
143	0xbd1900b6	-0.037354194
144	0xbb5b8820	-0.0033497885
145	0xbc403625	-0.011731659
146	0xbd749022	-0.05970777
147	0xbdb9125b	-0.09036704
148	0x3dc4624c	0.09589061
149	0xbd77dbd3	-0.060512375
150	0x3d5c1854	0.05373414
151	0xbd986c8f	-0.07442581
152	0x3cb00f0c	0.02149155
153	0xbdb4d5d0	-0.08829844
154	0xbde328f3	-0.11091795
155	0xbd8f5efe	-0.0700054
156	0xbc1fc9bc	-0.009752687
157	0xbdccf5ae	-0.10007797
158	0xbe002203	-0.12512974
159	0x3d512902	0.0510645
160	0x3d6d1a8a	0.057886638
161	0x3d7e93b0	0.062152565
162	0xbdf955b1	-0.121745475
163	0xbbd60f62	-0.0065325955
164	0xbd810454	-0.06299654
165	0x3dab2c40	0.083580494
166	0x3cd182cd	0.025575066
167	0xbd97c972	-0.074114695
168	0xbdfe662f	-0.12421834
169	0x3c6f8ea4	0.0146214105
170	0xbc422a2a	-0.011850873
171	0x3dcf8926	0.10133581
172	0xbd1c8883	-0.038216125
173	0xbdd8a51c	-0.10578367
174	0x3bfa52a2	0.007639245
175	0x3d9ed931	0.0775627
176	0x3d9d6709	0.07685668
177	0xbde8d893	-0.11369433
178	0xbdf720b5	-0.12066785
179	0xbbda8159	-0.0066682515
180	0x3d636397	0.0555149
181	0x3d458462	0.048221953
182	0xbdb018c3	-0.08598473
183	0xbd469fb9	-0.048492167
184	0xbdcee50c	-0.10102281
185	0xbce05965	-0.027386377
186	0x3d4ca40e	0.049961142
187	0xbdb68737	-0.08912509
188	0xbc1049a0	-0.008806616
189	0x3dd8293d	0.105547406
190	0x3dd981bc	0.10620448
191	0xbdf9e986	-0.12202744
192	0x3db64b7b	0.089011155
193	0x3d7e1b8e	0.062037997
194	0x3cbe1855	0.023204962
195	0x3d30c047	0.04315212
196	0xbd3c2bea	-0.045940317
197	0x3d73be29	0.059507523
198	0xbdf8a6dc	-0.12141201
199	0x3d84432a	0.06458123
200	0xbc6b5040	-0.014362395
201	0x3d1c2527	0.03812137
202	0xbc07d770	-0.00829111
203	0x3d557a66	0.05211868
204	0x3da5a30f	0.080877416
205	0x3d5a12d7	0.053240623
206	0xbc982efb	-0.01857709
207	0x3d8340f3	0.064088725
208	0xbda723c2	-0.08161117
209	0xbdcd66a6	-0.10029344
210	0xbddbdde0	-0.10735679
211	0xbc55ee88	-0.013057359
212	0xbbaae0f0	-0.005214803
213	0x3d1cf677	0.038320985
214	0xbde5187f	-0.11186313
215	0x3d456720	0.04819405
216	0xbd9e62f9	-0.07733721
217	0x3d592497	0.05301341
218	0x3da51a03	0.08061602
219	0x3cb2821c	0.021790557
220	0x3da16fd9	0.07882661
221	0xbbcdb6be	-0.006277888
222	0x3ca2b770	0.01986286
223	0x3b5fb0e4	0.0034132535
224	0xbc8300e9	-0.015991645
225	0xbdb043c3	-0.086066745
226	0xbe026398	-0.12733305
227	0x3b884945	0.004159125
228	0xbd365df4	-0.044523194
229	0xbd1dcfb6	-0.038528167
230	0xbd74f1ed	-0.05980103
231	0xbd149ffc	-0.036285385
232	0xbda135f4	-0.07871619
233	0xbd93956a	-0.07206233
234	0xbdcdab68	-0.10042459
235	0x3d8652b2	0.06558742
236	0xbe0d732a	-0.13813463
237	0x3db252ac	0.08707175
238	0x3dcb05db	0.09913226
239	0xbd9c3b65	-0.07628516
240	0xbc919403	-0.017770773
241	0x3d953966	0.072863385
242	0x3d8268cb	0.06367644
243	0x3d4d7718	0.050162405
244	0x3dce35fb	0.1006889
245	0xbd178d54	-0.037000015
246	0x3da6c716	0.081434414
247	0xbc0cea20	-0.008600742
248	0x3da214ba	0.079141095
249	0x3d6b06ca	0.05737952
250	0x3dce4e3d	0.100735165
251	0x3d7c493c	0.06159328
252	0xbda290d6	-0.079377815
253	0x3da858c6	0.08220057
254	0xbd8dd30c	-0.069250196
255	0xbdc73d73	-0.097285174

layer2.bias f4 [200]
0	0xbc872524	-0.016497202
1	0xbcb86695	-0.022509852
2	0xbc86882a	-0.01642235
3	0x3d2aadc9	0.04166964
4	0xbc8174b0	-0.015802711
5	0x3d4167d1	0.047218148
6	0x3d3cc259	0.046083782
7	0x3d1a9b9d	0.03774606
8	0xbbcd929f	-0.006273582
9	0x3ba78ce0	0.005113229
10	0xbc8eb39e	-0.017419633
11	0x00000000	0.0
12	0xbcbb3ac0	-0.022855163
13	0x3d430d35	0.047620017
14	0x00000000	0.0
15	0x3d3a675a	0.04550872
16	0x00000000	0.0
17	0xbb9a4226	-0.0047075925
18	0xbc19b239	-0.0093808705
19	0x00000000	0.0
20	0x3d387f6a	0.045043387
21	0xbbec8e65	-0.007219123
22	0x3d4a7c5e	0.049435012
23	0x00000000	0.0
24	0x00000000	0.0
25	0xbc4898ae	-0.012243433
26	0x3d431631	0.047628585
27	0xbc679009	-0.014133462
28	0x3d3f6bd7	0.046733703
29	0x3d3fe26b	0.04684679
30	0x3d434cc5	0.047680635
31	0x00000000	0.0
32	0x3d415437	0.047199454
33	0x3d446dca	0.047956266
34	0xbcad6237	-0.021164997
35	0xbc30d939	-0.010793977
36	0xbc94504f	-0.0181047
37	0xbcb49858	-0.0220453
38	0xbc4c4c02	-0.012469294
39	0x3d3f5e16	0.046720587
40	0xbc733397	-0.014843843
41	0xbc6f160c	-0.014592659
42	0x3d2d7a7b	0.042353135
43	0xbc053b64	-0.008131836
44	0x3d402716	0.046912275
45	0xbc8499b9	-0.016186582
46	0x3d3e0e81	0.04640055
47	0x00000000	0.0
48	0x3d383395	0.044971067
49	0x3d11c9dc	0.0355929
50	0x00000000	0.0
51	0x00000000	0.0
52	0x3d4da07b	0.050201874
53	0x3d335dc5	0.043790597
54	0x3d30f21f	0.043199655
55	0xbc13335a	-0.008984411
56	0x3d3f18fb	0.046654683
57	0xbccf976c	-0.025340758
58	0x3d479442	0.048725374
59	0xbcac4c42	-0.021032456
60	0xbc2adbda	-0.010428393
61	0x00000000	0.0
62	0xbc88f8b1	-0.016720148
63	0xbc8633e0	-0.016382158
64	0x3d2adad5	0.0417126
65	0xbc7a4498	-0.015275143
66	0x3d41d6da	0.04732404
67	0xbc6ddbd8	-0.014517747
68	0x3d440ab2	0.047861762
69	0xbc098bd3	-0.008395153
70	0x3d4751d0	0.048662007
71	0xbc15f44e	-0.009152485
72	0xbc453a03	-0.012037757
73	0x3d40dd56	0.047086082
74	0x3d518032	0.051147647
75	0x3d3d1242	0.04615999
76	0x3d3a8156	0.0455335
77	0xbc4b5ca9	-0.012412229
78	0x3d4cf26d	0.050035883
79	0x3d33c6a8	0.043890625
80	0x3d344720	0.044013143
81	0xbbc9962a	-0.006151934
82	0xbc0d1c2c	-0.008612674
83	0x3c9bce41	0.019019248
84	0xbc0cf2b6	-0.008602789
85	0x00000000	0.0
86	0x3d36312f	0.0444805
87	0xbc548195	-0.012970348
88	0xbc2d7df7	-0.010589114
89	0xbc36c32e	-0.011154933
90	0xbbc1b25d	-0.005911155
91	0x00000000	0.0
92	0x3d3d4f5d	0.046218265
93	0x3d3cee56	0.046125732
94	0x3d2e678a	0.04257921
95	0x3d3b3001	0.045700077
96	0x3d467c58	0.048458427
97	0x3d35dd63	0.044400584
98	0xbc33de02	-0.010978224
99	0xbbc69fb3	-0.006061518
100	0xbc5d49cf	-0.013506367
101	0x00000000	0.0
102	0x3d4856e3	0.048910987
103	0xbbfe68a9	-0.0077639413
104	0xbbdf7ba4	-0.006820159
105	0x3d460999	0.048348997
106	0x00000000	0.0
107	0xbbb372ae	-0.0054763174
108	0xbc72e1fc	-0.014824387
109	0xbc44ab77	-0.012003771
110	0x3d45bcdb	0.04827581
111	0xbc00df8a	-0.007865796
112	0xbc565f49	-0.013084241
113	0x00000000	0.0
114	0xbc321861	-0.01087007
115	0x3d21a0c6	0.039459966
116	0xbc6000bd	-0.013672051
117	0x3d2fdb64	0.042933837
118	0xbc65374d	-0.0139902355
119	0x3d09b7a5	0.033622403
120	0x3d3ab628	0.045583874
121	0x3d42d622	0.047567494
122	0x3d3d6bce	0.04624539
123	0xbbff60f2	-0.007793539
124	0x00000000	0.0
125	0x00000000	0.0
126	0x3d37d2bc	0.044878706
127	0x3d3e94c4	0.046528593
128	0x3d54ca53	0.051950764
129	0x3d230abd	0.039805163
130	0xbc83a9d1	-0.016072186
131	0xbcacd493	-0.021097457
132	0x00000000	0.0
133	0xbc2f32f2	-0.010693299
134	0x00000000	0.0
135	0x00000000	0.0
136	0xbc45d97a	-0.012075776
137	0xbc96c68b	-0.01840522
138	0x3d497c68	0.04919091
139	0xbc5548a5	-0.013017808
140	0xbc924b6c	-0.01785823
141	0x00000000	0.0
142	0xbbc4c9db	-0.0060055084
143	0x3d4174a4	0.047230378
144	0x3d4661ff	0.0484333
145	0xbc4c1e13	-0.012458342
146	0x3d43876c	0.04773657
147	0x3d4586f8	0.04822442
148	0x3d4fca71	0.050730173
149	0xbc8f51f7	-0.017495139
150	0xbbc4c9d9	-0.0060055074
151	0xbc439445	-0.011937206
152	0x3d4076c9	0.046988282
153	0x3d240570	0.040044248
154	0x3cfa9a9c	0.030591302
155	0x3d292085	0.04129078
156	0x3d542d91	0.051801268
157	0x3d14a6d4	0.036291912
158	0x00000000	0.0
159	0xbc9a1c8b	-0.018812438
160	0x3d3b49fb	0.04572485
161	0x00000000	0.0
162	0x3d4d0bfb	0.050060254
163	0xbc908702	-0.017642502
164	0xbc25b370	-0.010113582
165	0xbc1aa314	-0.009438295
166	0xbc6e96b4	-0.014562298
167	0x3d468234	0.048464015
168	0x3d390c54	0.045177773
169	0xbc38bcad	-0.011275453
170	0xbc3b2d1b	-0.011424328
171	0xbca107a7	-0.01965697
172	0x00000000	0.0
173	0x3d408ae7	0.047007468
174	0x3d3587ea	0.04431907
175	0x3d278377	0.04089686
176	0xbc874268	-0.016511157
177	0xbc3b59b1	-0.011434958
178	0x3d4b5e4f	0.049650487
179	0xbc5d0cd7	-0.013491831
180	0xbc9b1489	-0.01893069
181	0xbbaca620	-0.005268827
182	0xbc6b2932	-0.014353083
183	0xbc320880	-0.010866284
184	0x3d0d471d	0.034491647
185	0xbc3f2d35	-0.011668493
186	0xbc3e6415	-0.011620541
187	0x3d4a8734	0.049445346
188	0x3d21ac85	0.039471168
189	0x00000000	0.0
190	0xbb68bc6a	-0.0035512694
191	0x3d47f899	0.048821066
192	0x3cd1e76a	0.025623042
193	0x3b7c9254	0.0038539367
194	0x3d40ba4c	0.047052667
195	0xbc020a27	-0.007936991
196	0xbc56e13c	-0.0131152235
197	0xbc1d65cb	-0.009606789
198	0x3d3e4af4	0.0464582
199	0x3d2dd522	0.042439587

mu.weight f4 [4, 200]
0	0x3ddab49e	0.10678981
1	0xbc98cc73	-0.018652176
2	0x3df7d695	0.12101475
3	0xbe841ce4	-0.25803292
4	0x3dafa826	0.08576994
5	0xbe8c5208	-0.27406335
6	0xbe8618f5	-0.26190916
7	0xbe3efad1	-0.18650366
8	0x3ca3a71e	0.019977149
9	0x3dd00d17	0.10158747
10	0x3d8cf06d	0.06881795
11	0x3d776bc0	0.060405493
12	0xbd38befc	-0.045104012
13	0xbe6d20d3	-0.23157053
14	0xbd28cbc0	-0.041209936
15	0xbda097fa	-0.07841487
16	0x3dc0cb7a	0.0941381
17	0xbd9f82c2	-0.07788612
18	0xbdc7ac68	-0.09749681
19	0x3d8eb92c	0.069689125
20	0xbe338695	-0.17531808
21	0xbcfe7bb0	-0.031064838
22	0xbcb6e980	-0.022328138
23	0x3c4e3b50	0.012587383
24	0xbcd4ef48	-0.025993004
25	0xbe24fafd	-0.1611137
26	0xbe45da92	-0.19321659
27	0x3ddf0d6f	0.10891234
28	0xbe74e602	-0.23915866
29	0xbe11de52	-0.14244965
30	0xbe3c676a	-0.18398824
31	0x3def69de	0.116901144
32	0xbb9eac6a	-0.0048423307
33	0xbd5aa07e	-0.053375714
34	0x3df0e20a	0.117618635
35	0xbe3b2527	-0.18275891
36	0xbdfb8d25	-0.122827806
37	0x3e1673e1	0.14692642
38	0x3dfc7a01	0.12327958
39	0xbe80bbee	-0.2514338
40	0x3d8ca72b	0.06867822
41	0x3b856a03	0.0040714755
42	0xbe520335	-0.20509036
43	0x3ddf8ab9	0.10915131
44	0xbe4b946f	-0.19880842
45	0xbbb80d1d	-0.0056167976
46	0xbe79ca2f	-0.24393533
47	0x3df74186	0.120730445
48	0xbe828a38	-0.25496078
49	0xbe75fed9	-0.24022998
50	0xbd5cc1b2	-0.05389566
51	0xbdef200b	-0.116760336
52	0xbb41c3f4	-0.002956626
53	0xbe3e4a40	-0.18583012
54	0xbd602f9b	-0.0547329
55	0xbd96808b	-0.073487364
56	0xbc4a849c	-0.012360718
57	0x3d334a3e	0.043771975
58	0xbaf7c042	-0.0018901902
59	0x3d983349	0.07431657
60	0x3c8eb2d0	0.017419249
61	0x3e26622f	0.16248392
62	0xbe161e35	-0.1465996
63	0x3d0e07c6	0.034675382
64	0xbe8b8a08	-0.27253747
65	0x3d8790a5	0.06619386
66	0xbe911ff8	-0.28344703
67	0x3e0c5781	0.13705255
68	0xbe274a8f	-0.16337036
69	0xbd8ab287	-0.06772333
70	0xbe033db5	-0.12816508
71	0xba850c3e	-0.0010150743
72	0xbd16bf05	-0.036803264
73	0xbe8507a5	-0.25982395
74	0xbdb6bda0	-0.08922887
75	0xbe59313c	-0.21210188
76	0xbe872013	-0.26391658
77	0x3e079e24	0.1324392
78	0xbceb2f64	-0.028709121
79	0xbe2bfaae	-0.16794845
80	0xbe27e430	-0.1639564
81	0x3ce7148e	0.028208043
82	0x3dffd377	0.124915056
83	0xbe561ee8	-0.20910227
84	0x3ddb19f2	0.10698308
85	0x3c23dc50	0.010001257
86	0xbe43c0d3	-0.19116525
87	0xbb1b53ea	-0.002370114
88	0xbda8b6b4	-0.08237973
89	0xbdca14ac	-0.09867224
90	0xbddbff19	-0.107420154
91	0x3dd4f32e	0.10397945
92	0xbdd14564	-0.10218313
93	0xbe817537	-0.2528474
94	0xbe72fc99	-0.23729171
95	0xbdabb7a9	-0.0838464
96	0xbe66cc30	-0.22538829
97	0xbe57cda6	-0.21074542
98	0x3d88dc83	0.06682684
99	0xbde9cea4	-0.11416367
100	0x3dae3980	0.08507061
101	0xbb0c2680	-0.0021385252
102	0xbda3bfc0	-0.07995558
103	0x3e1880d1	0.1489289
104	0x3e29e6a3	0.16591887
105	0xbe1e10fe	-0.1543617
106	0x3d6ecec0	0.05830264
107	0xbbb09fed	-0.0053901584
108	0x3dd7dec0	0.10540533
109	0x3d90d99e	0.07072757
110	0xbe74ed59	-0.23918666
111	0x3c98f695	0.018672267
112	0x3d9c0887	0.07618814
113	0x3e1ce8a3	0.15323119
114	0xbd020f5e	-0.031752937
115	0xbe39b8b8	-0.18136871
116	0xbe19b80f	-0.15011619
117	0xbe8d4436	-0.27591103
118	0x3df4c260	0.119511366
119	0xbd5972f7	-0.053088155
120	0xbe8df511	-0.27726033
121	0xbcca2062	-0.024673644
122	0xbd88c140	-0.066774845
123	0xbe3805d8	-0.17970979
124	0x3d7e7278	0.062120885
125	0xbd2c5da0	-0.042081475
126	0xbe8ab822	-0.27093607
127	0xbbefd7fa	-0.0073194476
128	0x3cf247e3	0.029575294
129	0xbe6e5c9c	-0.23277515
130	0x3db846c2	0.08997871
131	0x3e0a8ad4	0.13529521
132	0xbe2cf8ee	-0.16891834
133	0x3e193721	0.14962436
134	0xbda17790	-0.07884133
135	0xbdc5ae0c	-0.096523374
136	0xbe211aaf	-0.15732835
137	0x3d4a3626	0.049368046
138	0xbe591e75	-0.21203025
139	0xbde837ee	-0.11338793
140	0x3dc21e84	0.09478477
141	0xbd8a46e2	-0.06751801
142	0x3e1ba97c	0.15201372
143	0xbcd24a6e	-0.025670256
144	0xbe266293	-0.1624854
145	0xbb2fe226	-0.0026837676
146	0xbe07cec5	-0.1326247
147	0xbe8fda37	-0.28096172
148	0xbdac0227	-0.08398848
149	0x3d26f2be	0.04075884
150	0x3e2612c2	0.16218093
151	0xbde116a6	-0.10990648
152	0xbd944dde	-0.072414145
153	0xbe2bd14c	-0.16779059
154	0xbd7c47d1	-0.061591927
155	0xbe86e551	-0.2634683
156	0x3d0c623b	0.034273367
157	0xbdfc6b05	-0.123251
158	0xbcb92720	-0.022601664
159	0x3db2c9db	0.08729907
160	0xbe4524b5	-0.19252284
161	0x3d2bb8c8	0.041924268
162	0xbdabba24	-0.08385113
163	0x3da520ae	0.08062874
164	0xbdaa8baa	-0.0832742
165	0x3d68cce1	0.056836013
166	0xbd4a4351	-0.049380604
167	0xbe054b17	-0.13016926
168	0xbe3169f3	-0.17325573
169	0x3d0279c3	0.031854402
170	0xbda01fac	-0.07818541
171	0x3e3a5c8a	0.18199363
172	0x3b883800	0.0041570663
173	0xbe65cb79	-0.224409
174	0xbddeb031	-0.108734496
175	0xbdd55ff3	-0.104186915
176	0x3dfae514	0.122507244
177	0x3dbb6427	0.09149962
178	0xbe892f4a	-0.2679389
179	0x3e1ea2b2	0.15491751
180	0xbdd14795	-0.10218731
181	0xbcdf8e0a	-0.02728941
182	0x3d7fa3b3	0.062411975
183	0x3e04fc66	0.12986907
184	0xbe8d36c4	-0.27580845
185	0x3d98175a	0.07426329
186	0x3e00200d	0.12512226
187	0xbe348455	-0.17628606
188	0xbe9236f1	-0.28557542
189	0xbc4bcd80	-0.012439132
190	0x3da709b6	0.08156149
191	0xbdf2f023	-0.11862209
192	0xbd7c569f	-0.061606046
193	0xbdded034	-0.10879555
194	0xbe8847cd	-0.2661728
195	0x3d6a39cb	0.057184022
196	0x3e05b6f6	0.13058075
197	0x3e175638	0.14778984
198	0xbe6837a3	-0.22677474
199	0xbe6d4076	-0.23169121
200	0xbdf0ec0c	-0.11763772
201	0x3db139a8	0.08653575
202	0x3d38b172	0.0450911
203	0xbc921f41	-0.017837169
204	0x3d8ee826	0.069778726
205	0xbd6e7a98	-0.058222383
206	0xbe8b834c	-0.2724861
207	0xbd476807	-0.048683193
208	0x3e190d7c	0.1494655
209	0xbe003d76	-0.12523445
210	0x3bf1210f	0.007358677
211	0x3d2c47b0	0.042060554
212	0xbd785f51	-0.060637776
213	0xbcbbf5d3	-0.022944367
214	0x3e025acd	0.1272995
215	0xbd975d1a	-0.073908046
216	0xbd80eb04	-0.06294826
217	0x3dec9225	0.11551312
218	0x3d5407ae	0.051765136
219	0x3d941b7e	0.07231806
220	0xbe848865	-0.2588531
221	0xbd27f5db	-0.04100595
222	0xbe2e31f4	-0.17011243
223	0xbcacff88	-0.02111794
224	0x3e147deb	0.14501159
225	0x3e0e12cc	0.13874358
226	0xbe2b2404	-0.16712958
227	0x3ca80786	0.0205114
228	0x3c646d6b	0.013942103
229	0xbe8776d7	-0.26457855
230	0xbe3ace01	-0.18242647
231	0x3dcc5b0a	0.09978302
232	0xbe41eb91	-0.18937518
233	0xbdf14c0a	-0.117820814
234	0x3bc3fb34	0.0059808735
235	0x3dd0ab29	0.10188896
236	0xbd270397	-0.040774908
237	0x3c8bc203	0.017060285
238	0x3dc69f8e	0.096984014
239	0xbd116756	-0.03549894
240	0x3da7049e	0.081551775
241	0xbccfeb5c	-0.025380783
242	0xbe1001c9	-0.14063181
243	0x3ceff85d	0.029293234
244	0xbe1ce2f6	-0.15320954
245	0x3e1aa91a	0.1510357
246	0xbe568fe5	-0.20953329
247	0xbdd6937d	-0.1047735
248	0xbdfc0f02	-0.1230755
249	0xbe0299b4	-0.12753946
250	0xbda9fef4	-0.083005816
251	0xbe0ea0d7	-0.13928543
252	0xbe05c0e4	-0.13061863
253	0xbe75ddb2	-0.24010351
254	0xbe7619e3	-0.24033312
255	0x3daf0fe7	0.08547955

mu.bias f4 [4]
0	0xbd379052	-0.04481537
1	0xbd3c4766	-0.04596653
2	0xbd58c51b	-0.05292235
3	0xbd3db193	-0.046311926

layer1.weight f4 [200, 160]
0	0xc00af1cd	-2.1710083
1	0x3df04768	0.1173237
2	0xbff250bb	-1.8930887
3	0xc013e422	-2.3107991
4	0x3e0de6e2	0.13857606
5	0xc0068530	-2.1018791
6	0xc019ab14	-2.4010668
7	0x3e26434b	0.16236608
8	0xc0018300	-2.0236206
9	0xc0183663	-2.3783195
10	0x3e4320e0	0.1905551
11	0xbff80936	-1.9377811
12	0xc0125abe	-2.2867885
13	0x3eb0bec9	0.34520558
14	0xc0057dbd	-2.0857995
15	0xc0055682	-2.083405
16	0xbde86483	-0.11347296
17	0xbfe75357	-1.8072308
18	0xc00320bb	-2.0488727
19	0xbca38fda	-0.019966055
20	0xbfe3cbb0	-1.7796535
21	0xc00e17d0	-2.2202034
22	0x3e17b647	0.14815627
23	0xbfe500ec	-1.7890906
24	0xc00416f6	-2.0639014
25	0x3c3b011a	0.011413837
26	0xbfe6c4ae	-1.8028772
27	0xc003e412	-2.0607953
28	0x3d6c35e3	0.057668578
29	0xbff170d7	-1.8862561
30	0xbfbda6b4	-1.4816499
31	0xbfc72c97	-1.5560483
32	0xbfc09815	-1.5046412
33	0xbfb9bfd9	-1.4511672
34	0xbfd79398	-1.6841917
35	0xbfcb3d4e	-1.5878084
36	0xc01f3277	-2.4874551
37	0x3d904556	0.07044475
38	0xc00c4c2e	-2.1921496
39	0xc0150cce	-2.3289065
40	0x3d26bd75	0.040708024
41	0xc000c2a6	-2.0118804
42	0xc01b64ed	-2.428035
43	0x3e48af1b	0.19598047
44	0xc0005fa3	-2.0058372
45	0xc0201181	-2.5010684
46	0x3dcaae84	0.098965675
47	0xc00abf75	-2.1679356
48	0xc01ce06a	-2.4511971
49	0x3e5d5f42	0.21618369
50	0xc001577f	-2.0209653
51	0xc006815c	-2.1016455
52	0x3dfa0509	0.12207992
53	0xc001278e	-2.0180392
54	0xc00b25d0	-2.174183
55	0xbcdc71e3	-0.026909774
56	0xbff612c1	-1.9224473
57	0xc00dabb0	-2.213604
58	0x3e8c9b9b	0.27462468
59	0xbff32155	-1.8994547
60	0xc0126f4b	-2.2880428
61	0x3e5b3f46	0.21410856
62	0xc0057a64	-2.0855951
63	0xc00ffc01	-2.249756
64	0x3e6d6c82	0.23185924
65	0xc006f0cd	-2.1084473
66	0xbfb1b8f7	-1.3884572
67	0xbfb947a9	-1.4474994
68	0xbfd2ed74	-1.6478715
69	0xbfb10e88	-1.383256
70	0xbfba0c7d	-1.4535061
71	0xbfb7e1e0	-1.4365807
72	0xc0235c8f	-2.5525243
73	0x3e2b4669	0.16726078
74	0xc00398d7	-2.0562036
75	0xc01c2912	-2.4400067
76	0x3d9eab7a	0.0774755
77	0xc0039017	-2.0556695
78	0xc01cdaf0	-2.450863
79	0x3d59573c	0.05306171
80	0xc0028dfb	-2.0399158
81	0xc01995e8	-2.3997746
82	0x3e64d4e0	0.2234683
83	0xc0065b7f	-2.0993345
84	0xc01b0e9d	-2.422767
85	0x3e5a2242	0.21302131
86	0xc007b68f	-2.1205175
87	0xc012010f	-2.2813146
88	0x3e2cc7a1	0.16873027
89	0xbffd1bbd	-1.977409
90	0xc0105d3a	-2.25569
91	0x3c88031a	0.016603041
92	0xc0007315	-2.007024
93	0xc01365ad	-2.3030808
94	0x3d8324e1	0.064035185
95	0xbffc0f62	-1.9692194
96	0xc0089f58	-2.1347256
97	0x3e1d9f0f	0.15392707
98	0xbff33f9f	-1.9003791
99	0xc00d9753	-2.212361
100	0x3d383674	0.044973806
101	0xc00090a6	-2.0088286
102	0xbfd12f01	-1.634247
103	0xbfd7a4f2	-1.6847212
104	0xbfc56647	-1.5421838
105	0xbfc202e2	-1.515713
106	0xbfd67cc3	-1.6756824
107	0xbfcfd3c3	-1.62365
108	0xc012eee6	-2.2958312
109	0x3e5e0f9a	0.21685639
110	0xc0084b64	-2.1296015
111	0xc010fe72	-2.26553
112	0x3eba5f00	0.36400604
113	0xbfffb611	-1.9977437
114	0xc01b4fda	-2.4267488
115	0x3e6295c2	0.2212744
116	0xc00a1f28	-2.1581516
117	0xc01ef5ba	-2.483748
118	0x3dc23773	0.09483232
119	0xc005197b	-2.0796802
120	0xc0133a25	-2.3004239
121	0x3d1397c1	0.036033396
122	0xc00219e0	-2.0328293
123	0xc00343f0	-2.0510216
124	0x3dde121c	0.10843298
125	0xbff5472d	-1.9162346
126	0xc0021f3c	-2.0331564
127	0xbd3a602c	-0.045501873
128	0xbfe313dd	-1.7740437
129	0xc008406c	-2.128932
130	0xbdbea5f2	-0.09308995
131	0xbff6905e	-1.9262807
132	0xc003522d	-2.0518906
133	0x3d89ca76	0.067280695
134	0xbfe1f142	-1.7651751
135	0xc009edf2	-2.155148
136	0x3c6f8de5	0.014621233
137	0xbfebf0d6	-1.8432872
138	0xbfadc912	-1.3576987
139	0xbfd26ca4	-1.6439404
140	0xbfc497c6	-1.5358818
141	0xbfb323cb	-1.3995298
142	0xbfbdc7df	-1.4826621
143	0xbfc65f16	-1.5497768
144	0xbd88fb59	-0.06688566
145	0x3dcf4a70	0.1012162
146	0x3ded3ef8	0.11584276
147	0x3c50c80c	0.012743007
148	0x3db8a28e	0.0901538
149	0x3dda867b	0.10670181
150	0x3d26cf8c	0.040725276
151	0xbd599375	-0.05311914
152	0x3de9ac5f	0.1140983
153	0xbdddc92d	-0.10829387
154	0xbd6befc4	-0.057601705
155	0x3b3b0ec3	0.0028542734
156	0x3d8ba829	0.068191834
157	0x3d9f6a6f	0.077839725
158	0xbdb5f761	-0.088850744
159	0xbda80adc	-0.08205196
160	0xc0194ddf	-2.3953779
161	0xbc0be615	-0.008538743
162	0xc010ba9d	-2.26139
163	0xc02066ba	-2.50627
164	0x3e5c5402	0.21516421
165	0xc0171d61	-2.3611681
166	0xc01e342a	-2.4719338
167	0x3eaf2cd8	0.342139
168	0xc0116089	-2.271517
169	0xc01f3bee	-2.4880328
170	0x3e4c7b33	0.19968872
171	0xc00f2aab	-2.2369792
172	0xc02a556d	-2.661464
173	0x3ebd21c3	0.3693982
174	0xc01616af	-2.3451345
175	0xc0092c47	-2.1433275
176	0x3d730713	0.05933292
177	0xc00cb5fa	-2.198607
178	0xc0149446	-2.32155
179	0x3e379595	0.17928155
180	0xc0021ade	-2.0328898
181	0xc01f64e3	-2.4905326
182	0x3e35d7ed	0.1775815
183	0xc0096592	-2.1468244
184	0xc015996f	-2.3374898
185	0x3e1bc6dc	0.15212578
186	0xc0051f8e	-2.080051
187	0xc011cd11	-2.2781413
188	0x3e52ed04	0.20598227
189	0xc0077880	-2.1167297
190	0xbfe65951	-1.7996007
191	0xbfebb6a6	-1.8415115
192	0xbfe7acec	-1.8099647
193	0xbfece75d	-1.8508106
194	0xbff09471	-1.8795301
195	0xbff2b8e9	-1.896268
196	0xc028dd4d	-2.6385071
197	0x3d456e08	0.048200637
198	0xc019e4ac	-2.404582
199	0xc02611a5	-2.594827
200	0x3d5ca267	0.053865816
201	0xc0197cd6	-2.3982444
202	0xc024c3fc	-2.574462
203	0x3e81a58d	0.25321618
204	0xc015695d	-2.3345559
205	0xc02f2049	-2.7363455
206	0x3db573fe	0.088600144
207	0xc01fd9ab	-2.4976604
208	0xc030b8d8	-2.761282
209	0x3e8fa29d	0.28053752
210	0xc01d73e3	-2.4601982
211	0xc019ad28	-2.4011936
212	0x3e7ab864	0.24484402
213	0xc013ca2f	-2.3092153
214	0xc0198618	-2.3988094
215	0x3e94d47b	0.2906836
216	0xc00cedb8	-2.2020092
217	0xc01c7547	-2.444658
218	0x3e2552aa	0.16144815
219	0xc0162340	-2.3459015
220	0xc027b9af	-2.6207082
221	0x3e7444c4	0.23854357
222	0xc013f9c0	-2.3121185
223	0xc0202200	-2.5020752
224	0x3eba3d7f	0.36375043
225	0xc01ad56f	-2.419277
226	0xbff6b434	-1.9273744
227	0xc000be0b	-2.0115993
228	0xbfed6499	-1.8546325
229	0xbfdd360c	-1.7282119
230	0xbff714e9	-1.9303256
231	0xbff3e124	-1.9053082
232	0xc026e984	-2.6080027
233	0x3eb4e8ef	0.35333964
234	0xc01a261b	-2.4085758
235	0xc025f8ff	-2.5933225
236	0x3e4932a5	0.19648226
237	0xc020eeda	-2.5145783
238	0xc0333180	-2.7998962
239	0x3ddf3a9d	0.108998515
240	0xc01cd384	-2.45041
241	0xc02cf4e3	-2.7024467
242	0x3e686984	0.22696501
243	0xc02086df	-2.5082319
244	0xc0366b90	-2.850315
245	0x3e925380	0.2857933
246	0xc020b59f	-2.5110853
247	0xc01cdf02	-2.4511113
248	0x3e438ba0	0.19096231
249	0xc019e4fa	-2.4046006
250	0xc023c529	-2.5589087
251	0x3de4ba51	0.111683495
252	0xc017e127	-2.3731172
253	0xc01acf70	-2.418911
254	0x3dd4d0f6	0.10391419
255	0xc0157140	-2.3350372

layer1.bias f4 [200]
0	0xbdbf36dc	-0.093366355
1	0xbda17c3e	-0.078850254
2	0xbdb50c3e	-0.08840226
3	0xbdc5263c	-0.09626433
4	0xbdfb0314	-0.122564465
5	0xbd8787fb	-0.06617733
6	0xbd9b7cf8	-0.07592195
7	0xbd9d36fd	-0.07676504
8	0xbc22394b	-0.009901355
9	0xbdceb8b1	-0.10093821
10	0xbdd65a74	-0.10466471
11	0x00000000	0.0
12	0xbde87a05	-0.113513984
13	0xbdcaae58	-0.09896535
14	0x00000000	0.0
15	0xbd6b79e2	-0.057489283
16	0xbdbedf92	-0.093199864
17	0xbdbeab94	-0.0931007
18	0x3b8a8e2f	0.0042283754
19	0xbdc13703	-0.09434321
20	0x00000000	0.0
21	0xbc4b8672	-0.012422191
22	0xbc194607	-0.009355075
23	0x00000000	0.0
24	0x00000000	0.0
25	0xbdc7e999	-0.09761352
26	0xbdd424bd	-0.1035857
27	0xbc350041	-0.011047424
28	0xbdb14491	-0.08655656
29	0xbdbadd79	-0.09124274
30	0xbda79166	-0.081820294
31	0x3e85b5e2	0.26115328
32	0xbdb3eba0	-0.08785176
33	0xbd9c490b	-0.07631119
34	0xbdc7865b	-0.09742423
35	0xbddb5faf	-0.107116096
36	0xbdc50122	-0.09619357
37	0xbbb95208	-0.005655531
38	0xbdba8b2e	-0.09108578
39	0x3e88ac5e	0.26694006
40	0xbda24bac	-0.079245895
41	0xbdc328a2	-0.095292345
42	0xbcd02b6d	-0.025411332
43	0xbda756cd	-0.08170853
44	0xbdc46a7d	-0.095906235
45	0xbbe40af5	-0.006959314
46	0xbdeab4df	-0.1146028
47	0xbdb73284	-0.08945182
48	0xbcba6caa	-0.022756893
49	0xbdc6585a	-0.096848205
50	0xbdc1ea90	-0.09468567
51	0xbdf70f17	-0.12063425
52	0xbdad3714	-0.08457771
53	0xbdee7360	-0.116431
54	0xbda1c08c	-0.078980535
55	0xbda28c82	-0.07936956
56	0x00000000	0.0
57	0xbdbda3a8	-0.092597306
58	0xbdb83bb3	-0.08995762
59	0xbd9bc4c7	-0.07605892
60	0xbd9c708f	-0.07638656
61	0x00000000	0.0
62	0xbdc6f157	-0.09714001
63	0x3e8bd62b	0.27311835
64	0xbdb20c51	-0.086937554
65	0xbda84e4d	-0.0821806
66	0x00000000	0.0
67	0xbdd14d82	-0.102198616
68	0xbdc4aa67	-0.09602814
69	0xbdad66ff	-0.084669106
70	0xbd913f38	-0.07092136
71	0xbdb5cd46	-0.088770434
72	0xbd14e3bb	-0.036349993
73	0xbdcc8577	-0.09986394
74	0xbdc5642b	-0.09638246
75	0xbdbf6ceb	-0.09346946
76	0xbdbdc879	-0.09266753
77	0xbdabe189	-0.08392627
78	0xbd68618e	-0.05673366
79	0xbdd4c8ab	-0.10389837
80	0xbdc069e8	-0.093952
81	0xbd9bcb02	-0.0760708
82	0xbdbe7206	-0.09299092
83	0xbc2ee716	-0.010675212
84	0xbdd3fd3b	-0.10351034
85	0xbdd57f45	-0.10424665
86	0xbda02448	-0.0781942
87	0xbdb8e1b0	-0.090274215
88	0xbdafc532	-0.08582534
89	0xbdb2b2f8	-0.08725542
90	0xbdab7cee	-0.08373438
91	0xbdc77639	-0.09739346
92	0xbdccdf4e	-0.100035295
93	0xbdb2118f	-0.08694755
94	0xbdb00f7c	-0.085967034
95	0xbdbcbcbc	-0.09215686
96	0x00000000	0.0
97	0xbddad7e8	-0.10685712
98	0xbdbc78f3	-0.09202757
99	0xbdcae168	-0.09906274
100	0xbc3e6343	-0.0116203455
101	0xbdccebb2	-0.10005893
102	0xbdb5aa23	-0.08870342
103	0xbcb59403	-0.022165304
104	0xbda6791b	-0.08128568
105	0xbdbf6b1d	-0.09346602
106	0xbdb50b8b	-0.08840092
107	0xbde6927e	-0.1125841
108	0x3a2c31d4	0.0006568704
109	0xbdb80eff	-0.08987235
110	0xbdb8c26d	-0.09021459
111	0xbdcdda07	-0.10051351
112	0xbdc47ff6	-0.09594719
113	0xbdcbd27a	-0.099522546
114	0xbdb14402	-0.086555496
115	0xbdbb9a38	-0.09160274
116	0xbda4dcd1	-0.0804993
117	0xbda47356	-0.08029811
118	0xbdba5da6	-0.09099893
119	0xbd924323	-0.071417116
120	0xbdec7640	-0.11545992
121	0xbdb69211	-0.08914579
122	0xbdbe67e9	-0.09297163
123	0xbdc6e7cf	-0.09712183
124	0xbdb1a383	-0.086737655
125	0xbdac10e0	-0.08401656
126	0xbda4e609	-0.08051688
127	0x00000000	0.0
128	0xbd9fa253	-0.07794633
129	0xbd9e04e8	-0.077157795
130	0xbdc6907a	-0.096955255
131	0xbdb2bd48	-0.08727509
132	0xbd911f51	-0.07086051
133	0xbdef6758	-0.11689633
134	0xbdb61539	-0.08890767
135	0xbda7a402	-0.08185579
136	0xbdd47d27	-0.103754334
137	0xbde58eee	-0.11208902
138	0xbdc3b05d	-0.09555123
139	0xbdba9756	-0.09110896
140	0xbdbcdd29	-0.092218705
141	0x3e941a68	0.28926396
142	0xbda4f5cb	-0.08054694
143	0x3e5a47a2	0.21316388
144	0xbd92810e	-0.071535215
145	0xbd817d07	-0.06322675
146	0xbd95a8aa	-0.07307561
147	0xbda18bad	-0.07887969
148	0xbde0465f	-0.10950922
149	0xbde24cee	-0.110498294
150	0xbd9c1059	-0.076203056
151	0xbdc8849f	-0.097909205
152	0xbdb2de26	-0.08733778
153	0xbdb5c9bf	-0.08876371
154	0xbdcd3b0d	-0.10021029
155	0xbd8dfe5e	-0.06933282
156	0xbdba8ef4	-0.091092974
157	0xbdbabf92	-0.091185704
158	0xbddaab1a	-0.10677166
159	0x3e8d8223	0.2763835
160	0xbb6acd08	-0.0035827775
161	0xbdd73e2f	-0.105099075
162	0xbdc1cebf	-0.09463262
163	0xbdc61cb6	-0.09673445
164	0x00000000	0.0
165	0xbdfbe7d5	-0.12300078
166	0xbd9c519f	-0.076327555
167	0xbdd1d946	-0.1024652
168	0xbda9af4e	-0.0828539
169	0x3e8a7e9c	0.2704972
170	0xbdcfb31b	-0.101415835
171	0xbd9b1078	-0.075715005
172	0xbdc9cb89	-0.098532744
173	0xbdc55d01	-0.0963688
174	0x3d35d945	0.044396657
175	0xbda078dd	-0.07835553
176	0xbdc3541a	-0.095375255
177	0x00000000	0.0
178	0xbcd43840	-0.025905728
179	0xbdda58d1	-0.10661472
180	0xbdd1bd3a	-0.1024117
181	0xbd8b8608	-0.06812674
182	0xbc594d89	-0.013263115
183	0xbde46253	-0.11151566
184	0xbda3c6be	-0.079968914
185	0xbdab4ab7	-0.0836386
186	0xbddfbbdb	-0.109245025
187	0xbdc56ba0	-0.096396685
188	0xbda05afa	-0.078298524
189	0xbdd23f26	-0.10265951
190	0xbd92ccae	-0.07167946
191	0xbdb75385	-0.08951477
192	0xbda16f0c	-0.07882509
193	0xbd6205ce	-0.055181317
194	0x00000000	0.0
195	0xbdd73fd3	-0.105102204
196	0xbdbe1472	-0.092812434
197	0xbdc41d00	-0.09575844
198	0xbda272ec	-0.07932076
199	0xbdafbc72	-0.08580865

layer2.weight f4 [200, 200]
0	0x3eec5ebf	0.46166036
1	0x3f24afa9	0.64330536
2	0x3f144dec	0.579314
3	0x3e309f6e	0.17248318
4	0x3e2a790c	0.16647738
5	0x3e99afc1	0.30016902
6	0x3f61f5aa	0.8826548
7	0x3eac1116	0.33606786
8	0xbc18abf6	-0.009318342
9	0x3eed4596	0.46342152
10	0x3eea9fba	0.45824987
11	0x3d97b4bb	0.074075185
12	0x3e6c356c	0.23067254
13	0x3e99293c	0.29914272
14	0xbcb85ccc	-0.022505186
15	0x3ea3b79b	0.31976017
16	0x3f3f34a7	0.74689716
17	0x3e9cf9fd	0.30659476
18	0xbd3e7307	-0.046496417
19	0x3ebc2391	0.36745885
20	0xbd9e4539	-0.07728047
21	0x3dc721a6	0.09723215
22	0x3a541548	0.00080903294
23	0x3de85c51	0.11345733
24	0x3da18e1b	0.078884326
25	0x3eabe8ae	0.33575958
26	0x3eda5dec	0.42649782
27	0x3d394562	0.045232184
28	0x3ef73f6b	0.48290572
29	0x3eb7ccb8	0.35898376
30	0x3ea8d0bc	0.32971752
31	0xbe6c648b	-0.23085229
32	0x3ed51657	0.41618606
33	0x3f35abdc	0.7096536
34	0x3e66b510	0.22530007
35	0x3ee0412d	0.43799725
36	0x3ed0e856	0.40802258
37	0x3da3a51b	0.07990476
38	0x3ebcf40e	0.3690495
39	0xbe9e0325	-0.30861774
40	0x3ebfa33a	0.3742922
41	0x3ed6414e	0.418467
42	0xbde9db42	-0.11418773
43	0x3e9b6d45	0.30356804
44	0x3eaed4bb	0.34146675
45	0xb9be5f73	-0.0003631074
46	0x3eced84e	0.40399402
47	0x3dd7d338	0.10538334
48	0xbc4b3e3f	-0.012404977
49	0x3e9ce3ca	0.3064254
50	0x3e89354a	0.2679847
51	0x3ea9f9fd	0.33198538
52	0x3efbfcbb	0.49216256
53	0x3ea29752	0.31756073
54	0x3f3e8136	0.7441591
55	0x3ef479e4	0.47749245
56	0xbd00528c	-0.031328723
57	0x3e430a0a	0.19046798
58	0x3e8d6ea6	0.2762348
59	0x3f12b43c	0.57306266
60	0x3eb3ed4e	0.35141987
61	0x3de7bf7f	0.11315822
62	0x3f043262	0.5163938
63	0xbef7c2da	-0.48390847
64	0x3ef963a5	0.48708835
65	0x3eee12dc	0.46498764
66	0x3dd016b1	0.10160578
67	0x3ee16031	0.440187
68	0x3f603143	0.8757517
69	0x3f0d155e	0.5511073
70	0x3f0557d1	0.5208712
71	0x3f09e1bd	0.53860074
72	0x3dbb373c	0.091413945
73	0x3f0eed61	0.5583096
74	0x3e8fae84	0.28062832
75	0x3e0d3416	0.137894
76	0x3f0c1348	0.5471692
77	0x3f2c07a1	0.6719914
78	0x3eb3a75c	0.35088623
79	0x3f007e3a	0.50192606
80	0x3ec73582	0.3890801
81	0x3f0ee9ef	0.55825704
82	0x3eab828f	0.33498046
83	0xbd275224	-0.04084982
84	0x3ede36f0	0.4340129
85	0x3edbac10	0.4290471
86	0x3eaba285	0.3352243
87	0x3e884f31	0.26622918
88	0x3f25d084	0.64771295
89	0x3e7bf4cd	0.24605103
90	0x3e852f6a	0.26012737
91	0x3f33f513	0.7029583
92	0x3eb14cff	0.34629056
93	0x3ec0b0fb	0.37635025
94	0x3ea47a61	0.32124618
95	0x3ed40e04	0.41416943
96	0x3deaffd5	0.11474577
97	0x3e345df2	0.17613962
98	0x3e90bf36	0.28270882
99	0x3eac3f33	0.33641967
100	0x3c30a836	0.010782292
101	0x3ee364a8	0.44412732
102	0x3e9a7e7b	0.30174622
103	0x3daa2104	0.083070785
104	0x3ee5119e	0.44740003
105	0x3e9cb777	0.30608723
106	0x3ee447b0	0.44585943
107	0x3f198b7a	0.5997845
108	0xbd2e9c4f	-0.042629536
109	0x3f0b6178	0.544456
110	0x3ecbe2f4	0.3982159
111	0x3edccf90	0.43127108
112	0x3ed0d7d2	0.40789658
113	0x3ea4d367	0.32192537
114	0x3f080e8e	0.5314721
115	0x3e3592bc	0.17731756
116	0x3eae7d6c	0.34080064
117	0x3f55cc72	0.83515084
118	0x3ed18141	0.40918925
119	0x3f6c3b99	0.9227844
120	0x3ebac2da	0.36476785
121	0x3e43c3ec	0.19117707
122	0x3e9e4fc4	0.3092023
123	0x3f661095	0.8986905
124	0x3f2fbe66	0.686499
125	0x3f231433	0.63702697
126	0x3e54ebcc	0.20793074
127	0xbde687a2	-0.11256339
128	0x3f39a85e	0.7252253
129	0x3eccb4d0	0.399817
130	0x3e8713e6	0.2638237
131	0x3ec1d4fc	0.37857807
132	0x3f4504ae	0.76960266
133	0x3ef0c02d	0.47021618
134	0x3f1094bf	0.5647697
135	0x3ef2da1f	0.47432038
136	0x3ee48824	0.44635117
137	0x3f030507	0.51179546
138	0x3f099dee	0.53756607
139	0x3f0e2648	0.5552716
140	0x3e39bfd8	0.18139589
141	0xbedce668	-0.43144536
142	0x3edc0aba	0.42976934
143	0xbce1a918	-0.02754645
144	0x3f196f73	0.59935683
145	0x3e9b50ea	0.3033517
146	0x3f43dbb0	0.7650709
147	0x3e803171	0.2503772
148	0x3eb4c294	0.353047
149	0x3ed62864	0.4182769
150	0x3e7d98b0	0.24765277
151	0x3e8223ec	0.2541803
152	0x3ec514af	0.38492343
153	0x3e832f34	0.2562195
154	0x3ef8ff47	0.4863226
155	0x3f106cbc	0.56415915
156	0x3ec05940	0.37568092
157	0x3ebc4ef2	0.3677898
158	0x3ec0ff8f	0.37694976
159	0xbec26b6c	-0.3797258
160	0x3da7cfb6	0.081939146
161	0x3ebebbc1	0.3725262
162	0x3ec7ce44	0.39024556
163	0x3e889e5c	0.2668332
164	0xbdd1d18d	-0.10245047
165	0x3f2e4dd4	0.68087506
166	0x3f10e0eb	0.565932
167	0x3ec99294	0.39369643
168	0x3ee42073	0.44556007
169	0xbea46ecd	-0.32115784
170	0x3e602776	0.21890053
171	0x3e743e9f	0.23852013
172	0x3f28ca66	0.65933836
173	0x3e70edf8	0.23528278
174	0x3efe637c	0.49685276
175	0x3e912bf3	0.28353843
176	0x3f0d1d17	0.5512251
177	0x3dbb7205	0.09152607
178	0xbd87409a	-0.06604119
179	0x3ebb10a3	0.3653613
180	0x3ecc0148	0.39844728
181	0x3f09cc36	0.53827226
182	0xbcc67d6e	-0.024229731
183	0x3e9d8f14	0.30773222
184	0x3f045df6	0.51705873
185	0x3eadc5a6	0.33939856
186	0x3ec12a81	0.3772774
187	0x3e92d60c	0.2867893
188	0x3f55a8d0	0.8346071
189	0x3ed6749f	0.4188585
190	0x3e7f0b89	0.24906744
191	0x3f182a4b	0.59439534
192	0x3e881bc0	0.26583672
193	0x3f573eef	0.84080404
194	0xbdc8a170	-0.09796417
195	0x3ee6cbea	0.4507745
196	0x3ec18910	0.37799883
197	0x3eb63c57	0.3559291
198	0x3f0060f8	0.5014796
199	0x3ee50b19	0.4473503
200	0xbb838220	-0.004013315
201	0x3db41a3c	0.08794066
202	0x3cef44ad	0.029207552
203	0xbd1766ce	-0.036963277
204	0xbbb8da37	-0.0056412476
205	0xbce5dd60	-0.028059661
206	0x3cd35a67	0.025799943
207	0x3c306d3e	0.010768233
208	0x3da99b5c	0.082815856
209	0xbdc169b4	-0.094439894
210	0xbdc98703	-0.098402046
211	0x3d0b8d86	0.034070514
212	0xbae8a0d4	-0.0017748126
213	0xbdf680ff	-0.12036323
214	0xbdd9a13f	-0.106264584
215	0x3dc9f00a	0.09860237
216	0x3da43ca5	0.080193795
217	0x3d48e103	0.049042713
218	0x3da2bec3	0.07946541
219	0xbdf81c80	-0.12114811
220	0xbd8929c6	-0.06697421
221	0x3d461f2e	0.04836958
222	0xbd047372	-0.03233666
223	0x3dee0fe7	0.11624127
224	0x3c0cc778	0.008592479
225	0x3d8cb7a1	0.06870962
226	0xbda9dd8e	-0.08294211
227	0xbd0a1e52	-0.033720322
228	0xba41bd0d	-0.00073905365
229	0x3d023783	0.03179122
230	0xbd0bcb06	-0.034129165
231	0x3dad8ee6	0.08474521
232	0x3b98d942	0.004664571
233	0x3d87a0e1	0.06622482
234	0x3d99bd15	0.07506768
235	0xb882d095	-6.2377345e-05
236	0x3de161ff	0.110050194
237	0x3d79705e	0.060898177
238	0x3d987050	0.07443297
239	0xbde8a172	-0.11358918
240	0xbd8afe21	-0.067867525
241	0xbde45cc4	-0.11150506
242	0x3d7a7d5b	0.061154705
243	0xbbf39cd3	-0.0074344664
244	0x3d1c9812	0.038230963
245	0xbdda6199	-0.106631465
246	0xbd97a2f4	-0.07404128
247	0x3d5f4ee8	0.05451861
248	0x3dab1ef3	0.083555125
249	0xbbfed54f	-0.007776893
250	0x3da3cebb	0.07998415
251	0xbc1f3545	-0.00971729
252	0xbd8d4744	-0.068983585
253	0xbe02fbbc	-0.12791342
254	0x3dc1a033	0.09454384
255	0xbcc283fd	-0.023744578
