llirl_sumo/saves/120p4k/env_model_init.pth (torch, 295502 bytes, 6 tensors)

layer1.weight f4 [200, 160]
00000000: 94ce cdbf e9b3 383e 6998 a8bf 2bb3 dfbf
00000010: 1377 4e3e 1f52 c3bf cc6e e7bf 5316 273e
00000020: debf b9bf 6a85 e4bf e8f3 433e 11c3 aebf
00000030: 23ce d8bf 5c28 b13e 47b5 c1bf b3bb d0bf
00000040: b7ce 9e3d 47d9 a7bf 1e50 ccbf a027 2f3e
00000050: a051 a4bf 3335 e0bf dd33 873e 9438 a3bf
00000060: 6933 ccbf 7a61 023e 56fc a4bf 9ccd cbbf
00000070: eabe 313e 7fa8 afbf 7608 8cbf 91d9 9fbf
00000080: 0980 7fbf 9b21 88bf 9240 b0bf 3d65 8abf
00000090: b12e ecbf 8a1a 283e 103b c6bf 50e3 d7bf
000000a0: 35a7 093e ef27 afbf 97e3 e3bf 3948 7a3e
000000b0: 746a afbf c83c edbf 6bf0 163e 1f2a c4bf
000000c0: 93da e6bf 317c 873e 2c5a b1bf 2ceb c6bf
000000d0: 9104 573e 9cde b7bf 0634 d0bf 7ccf 793d
000000e0: 47a2 abbf 2efb d5bf 4ce4 933e 0892 a8bf
000000f0: 7382 dfbf a1d0 693e 8665 c0bf d59b dabf
00000100: dcfd 7b3e 5852 c3bf 4427 77bf c832 93bf
00000110: 3ad0 8abf 64d2 75bf 9cf7 93bf 4589 5fbf
00000120: deab f4bf d716 883e a64d b6bf ce44 e6bf
00000130: 143d 343e 263c b6bf 0d92 e5bf 9cf8 143e
00000140: 4353 b3bf fd07 dfbf cbbb a13e 56ee babf
00000150: 68f9 e1bf 7a62 9c3e 77a4 bdbf 0a45 ddbf
00000160: 80b2 203e 9c55 b4bf 64fd d9bf 1a67 9d3b
00000170: 0720 b8bf 8418 e1bf ac83 97ba 26ef b4bf
00000180: e08b cbbf 20bb b53d 631f acbf d37b d5bf
00000190: ea9e a5bc 0c01 babf 8eb2 92bf 87ac a4bf
000001a0: c162 7bbf 6f86 83bf 5884 a3bf dd1e 88bf
000001b0: af3c d8bf 3530 a13e f71e c4bf c75b d4bf
000001c0: 5b87 ec3e 413e b3bf 6233 e3bf 23fa b13e
000001d0: 1518 c6bf 227f eabf 2f7a 623e b80c bcbf
000001e0: f407 d3bf 6644 263e 7d0d b6bf dc97 cabf
000001f0: 6c6b 0f3d 45d6 b8bf 6e4e c8bf 768c f3bd
00000200: f5a2 a6bf b7d8 d3bf 8561 54be 71aa b8bf
00000210: 3efc c9bf 23a5 40bd 550b a4bf c633 d7bf
00000220: 4f2b ccbd e90a aebf 7a63 72bf c4b3 a8bf
00000230: 189c 7bbf ec18 7dbf ff0e 94bf b92a 7fbf
00000240: f97f 99bd 3a4d d13d f358 ed3d e50a a33c
00000250: 927b 9a3d 3b75 d13d 094f 2b3d 6c6b 54bd
00000260: e007 dc3d db61 efbd 68f8 58bd 1bba be3b
00000270: d109 813d a6ac a03d 10d9 b3bd eaa0 b6bd
00000280: b999 eabf 5787 7a3d 2dcf d7bf 7bcb f8bf
00000290: 27da 913e bc94 e4bf 1e05 f0bf 3ffe af3e
000002a0: 2a1a d8bf a214 f2bf fd1d 4e3e 6dae d3bf
000002b0: cd23 04c0 2af3 bd3e 8086 e1bf f06f d9bf
000002c0: a423 7d3e 597e dabf fa3f f0bf c5fb bb3e
000002d0: 1848 c5bf 8169 01c0 c8ad 973e e2e6 cfbf
000002e0: 163c efbf 43a5 8a3e c95a c7bf 5da3 e7bf
000002f0: 5738 a63e b90c ccbf 2ba3 afbf 57a2 bebf
00000300: 397c a3bf 3731 b6bf 2280 c3bf 3688 aebf
00000310: f30c febf 546f 193e 2585 e0bf a475 f8bf
00000320: 6d3c 1f3e 7ab5 dfbf 6d2f f4bf c370 9e3e
00000330: 5996 d6bf 0674 04c0 6850 143e f676 ebbf
00000340: 950c 06c0 d26d ac3e 6dab e6bf c4e9 ecbf
00000350: a7c3 a93e b31a dcbf a19b ecbf ee3b c13e
00000360: c261 cebf aed3 f1bf 54c3 343e 4701 e0bf
00000370: 3e2e 04c0 b5da 813e 4eae dbbf 182d f9bf
00000380: dff5 c13e a765 e9bf cb89 bbbf 28ca d5bf
00000390: 20a3 a2bf a30b a2bf 0063 cbbf ab1f a9bf
000003a0: fce3 f8bf 4661 eb3e 0708 e0bf f002 f7bf
000003b0: af11 9b3e 8c99 edbf e558 07c0 df0c 503e
000003c0: 3f14 e3bf 481c 01c0 8a6c a43e f57a eabf
000003d0: f592 0ac0 578b c23e 76d8 eabf 68b5 f0bf
000003e0: 9d91 373e 010a e8bf af81 febf 47c6 cc3d
000003f0: 5d02 e4bf b9ad ebbf 78c5 2c3d 0191 debf
-1.6078668 0.1803738 -1.3171512 -1.7476553 0.2016261 -1.5259436 -1.8080688 0.1631711
-1.4511678 -1.7853215 0.19136012 -1.365328 -1.6937908 0.34601104 -1.5133446 -1.6307281
0.077542715 -1.3113183 -1.596195 0.1710496 -1.283741 -1.7516235 0.26406756 -1.2751641
-1.5953189 0.12732497 -1.2889507 -1.5922122 0.17357984 -1.3723296 -1.0940082 -1.2488271
-0.9980474 -1.0635256 -1.3769705 -1.0812145 -1.8451749 0.16416374 -1.5486774 -1.6866245
0.1344269 -1.3684062 -1.780383 0.24441613 -1.3704362 -1.8534174 0.1474015 -1.5325354
-1.8035454 0.26461938 -1.3855643 -1.5540519 0.20997836 -1.436481 -1.6265876 0.06098889
-1.3408898 -1.6717279 0.28885114 -1.3169565 -1.7461685 0.22833492 -1.5030982 -1.7078806
0.24608558 -1.5259504 -0.9654429 -1.1499872 -1.0844796 -0.96024156 -1.1559939 -0.8731883
-1.911495 0.26579925 -1.4242446 -1.7989748 0.17601424 -1.4237106 -1.7935196 0.14547962
-1.4009784 -1.7424313 0.31588587 -1.4603984 -1.7654238 0.30543882 -1.4815816 -1.7286694
0.15693092 -1.4088626 -1.7030454 0.0048035504 -1.4384774 -1.7585607 -0.0011559627 -1.4135482
-1.5902061 0.08873582 -1.3447078 -1.6678413 -0.020217378 -1.453157 -1.146074 -1.2865151
-0.9819756 -1.0275401 -1.2774763 -1.0634419 -1.6893519 0.31482092 -1.532195 -1.6590508
0.46197018 -1.4003373 -1.7750056 0.34761152 -1.5476099 -1.8320048 0.22116922 -1.4691381
-1.6486802 0.1623703 -1.4222866 -1.5827594 0.035014555 -1.444039 -1.5648935 -0.11892025
-1.301848 -1.6550511 -0.20740326 -1.4427015 -1.5780103 -0.047032487 -1.2815958 -1.6812675
-0.09969198 -1.359708 -0.9468304 -1.317986 -0.98285055 -0.9886615 -1.1567076 -0.99674565
-0.07495112 0.10219808 0.11589231 0.019902656 0.075431004 0.10227438 0.04182342 -0.051860258
0.107436895 -0.11688586 -0.052971274 0.0058205253 0.063007005 0.0784543 -0.08781636 -0.08917411
-1.8328162 0.061164226 -1.68601 -1.9437097 0.2848675 -1.785789 -1.8751562 0.34373662
-1.6882985 -1.8912547 0.20128627 -1.6537606 -2.064685 0.37099582 -1.7619171 -1.6987286
0.24720627 -1.7069808 -1.8769524 0.36715522 -1.5412626 -2.0220644 0.29624772 -1.6242335
-1.8690212 0.2707921 -1.557458 -1.809673 0.3246486 -1.5941383 -1.372167 -1.4893292
-1.2772285 -1.4233769 -1.5273478 -1.3635318 -1.9847702 0.14983875 -1.7540632 -1.9410901
0.15550394 -1.7477257 -1.9076973 0.30945405 -1.6764632 -2.0695815 0.14483798 -1.8395679
-2.094518 0.33677536 -1.8021065 -1.850884 0.33157083 -1.7195648 -1.8484994 0.37741035
-1.6123583 -1.8892725 0.17652637 -1.750039 -2.0653224 0.25362173 -1.7162569 -1.9466887
0.37882897 -1.8234147 -1.4651426 -1.6702318 -1.2706032 -1.2659801 -1.5889587 -1.3212789
-1.9444575 0.4597265 -1.750245 -1.9297771 0.3028693 -1.8562484 -2.1148007 0.2031741
-1.7740554 -2.0173512 0.3211406 -1.8318774 -2.1652195 0.37996933 -1.8347309 -1.8805361
0.17926641 -1.8128053 -1.9883326 0.09998756 -1.7813221 -1.8412391 0.04218051 -1.7388002

layer1.bias f4 [200]
00000000: 6a1b 3ebd 56d5 0dbd 5745 04bd df6a 46bd
00000010: e9f8 81bd 08a4 c7bc 17c4 c6bc 6996 edbc
00000020: 0f76 16bc 0f1b 42bd 11e5 6ebd 0000 0000
00000030: f27e 82bd bfd2 5cbd 0000 0000 41bb 95bc
00000040: 5ef8 32bd fd2c 2fbd 0000 0000 faf2 45bd
00000050: 0000 0000 7286 4bbc 0746 19bc 0000 0000
00000060: 0000 0000 e21a 3ebd dd7f 4ebd 4100 35bc
00000070: 4073 04bd dd5e 35bd d073 18bd 0c37 493e
00000080: e1d0 2dbd f194 d2bc a391 60bd 3c22 6ebd
00000090: 3378 4fbd 0852 b9bb 90c8 26bd 19f6 4e3e
000000a0: 2544 05bd 0403 54bd 6d2b d0bc 902d 10bd
000000b0: cf63 29bd f664 bcba 93ea 7abd 0a99 3ebd
000000c0: 23c4 8cbc bb96 43bd 3dc9 5bbd 3f01 92bd
000000d0: 9e2b 14bd c66f 81bd 2647 e7bc 8f87 f5bc
000000e0: 0000 0000 41ee 33bd 0fe4 2dbd 9e08 ddbc
000000f0: a010 0dbd 0000 0000 f4f7 38bd 4d62 573e
00000100: 9e7e 18bd ff20 11bd 0000 0000 07f9 38bd
00000110: 06c7 33bd 0027 21bd d290 dbbc ad49 04bd
00000120: bbe3 14bd b45a 1ebd b73f 42bd 9d95 42bd
00000130: 7565 4bbd 0a38 03bd b066 a9bc 2fdd 52bd
00000140: 384c 36bd c3dc edbc 09ab 33bd c8c0 a8bb
00000150: 6dd9 55bd 8430 77bd 5a28 f5bc bfed 29bd
00000160: f009 21bd 4c46 29bd f019 24bd 7007 3cbd
00000170: 482b 31bd 67a1 09bd 3efc 19bd e0b0 37bd
00000180: 0000 0000 d86b 79bd a191 35bd 4e8c 41bd
00000190: 4363 3ebc 71fb 47bd a623 33bd 0394 b5bc
000001a0: 036e 10bd 4eac 3cbd cbca 2cbd 5a4d 81bd
000001b0: a527 94bb 479a 30bd d765 42bd 533d 50bd
000001c0: 2f58 53bd 8307 59bd d2b2 08bd 1cb1 42bd
000001d0: 92f9 f5bc 5337 00bd 043a 39bd 0e68 c3bc
000001e0: c87d 84bd ccfe 36bd ecca 32bd c2b6 34bd
000001f0: 62dd 1ebd 210d 10bd 81b3 15bd 0000 0000
00000200: dd3c f3bc 3704 febc f2bd 36bd 8595 16bd
00000210: a0f4 a6bc 3ec7 87bd 0f20 10bd 9f1b 14bd
00000220: 88ed 4fbd 03e4 7bbd ff38 40bd bcce 31bd
00000230: 2920 3bbd 0550 673e 7d9f 01bd 603e 163e
00000240: bf88 efbc 3e66 c0bc c34f b5bc 865a 19bd
00000250: 85df 74bd 48e6 57bd bb60 07bd fe2d 49bd
00000260: f440 1bbd 71af 3cbd 30dc 2fbd 22b9 b0bc
00000270: 23e9 4bbd c503 3bbd edb8 76bd a6ba 5a3e
00000280: 5023 a8bb 425a 6cbd aaf5 4abd d8ff 3bbd
00000290: 0000 0000 eb90 90bd 5d00 f3bc 72bc 71bd
000002a0: 4f86 efbc a44e 553e d5d7 51bd af5a 01bd
000002b0: 08cb 50bd 1a1a 50bd 5de8 913c 8763 11bd
000002c0: 510c 47bd 0000 0000 aa02 abbc 1961 2abd
000002d0: fed2 58bd d53a 9ebc 894d 59bc 6739 72bd
000002e0: 7f8b 0fbd f740 1cbd f27c 85bd a02c 5ebd
000002f0: c394 a9bc df3c 50bd 32c7 09bd d5dd 26bd
00000300: a5f1 0abd f0ab e7bb 0000 0000 fd7b 56bd
00000310: 6fc3 39bd 4dde 4dbd ed4e 14bd 7fe2 1bbd
-0.046412863 -0.03462728 -0.03229269 -0.048441764 -0.06346304 -0.024370208 -0.024263425 -0.029002385
-0.009183421 -0.047389086 -0.058323923 0.0 -0.06371869 -0.05391192 0.0 -0.018277766
-0.043693893 -0.042767514 0.0 -0.048327424 0.0 -0.012422191 -0.009355075 0.0
0.0 -0.046412356 -0.05041491 -0.011047424 -0.032336473 -0.04427992 -0.037219822 0.19649905
-0.04243553 -0.025705786 -0.05482639 -0.058138117 -0.05065174 -0.005655531 -0.040718615 0.20211066
-0.03253569 -0.05176069 -0.025411332 -0.0351997 -0.04135495 -0.001437335 -0.061258864 -0.04653267
-0.017183369 -0.04775117 -0.053658713 -0.07129144 -0.03617441 -0.06320147 -0.028232168 -0.029971866
0.0 -0.04392839 -0.04245382 -0.026981648 -0.034439683 0.0 -0.04515834 0.21033593
-0.037230127 -0.03543186 0.0 -0.045159366 -0.043890975 -0.039343834 -0.026802454 -0.032296825
-0.036349993 -0.03866072 -0.047424044 -0.047505964 -0.049657304 -0.032035865 -0.020678848 -0.05148047
-0.04450628 -0.029035931 -0.043864284 -0.0051499344 -0.052209307 -0.060349002 -0.029926468 -0.041486498
-0.039316118 -0.041326806 -0.0400638 -0.04590553 -0.043254167 -0.03360119 -0.037594073 -0.044846416
0.0 -0.060893863 -0.044328336 -0.047252946 -0.0116203455 -0.048823778 -0.04373517 -0.022165304
-0.035261165 -0.04606276 -0.042185586 -0.06313582 -0.0045213276 -0.04311588 -0.047460403 -0.050839733
-0.05159777 -0.05298568 -0.03337366 -0.047532186 -0.030026231 -0.03130276 -0.045221344 -0.023853328
-0.06469303 -0.044676587 -0.043650553 -0.044119604 -0.038785346 -0.03516877 -0.03654814 0.0
-0.029692108 -0.03100787 -0.04461474 -0.036763687 -0.020380318 -0.06629799 -0.035186823 -0.036159154
-0.050763637 -0.061496746 -0.046929356 -0.043410048 -0.045684967 0.22589119 -0.03164624 0.14672232
-0.02924001 -0.023486253 -0.02213276 -0.037439846 -0.059783477 -0.052709848 -0.033051234 -0.049116127
-0.03790374 -0.04606575 -0.042934597 -0.021572653 -0.049782883 -0.04565789 -0.060234953 0.21360263
-0.0051311627 -0.057703264 -0.04955069 -0.04589829 0.0 -0.07058891 -0.02966326 -0.059017606
-0.029238848 0.2083078 -0.051231224 -0.031580623 -0.050974876 -0.050806142 0.017810995 -0.035495307
-0.04859573 0.0 -0.020875294 -0.041596506 -0.052935593 -0.019315163 -0.013263115 -0.059136774
-0.035045143 -0.038147893 -0.06517972 -0.054241776 -0.020700818 -0.0508393 -0.033637233 -0.0407389
-0.033921856 -0.007070057 0.0 -0.05236434 -0.045352396 -0.05026083 -0.036208082 -0.0380578

layer2.weight f4 [200, 200]
00000000: 10e5 ad3e a8ce 063f 247d e53e 5d9c e53d
00000010: 46e7 253e b9e2 5b3e c707 3a3f 3250 7a3e
00000020: 1eda eabc baaa aa3e b9bb bc3e bbb4 973d
00000030: e341 2c3e 51c1 453e cc5c b8bc 2a44 4e3e
00000040: 47a6 213f a389 4e3e 06b3 6fbd 5aa1 853e
00000050: 3945 9ebd a621 c73d 4815 543a 515c e83d
00000060: 1b8e a13d 206f 1e3e adf7 9d3e 6245 393d
00000070: 8cea b33e 6f5d 813e a1a6 853e 893f a4be
00000080: c0ce 923e 64d6 133f 6887 103e 24f6 ac3e
00000090: 0c99 a13e 1ba5 a33d c8e4 8b3e 3979 cbbe
000000a0: 6326 703e 8352 873e 42db e9bd 5d3f 4e3e
000000b0: 1d28 6e3e 735f beb9 40e1 853e d9af 923d
000000c0: 58da dfbb c99f 1d3e 9cbf 3b3e cc62 503e
000000d0: 7d2e be3e 862f 983e 0e38 143f ff82 cc3e
000000e0: 8c52 00bd 0ba7 d93d 4649 3e3e c5f7 d73e
000000f0: 549f 8c3e 7fbf e73d 6a5d c53e c1b3 12bf
00000100: 2c06 a53e f9bb c63e b116 d03d f720 a73e
00000110: 5258 423f 9a10 cc3e 2452 b53e 75f1 eb3e
00000120: 3c37 bb3d a82e df3e ced4 6b3e 79a4 943d
00000130: 67b7 c93e 8189 193f 9201 843e 7408 ad3e
00000140: 3f7c 8b3e c9a2 c43e 251e 883e 76b0 10bd
00000150: e507 893e 7e18 a93e 6abc 793e a964 3b3e
00000160: 79aa 023f c705 243e dc9d 163e 430b 173f
00000170: d3e0 813e 6792 893e 365b 653e b054 9a3e
00000180: d5ff ea3d 92b5 fd3d 1225 3b3e 08b6 913e
00000190: 36a8 303c d861 a13e 7c13 7d3e 0421 aa3d
000001a0: 02c0 b23e d200 743e 0ca5 a53e 001b f13e
000001b0: 406e 08bd bb99 d23e 8c29 913e 34a8 aa3e
000001c0: 1b99 873e ae53 6e3e 86af c23e 3959 c63d
000001d0: 8b4f 8c3e 840b 2f3f 3461 923e 03cc 413f
000001e0: 11df 803e 5289 033e 0605 823e ac7f 3d3f
000001f0: 671f 013f 8ef3 f73e 86a8 073e a287 e6bd
00000200: 247b 123f 4e54 873e 8e71 513e 0a0a be3e
00000210: 6960 2e3f 3542 b33e 1a09 d03e 4f64 a43e
00000220: 2bd5 9d3e d01f c23e e761 eb3e 96b0 d43e
00000230: af5f c43d fd68 07bf 1253 913e b424 e5bd
00000240: 9d27 d13e 3332 553e c05b 273f d891 123e
00000250: b8ce 533e 8566 973e 4afe 113e 3e93 1c3e
00000260: 012b 973e f1b2 2b3e 78dc 9e3e bb3f d93e
00000270: e6c2 8a3e dcf2 7c3e 7968 5e3e c192 f5be
00000280: c84f ae3d 07b9 803e 03ee 953e 840e 643e
00000290: 8dd1 d1bd d5b3 073f 4b4d d13e e870 9e3e
000002a0: 5a18 bb3e 4cc7 d3be cdde cd3d 763c 0f3e
000002b0: 46f8 053f 70b2 4d3e fcd3 b03e 2778 313e
000002c0: 90d4 cf3e 0572 bb3d 67e6 79bd bbb1 843e
000002d0: 8b3b 953e 37d4 e33e 6e7d c6bc a8cc 723e
000002e0: 9daa c33e e642 8a3e 49ad 913e 006b 493e
000002f0: ddac 343f dffb a23e 41ee 173e 4ec9 003f
00000300: 9caa 263e 5d9a 393f 70a1 c8bd 99f8 ab3e
00000310: 06ad 883e 271e 8f3e 79c3 bb3e 9b93 b43e
00000320: 2082 83bb 3c1a b43d ad44 ef3c ce66 17bd
00000330: 37da b8bb 60dd e5bc 675a d33c 3e6d 303c
00000340: 5c9b a93d b469 c1bd 0387 c9bd 868d 0b3d
00000350: d4a0 e8ba ff80 f6bd 3fa1 d9bd 0af0 c93d
00000360: a53c a43d 03e1 483d c3be a23d 801c f8bd
00000370: c629 89bd 2e1f 463d 7273 04bd e70f ee3d
00000380: 78c7 0c3c a1b7 8c3d 8edd a9bd 521e 0abd
00000390: 0dbd 41ba 8337 023d 06cb 0bbd e68e ad3d
000003a0: 42d9 983b e1a0 873d 15bd 993d 95d0 82b8
000003b0: ff61 e13d 5e70 793d 5070 983d 72a1 e8bd
000003c0: 21fe 8abd c45c e4bd 5b7d 7a3d d39c f3bb
000003d0: 1298 1c3d 9961 dabd f4a2 97bd e84e 5f3d
000003e0: f31e ab3d 4fd5 febb bbce a33d 4535 1fbc
000003f0: 4447 8dbd bcfb 02be 33a0 c13d fd83 c2bc
0.33963823 0.5265908 0.44822037 0.112114646 0.16201505 0.21473207 0.7266812 0.24444655
-0.02866846 0.3333338 0.3686197 0.074075185 0.16822009 0.19312026 -0.022505186 0.2014319
0.63144344 0.20169692 -0.05852034 0.26099664 -0.07728047 0.09723215 0.00080903294 0.11345733
0.078884326 0.15472078 0.30853024 0.045232184 0.35139883 0.25266597 0.2610369 -0.32079723
0.28673363 0.5774901 0.14114153 0.3378154 0.31562078 0.07990476 0.27322984 -0.39740923
0.23452143 0.2643014 -0.11418773 0.20141359 0.2325749 -0.0003631074 0.26148415 0.071624465
-0.0068314485 0.15392984 0.18334812 0.20350188 0.37144843 0.29723758 0.5789803 0.39943692
-0.031328723 0.10627564 0.18582639 0.4218122 0.27465308 0.11315822 0.38547832 -0.5730553
0.3223127 0.38815287 0.10160578 0.32642338 0.75916016 0.39856416 0.3541423 0.46082655
0.091413945 0.43590283 0.23030397 0.07257933 0.39397737 0.5997544 0.25782448 0.33795512
0.2724323 0.38405445 0.26585498 -0.035324536 0.26763836 0.330265 0.2438828 0.18300118
0.5104137 0.16017829 0.14708656 0.5900156 0.2536684 0.2686951 0.22398075 0.30142736
0.11474577 0.123881474 0.1827586 0.2845919 0.010782292 0.3151996 0.24714464 0.083070785
0.34912115 0.23828438 0.32352483 0.47090912 -0.033308268 0.41132912 0.2835201 0.33331454
0.26483998 0.23274109 0.3802454 0.096849866 0.27404436 0.68376946 0.28589785 0.7570192
0.25170186 0.12845352 0.25394458 0.74022937 0.5043854 0.48428005 0.1324788 -0.11256339
0.5721915 0.26431507 0.20453474 0.37117034 0.6811586 0.3501145 0.40631944 0.3210778
0.30826697 0.37914896 0.4597313 0.41540974 0.09588563 -0.52894574 0.2838369 -0.11188641
0.40850535 0.2081993 0.65374374 0.14313447 0.20684326 0.29570404 0.1425716 0.15290543
0.29524997 0.1676748 0.3102758 0.42431435 0.2710182 0.24702018 0.2171954 -0.47963527
0.08511311 0.25141165 0.2928315 0.22271162 -0.10245047 0.53008777 0.40879282 0.30945516
0.36542016 -0.4136299 0.100522615 0.13987908 0.5233196 0.200876 0.3453673 0.1733099
0.4059186 0.09152607 -0.061010744 0.25916848 0.2914699 0.44497845 -0.024229731 0.23710883
0.38216105 0.27004164 0.2845252 0.19669724 0.7057627 0.31832787 0.1483698 0.50307167
0.1627602 0.72501165 -0.09796417 0.33588102 0.26694506 0.27952692 0.3667257 0.35268864
-0.004013315 0.08794066 0.029207552 -0.036963277 -0.0056412476 -0.028059661 0.025799943 0.010768233
0.082815856 -0.094439894 -0.098402046 0.034070514 -0.0017748126 -0.12036323 -0.106264584 0.09860237
0.080193795 0.049042713 0.07946541 -0.12114811 -0.06697421 0.04836958 -0.03233666 0.11624127
0.008592479 0.06870962 -0.08294211 -0.033720322 -0.00073905365 0.03179122 -0.034129165 0.08474521
0.004664571 0.06622482 0.07506768 -6.2377345e-05 0.110050194 0.060898177 0.07443297 -0.11358918
-0.067867525 -0.11150506 0.061154705 -0.0074344664 0.038230963 -0.106631465 -0.07404128 0.05451861
0.083555125 -0.007776893 0.07998415 -0.00971729 -0.068983585 -0.12791342 0.09454384 -0.023744578

layer2.bias f4 [200]
00000000: 4ba3 babb 1b73 31bc 1ad2 f2bc 34b9 d3bc
00000010: 34b7 fdbc af71 99bc 78a5 adbc f55b e03d
00000020: bec9 bbbc 4742 7ebc 8309 90bc 02a2 67bd
00000030: 5636 afbb 9d17 b3bd 21a4 fabc dd85 6abd
00000040: 75a0 5cbd 7c84 b6bc 67b9 5bbc 9c30 593c
00000050: e975 1bbd a942 8fbc 3451 82bb a048 2bbc
00000060: 298b 32bc f525 1cbd c4c0 c0bc c197 12bc
00000070: ca24 a73e 0956 abbb 230c 3abc 013e b8bc
00000080: cf99 d73d 4699 52bc 1502 debc 0ffb 0ebd
00000090: 0434 38bc 47e6 d0bc 2d9f dcbc 4a0d 8fbc
000000a0: ba2b 303d 5b12 64bd a6de 3fbc 486e 89bc
000000b0: 68d3 0ebd cdd2 14bc b90d f6bc 223c b3bc
000000c0: a0d5 4ebd b982 82bc 3ad6 b1bc d5ce 55bc
000000d0: 847a b9bc 715a 30bc 1dbe 46bc a1e4 59bc
000000e0: 318b bcbc b21f 18bd 1b57 47bc 986a 6abc
000000f0: 2a57 b43b e8ec d3bc e054 83bd c12d 41bb
00000100: 1c23 6fbc 183f 693c 0000 0000 4540 723e
00000110: c4e5 ddbc 159b 8dbc cacd 71bc af8a 4ebc
00000120: b143 21bc 3313 5dbc bb80 833e de07 14bc
00000130: 4ebb 92bc 5b27 b6bb 29ca 84bc 74ef 2abd
00000140: 58df 843e 81a3 5abd 5a80 85bd c9a3 9a3e
00000150: 21c9 97bc 71e1 fabb 5dbf 1fbd dcd0 61bc
00000160: 3df5 45bc 29af e33d 9e39 11bd 4a06 65bd
00000170: dfc3 d5bc 6284 a53e 2104 8cbc 0000 0000
00000180: fa3a e1bc 05cc 59bc 3b3e 57bb b817 cabb
00000190: 51d1 5d3d 8e38 abbc 37cd aebc fb23 dbbb
000001a0: d183 aebc 81c4 1dbd 695b 893e 964d 48bd
000001b0: 3054 a83c 061f 9b3c 226b ccbc 503b ec3e
000001c0: 9241 ebbc 9bc0 30bc 59f8 a93a 1954 23bd
000001d0: 6ebb 923a 1050 2ebc 0422 68bc 4260 c9bc
000001e0: f5df 06bd b039 8e3c 067e 84bc 6683 03bc
000001f0: 73b6 4bbd 04bd 40bd 3c40 41bb 0000 0000
00000200: 3f1e 55bd 6d25 28bd 0000 0000 d4c8 42bc
00000210: d326 37bc 81ab fc3e c763 5bbc 766d b1bc
00000220: 47fa 943d e792 18bc c958 e3bc eb1d 76bc
00000230: 3648 1fbd 5d02 2cbd e6fc b8bc b374 39bd
00000240: 92cc 28bd 5779 cfbc facd b9bc 9d8c 05bd
00000250: 57da d0bc 3fa6 54bc 9fe5 6bbc 80fe 3ebd
00000260: 3a2e 70bd 5d3b 8ebc e1d0 adbc 66cb 953e
00000270: e05d a9bc 1fde e1bc 30c8 8cbc 5516 99bc
00000280: 9655 7abc a8a2 babc 6a22 fe3e f3f6 7ebc
00000290: d5df 74bd 7aae 49bd 09da 1bbd a0d4 c8bc
000002a0: 88ef 073f 9415 98bc 9248 a4ba 1b5d 1fb9
000002b0: 55c9 59bc 7461 d7bb 1aab 5dbc 9050 03bc
000002c0: 94c6 36bd 15c2 953e 25ee 1bbc adff 3fbc
000002d0: 8a6d a7bc 91bb 43bc 1591 923e dd13 c8bc
000002e0: 17b9 83bc e953 56bd 0466 06bd dba7 a8bc
000002f0: 1706 67bc 099a c3bc 0000 0000 67b3 aebc
00000300: 9023 eabc 754c b9bc 729a 28bc 562a e2bc
00000310: 1cd7 4cbc 1393 1fbe b49e 63bd cad3 57bd
-0.0056957356 -0.010830666 -0.0296412 -0.025845148 -0.030971147 -0.018730966 -0.021197066 0.109550394
-0.022923347 -0.015518731 -0.01758266 -0.056550987 -0.0053470535 -0.08744738 -0.03059584 -0.05725657
-0.05386396 -0.02227997 -0.013410903 0.013256218 -0.037954245 -0.01748784 -0.0039769653 -0.010454327
-0.010897436 -0.038122136 -0.023529418 -0.008947314 0.32645255 -0.005228762 -0.011355433 -0.022490503
0.105273835 -0.012853926 -0.027100602 -0.034907397 -0.01124287 -0.02550043 -0.02693137 -0.017462391
0.04301045 -0.055681568 -0.011710798 -0.016776219 -0.03486958 -0.009083462 -0.03003584 -0.02187926
-0.050496697 -0.015931474 -0.021708596 -0.013049801 -0.022641428 -0.01076375 -0.0121302875 -0.013299138
-0.02301559 -0.037139602 -0.012166764 -0.0143076405 0.005503555 -0.025869802 -0.06412673 -0.0029476734
-0.014595773 0.014236234 0.0 0.2365733 -0.0270871 -0.017285863 -0.014758537 -0.012606307
-0.009842799 -0.013493347 0.2568415 -0.009035079 -0.01791158 -0.0055588908 -0.016209679 -0.041732267
0.25951648 -0.053378586 -0.06518622 0.30203083 -0.018528523 -0.0076562692 -0.039000858 -0.013782706
-0.012082395 0.111173935 -0.03545534 -0.0559142 -0.026094375 0.32327563 -0.017091813 0.0
-0.027493943 -0.013293271 -0.0032843489 -0.0061673783 0.054154698 -0.02090099 -0.021338088 -0.006687639
-0.02130309 -0.03851748 0.26827553 -0.048902117 0.020547956 0.018935692 -0.024953429 0.46139002
-0.02871779 -0.010788108 0.001296769 -0.039875124 0.0011194774 -0.010639206 -0.014168266 -0.024582032
-0.032928426 0.017361492 -0.016173374 -0.008026933 -0.049734544 -0.04705526 -0.002948775 0.0
-0.052030798 -0.041051317 0.0 -0.0118887015 -0.01117869 0.49349597 -0.013390488 -0.02165864
0.07274299 -0.009312368 -0.027752297 -0.015021781 -0.038887225 -0.04199444 -0.022581529 -0.04527731
-0.04121072 -0.025326414 -0.022681225 -0.032604802 -0.025494738 -0.012979089 -0.014398008 -0.04662943
-0.058637835 -0.017362291 -0.021217765 0.29256743 -0.020674646 -0.027571736 -0.0171853 -0.018687407
-0.015279194 -0.022782639 0.4963563 -0.015561807 -0.059783775 -0.04923866 -0.03804973 -0.02451545
0.5309987 -0.018564977 -0.0012533835 -0.00015198106 -0.01329263 -0.0065728966 -0.013529563 -0.008014813
-0.044622973 0.29249635 -0.009517227 -0.011718673 -0.020437974 -0.011946575 0.28626314 -0.024423534
-0.016079469 -0.052326117 -0.032812133 -0.020587852 -0.014100573 -0.02387716 0.0 -0.02132578
-0.02858141 -0.022619465 -0.010290729 -0.027608078 -0.012502458 -0.15583448 -0.055571273 -0.052692212

mu.weight f4 [4, 200]
00000000: eb6d 03bf 8f4f 9bbd f531 cfbe 8ff5 a4be
00000010: 4d1c 06bf a603 e63d 200c 873d 7244 f6be
00000020: 9762 ec3d ae29 ab3d ad87 5c3d ae78 a7be
00000030: 1fe1 783d a315 f6be 1192 95be 4f43 edbe
00000040: 324f e8be f994 f03a 3d17 003e 35cd 8f3d
00000050: 6614 e9be a685 b8be 1e39 adbe 3b35 b33d
00000060: 1d3b a9be 6368 01bf 0346 c8be 7efb a4bd
00000070: 017c 683f 2348 4bbc 1a1b f2bc 0f39 bb3d
00000080: 02df 833e 2687 0f3e b33a c5bd e94a 05bf
00000090: 8dbe 003e fce8 edbd 21e6 d23c d5ed bbbe
000000a0: 6dfe e63d 6eae c5be b9b1 203d 6186 dfbd
000000b0: 5850 acbe d1cd 223e 0aa3 b9be b454 04bf
000000c0: 7cd9 abbe e52f 3bbd 2cc3 dfbc ffdf 9e3d
000000d0: 5d51 d73d 845f 3abd 733a 0cbd 1a13 cb3d
000000e0: 5a05 123d 7356 c5be 9cf6 84be 7b2e f3bd
000000f0: 2efb adbe 051c e4be 927b d9be 2b46 b2be
00000100: 399f 9a3d 5111 293d 701f 0b3d f90a 413f
00000110: 78c6 ccbe dd19 35be b1ed b1be dff4 ed3d
00000120: 5042 e9be ce24 9dbe 9822 283f bb31 8c3c
00000130: f47e b13d ece6 23bd cf1d 4fbe ea3f d7be
00000140: ca41 313f 9a38 70be c445 93be b7a6 4d3f
00000150: 3f7e 003a 70e5 fc3d 409b 7bbe 908b e4bc
00000160: db2b fc3d 5f04 a13e 0715 91be 4e8c ffbe
00000170: fa4b e2be 8ee7 4e3f c350 7fbc 00a2 633c
00000180: a3f9 00bf 6ab8 acbe 6081 8ebe ecca 613d
00000190: 661c 7dbe 858f 323e 48f0 9bbe 24a7 61bd
000001a0: ae7f afbe 8b0f 01bf 2501 333f 1b31 c5be
000001b0: 6844 f6be 6e53 e9be de6c 973d f2fb a8bf
000001c0: a105 ffbe 5cef 19be 45b2 88be 8031 82be
000001d0: 5585 b2be 8be3 363d 2549 e03d e3a3 f6be
000001e0: 21d1 9cbe 3e64 b4be 2661 493c b5b6 103e
000001f0: cc46 e6be 8635 e1be 962e 6ebe fd70 28be
00000200: 9ce8 febe 72bc d1be 9ce6 7a3d 434e 763d
00000210: a002 51bd 5cc0 a8bf 4fcb cb3d 9cf3 4e3d
00000220: 9528 f9be 137b d63d 9c74 a4be 93b8 b93d
00000230: 6f50 7dbe b97f 81be d68f 2d3d 8b60 00bf
00000240: 3727 82be 0e25 f6be 29dd cabe a381 b4be
00000250: 1dc5 e4be 176b 92be 6a41 35be c8c9 84be
00000260: fb34 adbe 13ed e1be 97b0 04bf 69f6 1c3f
00000270: 3d3f 093e 2162 22be 15c2 a73d 9613 9fbe
00000280: e67d dcbd 88cd adbd 4812 cabf 34a1 cfbc
00000290: 789c debe 0a66 ccbe 5c23 b3be d323 4e3d
000002a0: 59d9 aebf cf97 d5be b8d1 033e 1e44 323d
000002b0: f338 87be a280 81be f330 0d3e a8ef 0c3e
000002c0: 2e5c d7be 0744 383f cfc7 e5be 6738 c13d
000002d0: b571 783d bcbd 763d d44c 423f 1eb8 05bf
000002e0: 64dd d93d a8a4 00bf 211a f4be 95be f8be
000002f0: 6dde 2b3d 8f84 dd3d 803b 9cba ed2b 583d
00000300: 8eda 913d c944 873d 56f5 1f3d a8bb f2be
00000310: 08d5 203e 1baf 27bf 5d32 07bf f937 bcbe
00000320: bf06 d4be 3613 e83b c6dd bdbe afde e8be
00000330: 629e b7be 0392 e8bd d215 f5bb 10bb 85be
00000340: b2bd b23c c9a9 2e3d 5e96 a03d 11ff bcbe
00000350: 44f4 323a 744e d0be a508 fdbe 9ca8 95be
00000360: ae95 09bf d35c 093e d974 b73d c1fb 16be
00000370: acf6 a3be cf43 afbe bef2 9fbe 9a2c ee3d
00000380: e0cb b4be 9b87 e0be 1d49 dfbe 8255 ac3d
00000390: aa89 143f b2ae d8bd 02bd f03d 35a7 1e3d
000003a0: c9fa 503e 1688 333d 0524 dbbb 8360 bcbe
000003b0: c486 1b3e 15f9 df3d e584 37be 52c7 e0be
000003c0: 9be9 383e f794 ffbe 8616 ae3d 43e3 083e
000003d0: 1b21 d7be 7041 82bd b736 efbe dc08 b2be
000003e0: 067b 00bf 4795 0a3c 7c87 243c e229 0b3d
000003f0: 813f d83c 1e2c 963d dfa3 6dbc df5e 1ebe
-0.51339597 -0.07583534 -0.40467802 -0.32218596 -0.52386934 0.11231165 0.065941095 -0.48099095
0.11542242 0.08357559 0.053840328 -0.3270926 0.060761567 -0.48063383 -0.29213002 -0.46340415
-0.4537292 0.0018354944 0.12508865 0.07021562 -0.45523375 -0.36039466 -0.3383264 0.08750387
-0.33052912 -0.50549906 -0.39115915 -0.08055781 0.90814215 -0.012407335 -0.029553939 0.091417424
0.2575608 0.14016399 -0.096303366 -0.5206743 0.1257269 -0.11616704 0.0257445 -0.3670489
0.112789966 -0.38609642 0.03923199 -0.109143026 -0.33655047 0.15898825 -0.362572 -0.51691747
-0.33564365 -0.045699973 -0.027314745 0.077575676 0.10513566 -0.045501247 -0.03423543 0.09915753
0.035649635 -0.38542518 -0.25969398 -0.118741 -0.33980697 -0.44552627 -0.4247709 -0.3481916
0.075499006 0.04127628 0.033965528 0.7540737 -0.3999517 -0.17685647 -0.34751657 0.11618971
-0.45558405 -0.30692142 0.65677786 0.017113557 0.086667925 -0.040015146 -0.20226215 -0.4204095
0.6924101 -0.23459092 -0.28764164 0.8033251 0.00049016246 0.12348449 -0.24570942 -0.02789858
0.12313052 0.31448647 -0.28336355 -0.4991173 -0.4419859 0.80822074 -0.01558322 0.013893604
-0.50380915 -0.33734447 -0.2783308 0.055125162 -0.24717864 0.17437561 -0.30456758 -0.05509104
-0.342771 -0.5041434 0.6992362 -0.38514027 -0.48099065 -0.45571464 0.07393812 -1.3201888
-0.49808982 -0.15032715 -0.2669851 -0.2542839 -0.3486735 0.044650596 0.10951451 -0.4817191
-0.30628303 -0.3523273 0.012291228 0.14132197 -0.4497589 -0.43986148 -0.23259959 -0.16449352
-0.49786842 -0.40964085 0.061255082 0.06013323 -0.051027894 -1.3183703 0.099508874 0.050525293
-0.48663774 0.10472693 -0.32120216 0.09068408 -0.24737714 -0.25292757 0.0423735 -0.5014731
-0.25420544 -0.48075145 -0.39621857 -0.35255155 -0.44681635 -0.28597328 -0.17700735 -0.25935197
-0.33829483 -0.44126186 -0.51831955 0.6131349 0.1340303 -0.15857746 0.08191315 -0.3106963
-0.10766201 -0.084864676 -1.5786829 -0.025345422 -0.4347875 -0.399216 -0.34987915 0.050327133
-1.3660079 -0.41717383 0.1287297 0.043521993 -0.26410636 -0.25293452 0.13788204 0.13763297
-0.42062515 0.719788 -0.44879004 0.09434586 0.060655314 0.06023954 0.7589848 -0.52234066
0.1063793 -0.50251245 -0.47676185 -0.48582903 0.04196017 0.10816299 -0.0011919588 0.052776266
0.07121764 0.066049166 0.03905233 -0.47408795 0.15706265 -0.65501565 -0.52811223 -0.36761454
-0.41411397 0.0070823682 -0.37083262 -0.45482394 -0.35863024 -0.113559745 -0.007479408 -0.2611928
0.02181897 0.04264239 0.0784118 -0.3691335 0.00068265595 -0.40684855 -0.49420658 -0.292302
-0.5374402 0.13414316 0.08957834 -0.14744474 -0.32024133 -0.3423142 -0.31239885 0.11629601
-0.35311794 -0.4385346 -0.43610469 0.08414747 0.5802256 -0.105801955 0.117548004 0.03873368
0.20408167 0.043830954 -0.0066876435 -0.36792383 0.15188128 0.109361805 -0.17921789 -0.4390207
0.18057863 -0.4991834 0.0850039 0.13367943 -0.42017445 -0.063601375 -0.46721432 -0.34772384
-0.5018772 0.008458442 0.010042068 0.03397549 0.026397469 0.073326334 -0.014504402 -0.15465878

mu.bias f4 [4]
00000000: 687d 56bd 9ead 06bd d673 44bd a539 9ebd
-0.05236569 -0.032880418 -0.047962032 -0.077258386
