llirl_sumo/saves/sumo_single_intersection/env_model_init.pth (torch, 295502 bytes, 6 tensors)

layer1.weight f4 [200, 160]
0	0x3e92f221	0.28700355
1	0xbe282d66	-0.16423568
2	0x3e584b60	0.21122503
3	0x3e528e3b	0.20562069
4	0x3d2c3dce	0.04205113
5	0x3dbd1c69	0.092339344
6	0x3e2b4c7c	0.16728395
7	0x3e99e9ff	0.30061337
8	0xbdc071ca	-0.093967035
9	0x3e1be71b	0.15224878
10	0x3ed363ba	0.41287023
11	0xbe3cf692	-0.18453434
12	0x3e4a195f	0.19736241
13	0x3ee24444	0.44192708
14	0xbe486e94	-0.19573432
15	0x3ed1d49c	0.4098252
16	0x3eb32552	0.3498941
17	0xbd99c17a	-0.07507606
18	0x3edee487	0.43533728
19	0x3e923f7b	0.28564057
20	0xbd0ff655	-0.03514703
21	0xbd95424e	-0.07288037
22	0xbe1f4e74	-0.15557271
23	0xbe3ba262	-0.18323663
24	0xbe890bba	-0.2676676
25	0xbd231881	-0.03981829
26	0xbdb7da7f	-0.08977222
27	0xbe0c7fc1	-0.13720609
28	0xbe8025e5	-0.2502891
29	0xbdddea80	-0.10835743
30	0xbe293348	-0.16523468
31	0xbd861e24	-0.065487176
32	0x3e379f62	0.17931893
33	0xbd6be73f	-0.05759358
34	0x3c92fb5b	0.017942121
35	0x3e564b10	0.20927072
36	0xbd95994a	-0.07304628
37	0x3db5c2ff	0.08875083
38	0x3de50e95	0.11184422
39	0xbcdf2056	-0.027237099
40	0x3d397f60	0.04528749
41	0x3dac2a8c	0.08406553
42	0x3f682c63	0.9069273
43	0x3e515cb9	0.20445527
44	0x3dbd2211	0.09235013
45	0x3f6ff59b	0.9373414
46	0x3df5e041	0.12005664
47	0x3e8ed189	0.27894238
48	0x3f7d7bee	0.99017227
49	0x3e647452	0.22309998
50	0x3e6348d8	0.22195756
51	0x3cec60d0	0.028854758
52	0x3cb2efca	0.021842856
53	0x3eba45fa	0.36381513
54	0x3e330099	0.17480697
55	0x3de18b41	0.11012889
56	0x3ea55245	0.3228933
57	0xbcead0ad	-0.028663957
58	0x3e0da5f8	0.13832843
59	0x3ebb3b31	0.36568597
60	0x3c7e604d	0.01552589
61	0x3e39b48b	0.18135278
62	0x3eafccae	0.34335846
63	0xbe13b3be	-0.14424035
64	0x3d5b3725	0.053519387
65	0x3e40221c	0.18763012
66	0x3e649894	0.22323829
67	0xbca5e8fe	-0.0202527
68	0x3e150bb5	0.14555247
69	0x3e4dc7d4	0.2009576
70	0x3d55d9aa	0.052209534
71	0x3df9a3a9	0.12189419
72	0xbac3987c	-0.0014922763
73	0x3e93116e	0.28724235
74	0x3c975f57	0.018478079
75	0x3c19f29b	0.009396221
76	0x3ecdda51	0.40205625
77	0x3e228bfa	0.1587371
78	0x3eac63fa	0.33670026
79	0x3e7d4f78	0.24737346
80	0xbdd18a6e	-0.102314815
81	0x3ebbe1c9	0.36695698
82	0x3e847232	0.25868374
83	0xbe28539f	-0.16438149
84	0x3e925b29	0.28585175
85	0x3dae3486	0.08506112
86	0xbe78e608	-0.243065
87	0xbcd6e047	-0.02622999
88	0xbecab683	-0.3959237
89	0xbe592e4b	-0.21209066
90	0xbd8c2bff	-0.06844329
91	0xbeb3bcfb	-0.35105118
92	0xbe513a88	-0.20432484
93	0x3e35d50b	0.1775705
94	0x3e5adeec	0.213741
95	0x3e6277db	0.22116034
96	0x3d6eff18	0.058348745
97	0x3d9e76ca	0.07737501
98	0x3de1b2bb	0.11020418
99	0x3e36ef14	0.17864639
100	0x3dae324a	0.085056856
101	0x3d62ef11	0.055403773
102	0x3d520134	0.05127068
103	0x3e9610e1	0.29309753
104	0xbe37a0e9	-0.17932476
105	0x3e9588da	0.29205972
106	0x3e4f8df4	0.20268995
107	0xbedc9f81	-0.43090442
108	0xbfa89c72	-1.3172743
109	0xbfa9afd9	-1.325679
110	0xbdd5ff70	-0.104491115
111	0xbfa9432b	-1.3223623
112	0xbfa05b20	-1.2527809
113	0xbdff600d	-0.12469492
114	0x3d955ab2	0.072926894
115	0xbf165476	-0.5872263
116	0x3e430c2c	0.19047612
117	0x3cffba4b	0.031216761
118	0xbf0adf7c	-0.5424726
119	0x3e1da6e5	0.15395696
120	0x3d1d19ad	0.038354564
121	0xbee91501	-0.45523837
122	0x3e9567fd	0.291809
123	0x3f2ae903	0.667618
124	0x3e645e51	0.22301604
125	0x3ea86a22	0.32893473
126	0x3eeb7bf2	0.45993
127	0x3ea28516	0.31742162
128	0x3ea0f861	0.31439498
129	0x3ec11be0	0.3771658
130	0x3e4d8796	0.20071253
131	0xbe219fa4	-0.15783554
132	0x3ea7505c	0.32678497
133	0x3e63ab8d	0.2223341
134	0xbe7a8fc0	-0.24468899
135	0x3e11257c	0.14174455
136	0x3e2c2f17	0.16814838
137	0xbe16f3df	-0.14741467
138	0xbf452874	-0.7701485
139	0xbf473d83	-0.77828234
140	0xbe5b3211	-0.21405818
141	0xbf52b4c4	-0.82307076
142	0xbf680d4b	-0.90645283
143	0xbe6d2be5	-0.23161276
144	0xbc558424	-0.013031993
145	0xbdc2883b	-0.0949864
146	0x3d047676	0.032339536
147	0x3c2d24a8	0.010567822
148	0x3cffc51a	0.031221915
149	0xbd104b02	-0.035227783
150	0x3d5f9dad	0.05459373
151	0xbde1a013	-0.1101686
152	0xbc8d54dd	-0.01725238
153	0xbc3bc40d	-0.011460316
154	0xbaf3cb27	-0.0018599973
155	0x3cb632f8	0.0222411
156	0xbe36523d	-0.17804809
157	0xbdab0d84	-0.08352187
158	0x3e881595	0.26578966
159	0x3d309ed1	0.04312021
160	0x3e96e565	0.2947189
161	0xbc58fea8	-0.0132443085
162	0x3bd64b2c	0.006539723
163	0x3e998d2a	0.29990512
164	0xbb31661c	-0.0027068919
165	0x3d993782	0.074812904
166	0x3d597d85	0.05309822
167	0x3f168df5	0.5881036
168	0x3dc3329e	0.09531139
169	0x3dcb07c1	0.09913588
170	0x3ef3fda1	0.4765444
171	0x3e081326	0.13288555
172	0x3bb5b15d	0.005544825
173	0x3f0cd4d3	0.55012244
174	0x3e36e26a	0.17859808
175	0xbdb26058	-0.08709782
176	0xbe4c9ed4	-0.19982463
177	0xbd359127	-0.04432788
178	0xbe1aca72	-0.1511629
179	0xbdf5b615	-0.1199762
180	0xbe05f032	-0.13079908
181	0xbd59484c	-0.053047463
182	0x3e1a9e7d	0.15099521
183	0x3d67c3d4	0.05658324
184	0x3d82abd2	0.063804284
185	0xbd960ad8	-0.07326287
186	0xbdff626d	-0.12469945
187	0x3db68317	0.08911722
188	0x3c2c6bbf	0.010523736
189	0xbda0e9dc	-0.07857105
190	0x3dc3cdbe	0.095607266
191	0x3e9d8863	0.30768117
192	0x3e74e2b6	0.23914608
193	0x3e53851a	0.20656243
194	0x3e2cfd75	0.16893561
195	0x3de40cd0	0.11135256
196	0x3e053852	0.13009766
197	0x3eb43567	0.35196993
198	0x3a9db0d2	0.0012030846
199	0x3e8b351b	0.27188954
200	0x3eb07b6e	0.3446917
201	0x3d5f4a84	0.054514423
202	0x39cb692a	0.0003879753
203	0x3ef4add6	0.47788876
204	0x3da3a031	0.079895385
205	0x3e1c9bfd	0.1529388
206	0x3ef5b4c8	0.47989488
207	0x3e26a4ce	0.16273805
208	0x3d3240bb	0.043518763
209	0x3eac53be	0.3365764
210	0x3dc69763	0.096968435
211	0xbe018218	-0.12647283
212	0x3eda96ee	0.42693275
213	0xbe8f0664	-0.27934563
214	0x3d138c83	0.036022674
215	0x3e6408f8	0.22269046
216	0xbe6f7dfc	-0.23387903
217	0x3b688a98	0.0035483
218	0x3f1019aa	0.5628916
219	0xbe12e3fd	-0.14344783
220	0x3def4855	0.11683718
221	0x3ea41416	0.32046574
222	0xbe5b9b72	-0.21446016
223	0x3da4a0cd	0.08038483
224	0x3eb974eb	0.36222014
225	0xbe369067	-0.17828523
226	0x3e2a43bb	0.166274
227	0x3e99c912	0.30036217
228	0x3d3f3598	0.04668197
229	0x3eac5f83	0.3366662
230	0x3e871b0d	0.26387826
231	0xbe209dd5	-0.15685208
232	0xbdc836e3	-0.09776094
233	0x3de47f39	0.11157078
234	0x3e90e143	0.2829686
235	0x3d82cb2d	0.06386409
236	0x3e59b1f5	0.21259291
237	0x3eafeb1f	0.3435907
238	0x3e809481	0.251133
239	0x3ec72d4f	0.38901755
240	0x3a3351d0	0.0006840499
241	0x3e8b51f6	0.2721097
242	0x3e6e9713	0.23299818
243	0x3ddca4bf	0.1077361
244	0x3e234320	0.15943575
245	0x3e80fd21	0.25193122
246	0xbd123f36	-0.035704814
247	0xbeeafeff	-0.45897672
248	0xbd33d293	-0.04390199
249	0x3e5fc853	0.21853761
250	0xbf114cf5	-0.5675805
251	0x3ca49cee	0.020094361
252	0x3ea6f2b7	0.32607052
253	0xbe3c1545	-0.18367489
254	0x3e5d83cf	0.21632312
255	0x3eb29d68	0.34885716

layer1.bias f4 [200]
0	0x3e6809c7	0.2265998
1	0xbe4e7745	-0.20162685
2	0xbeb45c78	-0.35226798
3	0xbe63157c	-0.22176164
4	0xbeb97578	-0.36222434
5	0xbeb72bfd	-0.35775748
6	0xbc22a541	-0.009927095
7	0xbbf9d8d8	-0.0076247267
8	0xbec62a3e	-0.38704103
9	0xbe8be6a9	-0.27324417
10	0xbec782af	-0.3896689
11	0x3e7852da	0.24250355
12	0xbe9142e8	-0.28371358
13	0xbebf6320	-0.37380314
14	0xbcf6d3c9	-0.030130284
15	0x3e3dec46	0.18547162
16	0xbec062b2	-0.375753
17	0x00000000	0.0
18	0xbd694575	-0.056951005
19	0xbca4641e	-0.02006727
20	0xbc587e7f	-0.013213753
21	0x00000000	0.0
22	0xbeab15b1	-0.33414987
23	0xbbe8ba80	-0.0071023107
24	0x3e8da5d4	0.2766558
25	0x3ecba9c5	0.3977796
26	0x00000000	0.0
27	0xbe5b36e3	-0.21407656
28	0xbec69b4b	-0.38790354
29	0xbbae322f	-0.005316041
30	0xbeca2a54	-0.3948542
31	0x00000000	0.0
32	0xbea2c0f5	-0.3178784
33	0xbc2417cb	-0.010015438
34	0x00000000	0.0
35	0xbeaf9248	-0.3429129
36	0xbe8cf9e0	-0.2753439
37	0xbea8fb66	-0.33004302
38	0xbec74f5b	-0.3892773
39	0xbe869670	-0.2628665
40	0x3e431a18	0.19052923
41	0xbeb907e9	-0.36138847
42	0x3d83108c	0.063996404
43	0xbec89a43	-0.39180192
44	0xbea2df41	-0.31810954
45	0x3d34f18c	0.04417567
46	0xbebc9956	-0.36835736
47	0xbe6586a9	-0.2241465
48	0xbeae1bcc	-0.34005582
49	0xbcd9523f	-0.026528476
50	0xbec1602f	-0.37768695
51	0x00000000	0.0
52	0xbeceb912	-0.40375572
53	0x00000000	0.0
54	0xbec4422c	-0.38331735
55	0x3dee4250	0.11633742
56	0x3e20547d	0.1565723
57	0xbddfeba8	-0.1093362
58	0xbec03d6d	-0.37546864
59	0xbc246d9f	-0.010035901
60	0xbecb4010	-0.39697313
61	0xbe5c85b7	-0.21535383
62	0x3e18d4b0	0.14924884
63	0xbe8aa370	-0.27077818
64	0x3db9f61e	0.09080146
65	0x3da89d37	0.08233111
66	0xbe909294	-0.2823683
67	0xbe8a0f0f	-0.26964614
68	0xbe1be09b	-0.15222399
69	0x3d9c92c5	0.076451816
70	0x3c8aac7f	0.016927956
71	0x3e628547	0.22121154
72	0xbea5615e	-0.32300848
73	0xbeb388b3	-0.3506523
74	0x3e4c1748	0.19930756
75	0xbeba4de9	-0.36387566
76	0xbe516890	-0.20450044
77	0xbbcc91dd	-0.006242974
78	0xbe9bdb03	-0.3044053
79	0xbcac7ce7	-0.021055652
80	0xbebc985c	-0.3683499
81	0xbe4133f6	-0.18867478
82	0xbe2398e9	-0.159763
83	0xbebba782	-0.36651236
84	0xbbead4c6	-0.007166478
85	0xbea7d08d	-0.327763
86	0xbc7a39af	-0.015272542
87	0xbc92f838	-0.017940626
88	0x00000000	0.0
89	0xbcfc4d2d	-0.030798519
90	0xbec574e4	-0.38565743
91	0x3e1bb347	0.15205108
92	0xbeb2d276	-0.34926194
93	0x3e2e87c9	0.17043985
94	0x3e02695b	0.12735502
95	0xbcb6b6e1	-0.022304
96	0xbdbe538f	-0.09293281
97	0x00000000	0.0
98	0xbbc1b248	-0.0059111454
99	0xbc7c7d04	-0.015410665
100	0xbc3f17d5	-0.011663397
101	0xbcc250ec	-0.023720227
102	0xbec2d674	-0.3805424
103	0xbeb4b179	-0.3529165
104	0xbe0d412c	-0.13794392
105	0xbc8c0be9	-0.017095523
106	0x3e87709c	0.26453102
107	0xbc7deac9	-0.015497872
108	0xbce737ee	-0.028224912
109	0xbe99abe6	-0.3001396
110	0xbc854044	-0.016265996
111	0x3ea3d003	0.31994638
112	0xbe33e2e0	-0.17567015
113	0x3e8621e7	0.2619774
114	0xbd2891e8	-0.041154772
115	0xbcd2999c	-0.025708012
116	0xbd0dac47	-0.034588125
117	0xbec7c4ba	-0.39017278
118	0xbc09922a	-0.008396665
119	0xbead1fae	-0.33813232
120	0xbe00cce7	-0.12578164
121	0xbe55e460	-0.208879
122	0xbe85fa5f	-0.2616758
123	0xbed7302b	-0.42028937
124	0x3df222ba	0.1182303
125	0x3e8e1112	0.277474
126	0xbe39ef47	-0.18157683
127	0xbecc4a2a	-0.39900333
128	0xbc3e84aa	-0.011628309
129	0xbc8ee59b	-0.017443469
130	0x3badacc6	0.005300137
131	0xbea83945	-0.32856193
132	0xbc886bb0	-0.016652912
133	0xbc7f339b	-0.015576269
134	0x3ebd5821	0.369813
135	0x00000000	0.0
136	0x3e07ecae	0.1327388
137	0x3e2c8026	0.1684576
138	0xbe5a97c5	-0.21346958
139	0x3eaba616	0.3352515
140	0xbe11486d	-0.14187784
141	0xbecbe393	-0.39822063
142	0x00000000	0.0
143	0x3e99f012	0.30065972
144	0x3e4f51f0	0.202461
145	0x3ea5de90	0.32396364
146	0x00000000	0.0
147	0xbe980d30	-0.2969756
148	0xbea4cc24	-0.32186997
149	0x3e5815b0	0.21102023
150	0x00000000	0.0
151	0x3e0c0182	0.1367245
152	0x00000000	0.0
153	0xbea7e0bc	-0.32788646
154	0x3e970524	0.2949611
155	0x3dacf9d2	0.08446087
156	0xbbaf3643	-0.0053470447
157	0xbc519b77	-0.012793413
158	0xbca73a23	-0.020413464
159	0xbe8d34a8	-0.27579236
160	0xbeae4236	-0.3403489
161	0xbe2f2176	-0.17102608
162	0xbe8306e5	-0.25591198
163	0xbeac8ce4	-0.3370124
164	0xbea7e8e0	-0.32794857
165	0xbe8aaf59	-0.27086905
166	0xbcd1b207	-0.025597585
167	0xbe9f38f7	-0.31098148
168	0xbcedfe6c	-0.029051982
169	0xbeaee6cc	-0.3416046
170	0xbeb9748d	-0.36221734
171	0xbbf84c2a	-0.007577439
172	0x00000000	0.0
173	0x3e6cfdf7	0.23143755
174	0xbc7ba363	-0.015358779
175	0xbd746810	-0.059669554
176	0xbe319867	-0.17343293
177	0xbc629acc	-0.013830852
178	0x3e5dee8c	0.2167303
179	0x3db9ed40	0.09078455
180	0xbe63b42a	-0.22236696
181	0xbec2fdcf	-0.38084266
182	0xbcec583d	-0.028850669
183	0xbe3bbc95	-0.18333657
184	0x3ea0b056	0.31384534
185	0xbc25d880	-0.010122418
186	0xbe981e1f	-0.2971048
187	0xbe491edf	-0.19640683
188	0x3eb16dcb	0.34654078
189	0x3d82e09c	0.06390497
190	0xbe420082	-0.18945506
191	0xbec06df0	-0.37583876
192	0xbe91d162	-0.2848006
193	0xbde88992	-0.113543645
194	0x3da1669d	0.078809
195	0x3e53fb48	0.20701325
196	0x3e861f2f	0.26195666
197	0x3ddf7262	0.10910489
198	0xbec50191	-0.38477758
199	0xbeba86be	-0.36430925

layer2.weight f4 [200, 200]
0	0x3d758a88	0.059946567
1	0x3d4970ba	0.04917977
2	0xbd8ba46a	-0.06818469
3	0x3e6a05ac	0.22853726
4	0xbdb6f9ff	-0.08934402
5	0xba4d154d	-0.00078233035
6	0xbcb71d54	-0.022352852
7	0x3cc3cae8	0.023900464
8	0xbd592cb8	-0.053021163
9	0x3d7b1205	0.06129648
10	0xbd2aff16	-0.041747175
11	0x3d9bdb13	0.076101445
12	0x3dd9cacd	0.10634384
13	0xbd78a73e	-0.06070637
14	0x3d0d9e27	0.034574654
15	0x3d9ba37a	0.0759954
16	0x3cef1e35	0.029189209
17	0x3c9bab34	0.019002534
18	0x3e0a7b05	0.1352349
19	0xbd874e35	-0.06606714
20	0x3df68d98	0.120387256
21	0x3df9a361	0.12189365
22	0x3d44b3b8	0.048022956
23	0xbc01ac29	-0.007914581
24	0xbd345c8f	-0.044033583
25	0x3c0a06a5	0.008424436
26	0x3d8d1451	0.06888641
27	0x3cbd4cd9	0.023107933
28	0x3d5f154d	0.054463673
29	0xbdd1ed66	-0.10250358
30	0xbdd63b69	-0.1046055
31	0xbd3982b0	-0.04529065
32	0xbbf29c60	-0.0074038953
33	0xba648481	-0.00087172544
34	0x3d045176	0.03230425
35	0xbdcca8f1	-0.099931605
36	0x3dd7fb8d	0.105460264
37	0xbe459962	-0.19296792
38	0xbd89f931	-0.067369826
39	0xbc966e58	-0.018363163
40	0xbe4e1fb4	-0.20129281
41	0xbdf02f3a	-0.11727758
42	0x3dd005ad	0.101573326
43	0x3d836c5a	0.06417151
44	0x3e0f4d19	0.13994254
45	0x3d6397be	0.055564635
46	0xbcf04196	-0.029328149
47	0x3d0873d6	0.033313595
48	0x3dc73981	0.09727765
49	0xbd187f18	-0.03723058
50	0xbc84567c	-0.01615452
51	0x3dc48479	0.0959558
52	0xbdc8cb2f	-0.09804379
53	0xbda54e90	-0.08071625
54	0xbcbcc767	-0.023044301
55	0x3e234f86	0.15948305
56	0xbb546790	-0.003241036
57	0xbba95a0e	-0.005168206
58	0x3d091a35	0.03347226
59	0xbdfa3ef9	-0.12219042
60	0xbe019383	-0.12653928
61	0xbe2ec7be	-0.17068383
62	0x3dba95bb	0.0911059
63	0x3d49b9ff	0.049249645
64	0x3e1bc02e	0.1521003
65	0x3e42df82	0.19030574
66	0x3e28650c	0.16444796
67	0xbd97a68a	-0.07404812
68	0x3c6e3512	0.01453902
69	0x3b8b4058	0.0042496137
70	0x3d20f784	0.03929855
71	0x3df78e19	0.1208765
72	0x3d0e3156	0.03471502
73	0xbdbf6cc3	-0.093469165
74	0x3e1b9cee	0.15196583
75	0x3c2d54c2	0.01057929
76	0xbe1229a6	-0.142737
77	0xbdb60890	-0.08888352
78	0x3ca2d9b2	0.019879196
79	0x3c361536	0.0111134555
80	0xbe67190b	-0.22568147
81	0x3d8549ad	0.06508193
82	0x3cf2e7ac	0.029651485
83	0x3be074de	0.006849869
84	0x3d9f8861	0.07789684
85	0x3ded70a9	0.11593754
86	0xbd9d67fc	-0.07685849
87	0xbdb079ac	-0.08616957
88	0xbd4a9aac	-0.049463913
89	0xbdc797e6	-0.09745769
90	0xbe0bf8f8	-0.13669193
91	0x3dd062da	0.101751044
92	0x3dffd959	0.12492628
93	0xbaad5f7d	-0.001322731
94	0x3e36c22e	0.17847511
95	0x3cd91bc9	0.026502507
96	0xbd9e3b38	-0.07726139
97	0xbbfbe040	-0.007686645
98	0x3da0491f	0.07826447
99	0xbd77ea33	-0.060526084
100	0xbd90797f	-0.070544235
101	0xbd6f8891	-0.05847985
102	0xbd9a1650	-0.07523787
103	0x3c9cb7e0	0.019130647
104	0xbe3e0518	-0.1855663
105	0xbd962713	-0.073316716
106	0x3dec9cce	0.115533456
107	0xbd1d2071	-0.038361017
108	0x3e0834ee	0.13301441
109	0xbe30ff88	-0.17284977
110	0xbd98d988	-0.07463366
111	0x3e0e2d8c	0.13884562
112	0x3dff1022	0.12454249
113	0x3d74f594	0.059804514
114	0xbd8fbd28	-0.070185006
115	0x3dd91ac4	0.10600808
116	0x3e07dc2b	0.13267581
117	0x3dd8de8c	0.105893224
118	0x3de13a04	0.10997394
119	0xbd1270af	-0.035751995
120	0xbdef6260	-0.116886854
121	0xbd6261f1	-0.055269185
122	0xbe985941	-0.29755595
123	0xbc729426	-0.014805829
124	0xbe47659c	-0.19472355
125	0x3e375d7c	0.17906755
126	0x3dbc73dc	0.09201786
127	0x3dd479a8	0.103747666
128	0x3d74b7a0	0.05974543
129	0xbd9ea1aa	-0.07745679
130	0x3e3670ea	0.17816511
131	0x3dcd65b5	0.10029165
132	0xbdd20969	-0.10255701
133	0xbe08dec1	-0.13366224
134	0xbdd40529	-0.10352547
135	0xbd07c5b6	-0.033147536
136	0x3cbd0964	0.023075767
137	0xbd98fcc6	-0.07470088
138	0xbdcab0c3	-0.09896996
139	0x3d8daf32	0.069181815
140	0x3db44454	0.08802095
141	0xbdcccc37	-0.099998884
142	0x3c3587c8	0.011079736
143	0xbc0c60af	-0.008567973
144	0x3de8eef6	0.11373703
145	0x3e0d003d	0.13769622
146	0x3deb323f	0.11484193
147	0xbdf08615	-0.11744324
148	0xbdfcc967	-0.12343102
149	0xbc0e4a84	-0.008684758
150	0x3d8318b5	0.06401197
151	0x3e30fe42	0.17284492
152	0x3df2a821	0.11848474
153	0xbe06e01d	-0.1317143
154	0x3e7563c4	0.23963839
155	0x3ce4cc0b	0.027929327
156	0xbd01f61e	-0.031728856
157	0x3d4f1c1e	0.050563924
158	0x3dbf2b8c	0.09334478
159	0x3dc32e33	0.09530296
160	0xbdcb5bf7	-0.0992965
161	0x3dff5ba7	0.12468653
162	0x3c0527fe	0.008127211
163	0xbdb53c84	-0.08849433
164	0xbd87c393	-0.066291
165	0x3da28ee1	0.07937408
166	0x3db13cbf	0.086541645
167	0x3e27a7f4	0.16372663
168	0xbd95efe7	-0.07321148
169	0xbda582df	-0.08081602
170	0xbd52657b	-0.05136631
171	0x3db5ce64	0.088772565
172	0xb9fbc900	-0.00048024207
173	0xbe6dc933	-0.23221283
174	0xbd48af70	-0.048995435
175	0x3d039762	0.03212679
176	0x3d982c3f	0.07430314
177	0x3cf38108	0.029724613
178	0xbdc914f3	-0.09818449
179	0x3da6e2de	0.0814874
180	0xbc9e7ef4	-0.019347645
181	0x3d6029be	0.05472731
182	0xbd813417	-0.063087635
183	0xbcd17f6d	-0.025573457
184	0x3c92e7b6	0.017932754
185	0x3e17fe8a	0.14843193
186	0x3de21d54	0.1104075
187	0x3c70b12c	0.014690679
188	0x3e438ed7	0.19097458
189	0x3d1b5c9a	0.03793011
190	0x3e33a84f	0.17544673
191	0xbc72ebd4	-0.014826734
192	0x3d608ebe	0.05482363
193	0x3de86e27	0.11349135
194	0x3e271fc4	0.16320711
195	0x3e7e8d85	0.24858673
196	0x3d3cf829	0.0461351
197	0x3e351fef	0.17687963
198	0xbde3424d	-0.1109663
199	0xbcab0b1e	-0.020879325
200	0xbe24143f	-0.16023348
201	0x3db2cb3f	0.08730172
202	0x3c85ff1b	0.016356995
203	0xbc895e02	-0.01676846
204	0xbd51aa83	-0.051188003
205	0x3e0768fc	0.13223642
206	0x3eb136fa	0.34612256
207	0x3d92fe7d	0.07177446
208	0xbd2db4f2	-0.04240889
209	0x3e264e15	0.16240723
210	0x3e5e193c	0.21689314
211	0xbe3a1847	-0.18173324
212	0x3dd8e25c	0.105900496
213	0x3dbcc1e7	0.092166714
214	0xbdd35413	-0.1031877
215	0x3d5c5a7f	0.05379724
216	0x3d6d8954	0.057992294
217	0xbd668ca0	-0.056286454
218	0xb8986568	-7.266813e-05
219	0x3deba02b	0.11505159
220	0x3d95eab0	0.07320154
221	0xbcfb0bb0	-0.030645221
222	0x3d675cbd	0.056484926
223	0x3dd635f3	0.10459509
224	0xbda258b9	-0.07927079
225	0xbe217c1e	-0.15770003
226	0x3d2371c6	0.039903425
227	0x3e09df7c	0.13464159
228	0x39c93b09	0.00038381692
229	0x3df5c22f	0.11999928
230	0xbd82673c	-0.06367347
231	0x3df77325	0.12082509
232	0xbdbb4930	-0.09144819
233	0x3df03370	0.11728561
234	0x3db69d7f	0.08916759
235	0x3e388c69	0.18022312
236	0xbba54137	-0.0050431746
237	0x3dcea1d5	0.10089461
238	0x3c0994f3	0.008397329
239	0xbe17f83c	-0.14840788
240	0xbe935cde	-0.2878179
241	0xbcb0b9f8	-0.021573052
242	0xbdde7f20	-0.10864091
243	0xbc063eeb	-0.008193712
244	0x3e0c6875	0.13711722
245	0xbc4b643f	-0.012414037
246	0x3db9a296	0.09064214
247	0x3d4146d2	0.04718668
248	0x3db2411d	0.087038256
249	0xbd4dddfa	-0.05026052
250	0x3df14495	0.11780659
251	0x3de1db51	0.110281594
252	0x3d42f4ff	0.047596928
253	0xbdf4dc98	-0.119561374
254	0xbd5f1399	-0.05446205
255	0xbcf502ed	-0.029908622

layer2.bias f4 [200]
0	0x3e4a038d	0.19727917
1	0xbe7e5b2a	-0.24839464
2	0xbe08434e	-0.13306925
3	0x3e691813	0.2276309
4	0xbeac9c8a	-0.3371318
5	0xbc715b52	-0.014731245
6	0xbc21b393	-0.009869474
7	0x3c028a5a	0.007967556
8	0xbcbb8c27	-0.022893978
9	0xbcd3764f	-0.02581325
10	0x3d40d027	0.04707351
11	0xbcf735a0	-0.030176938
12	0x3e01c398	0.1267227
13	0x3e4b7fbd	0.19872947
14	0x3ccc1072	0.024910185
15	0xbe896a72	-0.26839024
16	0xbe45cd96	-0.19316706
17	0xbdcfb1d5	-0.10141341
18	0xbc0655d1	-0.008199171
19	0xbd168ee5	-0.03675737
20	0x3e2ee082	0.1707783
21	0xbe813995	-0.25239244
22	0xbe13ac25	-0.14421137
23	0xbc907ccb	-0.01763763
24	0xbaaab94c	-0.0013025193
25	0xbc35f04f	-0.011104657
26	0xbc8598d4	-0.016308226
27	0xba90fced	-0.0011061706
28	0xbe845c5a	-0.2585171
29	0xbe6a510b	-0.22882478
30	0xbc9e96d3	-0.019359028
31	0xbe8d27f0	-0.27569532
32	0xbc7ed1ac	-0.015552919
33	0xbe93ea0d	-0.28889504
34	0xbcecc744	-0.028903611
35	0xbcc7d160	-0.02439183
36	0xbc84795a	-0.016171146
37	0xbc3f2bde	-0.011668174
38	0xbe236662	-0.15957025
39	0xbde679ba	-0.11253686
40	0xbe87acfa	-0.26499158
41	0xbcfafb1e	-0.03063732
42	0xbe42f687	-0.19039355
43	0xbd8519c8	-0.06499058
44	0xbe887433	-0.26651153
45	0xbe00b510	-0.1256907
46	0xbecbe694	-0.39824355
47	0xbc908f0d	-0.017646337
48	0x3df2329e	0.11826061
49	0xbda8055c	-0.08204147
50	0xbd09a268	-0.03360215
51	0xbe14fb7c	-0.14549059
52	0xbe93bc51	-0.28854612
53	0xbd2011de	-0.03907954
54	0xbd30f3ae	-0.04320114
55	0xbc8cc17f	-0.01718211
56	0xbe362815	-0.17788728
57	0xbe901421	-0.28140357
58	0xbd0b2071	-0.033966485
59	0xbe37d9f4	-0.17954236
60	0xbe6edb2f	-0.233258
61	0xbdf8af31	-0.1214279
62	0xbd212171	-0.039338533
63	0xbe257d97	-0.1616119
64	0x3bdcc828	0.0067377277
65	0xbc6c8a50	-0.014437273
66	0xbce1264c	-0.027484082
67	0xbcc8ecef	-0.024527041
68	0xbc4713bd	-0.012150702
69	0xbd067c8e	-0.03283363
70	0xbe836bb7	-0.25668117
71	0x3dbbfb01	0.091787346
72	0xbe7bdc51	-0.24595763
73	0x3dbe20ed	0.09283624
74	0x3e1f61ad	0.15564604
75	0xbeb1eeb6	-0.34752434
76	0x3e781849	0.24228014
77	0xbd00a69a	-0.031408884
78	0x3e51de69	0.20494999
79	0xbd9e9fe4	-0.077453405
80	0xbd148844	-0.036262766
81	0xbc88b7ed	-0.016689265
82	0xbc836f83	-0.016044384
83	0x3ddb8f42	0.10720684
84	0xbe656f79	-0.22405805
85	0xbe8b1b24	-0.27169144
86	0xbe8c3251	-0.27382138
87	0x3cd274ba	0.025690425
88	0xbc8cbdce	-0.01718035
89	0xbe3b87e1	-0.18313552
90	0xbc87e3db	-0.016588142
91	0xbe94e9ea	-0.29084712
92	0x3e89828b	0.2685741
93	0xbccd6163	-0.025070852
94	0xbe20002a	-0.15625063
95	0x3d82c567	0.06385308
96	0xbd4dc638	-0.050237864
97	0xbe9c1457	-0.30484268
98	0x3d7c37da	0.0615767
99	0xbe3e4654	-0.18581516
100	0xbcf7be02	-0.03024197
101	0xbcdba5ec	-0.026812516
102	0xbc790963	-0.015199992
103	0xbe949dbb	-0.2902659
104	0xbe9622c8	-0.2932341
105	0x3cfaa543	0.030596381
106	0x3d46ab9b	0.0485035
107	0xbea28d35	-0.31748357
108	0xbe8e85c8	-0.27836442
109	0xbc8d772d	-0.017268742
110	0x3bbe87bd	0.005814521
111	0xbe9bb523	-0.30411634
112	0xbe263c39	-0.1623391
113	0xbd40f162	-0.0471052
114	0x3bbfa808	0.0058488883
115	0xbc67c311	-0.014145629
116	0x3e2dc53b	0.16969769
117	0xbd1f0fa5	-0.03883328
118	0x3e831703	0.25603494
119	0xbe1fd681	-0.1560917
120	0x3e348e57	0.17632423
121	0xbe93b1f6	-0.2884671
122	0xbc9a1466	-0.018808555
123	0x3e57c9fc	0.21073145
124	0xbd81809a	-0.06323357
125	0xbd0972a2	-0.033556588
126	0xbd0c2443	-0.03421427
127	0xbc732965	-0.014841412
128	0xbe5f12f8	-0.2178458
129	0xbe96f700	-0.2948532
130	0xbcb05f37	-0.021529777
131	0xbe916ec7	-0.2840483
132	0x3e2b11c0	0.1670599
133	0xbc5e753e	-0.013577757
134	0x3dfb532b	0.122717224
135	0xbc95666d	-0.018237317
136	0x3e7df5db	0.24800818
137	0xbca935fd	-0.020655626
138	0xbcf6f98d	-0.030148292
139	0xbd283d90	-0.041074336
140	0x3d1aa5f8	0.037755936
141	0xbc73e37b	-0.014885779
142	0xbcbedbca	-0.023298163
143	0xbe30deca	-0.17272487
144	0xbe64a0a2	-0.22326902
145	0x3e709f62	0.234983
146	0xbd31cfc0	-0.043411016
147	0xbcb996f4	-0.022654988
148	0xbea3f4d6	-0.32022732
149	0xbeb55775	-0.35418287
150	0xbdf070ff	-0.11740302
151	0xbcd1dbaf	-0.025617449
152	0xbcf6e40c	-0.030138038
153	0xbc8c4ee3	-0.01712746
154	0xbd0a63c3	-0.033786546
155	0xbe00d758	-0.12582147
156	0x3c37c2c0	0.011215866
157	0x3da16af3	0.07881727
158	0xbe2d8146	-0.16943845
159	0xbca2e7cc	-0.01988592
160	0xbe375ab0	-0.17905688
161	0x3e15c650	0.14626431
162	0x3cc41d05	0.023939619
163	0xbebc6925	-0.3679897
164	0xbc6942fc	-0.014237162
165	0x3e1c5eb3	0.152705
166	0xbe4771fa	-0.19477072
167	0xbe941c2d	-0.28927746
168	0xbdd338cf	-0.1031357
169	0xbe356a1f	-0.17716263
170	0xbd48f792	-0.049064226
171	0x3bc44ae2	0.005990372
172	0xbd42db37	-0.04757234
173	0xbceee023	-0.029159611
174	0xbe4d4ce5	-0.20048864
175	0xbdfe90c4	-0.124299556
176	0xbd96f71a	-0.0737135
177	0xbe37e596	-0.17958674
178	0xbd29e0f8	-0.041474313
179	0xbcc96b34	-0.024587251
180	0x3d97fe85	0.074215926
181	0xbce5c043	-0.02804578
182	0xbcc5e444	-0.024156697
183	0xbea2811e	-0.31739134
184	0x3d363a3d	0.044489134
185	0xbca0170a	-0.019542236
186	0xbe7f0eb7	-0.24907957
187	0x3d33fe23	0.043943536
188	0x39e5794d	0.0004376866
189	0x3d13a9b8	0.03605053
190	0xbcf23e37	-0.029570682
191	0xbce5962e	-0.028025713
192	0xbe859c02	-0.26095587
193	0xbcf65b98	-0.030072972
194	0xbc629b82	-0.013831021
195	0xbe9c91d0	-0.30579996
196	0xbd3f2e51	-0.04667503
197	0xbe84bd5c	-0.2592572
198	0xbe512884	-0.20425612
199	0xbe97d11a	-0.2965172

mu.weight f4 [4, 200]
0	0x3df7f9cd	0.121081926
1	0xbd49ce25	-0.04926886
2	0xbe26176e	-0.16219875
3	0x3ccba588	0.024859205
4	0xbe49eb62	-0.19718698
5	0x3e23a9b6	0.15982708
6	0x3da81c2a	0.08208497
7	0x3e6f561f	0.23372696
8	0xbd82d32c	-0.06387934
9	0x3d22193c	0.039574847
10	0x3e0080cb	0.1254913
11	0x3e0a9bbc	0.1353597
12	0xbc731d7b	-0.014838572
13	0x3dc74a86	0.09731011
14	0xbe0d27ac	-0.13784665
15	0xbb1c8bac	-0.0023886962
16	0x3da7cd62	0.081934705
17	0x3d974b89	0.07387454
18	0xbe0219ca	-0.1270515
19	0x3c5ee6cc	0.013604831
20	0x3eaa5974	0.33271372
21	0xbe2674a5	-0.16255434
22	0xbe4cff4c	-0.20019263
23	0x3d97477b	0.07386681
24	0x3dfc7516	0.1232702
25	0x3d9b195e	0.07573198
26	0xbd6ee482	-0.05832339
27	0x3df99f1f	0.12188553
28	0xbe5c5a4a	-0.21518818
29	0xbe5af47b	-0.21382324
30	0x3e5309cc	0.20609206
31	0xbec48702	-0.38384253
32	0xbdee01e1	-0.11621452
33	0xbe0c33df	-0.13691662
34	0xbc6439ed	-0.013929826
35	0x3e1b252d	0.151509
36	0xbb7213a9	-0.0036937988
37	0x3d7313bd	0.059344996
38	0xbe7a5a09	-0.24448408
39	0x3e6706a3	0.22561125
40	0xbe3f2448	-0.18666184
41	0x3dc012fe	0.093786225
42	0xbea892d5	-0.32924524
43	0x3e0de077	0.13855158
44	0xbe164952	-0.14676407
45	0x3dd88333	0.10571899
46	0xbd892523	-0.066965364
47	0xbd29bcc3	-0.041439783
48	0x3e509d16	0.20372424
49	0xbe68e20c	-0.2274248
50	0xbc97e485	-0.018541584
51	0xbe06a83c	-0.13150114
52	0xbd78965d	-0.060690273
53	0x3d07442e	0.033024006
54	0xbe06c9ad	-0.1316287
55	0x3ca56e68	0.020194247
56	0xbddd395d	-0.10801957
57	0xbc89b75a	-0.016811062
58	0xbe3de675	-0.18544944
59	0xbe244093	-0.16040258
60	0xbeb2c269	-0.34913948
61	0x3e3f048b	0.18654077
62	0x3e0b9b95	0.13633569
63	0xbe59c6d8	-0.21267259
64	0xbdac1ff1	-0.0840453
65	0xbd5d2d28	-0.053998142
66	0xbdccda87	-0.10002618
67	0x3e440ddf	0.19145916
68	0x3d1026ad	0.035193134
69	0x3dceade1	0.100917585
70	0x3ddc3da2	0.10753943
71	0x3e058797	0.13040005
72	0xbde9508a	-0.11392315
73	0x3e05d1cf	0.13068317
74	0x3e477946	0.19479856
75	0xbdbe2f22	-0.092863336
76	0x3dd8b8f5	0.10582153
77	0xbda2b18a	-0.07944019
78	0x3cd5a2fe	0.026078697
79	0x3e4573a1	0.1928239
80	0x3c446181	0.011986137
81	0xbc51d727	-0.012807644
82	0x3c5ab4d2	0.013348775
83	0x3d4d7d25	0.050168175
84	0xbe645770	-0.2229898
85	0xbe316dfe	-0.17327115
86	0x3dd03ab1	0.101674445
87	0x3db75522	0.08951785
88	0xbe16117a	-0.14655104
89	0x3dde2c9d	0.10848353
90	0x3cdfc57c	0.027315848
91	0xbded97b9	-0.116012044
92	0xbde0d94e	-0.109789476
93	0x3e1d6297	0.1536964
94	0xbd3759ae	-0.04476326
95	0xbdc329e8	-0.09529477
96	0xbcb780a1	-0.022400202
97	0xbe203406	-0.15644845
98	0x3e55009c	0.20801014
99	0xbe03ee26	-0.12883815
100	0x3ca6fc48	0.020383969
101	0x3e8c7e3e	0.27440065
102	0xbdc736e8	-0.097272694
103	0xbdb89902	-0.09013559
104	0xbe43f43f	-0.19136141
105	0x3e1e0e54	0.15435153
106	0x3de4c4b3	0.1117033
107	0xbe9ac92a	-0.302316
108	0x3cfc5f4f	0.030807165
109	0xbd2a2382	-0.04153777
110	0x3e7a333a	0.24433604
111	0x3d43232e	0.04764097
112	0xbdf659be	-0.12028836
113	0x3c7e0c9e	0.015505938
114	0x3d6f4036	0.058410846
115	0xbd130c75	-0.03590055
116	0xbe2567e5	-0.16152914
117	0x3ddafcac	0.106927246
118	0xbe09aa5b	-0.13443892
119	0x3d05369b	0.03252278
120	0xbe11397e	-0.14182088
121	0xbdd1558f	-0.10221397
122	0x3e23634d	0.15955849
123	0x3e380f63	0.1797462
124	0x3d9aa477	0.075509004
125	0x3ddc9308	0.107702315
126	0x3dcc5693	0.0997745
127	0xbe33c511	-0.17555644
128	0x3e0d0faf	0.13775514
129	0xbe1b5cce	-0.15172121
130	0xbecc7be0	-0.3993826
131	0xbdd12f36	-0.10214083
132	0x3d4593ee	0.04823678
133	0x3d887b82	0.06664182
134	0x3e6a9932	0.22910002
135	0xbdc2a4ed	-0.09504113
136	0x3e329182	0.1743832
137	0x3c34ca32	0.011034535
138	0x3d5dc9b9	0.054147456
139	0xbb474275	-0.0030404602
140	0x3db38039	0.08764691
141	0xbde52ad7	-0.11189812
142	0x3cfbd659	0.030741857
143	0xbea031ee	-0.31288093
144	0xbd412fa3	-0.04716457
145	0x3ea25207	0.31703207
146	0xbcfc7b0c	-0.030820392
147	0x39e9fe62	0.00044630753
148	0x3e0435b1	0.12911107
149	0xbb242713	-0.0025047704
150	0xbe06b8bc	-0.13156408
151	0x3d887739	0.06663365
152	0xbcd919d8	-0.026501581
153	0x3dbb9ca2	0.09160735
154	0xbd82cbac	-0.063865036
155	0x3dfda390	0.12384713
156	0x3e4a396e	0.1974847
157	0xbf166c48	-0.58758974
158	0xbd6777e9	-0.05651084
159	0x3d98c11c	0.07458708
160	0xbda15a4a	-0.078785494
161	0x3e1d11df	0.15338849
162	0x3e2025c6	0.1563941
163	0x3e0beaaf	0.13663743
164	0x3bf4437b	0.0074543334
165	0x3e3a4ff7	0.18194567
166	0xbdbe9bde	-0.09307073
167	0xbe4177c6	-0.18893346
168	0x3e27d393	0.16389303
169	0xbea6ab25	-0.32552448
170	0x3dd996a2	0.10624434
171	0x3dc63ec4	0.0967994
172	0xbde5dd59	-0.11223859
173	0xbd0bcc6b	-0.034130495
174	0x3e057cbc	0.13035864
175	0xbe9d8764	-0.30767357
176	0x3dea599d	0.114428736
177	0xbe48bfc0	-0.19604397
178	0xbbd8bec5	-0.0066145384
179	0x3e271424	0.16316277
180	0x3e7b3a9e	0.2453408
181	0x3dfbdfc4	0.12298539
182	0xbde02594	-0.109446675
183	0x3cb7382e	0.022365656
184	0xbda906f0	-0.08253276
185	0xbd950f27	-0.07278281
186	0xbe7be367	-0.24598466
187	0xbe79a507	-0.24379359
188	0xbda67636	-0.08128016
189	0x3cefdc03	0.029279714
190	0xbd557d0d	-0.05212121
191	0xbc81c029	-0.0158387
192	0xbe981f1b	-0.29711232
193	0x3db0d8bb	0.08635088
194	0x3dc39945	0.09550718
195	0xbdc79de3	-0.097469114
196	0x3d10b74b	0.03533105
197	0xbe51b989	-0.20480932
198	0xbd2d80a2	-0.042359002
199	0xbdfc1af8	-0.123098314
200	0x3e4461bb	0.19177906
201	0x3e3f04c5	0.18654163
202	0xbe63ec56	-0.22258124
203	0x3dda4c10	0.10659039
204	0xbec5bb9a	-0.3861969
205	0x3e1fd577	0.15608774
206	0x3d86c4a7	0.06580477
207	0xbe2b629a	-0.16736832
208	0x3e16cee3	0.14727359
209	0x3d2b6289	0.041842017
210	0x3d199c97	0.03750285
211	0xbe1e99e2	-0.15488389
212	0xbd0b17b4	-0.033958152
213	0x3df43bec	0.11925492
214	0x3dde4e64	0.108547956
215	0xbd7147af	-0.058906253
216	0x3e1fc6f8	0.15603244
217	0x3dd69b25	0.1047881
218	0x3e43351f	0.19063233
219	0xbde0fb9b	-0.1098549
220	0x3e81cc65	0.25351253
221	0xbe57e157	-0.21082054
222	0xbdb3925e	-0.08768152
223	0x3e118f6e	0.1421487
224	0xbdbdc33f	-0.09265756
225	0xbbaa0c57	-0.0051894593
226	0x3e1c4d7f	0.15263937
227	0x3cc6e01e	0.02427679
228	0x3da24f5b	0.07925292
229	0xbe6aedb9	-0.22942246
230	0xbe375fe6	-0.17907676
231	0x3dd369b9	0.10322899
232	0xbd878381	-0.06616879
233	0xbe39ee2f	-0.18157266
234	0x3db32fa8	0.08749324
235	0x3dd4690d	0.10371599
236	0x3c9893f7	0.018625243
237	0x3df8a3af	0.12140595
238	0x3e28fc3e	0.16502473
239	0xbe5f8645	-0.21828564
240	0xbe765e8b	-0.24059503
241	0x3dda25f4	0.1065177
242	0xbe8bad7a	-0.2728079
243	0xbd8db431	-0.069191344
244	0x3d498ba7	0.04920545
245	0x3eca0a65	0.39461055
246	0xbece2023	-0.40258893
247	0xbd88992a	-0.06669839
248	0xbe473f22	-0.19457677
249	0x3dd4ac8b	0.103844725
250	0x3ca13a7d	0.01968121
251	0xbe166ec4	-0.14690691
252	0xbe342545	-0.17592342
253	0x3e0395f6	0.12850174
254	0x3dfaae16	0.122402355
255	0x3dc78133	0.0974144

mu.bias f4 [4]
0	0x3e1798b9	0.14804353
1	0x3e2d6d34	0.16936189
2	0x3e2949ec	0.16532105
3	0x3e1febc0	0.15617275
