llirl_sumo/saves/sumo_single_intersection/env_models.pth (torch, 295526 bytes, 6 tensors)

layer1.weight f4 [200, 160]
0	0x3e062dbf	0.13103388
1	0x3df3e857	0.1190955
2	0xbd09f5b6	-0.033681594
3	0x3e56dfd9	0.20983829
4	0x3e3e470d	0.18581791
5	0xbcf926b1	-0.030413957
6	0x3e02a4ef	0.1275823
7	0x3eb9d730	0.36296988
8	0x3d717045	0.05894496
9	0x3d5c8386	0.053836368
10	0x3ea7bf94	0.3276335
11	0x3e10898d	0.14114971
12	0x3e7b8619	0.24562873
13	0x3e45acb7	0.19304167
14	0x3e49c41b	0.19703715
15	0xbd9a1a34	-0.07524529
16	0x3c529b74	0.012854446
17	0xbe55de27	-0.20885526
18	0xbdb0e6ed	-0.086377956
19	0x3dd90594	0.10596767
20	0xbe42d29a	-0.1902565
21	0x3df9f067	0.12204056
22	0x3e74f7fd	0.23922725
23	0xbe473a7c	-0.19455904
24	0x3d84cb9e	0.064841494
25	0x3e7ca781	0.24673273
26	0xbd2a3c4d	-0.041561414
27	0x3e81d441	0.2535725
28	0x3d942065	0.07232741
29	0xbde03433	-0.10947456
30	0x3dfbc465	0.12293319
31	0x3de98a72	0.114033595
32	0x3d965ada	0.07341547
33	0xba56cd2c	-0.0008194025
34	0x3e37d176	0.17950997
35	0x3d2e19c4	0.04250504
36	0xbda85f1e	-0.08221267
37	0x3dbe7292	0.09299196
38	0x3db6cfe9	0.089263745
39	0xbd437ffc	-0.047729477
40	0x3df17e4e	0.11791669
41	0x3dfd320f	0.123630635
42	0x3e3a912c	0.18219441
43	0x3e5d310f	0.21600746
44	0x3e7f4288	0.24927723
45	0x3e9b1107	0.30286428
46	0x3e7923aa	0.24330011
47	0x3e1f2d5a	0.15544644
48	0x3e51f101	0.20502092
49	0x3e917486	0.28409213
50	0x3e8017db	0.250182
51	0xbda12266	-0.07867889
52	0x3baf778d	0.0053548277
53	0xbd5cb12f	-0.053879913
54	0xbe29c393	-0.16578512
55	0xbdcdbc7f	-0.100457184
56	0xbdce1f02	-0.10064508
57	0xbd67aa0c	-0.056558654
58	0x3e5dcb26	0.21659526
59	0x3b90581f	0.004405036
60	0x3da7cff9	0.081939645
61	0x3e19bd0f	0.15013526
62	0xbdf73d3e	-0.12072228
63	0xbc37a83d	-0.011209545
64	0x3dc33056	0.09530704
65	0x3b688c6e	0.0035484093
66	0x382c8d9e	4.1139887e-05
67	0x3e1622ef	0.14661764
68	0x3e0762db	0.13221304
69	0x3e021cfe	0.12706372
70	0x3e1259ec	0.14292115
71	0xbd914767	-0.07093697
72	0xbe0fdc80	-0.14048958
73	0xbe8e74c0	-0.27823448
74	0x3ddda5bb	0.10822626
75	0xbdbd5e5f	-0.092465155
76	0xbe814e34	-0.25254977
77	0xbb16e936	-0.0023027188
78	0x3e4f8a9b	0.20267718
79	0x3e6bc1a6	0.2302309
80	0x3e7b073d	0.2451448
81	0x3e7abb7a	0.24485579
82	0x3e199466	0.14998016
83	0x3e52e36b	0.20594566
84	0x3e4c59db	0.19956152
85	0x3e97bab1	0.29634622
86	0x3e158e3f	0.14605044
87	0xbd5f8f77	-0.054580178
88	0xbdb5b8e3	-0.08873155
89	0x3e674549	0.22585024
90	0x3d3e85b4	0.046514228
91	0x3d56d51d	0.052449334
92	0x3e3c90d4	0.18414623
93	0xbc5acf4f	-0.01335509
94	0xbd6dce07	-0.05805781
95	0x3e20cbed	0.15702792
96	0x3c1e4b74	0.009661544
97	0xbe0e3228	-0.1388632
98	0xbd40d686	-0.047079585
99	0xbde4df09	-0.11175353
100	0xbe1c2fa6	-0.15252551
101	0x3c25dcbd	0.010123429
102	0x3e1192c5	0.14216144
103	0x3cf55338	0.029946908
104	0x3e9884d6	0.29788846
105	0x3e27e923	0.16397528
106	0x3d19d8f1	0.037560407
107	0x3e06edef	0.13176702
108	0xbbac2cc3	-0.0052543595
109	0x3dd45333	0.103674315
110	0xbdc1c766	-0.0946186
111	0x3d034f1e	0.032057874
112	0x3dd5b4cd	0.10434876
113	0xbde1a2ed	-0.11017404
114	0x3e73928e	0.23786375
115	0x3ebc5133	0.367807
116	0x3e3bab11	0.18326975
117	0x3e58b0f2	0.2116125
118	0x3eecb5e4	0.46232522
119	0x3db60bf7	0.08889001
120	0x3e63e92a	0.22256914
121	0x3e8d3150	0.27576685
122	0x3e13150a	0.14363495
123	0x3ea70730	0.3262267
124	0x3e779223	0.2417684
125	0xbe5e63d1	-0.21717764
126	0x3e497f81	0.19677545
127	0x3e923810	0.28558397
128	0xbe81a3ae	-0.2532019
129	0x3e15552f	0.14583276
130	0x3e71ac7a	0.23600951
131	0xbeaa3fdd	-0.3325185
132	0x3e834862	0.2564116
133	0x3df0fa15	0.11766449
134	0xbe29aa47	-0.16568862
135	0x3e9f58f7	0.31122562
136	0x3e7aa586	0.24477205
137	0xbe289357	-0.16462456
138	0x3e8d8f8a	0.27648574
139	0x3ed355db	0.4127644
140	0x3d05ed0d	0.032696772
141	0x3e7fd530	0.24983668
142	0x3ed112c2	0.40834624
143	0x3d149a00	0.03627968
144	0xbcc891bc	-0.024483554
145	0xbd9645ee	-0.07337557
146	0x3c4183d2	0.011811214
147	0x3df47300	0.11935997
148	0xbd43ffa7	-0.04785123
149	0x3d0a9192	0.033830233
150	0x3dd9c75d	0.10633729
151	0x3dcc53db	0.09976932
152	0xbdc049ff	-0.09389114
153	0xbcb6db9b	-0.022321513
154	0xbdf51ff0	-0.11968982
155	0xbde3a56e	-0.111155376
156	0x3be5e116	0.0070153577
157	0x3dbbbcb9	0.09166855
158	0x3dc908a4	0.09816101
159	0x3db853a4	0.09000328
160	0xbdf3d455	-0.119057335
161	0xbe25f46c	-0.16206521
162	0x3cbd9631	0.023142906
163	0xbe3f0492	-0.18654087
164	0xbd336dc6	-0.04380586
165	0xbdb97cce	-0.09057008
166	0xbea0635f	-0.31325814
167	0xbee94ca8	-0.45566297
168	0xbe9dc41f	-0.3081369
169	0xbe286894	-0.16446143
170	0xbeed7556	-0.46378583
171	0xbe77135c	-0.24128479
172	0xbdb7082d	-0.08937106
173	0xbea17027	-0.31530878
174	0xbe6c488c	-0.2307455
175	0x3cfdc205	0.030976305
176	0xbe1d4c55	-0.1536115
177	0x3e51bdd0	0.20482564
178	0xbe43dead	-0.19127913
179	0xbd977214	-0.073948056
180	0x3e818241	0.25294688
181	0xbe81ed2b	-0.25376257
182	0xbe5e2e8d	-0.21697445
183	0x3e74f68a	0.23922172
184	0xbe92ace2	-0.28647524
185	0xbebe178c	-0.3712734
186	0x3dabdc42	0.0839162
187	0xbea0539b	-0.31313786
188	0xbe6d6125	-0.23181589
189	0x3e931c0d	0.2873234
190	0xbe22fe41	-0.15917303
191	0xbe26a5ed	-0.16274233
192	0xbd74b671	-0.059744302
193	0xbe6a17cf	-0.22860645
194	0xbe4d8592	-0.20070484
195	0xbe34501b	-0.17608683
196	0xbd23d35b	-0.039996486
197	0xbd4d82f6	-0.050173722
198	0xbe6068d3	-0.21914987
199	0xbd84e115	-0.064882435
200	0xbca0bc8b	-0.019621154
201	0xbdd46efe	-0.103727326
202	0xbeb3b1e0	-0.35096645
203	0xbeb1c46d	-0.34720173
204	0xbd9c5580	-0.07633495
205	0xbeb75347	-0.35805723
206	0xbed4858c	-0.41508138
207	0xbe7267bf	-0.23672388
208	0xbe237171	-0.15961243
209	0xbe65fd04	-0.22459799
210	0xbdb11189	-0.08645923
211	0x3e0751aa	0.13214746
212	0x3dc9fdcf	0.09862863
213	0x3d98bdcf	0.07458078
214	0x3b9da0fa	0.0048104497
215	0x3d1bf125	0.03807177
216	0xbe142c71	-0.14470078
217	0xbe2bb19d	-0.16766973
218	0xbda32639	-0.07966275
219	0x3c863156	0.016380947
220	0x3d7b6d12	0.061383314
221	0xbe815db0	-0.2526679
222	0x3d456b02	0.048197754
223	0xbc4a3282	-0.012341144
224	0xbe58a1b9	-0.21155442
225	0xbdc078d7	-0.09398048
226	0xbe8c1e8a	-0.2736705
227	0xbe1c3ee1	-0.15258361
228	0xbe70a21b	-0.23499338
229	0xbe45ebe4	-0.19328266
230	0xbe59483a	-0.21218958
231	0xbe3537ef	-0.17697118
232	0xbdd01293	-0.10159793
233	0x3d6d0270	0.057863653
234	0x3d3846e0	0.044989467
235	0xbd9ac0bc	-0.075562924
236	0xbdddc1bf	-0.1082797
237	0xbb61b478	-0.0034439843
238	0xbe8fa556	-0.2805583
239	0xbed1e906	-0.40998095
240	0xbe5f2642	-0.21791938
241	0xbebd18dc	-0.3693303
242	0xbe9427dc	-0.2893666
243	0xbe3794b8	-0.17927825
244	0xbea626d6	-0.32451504
245	0xbe5807f5	-0.21096785
246	0xbda2dc71	-0.07952202
247	0xbc811fbe	-0.015762206
248	0xbe3d05a0	-0.18459177
249	0x3db9aa28	0.09065658
250	0xbdbac35c	-0.09119293
251	0xbe75bfea	-0.2399899
252	0x3e6c2da9	0.23064293
253	0x3c2b7e67	0.010467148
254	0xbe1b8482	-0.15187266
255	0x3b082bfd	0.0020778172

layer1.bias f4 [200]
0	0xbd17d27c	-0.037065968
1	0x3ced1579	0.028940903
2	0xbd5380df	-0.051636573
3	0x3d0a7ea4	0.03381218
4	0xbc7fff27	-0.015624798
5	0xbd645c7c	-0.055752262
6	0xbd346c43	-0.04404856
7	0xbd00a42c	-0.031406567
8	0xbccb94f9	-0.02485131
9	0x3d3eeb23	0.046610963
10	0xbd080bba	-0.03321431
11	0xbd24bebb	-0.040220957
12	0xbba9210a	-0.0051614093
13	0x3d1b9e3c	0.0379927
14	0x00000000	0.0
15	0x3c4fac55	0.0126753645
16	0xbd069af8	-0.032862633
17	0x3d2728d0	0.040810406
18	0xbd280cf0	-0.041027963
19	0xbb70fd22	-0.0036771973
20	0x3d1f5066	0.038895033
21	0xbbab3cb4	-0.0052257422
22	0xbd0ca576	-0.034337483
23	0xbd2bdd8e	-0.041959338
24	0x3d6cb278	0.05778739
25	0xbc8ab785	-0.016933212
26	0xbd2b75c4	-0.041860357
27	0xbc9e9f21	-0.019362988
28	0xbca4c91f	-0.020115433
29	0xbd1c0857	-0.03809389
30	0xbd2df1a3	-0.04246677
31	0xbd0a4204	-0.033754364
32	0xbc22f34c	-0.009945702
33	0xbccb2240	-0.024796605
34	0xbd1381f9	-0.036012623
35	0xbc632ecf	-0.0138661405
36	0x3d679f3a	0.056548335
37	0xbce65110	-0.028114825
38	0xbcdea2a4	-0.027177162
39	0x3c50a6ce	0.012735082
40	0xbd3a6cc6	-0.04551389
41	0x3c8624d7	0.016374988
42	0x3b138be4	0.0022513801
43	0x3bd0efec	0.006376257
44	0x00000000	0.0
45	0xbd03be46	-0.03216388
46	0x3cf37aaf	0.029721586
47	0xbd26fd57	-0.040768947
48	0xbce4a17a	-0.02790903
49	0x00000000	0.0
50	0x00000000	0.0
51	0xbc9cd091	-0.019142421
52	0xbd4d7862	-0.050163634
53	0xbcb7069d	-0.02234202
54	0x3c323220	0.010876209
55	0xbd68cc49	-0.056835447
56	0x3c064b6b	0.008196692
57	0xbc864515	-0.016390363
58	0x00000000	0.0
59	0xbcf5d48f	-0.030008582
60	0xbd60e1ab	-0.054902714
61	0xbc3fbc04	-0.011702541
62	0xbc2b731f	-0.010464459
63	0x3cdd2215	0.02699379
64	0xbc8ed8a6	-0.01743729
65	0xbcaeeb54	-0.021352448
66	0xbc7d9de8	-0.015479542
67	0xbd28da07	-0.041223552
68	0xbce86c0c	-0.028371833
69	0x3d216291	0.03940064
70	0x3b95c8a6	0.0045710383
71	0xbc430a6a	-0.011904338
72	0x39a59f32	0.00031589862
73	0xbb8c0a0d	-0.004273659
74	0xbcce9473	-0.02521727
75	0xbbc6e8df	-0.006070241
76	0x3d2c21c5	0.042024393
77	0xbaf74af8	-0.0018866947
78	0x3acf3268	0.0015807869
79	0xbb89e599	-0.0042082784
80	0xbd00c386	-0.031436466
81	0xbc1aac22	-0.009440454
82	0xbbfe7732	-0.007765674
83	0x3d2d88ea	0.0423669
84	0x3d03b09e	0.032150857
85	0xba888e56	-0.0010418396
86	0x00000000	0.0
87	0xbcedb8a1	-0.029018702
88	0xbcdac56f	-0.026705472
89	0xbbaa18a7	-0.005190927
90	0xbca9198d	-0.020642066
91	0x00000000	0.0
92	0xbd4ddcb8	-0.050259322
93	0x3cb31ca8	0.02186425
94	0xbcd59e79	-0.026076542
95	0x3c3708ae	0.011171503
96	0xbd2e8585	-0.042607803
97	0xbcc3b578	-0.023890242
98	0xbb8744c7	-0.004128072
99	0xbc5a6169	-0.013328888
100	0xbc16f207	-0.009212977
101	0xbb8c89db	-0.0042888946
102	0xbd7bf57d	-0.061513413
103	0xbb5cdd58	-0.0033701267
104	0xbcb30c37	-0.02185641
105	0xbd2e9988	-0.042626888
106	0xbc6cfd9c	-0.014464762
107	0xbcc7fa9e	-0.024411496
108	0xbc2bc3e5	-0.010483717
109	0xbbc42903	-0.0059863343
110	0xbc827d09	-0.015928762
111	0xbd18160a	-0.037130393
112	0xbd6ea2a0	-0.05826056
113	0xbd3cdb1b	-0.046107393
114	0xbccf288b	-0.025287887
115	0x3d1a3e14	0.03765686
116	0xbbdb5dd6	-0.0066945357
117	0x3c830186	0.015991937
118	0xbcedefa8	-0.029044941
119	0xbc5ca03f	-0.01346594
120	0xbc909cd3	-0.017652905
121	0x00000000	0.0
122	0x00000000	0.0
123	0x3d407fcb	0.046996873
124	0xbd0e46ca	-0.03473548
125	0xbd207339	-0.039172385
126	0x3d01da72	0.031702466
127	0xbc9463eb	-0.01811405
128	0x3c4eaeae	0.012614889
129	0x3c9993eb	0.01874729
130	0xbd61b7e2	-0.055107005
131	0xbcb2027d	-0.021729702
132	0x3cd583a0	0.02606374
133	0xbc2a2d0f	-0.010386719
134	0xbd32ff69	-0.04370061
135	0x3b4bd06b	0.0031099569
136	0x00000000	0.0
137	0xbbb3030f	-0.005463011
138	0x3cad6b93	0.02116946
139	0xbd55f11e	-0.0522319
140	0x00000000	0.0
141	0xbd3fe243	-0.04684664
142	0x3d1dc567	0.038518336
143	0xbd574871	-0.05255932
144	0xbb82aabf	-0.0039876397
145	0xbcf5576c	-0.029948913
146	0xbc86620f	-0.01640418
147	0x3c392b80	0.011301875
148	0x3cd0ddfa	0.025496472
149	0xbcddd028	-0.027076796
150	0xbd59cc07	-0.05317309
151	0x3c92b2b8	0.017907485
152	0xbd180a36	-0.037119113
153	0x3cb40c18	0.021978423
154	0xbbbd671a	-0.005780113
155	0x3cbf6a48	0.023366109
156	0xbd15dbe3	-0.036586653
157	0xba87b403	-0.001035333
158	0x3ca9254c	0.020647667
159	0x3b525620	0.0032094792
160	0x00000000	0.0
161	0x3c5fd131	0.013660715
162	0xbc8c60af	-0.017135946
163	0xbc69228d	-0.014229429
164	0xbcb7bbae	-0.02242836
165	0xbd114e6b	-0.035475176
166	0xbcc219fe	-0.023694035
167	0xbd4f2f16	-0.050582014
168	0xbc42810b	-0.011871587
169	0xbd0aa55b	-0.0338491
170	0x3d01569d	0.03157674
171	0x3d23d8cd	0.04000168
172	0xbd098d2a	-0.03358189
173	0xbd1680f2	-0.036744066
174	0xbd21fa0d	-0.039545108
175	0x00000000	0.0
176	0x3cf35b8b	0.029706737
177	0x00000000	0.0
178	0x00000000	0.0
179	0xbcbe87b0	-0.02325806
180	0x3cff096c	0.031132422
181	0xba85e0a3	-0.0010214042
182	0xbcd20bb7	-0.025640352
183	0xbd1feeb0	-0.03904599
184	0xbc27e5bd	-0.010247645
185	0xbd2c2a3c	-0.042032465
186	0xbd19f695	-0.037588675
187	0xbaf8955f	-0.0018965414
188	0xbbde7282	-0.0067885527
189	0xbb9bdaa8	-0.0047562905
190	0xbcdfdd96	-0.02732734
191	0xbd0bb2bc	-0.034106
192	0xbb497277	-0.0030738392
193	0xbbdd8f74	-0.0067614857
194	0xbd2f1fe3	-0.04275502
195	0x00000000	0.0
196	0xbccaa860	-0.02473849
197	0x3d34bca2	0.044125207
198	0xbd1858e5	-0.03719415
199	0xbc0c7d79	-0.008574837

layer2.weight f4 [200, 200]
0	0x3dab4605	0.083629645
1	0xbe074881	-0.13211252
2	0x3da9b71d	0.08286879
3	0x3dd762e6	0.1051691
4	0xbb0400c3	-0.0020142056
5	0x3a3547da	0.0006915309
6	0xbd64a08a	-0.055817164
7	0x3dabf901	0.08397103
8	0xbc8c54e9	-0.017130332
9	0x3e443618	0.1916126
10	0xbdc02f6d	-0.09384046
11	0xbcacca24	-0.021092482
12	0x3a4b24f3	0.00077493413
13	0xbc53b6ba	-0.012921983
14	0x3d851b0b	0.06499299
15	0x3de8ef12	0.11373724
16	0xbe05d9fb	-0.13071434
17	0xbd79f114	-0.061020926
18	0x3e033f66	0.12817153
19	0x3e4812e8	0.19538462
20	0x3d865342	0.06558849
21	0xbda1ffca	-0.07910116
22	0x3c562450	0.013070181
23	0xbd729855	-0.059227306
24	0x3e1810b9	0.14850129
25	0x3bdcbd9c	0.0067364704
26	0xba5686ca	-0.0008183537
27	0x3c223325	0.009899889
28	0x3c2c3b7b	0.010512228
29	0x3d8093aa	0.06278165
30	0x3dad8441	0.08472491
31	0xbdbca240	-0.09210634
32	0xbe0651c9	-0.13117136
33	0xbe0d9045	-0.13824566
34	0x3d169e18	0.036771864
35	0x3cc44b46	0.023961674
36	0xbd9ccd70	-0.076563716
37	0x3e0cb2bd	0.13740058
38	0x3e10f988	0.14157689
39	0x38f91b85	0.00011878371
40	0xbd85be2c	-0.06530413
41	0x3d9a4683	0.0753298
42	0x3ddc9320	0.10770249
43	0x3dcceab0	0.100057006
44	0xbd79c7c6	-0.060981534
45	0xbd2904e6	-0.041264437
46	0xbe8b7d2f	-0.27243945
47	0x3c99f345	0.018792758
48	0xbdda66c4	-0.10664132
49	0xbd834456	-0.064095184
50	0x3dcf90a3	0.10135009
51	0xbdc94327	-0.098272614
52	0x3d95a366	0.073065564
53	0x3e03f670	0.12886977
54	0xbd965f70	-0.07342422
55	0x3dc90905	0.098161735
56	0xbde0d77d	-0.10978601
57	0xbd2cf07a	-0.042221524
58	0xbdd56d60	-0.10421252
59	0x3d14388c	0.03618674
60	0xbdafe6a2	-0.085889116
61	0x3c7803f5	0.015137662
62	0xbd5a2632	-0.053259082
63	0x3e1b38e3	0.1515842
64	0x3c141ca2	0.00904003
65	0x3c947bb1	0.018125387
66	0xbd75dd54	-0.060025528
67	0xbcf948f4	-0.030430295
68	0x3df5ccb7	0.12001937
69	0x3dd6316f	0.104586475
70	0x3daca03b	0.08428999
71	0x3ddfa9a5	0.10921029
72	0xbe272b56	-0.16325125
73	0x3e3fa0d1	0.1871369
74	0xbca59436	-0.020212274
75	0x3d2cc18b	0.042176764
76	0xbc8fbf8b	-0.01754739
77	0xbb7dac13	-0.00387073
78	0x3c19fb92	0.009398358
79	0x3d555416	0.052082144
80	0xbd4799ac	-0.048730537
81	0xbd872782	-0.065993324
82	0x3d297bc0	0.041377783
83	0xbdbb0a9c	-0.09132883
84	0x3d9ef1d8	0.07760972
85	0xbc8d7eb5	-0.017272333
86	0xbde966e4	-0.11396578
87	0x3e067981	0.13132288
88	0x3d089450	0.033344567
89	0xbce112eb	-0.027474841
90	0xbd2d96a8	-0.042380005
91	0x3da32cd7	0.07967537
92	0xbcfae4ef	-0.030626742
93	0xbdc54e2b	-0.0963405
94	0x3dabcd1f	0.08388733
95	0xbb881159	-0.0041524586
96	0xbbcaf05f	-0.0061932052
97	0xbe086976	-0.1332148
98	0x3deabde9	0.11462004
99	0xbd3ebe06	-0.04656794
100	0xbcf493bc	-0.029855601
101	0xbdda86f4	-0.106702715
102	0x3d8ec6d1	0.06971515
103	0xbd9cb924	-0.076525
104	0x3dd56c96	0.10421102
105	0xbd3e8d47	-0.04652145
106	0x3dc9f59b	0.09861299
107	0xbe0a72d6	-0.13520369
108	0x3d318c57	0.04334673
109	0xbd9afd49	-0.075678416
110	0xbdb07e8d	-0.08617888
111	0xbc9d6d08	-0.01921703
112	0x3deaa87f	0.11457919
113	0x3d9e4650	0.07728255
114	0xbda90ddd	-0.08254597
115	0x3e2f5955	0.17123921
116	0xbe010bcd	-0.12602158
117	0xbdb3d962	-0.08781697
118	0x3d92a22e	0.071598396
119	0x3d7d9cd7	0.061917152
120	0xbe0585b8	-0.13039291
121	0x3df626bb	0.12019106
122	0x3dd03aa3	0.10167434
123	0x3ce404a5	0.027834246
124	0xbdddb066	-0.10824661
125	0x3d403ee1	0.046934966
126	0xbd5abac5	-0.053400774
127	0xbd51f44f	-0.05125838
128	0xbdbaeb95	-0.09126965
129	0xbcab0b36	-0.02087937
130	0x3ddba19c	0.10724184
131	0x3d035f21	0.032073144
132	0x3def0405	0.116706885
133	0xbdc6cba8	-0.09706813
134	0xbd80628a	-0.06268795
135	0xbd7f1ea7	-0.06228509
136	0xbde0a5fa	-0.109691575
137	0xbe3918b9	-0.18075837
138	0xbdae11b3	-0.084994696
139	0x3daa2b08	0.08308989
140	0x3d017eea	0.031615175
141	0x3c2d619b	0.010582353
142	0xbdf09fd3	-0.11749234
143	0x3c01ef49	0.007930585
144	0xbd808b55	-0.062765755
145	0xbdcadcac	-0.09905371
146	0x3d4f47f2	0.05060572
147	0xbdec1769	-0.11527903
148	0xbbeb5916	-0.0071822507
149	0xbe29c497	-0.165789
150	0xbd4c7e38	-0.04992506
151	0xbdf8553f	-0.121256344
152	0xbdc1371b	-0.09434339
153	0xbdf03fba	-0.11730905
154	0xbd3589a9	-0.044320736
155	0xbc4d7aa8	-0.012541451
156	0x3d735fe2	0.059417613
157	0xbcf7564c	-0.030192517
158	0xbe2e3e3d	-0.1701593
159	0x3daf7e4c	0.08569011
160	0x3cb7fcb4	0.022459365
161	0x3d2052fd	0.039141644
162	0x3d51cfac	0.051223442
163	0x3d7a762c	0.061147854
164	0x3d5ea7d0	0.054359257
165	0x3da75146	0.081697986
166	0xbcfdf8a9	-0.03100236
167	0x3db7eefa	0.08981128
168	0xbce5cc6a	-0.028051574
169	0xbd5fce09	-0.05463985
170	0x3c4cb660	0.012494653
171	0x3d9ce9bb	0.07661768
172	0x3db62452	0.08893646
173	0xbc18e9c4	-0.009333078
174	0x3d7cc873	0.0617146
175	0x3c9ff2ec	0.019525014
176	0xbdb23652	-0.08701767
177	0xbcc019c4	-0.023449786
178	0x3b4ad0a0	0.0030947104
179	0xbde9697e	-0.11397074
180	0xbdbfeb1a	-0.09371014
181	0xbd207c71	-0.039181177
182	0xbdb1932b	-0.08670648
183	0x3d5d8cc6	0.05408933
184	0xbd3734bf	-0.044728037
185	0x3d57c936	0.052682124
186	0xbcca8049	-0.024719374
187	0xbde3b72b	-0.11118921
188	0x3dac0de7	0.08401089
189	0x3dadfd87	0.08495622
190	0xbd9074c9	-0.07053525
191	0x3de61ffc	0.11236569
192	0x3d9d5dc6	0.076839015
193	0x3df99323	0.12186267
194	0xbcc385a0	-0.023867428
195	0x3a410e00	0.0007364452
196	0x3e0047a6	0.12527332
197	0x3d41d99c	0.04732667
198	0x3ccb7073	0.024833893
199	0x3d42abfe	0.047527306
200	0xbd6c726a	-0.0577263
201	0xbcb9d284	-0.02268339
202	0x3d622abf	0.055216547
203	0x3d85b34c	0.06528339
204	0x3c1b1335	0.0094650285
205	0xbc905870	-0.017620295
206	0x3c717058	0.0147362575
207	0x3c89f0c3	0.016838437
208	0xbdee704a	-0.11642511
209	0xbd7682a9	-0.0601832
210	0x3de1e786	0.11030488
211	0xba8182cc	-0.00098809
212	0xbce07524	-0.027399607
213	0x3c4186eb	0.011811952
214	0x3d432832	0.047645755
215	0xbdcbdd49	-0.09954316
216	0xbd121adb	-0.035670143
217	0xbd8c5c21	-0.0685351
218	0xbd4fa821	-0.05069745
219	0xbd5b86d7	-0.05359539
220	0xbd50f23a	-0.051012255
221	0x3cb2f814	0.021846808
222	0x3d7b54e1	0.061360244
223	0xbdfe35bc	-0.12412593
224	0x3d6a9ec1	0.057280306
225	0x3de87c12	0.113517895
226	0xbc18cb85	-0.009325867
227	0xbdcdae6e	-0.100430354
228	0xbde2cf63	-0.11074712
229	0xbd4c3afa	-0.049860932
230	0x3c17a797	0.009256265
231	0xbcc02710	-0.023456126
232	0xbc8655ab	-0.016398272
233	0xbd8e9ce5	-0.06963519
234	0xbdd1e945	-0.10249571
235	0x3dbf82c3	0.09351113
236	0xbde64a75	-0.1124467
237	0x3d81a39c	0.06330034
238	0x3cbe00eb	0.023193797
239	0x3d8c4629	0.068493195
240	0xbdd24d60	-0.10268664
241	0x3d810713	0.063001774
242	0x3ce29e3c	0.027663343
243	0xbdbb3074	-0.09140101
244	0xbcb8e038	-0.022567853
245	0xbdac5aa2	-0.08415724
246	0x3df1b364	0.11801794
247	0xbda77280	-0.08176136
248	0x3c6f0a4c	0.014589857
249	0x3d88dded	0.06682954
250	0x3d5b1026	0.053482197
251	0x3d6a863f	0.057256933
252	0xbdf109db	-0.11769458
253	0x3d5af3b2	0.053455062
254	0xbdae02c5	-0.08496622
255	0xbd87ba82	-0.066273704

layer2.bias f4 [200]
0	0xbc3208ba	-0.010866338
1	0xbbc1bb3d	-0.005912213
2	0xbcb161db	-0.021653106
3	0xbcade4f2	-0.021227334
4	0xbd24101a	-0.04005442
5	0xbcf07dbd	-0.029356832
6	0xbcc8531c	-0.024453692
7	0xbcff11c4	-0.031136401
8	0xbcada33f	-0.021196006
9	0xbd392871	-0.045204584
10	0xbcd70daa	-0.026251633
11	0x3d097321	0.03355706
12	0xbcd835ed	-0.026392901
13	0xbcd03855	-0.025417486
14	0xbc818702	-0.015811447
15	0xbc78d124	-0.015186582
16	0xbca633e1	-0.02028841
17	0x3cfd5dd0	0.030928522
18	0xbc18326e	-0.009289367
19	0xbca4b0a0	-0.020103753
20	0xbd374fff	-0.044754025
21	0xbca9fbfc	-0.020750038
22	0xbbbb78bc	-0.00572118
23	0xbc1225d5	-0.008920153
24	0xbc152540	-0.009103119
25	0xbc102803	-0.008798602
26	0xbd186a26	-0.037210606
27	0xbcb99855	-0.022655645
28	0xbc8b9e0b	-0.017043134
29	0xbc847d72	-0.016173098
30	0xbcd46d5d	-0.025931055
31	0x3bf62111	0.007511266
32	0xbd2845cc	-0.04108219
33	0xbd12e4b1	-0.03586263
34	0x3cf48ded	0.029852832
35	0xbd0d4f82	-0.034499653
36	0xbcae7809	-0.021297472
37	0x3ca04bdc	0.019567423
38	0xbd0061d6	-0.031343304
39	0x3b35497e	0.0027662213
40	0xbcbffb05	-0.023435125
41	0xbcedcf0c	-0.029029392
42	0xbc280023	-0.010253939
43	0xbcf6c0b8	-0.030121192
44	0xbc9a5fd3	-0.01884452
45	0xbcf76a70	-0.03020212
46	0xbc7287f0	-0.014802918
47	0xbcb1c2ea	-0.021699388
48	0xbcffe497	-0.03123693
49	0x3b87c9cd	0.0041439296
50	0xbcf8379f	-0.03029996
51	0xbc8a70a9	-0.016899424
52	0xbcd550b5	-0.02603946
53	0x3b8ee2e8	0.0043605454
54	0xbbd4f549	-0.006498967
55	0xbc207102	-0.009792568
56	0xbcb9e5e0	-0.02269262
57	0xbc8daeed	-0.017295325
58	0x3d680cb0	0.056652725
59	0xbca0888f	-0.019596366
60	0x3c91dd3a	0.017805684
61	0x3c5202bc	0.012818035
62	0xbd0e9e59	-0.03481898
63	0xbc52ee74	-0.0128742345
64	0xbd06a432	-0.032871433
65	0xbcdb9872	-0.02680609
66	0xbcc35743	-0.02384532
67	0xbcc3c0bf	-0.02389562
68	0x3c010157	0.007873855
69	0xbcae8f2f	-0.02130851
70	0x3cef9f15	0.02925066
71	0xbcd58665	-0.02606506
72	0xbc28f999	-0.010313415
73	0xbcb14b62	-0.02164239
74	0xbcb60916	-0.02222113
75	0xbcfbf808	-0.030757919
76	0xbcd1a1fa	-0.025589932
77	0xbcbddcd9	-0.023176597
78	0xbd12c671	-0.03583378
79	0xbce90637	-0.028445346
80	0xbc2dbb6c	-0.010603767
81	0xbc80879f	-0.01568967
82	0xbd0a32ca	-0.033739842
83	0xbcf5962f	-0.02997884
84	0xbcc8eb7b	-0.024526348
85	0xb88b077e	-6.629432e-05
86	0x3c70b780	0.014692187
87	0x3d3a1d21	0.045437936
88	0xbca4a150	-0.020096451
89	0xbc819ef5	-0.015822867
90	0xbccb0bb6	-0.024785858
91	0xbcc6aae0	-0.024251401
92	0xbcc3d468	-0.023904994
93	0xbc812f8a	-0.015769739
94	0xbbd72079	-0.0065651503
95	0xbc8fb459	-0.017542051
96	0xbcc0eed5	-0.023551384
97	0xbc0d402c	-0.008621257
98	0xbc994114	-0.01870779
99	0xbcba3ab5	-0.022733072
100	0x3d1b6788	0.037940532
101	0xbcbe8b0f	-0.023259668
102	0xbbe464d6	-0.0069700284
103	0xbd065863	-0.032799136
104	0xbc6a912a	-0.014316836
105	0xbbd6405b	-0.0065384335
106	0x3c83659e	0.016039666
107	0xbbe0e932	-0.0068637365
108	0xbc5acdb7	-0.01335471
109	0xbc0818ee	-0.008306725
110	0xbc233ac5	-0.009962742
111	0xbc7773f3	-0.015103328
112	0xbcaa9b5e	-0.020826038
113	0xbc67cca5	-0.014147912
114	0xbc12c501	-0.008958102
115	0xbc3c9f1b	-0.011512543
116	0xbd093704	-0.033499733
117	0xbcdd330c	-0.02700188
118	0xbc481500	-0.012212038
119	0xbc8e92a6	-0.017403912
120	0xbcd29dfa	-0.025710095
121	0xbae5fa92	-0.0017545989
122	0xbb0472ba	-0.0020209984
123	0xbcc85f49	-0.024459498
124	0xbc840464	-0.016115375
125	0xbc8318a4	-0.01600296
126	0xbc5013c4	-0.012700025
127	0xbc5d1061	-0.013492675
128	0x3c677a13	0.014128226
129	0xbd2b4c59	-0.041820858
130	0xbc978894	-0.018497743
131	0xbcfc336d	-0.03078624
132	0xbcefb1d8	-0.029259607
133	0xbc5df560	-0.0135472715
134	0xbc5470fa	-0.012966389
135	0xbc964674	-0.018344142
136	0x3ba4968f	0.005022831
137	0x3add5808	0.0016887197
138	0x3be0c480	0.006859362
139	0xbc5cccc7	-0.013476557
140	0xbc81a22f	-0.015824405
141	0xbc1168a2	-0.008875044
142	0xbcc06e8e	-0.023490217
143	0x3cec2485	0.028826008
144	0x3d3b75f7	0.045766797
145	0x3be83f3e	0.007087617
146	0xbcba23af	-0.022722093
147	0xbc8865d7	-0.016650124
148	0xbc0e95f1	-0.008702741
149	0xbcaf85ef	-0.02142617
150	0xbc8aaba6	-0.016927551
151	0xbd24e69e	-0.040258996
152	0xbc421425	-0.011845623
153	0x00000000	0.0
154	0x3d215471	0.03938717
155	0xbc859296	-0.01630525
156	0xbcaecd8f	-0.021338252
157	0xbc6b8218	-0.0143742785
158	0xbc9d750d	-0.019220853
159	0xbbed6f80	-0.007245958
160	0xbbfff99d	-0.0078117386
161	0xbca8d6eb	-0.020610293
162	0x3d0bd949	0.034142766
163	0x3d34cf9a	0.044143297
164	0xbcde4802	-0.027133945
165	0xbcf1bdb2	-0.0295094
166	0xbabc4f25	-0.0014366849
167	0xbc68682a	-0.014184991
168	0xbb0e4a0f	-0.0021711623
169	0x3c6a4f2a	0.014301101
170	0xbc1e5dfb	-0.009665961
171	0xbc69cea9	-0.014270463
172	0xbca1d254	-0.019753613
173	0xbd178085	-0.0369878
174	0xbc3b32ee	-0.011425717
175	0xbc916e25	-0.017752716
176	0xbcb497a7	-0.02204497
177	0xbc3060d1	-0.01076527
178	0x3b8901b6	0.004181112
179	0xbc9f7663	-0.01946563
180	0x3b2a8b94	0.0026023136
181	0xbccb0421	-0.024782242
182	0xbcfb3936	-0.030666929
183	0x3c11a4cf	0.008889391
184	0xbc98c218	-0.018647239
185	0xbbafdb3c	-0.005366711
186	0xbd0d6b28	-0.03452602
187	0xbca3ae51	-0.019980581
188	0xb9f660b9	-0.0004699284
189	0x3a0d6e3e	0.00053951505
190	0xbd220044	-0.039551035
191	0xbcfdb9e6	-0.030972432
192	0xbae90fef	-0.0017781238
193	0xbb26a4da	-0.002542785
194	0x3cbaaec0	0.022788405
195	0x3c251cd1	0.010077671
196	0xbd07d2ed	-0.03316014
197	0xbd2efcb6	-0.042721473
198	0xbd4cb42b	-0.04997651
199	0xbc91f798	-0.017818257

mu.weight f4 [4, 200]
0	0x3c93707a	0.017997969
1	0x3d2cac26	0.04215636
2	0xbddff6ca	-0.10935743
3	0x3e1786ed	0.14797564
4	0xbe5026dc	-0.20327324
5	0xbdaf287d	-0.085526444
6	0xbd3890a8	-0.04505983
7	0xbe3db206	-0.18524942
8	0xbdd016af	-0.101605766
9	0xbd273064	-0.040817633
10	0xbd935ad7	-0.07195061
11	0x3e236f78	0.1596049
12	0xbdf3cdc0	-0.11904478
13	0xbe095b33	-0.13413696
14	0xbd21292d	-0.03934591
15	0xbe477ea1	-0.19481899
16	0xbd675aab	-0.056482952
17	0x3dace6bd	0.08442447
18	0xbda9b8f8	-0.08287233
19	0xbdf0c73f	-0.11756753
20	0xbe0089f9	-0.12552632
21	0xbe202513	-0.15639143
22	0x3de96958	0.11397046
23	0x3c292fdb	0.010326351
24	0xbd06032b	-0.032717865
25	0x3e10df60	0.14147711
26	0xbd51ba57	-0.0512031
27	0x3cf648ce	0.030064013
28	0x3e063a39	0.13108148
29	0xbd641e18	-0.055692762
30	0xbe091daa	-0.13390222
31	0xbc9e2602	-0.019305233
32	0xbd8855c1	-0.06656981
33	0x3dd6a457	0.10480564
34	0x3e08e73c	0.13369459
35	0xbd57ab3c	-0.052653536
36	0x3e04bd79	0.12962903
37	0x3e0a86ae	0.13527939
38	0xbde225ac	-0.110423416
39	0x3ded9a12	0.11601652
40	0x3b052010	0.00203133
41	0x3d1ef959	0.038812015
42	0xbd8ce3c1	-0.06879378
43	0xbe30545b	-0.17219679
44	0xbaf69908	-0.0018813917
45	0xbd01b025	-0.031662125
46	0xbdde3ac2	-0.10851051
47	0x3e05c925	0.13065012
48	0xbc4821a2	-0.01221505
49	0xbe2ab15e	-0.16669223
50	0xbd5357fe	-0.051597588
51	0xbe4e13d1	-0.20124747
52	0xbde16a5e	-0.11006616
53	0x3d68de83	0.05685283
54	0xbdd22edd	-0.10262845
55	0x3e254125	0.16138132
56	0xbd0916d8	-0.03346905
57	0x3d93f651	0.072247155
58	0xbd9b20a3	-0.07574584
59	0x3dbe8f73	0.093047045
60	0x3dbf24f3	0.093332194
61	0x3d0cf94b	0.03441743
62	0xbe589f75	-0.21154578
63	0x3ce4bb5e	0.027921375
64	0xbe5e3c7c	-0.2170276
65	0xbd396a3c	-0.04526733
66	0xbe0d7a81	-0.13816263
67	0x3c905ecf	0.017623333
68	0x3e3e60c2	0.18591598
69	0xbae3d874	-0.0017383234
70	0xba99a72e	-0.0011722797
71	0xbe1f1e1d	-0.15538831
72	0x3e0d1f2b	0.13781421
73	0x3dd2c53b	0.10291525
74	0x3db29439	0.087196775
75	0xbe00fd66	-0.12596664
76	0xbd1e6685	-0.03867199
77	0x3d190ab1	0.03736371
78	0xbe4742ef	-0.19459127
79	0xbdbd3e62	-0.09240414
80	0xbdf60ced	-0.12014184
81	0xbddd9e00	-0.10821152
82	0xbd7f555e	-0.062337272
83	0x3c2fdac3	0.010733309
84	0x3c054a24	0.008135352
85	0xbd910c5f	-0.07082438
86	0x3e1a4e54	0.15068942
87	0x3ddc92c8	0.10770184
88	0x3e1c728c	0.15278071
89	0x3e007419	0.12544288
90	0xbdcc591e	-0.09977935
91	0x3dd741e6	0.10510616
92	0xbcbc5e36	-0.022994142
93	0xbd337b49	-0.043818746
94	0x3dd31712	0.10307135
95	0x3e17a6dd	0.14809747
96	0x3de1d4b3	0.11026897
97	0x3c86febf	0.016478894
98	0x3c94c6ea	0.018161256
99	0x3da7e384	0.08197692
100	0xbd63879c	-0.05554925
101	0xbd828091	-0.06372178
102	0xbcb27dbc	-0.02178847
103	0x3d4de15b	0.050263744
104	0xbe04f8d2	-0.12985542
105	0xbe25fcfc	-0.16209787
106	0x3d03cbc0	0.032176733
107	0xbe0190ee	-0.12652943
108	0xbdb28f84	-0.0871878
109	0xbe03beb5	-0.12865718
110	0x3c96989f	0.018383322
111	0x3d652ab5	0.05594893
112	0xbdf1db07	-0.11809354
113	0xbd635cdd	-0.055508483
114	0x3dcd9696	0.100384876
115	0x3e0aacf9	0.13542546
116	0xbd5db5f9	-0.05412862
117	0xbd934a0a	-0.07191856
118	0xbd8d4252	-0.06897415
119	0x3e1166be	0.1419935
120	0x3cdbada6	0.0268162
121	0xbdded2eb	-0.10880073
122	0xbd650fba	-0.0559232
123	0xbe269c3b	-0.16270535
124	0x3c59ce6a	0.013293842
125	0xbdbb8226	-0.09155683
126	0x3c1c2f44	0.009532753
127	0x3e37b156	0.17938742
128	0xbd2d7090	-0.042343676
129	0xbdbf6b3e	-0.09346627
130	0xbe2d74e5	-0.16939123
131	0x3de27ed5	0.110593475
132	0x3c760f90	0.015018359
133	0x3b9b2649	0.0047347886
134	0xbdbd5f8e	-0.09246741
135	0xbe342945	-0.17593868
136	0xbd076170	-0.033051908
137	0x3e140d41	0.14458181
138	0x3e2f0325	0.17091043
139	0xbbed766e	-0.007246784
140	0x3e0cb7b6	0.13741955
141	0xbc4f9e49	-0.0126720155
142	0xbe1f8868	-0.15579379
143	0x3d8748f7	0.06605714
144	0xbd811f8f	-0.063048474
145	0x3c887bce	0.016660597
146	0xbe084f5f	-0.13311528
147	0xbe25d621	-0.16194965
148	0x3e0bbea2	0.1364694
149	0xbcd586f4	-0.026065327
150	0xbdd0e7f1	-0.10200489
151	0xbda8ad0c	-0.08236131
152	0x3d2ac9bf	0.041696306
153	0x3e02fd69	0.12791981
154	0x3d6ae5e4	0.057348147
155	0x3d04189e	0.03225004
156	0x3d88ca9b	0.06679269
157	0xbd51447d	-0.051090706
158	0x3dd461ad	0.10370193
159	0xbe19caa5	-0.15018709
160	0xbd22e939	-0.0397732
161	0x3e15f638	0.14644706
162	0x3e2b9cb6	0.16758999
163	0x3b3db9e1	0.0028949904
164	0xbdc90245	-0.09814886
165	0xbe035050	-0.12823606
166	0xbe041f63	-0.12902598
167	0xbdcd5f5a	-0.100279525
168	0xbe0e238f	-0.13880752
169	0x3db5b49c	0.08872339
170	0xbd737481	-0.05943728
171	0xbda2d7c4	-0.0795131
172	0x3df40d27	0.11916571
173	0xbdca7021	-0.09884668
174	0xbc91e72d	-0.017810429
175	0x3e16bb8c	0.14719981
176	0x3c11936e	0.008885248
177	0x3dfd481d	0.1236727
178	0x3df754a6	0.12076692
179	0xbe42b17c	-0.19013017
180	0x3e2e098c	0.1699583
181	0xbdc0e063	-0.09417798
182	0x3e14a4f4	0.1451605
183	0xbd9d8266	-0.07690887
184	0xbcda8ced	-0.026678527
185	0xbdd73a26	-0.10509138
186	0xbdf8a192	-0.12140192
187	0x3dd9c558	0.106333435
188	0xbdf124e5	-0.11774615
189	0x3dce7830	0.10081518
190	0xbe2f6279	-0.17127408
191	0xbd861070	-0.06546104
192	0x3dc83c0e	0.097770795
193	0xbe585527	-0.21126233
194	0x3e17c1fc	0.14820093
195	0x3e08373e	0.13302323
196	0x3d7a9f8c	0.061187312
197	0xbd645fdd	-0.055755485
198	0xbc6d439c	-0.014481451
199	0x3df488f1	0.11940182
200	0x3cc03d0a	0.023466606
201	0x3cf12dca	0.02944078
202	0xbe0ba989	-0.13638891
203	0x3dcdacf5	0.100427546
204	0xbe36d6af	-0.17855333
205	0xbbe7666d	-0.0070617707
206	0x3d662399	0.056186292
207	0x3d394dc5	0.045240182
208	0x3e019068	0.12652743
209	0x3e4f518d	0.20245953
210	0xbe274f5c	-0.16338867
211	0x3d9345b7	0.071910314
212	0xbdffbafd	-0.12486837
213	0x3da110bc	0.0786452
214	0x3d52fa6b	0.05150835
215	0xbd24e78a	-0.040259875
216	0x3e136c89	0.14396872
217	0x3dadbb41	0.084829815
218	0x3e1d6f34	0.15374452
219	0x3e263a94	0.16233283
220	0xbe0b2675	-0.13588889
221	0xbe08ff4b	-0.13378637
222	0xbe0a8f05	-0.1353112
223	0x3e3f8881	0.18704416
224	0x3e0aa466	0.13539276
225	0xbe25f9ce	-0.16208574
226	0x3c6cdc3c	0.014456805
227	0x3db760b0	0.089539886
228	0xbd27b484	-0.040943637
229	0x3d87d761	0.06632877
230	0x3e048d61	0.12944557
231	0x3e2fbf4a	0.17162815
232	0xbe2de7ad	-0.16982909
233	0xbe035acb	-0.12827604
234	0x3e13d253	0.14435701
235	0xbe2fd340	-0.17170429
236	0x3de420fa	0.11139102
237	0x3d1d5c31	0.038418
238	0xbdec2116	-0.11529748
239	0x3c85d45c	0.016336612
240	0xbdb07d92	-0.08617701
241	0xbe176359	-0.14783992
242	0x3d8cd90c	0.06877336
243	0x3d30192f	0.042992767
244	0x3da782e0	0.08179259
245	0xbd46ef4d	-0.04856806
246	0xbceb41df	-0.028717933
247	0x3e0e3d8b	0.13890664
248	0xbd8c647c	-0.068551034
249	0x3e28a4a7	0.1646906
250	0xbe037e09	-0.12841047
251	0x3d70fff2	0.05883784
252	0xbe3a348e	-0.1818411
253	0xbd522eb7	-0.051314082
254	0x3cc045ef	0.023470847
255	0xbddeb60e	-0.10874568

mu.bias f4 [4]
0	0x3c5c0698	0.013429306
1	0x3c847bd9	0.016172336
2	0x3c847424	0.016168661
3	0x3c536f54	0.012904961
