llirl_sumo/saves/sumo_single_intersection/env_model_init.pth (torch, 637551 bytes, 8 tensors)

layer1.weight f4 [256, 100]
0.16534151 0.07187505 0.13254991 0.07970857 0.1536726 0.16152221 0.248643 0.2639023
0.013404749 0.069095 0.20308082 0.1214003 0.11725371 0.11149006 0.042343434 0.031668704
0.09855675 0.08741335 0.12854366 0.14139235 0.11874303 0.2277405 0.026875045 0.032476246
0.13153175 0.066085234 0.08762399 0.035507265 0.17751098 0.095165 0.23217621 0.069898576
0.09130447 0.05284603 0.14373599 0.24110322 0.0362097 0.11821546 0.25819996 0.21918553
0.16505142 -0.0055930438 0.24048546 0.22583273 0.076852866 0.07989806 0.2558441 0.004213849
0.008760184 0.084551044 0.09995193 0.16720553 0.11674565 0.15537201 0.02119208 0.087162
0.028351204 0.09925725 0.22460724 0.10548616 0.13738349 0.07925927 0.023312364 0.091426164
0.26127675 -0.0055969544 0.03581467 0.2921117 0.10717577 0.10501276 0.1451611 0.21226029
0.082649864 0.17175023 0.061400298 0.11575851 0.16633011 0.24080649 0.20324233 0.19897868
0.14554675 0.035763245 0.23820823 0.16562112 0.23522002 0.14576837 0.2453888 0.21253307
0.17054513 0.12753513 0.101328306 0.1422748 0.07845795 0.054550525 0.16550654 0.089592926
0.01210285 -0.060194023 -0.03562955 0.0886857 0.24902835 0.21429144 0.007991726 0.13411139
0.15107943 0.08626304 0.052982125 0.087815665 0.07103761 0.21781549 0.14718476 -0.0064129364
0.24281393 0.09902555 0.08199553 0.15452513 0.10697243 0.20659451 0.013546106 0.13512139
0.024368439 0.12940487 0.0063382066 0.0037560202 0.19396201 0.24866533 0.018500047 0.24606633
0.0023760046 0.13298202 0.13502505 0.06776412 0.060695622 0.0814412 0.059587933 0.05074955
0.18651143 0.0075122095 0.09341492 0.2326394 0.05052749 0.11003532 0.120386206 -0.029978814
0.031602558 0.14609055 0.12318446 0.012334417 0.114847176 0.099582314 0.027595023 0.019694813
0.24406186 0.058126234 0.22102177 0.13841078 0.035388175 0.11660097 0.20360386 0.22656605
0.07109654 0.08361883 0.011310892 0.18714514 0.013344871 0.19336222 0.087382816 0.02878159
0.11034213 0.15850078 0.043278314 0.05494838 0.04923697 0.13842392 0.23359744 0.24832328
0.24681333 0.21439277 0.037266124 0.06574061 0.02509199 0.22695981 0.16362052 0.06527605
0.23242263 0.1542361 0.032157093 0.13696337 0.06105368 0.09510734 0.07015747 0.011559534
0.13555562 -0.014436437 0.17388576 0.08446413 0.101372495 0.10884811 0.00020689704 0.10931601
0.16676515 0.32165238 0.1562119 0.22628076 0.08542413 0.05341438 0.060752787 0.16928934
0.04722826 0.25083944 0.17997505 0.2311759 0.27274945 0.30122244 0.2537066 0.06938007
0.25833288 0.22380894 0.011927417 0.21657723 0.05353111 0.13263197 0.1407437 -0.0149467485
0.22994924 0.30985302 0.21358728 0.008819174 0.1589644 0.1679604 0.12204382 0.1112495
0.19050696 0.024832726 0.26362565 0.13036259 0.22305909 0.17124805 0.07924082 0.21783286
0.2863813 0.23039076 0.007071776 0.13531657 0.23099262 0.06608897 0.22729279 0.04647895
0.24247345 0.27100468 0.04399349 0.16584267 0.17829089 0.21866606 -0.010346 0.23315968
00000000: 494f 293e 3a33 933d 2abb 073e 3f3e a33d
00000010: 5a5c 1d3e 1466 253e 459c 7e3e 341e 873e
00000020: 989f 5b3c ae81 8d3d 6bf4 4f3e b8a0 f83d
00000030: b722 f03d e754 e43d 4f70 2d3d 0bb7 013d
00000040: 1fd8 c93d c505 b33d f3a0 033e 28c9 103e
00000050: 8c2f f33d ce34 693e 0e29 dc3c d005 053d
00000060: 42b0 063e b257 873d 3574 b33d 1170 113d
00000070: 70c5 353e dee5 c23d 9abf 6d3e fc26 8f3d
00000080: d7fd ba3d 1475 583d 872f 133e c3e3 763e
00000090: 9f50 143d f21a f23d c932 843e 2c72 603e
000000a0: 3d03 293e da45 b7bb d241 763e b240 673e
000000b0: 0965 9d3d 98a1 a33d fffd 823e 5414 8a3b
000000c0: e086 0f3c 1929 ad3d 99b3 cc3d ed37 2b3e
000000d0: 5818 ef3d d719 1f3e 039b ad3c fe81 b23d
000000e0: c940 e83c 6347 cb3d 71ff 653e 2109 d83d
000000f0: 42ae 0c3e af52 a23d 92f9 be3c a43d bb3d
00000100: 11c6 853e a866 b7bb 67b2 123d aa8f 953e
00000110: f87e db3d ee10 d73d 1da5 143e c35a 593e
00000120: 5544 a93d 4bdf 2f3e e17e 7b3d cc12 ed3d
00000130: 7152 2a3e fa95 763e c21e 503e 11c1 4b3e
00000140: 350a 153e 7b7c 123d dcec 733e 9598 293e
00000150: 84dd 703e 4e44 153e 3447 7b3e 45a2 593e
00000160: 62a3 2e3e 9298 023e 3785 cf3d 7cb0 113e
00000170: 90ae a03d 5f70 5f3d 8c7a 293e 7f7c b73d
00000180: 084b 463c 028e 76bd 4bf0 11bd d9a0 b53d
00000190: 4a01 7f3e 376f 5b3e baef 023c 7f54 093e
000001a0: 91b4 1a3e adaa b03d c903 593d b3d8 b33d
000001b0: 2b7c 913d 060b 5f3e 9ab7 163e 9c23 d2bb
000001c0: 37a4 783e e8cd ca3d 46ed a73d d63b 1e3e
000001d0: 5d14 db3d 838d 533e 7df0 5d3c 435d 0a3e
000001e0: 52a0 c73c b682 043e bbb0 cf3b 9027 763b
000001f0: fa9d 463e 20a2 7e3e 698d 973c d0f8 7b3e
00000200: beb6 1b3b 702c 083e 0244 0a3e eac7 8a3d
00000210: f99b 783d a5ca a63d 7a12 743d c3de 4f3d
00000220: dafc 3e3e fb28 f63b 5250 bf3d 0639 6e3e
00000230: eaf5 4e3d 335a e13d 0b8d f63d 2196 f5bc
00000240: af71 013d c398 153e 2248 fc3d 4b16 4a3c
00000250: ff34 eb3d d0f1 cb3d f50e e23c 0457 a13c
00000260: 5aeb 793e c615 6e3d 8853 623e 8ebb 0d3e
00000270: 31f3 103d 7dcc ee3d 887d 503e ee00 683e
00000280: 109b 913d 5940 ab3d 5251 393c faa2 3f3e
00000290: 72a4 5a3c bf00 463e c3f5 b23d 5ec7 eb3c
000002a0: 0efb e13d 074e 223e 9a44 313d 8d11 613d
000002b0: b4ac 493d 00bf 0d3e 2b34 6f3e 7548 7e3e
000002c0: a2bc 7c3e c789 5b3e 5da4 183d 03a3 863d
000002d0: b88d cd3c 2768 683e 238c 273e 73af 853d
000002e0: 3300 6e3e 11f0 1d3e 28b7 033d 2040 0c3e
000002f0: 6c13 7a3d a3c7 c23d b8ae 8f3d 3364 3d3c
00000300: 18cf 0a3e ce86 6cbc 1c0f 323e 88fb ac3d
00000310: 629c cf3d c2eb de3d 80f2 5839 12e1 df3d
00000320: 7cc4 2a3e 9faf a43e 03f6 1f3e 25b6 673e
00000330: d9f2 ae3d 09c9 5a3d ead7 783d 2f5a 2d3e
00000340: 6c72 413d 076e 803e 614b 383e 60b9 6c3e
00000350: d1a5 8b3e d439 9a3e d5e5 813e 2317 8e3d
00000360: 3544 843e 2c2e 653e 366b 433c 6cc6 5d3e
00000370: 7043 5b3d add0 073e 1e1f 103e 35e3 74bc
00000380: d077 6b3e 0ea5 9e3e a0b6 5a3e 4c7e 103c
00000390: 90c7 223e d0fd 2b3e 1cf2 f93d c7d6 e33d
000003a0: 4214 433e 006e cb3c f1f9 863e c57d 053e
000003b0: 9a69 643e a65b 2f3e 0349 a23d 940f 5f3e
000003c0: 92a0 923e 8eeb 6b3e 5bba e73b 6d90 0a3e
000003d0: 5489 6c3e a759 873d 71bf 683e b660 3e3d
000003e0: f64a 783e 20c1 8a3e 8532 343d a9d2 293e
000003f0: e391 363e ffe9 5f3e 4582 29bc 69c1 6e3e

layer1.bias f4 [256]
-0.019911053 0.012600587 -0.047155883 -0.028754812 -0.0021379024 -0.008835289 -0.018972896 -0.0113510005
-0.033499435 -0.016962057 -0.0025602547 -0.018683868 -0.03265777 -0.050029546 -0.034676317 -0.021651512
0.0 -0.016097043 0.0 -0.031201018 -0.01825922 -0.036618646 0.0 -0.022491861
-0.006360318 -0.0017397725 -0.040095884 -0.03166961 -0.016953064 0.0 -0.016100343 0.0
-0.055026405 0.23002253 -0.031362098 -0.035159674 -0.02567671 -0.03689359 -0.022642447 0.0
-0.021564903 0.0 -0.008039109 -0.030536145 -0.004429331 -0.013436337 -0.044098593 -0.010971045
0.0 0.0 -0.027226362 -0.021418152 0.0 -0.021944156 -0.03415285 -0.044636507
0.0 0.0 -0.0056797597 -0.023949297 -0.05815866 0.056180477 -0.0316677 0.0
-0.014655373 0.0 -0.030155646 -0.007857255 -0.014167409 -0.03341612 0.0 0.0
-0.062280543 -0.0067423894 -0.019450169 -0.03650838 -0.030057486 -0.012202456 -0.030579297 -0.021064943
-0.025427615 0.0034313183 -0.03263289 -0.039831664 0.12908463 -0.030985001 -0.024198065 0.0
-0.015261355 -0.029256983 -0.029626982 -0.024201686 0.0 -0.008000006 -0.03841078 -0.011213477
-0.022046015 -0.038430143 -0.07332664 -0.038959935 -0.03826278 -0.018776312 -0.0043047033 -0.026745426
-0.042736303 -0.030212518 -0.038176477 -0.0482339 -0.017133215 -0.038254898 0.2178842 -0.027898327
-0.020231493 -0.030572366 -0.013619412 -0.045062795 -0.030984001 -0.06350068 0.0 -0.007901027
-0.038086113 -0.0021459667 0.0 -0.015403477 0.0 0.0 -0.020095516 -0.011511421
0.0018051314 -0.015994668 -0.023788737 -0.044190656 -0.033459026 -0.0072818925 -0.038785707 -0.038074058
0.0 -0.007461764 0.226477 -0.035433907 -0.030018982 0.0 0.0 -0.027092423
-0.026321352 -0.03683848 -0.03228028 -0.032800112 -0.034843374 -0.04224865 -0.022029923 0.0
0.0 -0.015358298 -0.007844656 0.0073394855 -0.04094228 0.0 -0.03640455 -0.032084275
-0.042879328 -0.045684014 -0.019334054 -0.025916629 -0.03990727 0.0 0.0 -0.017273178
-0.01202126 0.0 -0.012996127 0.0 -0.035291895 -0.046706717 -0.033336654 -0.03720591
-0.01404365 -0.026453674 -0.030272692 -0.03607915 -0.00092289085 -0.013856738 -0.027793985 -0.024695385
0.014780401 -0.029500248 -0.034007967 -0.025854139 -0.015240675 -0.024678538 -0.044185486 -0.024709329
-0.012287554 -0.020500328 -0.040594533 -0.00050219154 -0.031170048 -0.026237648 -0.050177462 -0.033392083
-0.012053798 0.0 -0.06326503 -0.030246673 0.20410943 -0.014693909 0.0 -0.0022055495
0.0 -0.02950114 -0.03865199 -0.021104777 -0.04086272 -0.0045143086 -0.02341123 -0.037485596
-0.02343663 -0.04022933 -0.04159434 -0.028554874 -0.034097802 -0.024566064 -0.038602665 0.0
0.0 -0.032039203 -0.011146349 -0.027365338 -0.042009145 -0.03250709 -0.038340595 -0.037845165
0.0 0.0 0.0030436127 0.0 -0.046698045 -0.0039535398 -0.011175359 0.029341845
-0.034799162 -0.033386745 -0.0036129858 -0.020706384 -0.030685946 -0.022883479 -0.010458192 -0.01827203
-0.0067701256 -0.021734072 -0.057553485 -0.04424215 -0.017324766 -0.0065106787 -0.038357135 -0.032216996
00000000: 811c a3bc b172 4e3c 8726 41bd 368f ebbc
00000010: 0d1c 0cbb e3c1 10bc 0c6d 9bbc 8cf9 39bc
00000020: b436 09bd 03f4 8abc f2c9 27bb e90e 99bc
00000030: 27c4 05bd c8eb 4cbd c108 0ebd 835e b1bc
00000040: 0000 0000 f2dd 83bc 0000 0000 4799 ffbc
00000050: 5c94 95bc 6ffd 15bd 0000 0000 da40 b8bc
00000060: 376a d0bb 1409 e4ba 953b 24bd feb7 01bd
00000070: 27e1 8abc 0000 0000 dee4 83bc 0000 0000
00000080: 5e63 61bd 078b 6b3e 8b75 00bd 9703 10bd
00000090: f757 d2bc bc1d 17bd a77c b9bc 0000 0000
000000a0: e1a8 b0bc 0000 0000 78b6 03bc f026 fabc
000000b0: ec23 91bb 1524 5cbc baa0 34bd e6bf 33bc
000000c0: 0000 0000 0000 0000 d209 dfbc 1f75 afbc
000000d0: 0000 0000 3bc4 b3bc dce3 0bbd c5d4 36bd
000000e0: 0000 0000 0000 0000 471d babb 5131 c4bc
000000f0: c637 6ebd 801d 663d fdb5 01bd 0000 0000
00000100: 171d 70bc 0000 0000 f908 f7bc b7bb 00bc
00000110: 6c1e 68bc 57df 08bd 0000 0000 0000 0000
00000120: e219 7fbd 43ef dcbb f655 9fbc d089 15bd
00000130: 1e3b f6bc cfec 47bc 6f81 fabc 6390 acbc
00000140: 934d d0bc f8df 603b 11aa 05bd 8726 23bd
00000150: c32e 043e 42d4 fdbc 053b c6bc 0000 0000
00000160: c30a 7abc 57ac efbc 49b4 f2bc 9d42 c6bc
00000170: 0000 0000 7512 03bc 9f54 1dbd bbb8 37bc
00000180: d899 b4bc ed68 1dbd 472c 96bd 7494 1fbd
00000190: 6fb9 1cbd c8d0 99bc 780e 8dbb 3919 dbbc
000001a0: 430c 2fbd 3e80 f7bc f05e 1cbd e990 45bd
000001b0: f55a 8cbc 2bb1 1cbd 091d 5f3e 088b e4bc
000001c0: 84bc a5bc e672 fabc f423 5fbc c493 38bd
000001d0: 29d2 fdbc a50c 82bd 0000 0000 4f73 01bc
000001e0: 2f00 1cbd 59a3 0cbb 0000 0000 dd5e 7cbc
000001f0: 0000 0000 0000 0000 5a9f a4bc 669a 3cbc
00000200: 299a ec3a 4007 83bc 99e0 c2bc 4301 35bd
00000210: 550c 09bd f19c eebb c3dd 1ebd 8bf3 1bbd
00000220: 0000 0000 d081 f4bb 96e9 673e 2523 11bd
00000230: 5eea f5bc 0000 0000 0000 0000 eef0 ddbc
00000240: e09f d7bc f2e3 16bd 5438 04bd 6959 06bd
00000250: edb7 0ebd ec0c 2dbd 1978 b4bc 0000 0000
00000260: 0000 0000 5fa1 7bbc df86 00bc 1180 f03b
00000270: 18b3 27bd 0000 0000 f01c 15bd cd6a 03bd
00000280: 3ca2 2fbd 291f 3bbd 7362 9ebc 1c4f d4bc
00000290: ce75 23bd 0000 0000 0000 0000 7b80 8dbc
000002a0: d2f4 44bc 0000 0000 b5ed 54bc 0000 0000
000002b0: 3c8e 10bd 8b4f 3fbd 048c 08bd 3965 18bd
000002c0: 5617 66bc 60b5 d8bc 70fe f7bc bbc7 13bd
000002d0: 28ee 71ba 5f07 63bc 36b0 e3bc fa4d cabc
000002e0: 7f29 723c 81aa f1bc f04b 0bbd 0fcc d3bc
000002f0: 06b4 79bc a52a cabc d7fb 34bd 386b cabc
00000300: bd51 49bc 4ef0 a7bc 7446 26bd 81a5 03ba
00000310: 5458 ffbc 56f0 d6bc e286 4dbd 23c6 08bd
00000320: 4b7d 45bc 0000 0000 1991 81bd dfc7 f7bc
00000330: 1002 513e b9be 70bc 0000 0000 fb8a 10bb
00000340: 0000 0000 60ac f1bc 8d51 1ebd ede3 acbc
00000350: ab5f 27bd c4ec 93bb e8c8 bfbc 7f8a 19bd
00000360: 2dfe bfbc 83c7 24bd d45e 2abd e9eb e9bc
00000370: 23aa 0bbd c53e c9bc d41d 1ebd 0000 0000
00000380: 0000 0000 8a3b 03bd 2d9f 36bc 462d e0bc
00000390: c811 2cbd 2826 05bd 070b 1dbd 8803 1bbd
000003a0: 0000 0000 0000 0000 5977 473b 0000 0000
000003b0: 7346 3fbd b28c 81bb da18 37bc 4f5e f03c
000003c0: 9189 0ebd 8ac0 08bd d8c7 6cbb 6fa0 a9bc
000003d0: 1861 fbbc 2276 bbbc d658 2bbc 39af 95bc
000003e0: eed7 ddbb a70b b2bc 34bd 6bbd 4237 35bd
000003f0: abec 8dbc 8857 d5bb 5f1c 1dbd f8f5 03bd

layer2.weight f4 [256, 256]
-0.08151947 -0.062371876 0.04804244 -0.035373036 -0.083134376 -0.0009972604 -0.05109128 0.0685925
-0.058362454 -0.050911937 0.0075131585 -0.010528377 -0.041568812 0.016849529 0.056861356 -0.07646606
-0.090258166 -0.07438016 -0.05433607 -0.061766025 0.03097495 -0.028442232 -0.028284267 -0.059461836
-0.10343999 -0.10995729 -0.089049965 0.015010594 0.0325184 -0.073195264 0.06447368 -0.061588712
-0.09188849 -0.09774269 0.0694318 0.033521093 0.05694653 0.0016933938 -0.003818825 -0.0664458
-0.0451859 -0.058972087 -0.057072658 0.07967115 -0.055090338 -0.1021385 0.059285738 -0.01247421
0.06848649 -0.094602995 0.04173615 -0.05041373 -0.057989854 -0.09624085 -0.0807602 0.044395983
0.05390384 0.09775848 0.039414708 -0.0025696014 -0.10949653 -0.09320645 -0.07076236 -0.035643294
-0.08918061 -0.054525953 0.06037011 -0.09886356 -0.046111118 -0.030371694 0.097973965 -0.09731158
-0.0091749355 -0.069637544 0.011319244 -0.10971793 -0.044017203 0.015420939 -0.09425392 0.08422269
0.087764665 -0.061863948 0.023754485 0.00057235284 0.05202911 -0.03635212 -0.10312264 0.038521133
0.05386329 -0.027550193 0.04815477 -0.093120396 0.06288134 -0.076636896 0.063003145 -0.049726248
0.019330172 -0.06321398 0.03298372 0.009250506 -0.03212901 0.0222903 -0.07651577 -0.10277373
0.03245176 0.038058825 -0.0909974 0.078162335 0.010473962 -0.041863807 0.07590043 0.0032635136
0.034688093 -0.09040609 0.025791198 0.087210044 -0.0042379186 0.042138554 -0.027430579 0.020686783
0.07619664 -0.10037764 0.07616603 0.041229755 -0.057916567 -0.086731255 0.08987771 -0.03691213
-0.0617805 0.022005318 -0.055846408 -0.09005234 -0.07238495 0.041986708 0.032934044 0.0061565824
0.093168594 -0.095103726 0.014644767 -0.10425918 0.09706394 -0.1081085 -0.03878144 0.051596016
-0.11042664 -0.034037847 0.05508568 -0.08660224 0.013464061 0.023629414 0.06621883 -0.053606085
-0.016012311 0.08750327 -0.11073061 -0.010934388 -0.066019066 0.08494719 0.06770427 0.058159474
0.078449585 0.090022065 -0.0014654443 -0.10684952 -0.023242742 -0.033529013 0.0940605 0.025969567
-0.050118875 0.031420626 0.09245968 -0.10443688 0.01448644 -0.09309731 -0.023962885 -0.012959013
-0.066964224 -0.11322219 -0.061346367 0.08231716 0.016308716 0.03505897 -0.04276394 -0.013799641
0.03946791 0.0838472 0.08639686 0.039414495 -0.07883903 -0.086697824 -0.11233853 0.04818818
0.096991174 0.028501535 0.06448142 -0.05842468 0.02237738 0.028415974 0.07094744 -0.04381251
-0.09171218 -0.058664877 0.03357953 -0.099722385 0.0088017285 -0.07366519 0.058706783 0.093227684
0.070310645 0.05023107 0.0140269315 -0.11179818 0.035046093 -0.027843576 0.056948993 -0.04875452
-0.046569943 0.038871147 0.04482289 0.09078456 -0.0043187034 0.078988515 0.078412145 -0.053714436
-0.044285454 0.052535105 0.09647094 0.006990758 0.06983496 0.08335856 -0.092334636 -0.013276793
-0.066213 -0.056473788 0.06482513 -0.08683122 -0.069803596 0.02788306 0.0051739514 -0.0489074
0.040873513 -0.012275804 -0.040299214 -0.008395709 -0.001968055 -0.08036253 0.017090157 0.018750547
-0.023416178 -0.038736988 0.08562707 0.086852476 0.08943346 -0.03220074 0.08253177 0.08562483
00000000: aef3 a6bd a779 7fbd 26c8 443d 51e3 10bd
00000010: 5b42 aabd 82b6 82ba 1745 51bd 3a7a 8c3d
00000020: 780d 6fbd 0989 50bd f130 f63b 377f 2cbc
00000030: 0f44 2abd 0608 8a3c 74e7 683d 3d9a 9cbd
00000040: 46d9 b8bd a054 98bd 808f 5ebd 5ffe 7cbd
00000050: 2ebf fd3c afff e8bc 68b4 e7bc 418e 73bd
00000060: 58d8 d3bd 4a31 e1bd d45f b6bd ffee 753c
00000070: 0432 053d 66e7 95bd c70a 843d 7244 7cbd
00000080: 0830 bcbd 522d c8bd 4232 8e3d 6a4d 093d
00000090: c440 693d def4 dd3a 4045 7abb bc14 88bd
000000a0: da14 39bd b78c 71bd 05c5 69bd a12a a33d
000000b0: 68a6 61bd fd2d d1bd 9ad5 723d a160 4cbc
000000c0: a542 8c3d 37bf c1bd 86f3 2a3d a17e 4ebd
000000d0: c586 6dbd ec19 c5bd 9b65 a5bd 90d8 353d
000000e0: 46ca 5c3d 9935 c83d 5171 213d c266 28bb
000000f0: b73f e0bd 06e3 bebd dbeb 90bd b4fe 11bd
00000100: 53a4 b6bd 9b56 5fbd a646 773d fa78 cabd
00000110: 03df 3cbd 0fce f8bc 93a6 c83d 4b4b c7bd
00000120: 7852 16bc 219e 8ebd 5a74 393c cbb3 e0bd
00000130: 624b 34bd 1ba8 7c3c 3308 c1bd f27c ac3d
00000140: f6bd b33d 0d65 7dbd c498 c23c f309 163a
00000150: 7a1c 553d f6e5 14bd f631 d3bd 56c8 1d3d
00000160: c19f 5c3d f1b0 e1bc f03d 453d e8b5 bebd
00000170: efc7 803d cef3 9cbd cb07 813d c0ad 4bbd
00000180: 4f5a 9e3c 5576 81bd f019 073d 6f8f 173c
00000190: b599 03bd 269a b63c 4db4 9cbd 097b d2bd
000001a0: 23ec 043d 92e3 1b3d d85c babd 9313 a03d
000001b0: fb9a 2b3c 6279 2bbd af71 9b3d ace0 553b
000001c0: 1a15 0e3d d426 b9bd 1048 d33c 2e9b b23d
000001d0: 3dde 8abb 7a99 2c3d 18b6 e0bc 5477 a93c
000001e0: fc0c 9c3d cb92 cdbd effc 9b3d 88e0 283d
000001f0: ec39 6dbd 28a0 b1bd ce11 b83d 2c31 17bd
00000200: 8d0d 7dbd 7f44 b43c 34bf 64bd 5c6d b8bd
00000210: 903e 94bd 41fa 2b3d d9e5 063d 28bd c93b
00000220: 2dcf be3d bec5 c2bd 9bf0 6f3c d685 d5bd
00000230: 75c9 c63d fd67 ddbd 4ad9 1ebd 5856 533d
00000240: 5d27 e2bd 456b 0bbd 86a1 613d 845c b1bd
00000250: 5d98 5c3c 7992 c13c bd9d 873d 0e92 5bbd
00000260: 402c 83bc ea34 b33d bbc6 e2bd 2626 33bc
00000270: 0135 87bd cbf8 ad3d 89a8 8a3d a138 6e3d
00000280: 2daa a03d 7d5d b83d 2714 c0ba ecd3 dabd
00000290: 9067 bebc b855 09bd cba2 c03d 21be d43c
000002a0: 7349 4dbd eab2 003d 805b bd3d 01e3 d5bd
000002b0: 8958 6d3c cda9 bebd d04d c4bc 0a52 54bc
000002c0: 8a24 89bd 09e1 e7bd 5446 7bbd e695 a83d
000002d0: db99 853c ff99 0f3d 3e29 2fbd e417 62bc
000002e0: 1aa9 213d 15b8 ab3d d6f0 b03d 1871 213d
000002f0: 5b76 a1bd a18e b1bd be11 e6bd f860 453d
00000300: 4fa3 c63d 0d7c e93c d60e 843d b84e 6fbd
00000310: c450 b73c 9ec8 e83c e44c 913d bf74 33bd
00000320: 98d3 bbbd 954a 70bd b08a 093d 403b ccbd
00000330: 2035 103c c6dd 96bd 8676 703d 28ee be3d
00000340: 07ff 8f3d 18bf 4d3d 37d1 653c 72f6 e4bd
00000350: 7e8c 0f3d 3618 e4bc 5943 693d d2b2 47bd
00000360: 20c0 3ebd 5a37 1f3d 3598 373d 41ed b93d
00000370: e983 8dbb bbc4 a13d 8c96 a03d ab03 5cbd
00000380: aa64 35bd 0d2f 573d 8e92 c53d ba12 e53b
00000390: a205 8f3d e5b7 aa3d f119 bdbd e886 59bc
000003a0: ae9a 87bd 0f51 67bd 0ac3 843d 91d4 b1bd
000003b0: 30f5 8ebd 046b e43c 408a a93b 2053 48bd
000003c0: fc6a 273d 7420 49bc ca10 25bd 288e 09bc
000003d0: 7cfa 00bb 1c95 a4bd a800 8c3c bf9a 993c
000003e0: 49d3 bfbc adaa 1ebd 3f5d af3d b6df b13d
000003f0: e428 b73d ece4 03bd 6b06 a93d 125c af3d

layer2.bias f4 [256]
-0.009962691 0.0 -0.02973343 0.0 0.03225123 -0.018671028 -0.009168003 -0.0320523
-0.012367304 -0.029132707 -0.0070268684 0.14956883 -0.00499165 -0.042813346 -0.009274474 -0.05173523
-0.04027207 -0.034255043 0.0 -0.041203685 -0.010658386 -0.03980326 -0.007820853 -0.07884687
0.0 -0.030290006 -0.025969151 0.13935466 -0.04200814 -0.07733926 -0.047577795 -0.04386423
0.0 -0.03494804 -0.071787246 -0.047606762 -0.005316045 0.0 -0.054899685 0.0
-0.04253988 -0.09962188 -0.059603613 -0.048326477 -0.00760693 -0.03380626 -0.039198454 0.03505462
-0.099029884 -0.0358987 -0.042373918 -0.037950158 -0.044457853 -0.037380077 -0.02396751 -0.03292291
-0.032991465 -0.0502044 -0.03628683 -0.03015915 0.0 -0.06443636 0.0 -0.032433648
-0.06846203 -0.032156195 -0.01225593 -0.12812243 -0.0070144283 0.0 -0.037443813 -0.008140656
-0.006137108 -0.05346488 -0.0069494457 -0.03289878 -0.013276763 0.0 -0.013193563 -0.006005509
-0.058386892 -0.034567855 -0.029759571 -0.033926208 -0.026041184 -0.028963882 -0.012422176 0.0
-0.026369983 -0.033441737 -0.030334016 -0.047952652 -0.0429035 -0.062499348 -0.036848944 -0.010306607
-0.0065161726 0.21696204 0.15679732 -0.039103154 -0.03176751 -0.061683595 -0.02752792 -0.05072893
-0.014546909 -0.01298983 0.22433656 -0.00038984683 -0.025411082 -0.01308647 -0.029109849 -0.010420782
-0.013667963 -0.0060055074 0.15390182 0.0 -0.03175805 -0.037469376 -0.031404108 0.22520293
-0.0055588894 -0.027712855 -0.002893442 -0.045145556 0.15441789 -0.011668189 -0.034566723 -0.009766734
-0.042609423 0.0 -0.12065588 -0.04728648 -0.07550138 -0.04123726 0.0 -0.032027032
-0.022867266 0.20237644 -0.008401287 -0.039200723 -0.032480035 -0.040172845 -0.009004921 0.0
-0.015808461 -0.030102812 -0.034410045 -0.063875824 -0.04325737 0.0 -0.04406673 -0.008668273
-0.03441248 -0.068933666 -0.0054879203 -0.011028604 -0.042497918 -0.012693693 -0.061034724 -0.054079063
-0.033079974 -0.031238176 -0.05595372 -0.0111459475 -0.02687496 -0.030140007 -0.03983362 -0.010886945
0.1942306 -0.048966154 -0.018930309 -0.04511063 -0.009063655 -0.09234924 -0.008478724 -0.016242402
-0.013638572 -0.007947118 -0.030306842 -0.05307022 -0.041219857 -0.0319105 -0.042486705 0.10455901
-0.010192688 -0.02819088 0.21926638 -0.04732366 -0.01466184 -0.011230703 -0.008799692 -0.011047426
0.0 -0.070860356 -0.03424365 -0.033184215 -0.006005508 -0.008171385 0.20767497 -0.0375249
-0.01180514 -0.0067166835 -0.011636841 -0.044092182 -0.03482056 -0.03953999 0.0 -0.06675684
-0.0051262854 -0.035642255 -0.025063237 -0.03581922 -0.027815467 -0.042415943 -0.011592947 0.0
-0.099215925 0.11975808 0.22452441 0.0 -0.036287818 -0.04342331 -0.03147493 0.077459425
-0.030019011 -0.041157123 -0.008532524 0.0 -0.042827655 -0.024752174 -0.03438686 -0.00295032
-0.038800262 -0.029864633 -0.043539226 -0.027076751 -0.008371258 -0.034616668 -0.008439403 -0.023272133
-0.027470376 -0.029763523 -0.049451128 -0.052798536 -0.013739937 -0.058537293 -0.035515454 -0.032131962
-0.036041643 0.0 -0.04203971 -0.011885442 -0.025642559 0.19095615 0.0 -0.008726055
00000000: 8e3a 23bc 0000 0000 8693 f3bc 0000 0000
00000010: de19 043d fcf3 98bc 6435 16bc 4649 03bd
00000020: 3ca0 4abc b7a7 eebc a541 e6bb 9228 193e
00000030: ff90 a3bb 0c5d 2fbd f7f3 17bc 52e8 53bd
00000040: 53f4 24bd 044f 0cbd 0000 0000 32c5 28bd
00000050: 83a0 2ebc be08 23bd 0923 00bc 787a a1bd
00000060: 0000 0000 bf22 f8bc 42bd d4bc fdb2 0e3e
00000070: ba10 2cbd 0c64 9ebd efe0 42bd fbaa 33bd
00000080: 0000 0000 ad25 0fbd 3105 93bd 4fff 42bd
00000090: 3832 aebb 0000 0000 7ede 60bd 0000 0000
000000a0: 4c3e 2ebd 8e06 ccbd eb22 74bd fcf1 45bd
000000b0: 8e43 f9bb 6f78 0abd 8f8e 20bd 6f95 0f3d
000000c0: 2ed0 cabd 840a 13bd 4690 2dbd a071 1bbd
000000d0: 7019 36bd da1b 19bd 8357 c4bc 2cda 06bd
000000e0: 0f22 07bd 21a3 4dbd 80a1 14bd 5210 f7bc
000000f0: 0000 0000 36f7 83bd 0000 0000 25d9 04bd
00000100: d235 8cbd 37b6 03bd 19cd 48bc 8732 03be
00000110: 4ad9 e5bb 0000 0000 af5e 19bd 6360 05bc
00000120: cb19 c9bb fdfd 5abd 2db8 e3bb dfc0 06bd
00000130: c886 59bc 0000 0000 d029 58bc dcc9 c4bb
00000140: 1827 6fbd 0697 0dbd 58ca f3bc 35f6 0abd
00000150: 5254 d5bc aa45 edbc 6286 4bbc 0000 0000
00000160: dd05 d8bc 34fa 08bd 0b7f f8bc 006a 44bd
00000170: 95bb 2fbd 51ff 7fbd ebee 16bd 0bdd 28bc
00000180: 9e85 d5bb 4c2b 5e3e 7a8f 203e a12a 20bd
00000190: a61e 02bd f0a7 7cbd 3c82 e1bc 23c9 4fbd
000001a0: 2956 6ebc 4cd3 54bc 7cb8 653e 5b64 ccb9
000001b0: e72a d0bc a268 56bc c777 eebc edbb 2abc
000001c0: 98ef 5fbc d9c9 c4bb 7098 1d3e 0000 0000
000001d0: bb14 02bd 7d79 19bd 98a1 00bd 999b 663e
000001e0: 5827 b6bb 1206 e3bc e79f 3dbb 8cea 38bd
000001f0: b91f 1e3e ef2b 3fbc d695 0dbd a704 20bc
00000200: 3887 2ebd 0000 0000 6e1a f7bd 78af 41bd
00000210: 78a0 9abd 67e8 28bd 0000 0000 c72e 03bd
00000220: 2254 bbbc c53b 4f3e 8da5 09bc f090 20bd
00000230: c909 05bd 488c 24bd 6089 13bc 0000 0000
00000240: bf80 81bc 2c9a f6bc 8cf1 0cbd 54d1 82bd
00000250: a42e 31bd 0000 0000 517f 34bd 5f05 0ebc
00000260: 1af4 0cbd 182d 8dbd 03d4 b3bb 51b1 34bc
00000270: 4c12 2ebd 35f9 4fbc 8cff 79bd 0282 5dbd
00000280: de7e 07bd 34e7 ffbc ba2f 65bd 7e9d 36bc
00000290: e028 dcbc 2de8 f6bc 9428 23bd 285f 32bc
000002a0: 63e4 463e bc90 48bd bc13 9bbc edc5 38bd
000002b0: b97f 14bc 9921 bdbd 59ea 0abc c90e 85bc
000002c0: 5174 5fbc a134 02bc 0e46 f8bc 2960 59bd
000002d0: 27d6 28bd 96b4 02bd 8a06 2ebd 0923 d63d
000002e0: 3bff 26bc 8ff0 e6bc 5e87 603e 74d6 41bd
000002f0: 3738 70bc fc00 38bc 952c 10bc 4300 35bc
00000300: 0000 0000 3c1f 91bd 1243 0cbd 2cec 07bd
00000310: dac9 c4bb 46e1 05bc bfa8 543e b6b3 19bd
00000320: 596a 41bc a017 dcbb 73a8 3ebc 019a 34bd
00000330: 01a0 0ebd aff4 21bd 0000 0000 cfb7 88bd
00000340: 66fa a7bb 9dfd 11bd 6b51 cdbc 2db7 12bd
00000350: 43dd e3bc 57bc 2dbd 58f0 3dbc 0000 0000
00000360: b831 cbbd b943 f53d bae9 653e 0000 0000
00000370: 89a2 14bd a4dc 31bd dbeb 00bd 0ca3 9e3d
00000380: 6eea f5bc 5f94 28bd 00cc 0bbc 0000 0000
00000390: 0d6c 2fbd 12c5 cabc 3cd9 0cbd 285a 41bb
000003a0: 06ed 1ebd ada6 f4bc 3056 32bd 10d0 ddbc
000003b0: 9a27 09bc 35ca 0dbd 6c45 0abc 33a5 bebc
000003c0: 8e09 e1bc a2d2 f3bc 448d 4abd 4743 58bd
000003d0: 791d 61bc cdc4 6fbd a778 11bd ce9c 03bd
000003e0: 67a0 13bd 0000 0000 d531 2cbd 28bb 42bc
000003f0: 5810 d2bc 028a 433e 0000 0000 baf7 0ebc

layer3.weight f4 [256, 256]
0.034506947 -0.006861627 -0.0041826055 0.09423975 -0.09645482 0.084222786 -0.035681497 -0.045524664
0.09109029 0.0650159 -0.018271836 -0.0128433965 -0.11432272 0.057715002 0.065665685 -0.08035019
-0.103377745 -0.07083615 -0.09505454 0.049576648 0.08589171 -0.069079354 -0.079191595 0.086415105
0.04934346 0.051559467 -0.019691342 -0.05091594 -0.084804974 -0.08911832 0.009006461 -0.10454201
-0.037584335 0.030993754 -0.087391146 -0.0962645 -0.013350874 0.0054947957 -0.015524499 -0.08796921
-0.09700094 -0.007383032 0.07814071 -0.095870316 0.020030037 -0.008890038 0.093630716 0.032585744
-0.043699883 -0.07207894 -0.009634491 0.012351902 0.012538222 -0.035767596 -0.047875028 -0.11672053
0.07202061 -0.012422361 0.023969822 0.028517364 0.0109203905 0.056095153 0.040979706 -0.09041899
0.07778992 -0.115569584 0.04185295 -0.0804323 0.0046556825 0.097424366 -0.089966156 -0.07460003
-0.05144383 0.07194371 0.079302184 0.057424184 -0.1052316 0.0053057373 0.07794947 0.09570342
-0.036792412 0.045400333 -0.028275622 -0.097365595 0.08489875 -0.011337045 0.015676513 -0.08174099
-0.11255254 0.07643483 0.0007145395 0.06704971 -0.09312863 0.0014374023 -0.0004554715 -0.008624684
0.034964517 0.036062915 0.07258396 0.035115715 0.06836491 0.06573708 0.05518378 -0.0060156574
0.06504292 0.008732177 0.03581478 -0.04569995 0.051498223 -0.10324271 -0.08654671 -0.07741494
-0.069958046 -0.06314554 -0.023969295 0.016770296 -0.017128248 -0.020619411 -0.0274957 -0.09457338
0.047446363 -0.111873865 -0.0036932826 -0.0019317586 0.0174514 -0.0752525 0.046320904 0.096402206
-0.11982283 0.04838284 -0.06588832 0.009942368 -0.10983898 -0.06442191 -0.0036051422 0.032474235
0.019236458 -0.077200495 -0.046400357 0.022674188 0.085248016 0.04822053 0.08890006 0.0018632188
0.08003767 -0.0037343113 0.08929485 -0.054353364 -0.08428181 -0.037070952 -0.01734173 0.03398862
0.00042511435 0.027888909 -0.051084273 -0.07915665 -0.0024858261 0.056104295 -0.07430575 -0.037591975
0.012854825 -0.059070427 -0.09978248 0.07525625 -0.06258696 -0.026703099 0.07900108 -0.0991171
0.08677778 0.04755546 0.08022139 0.09053129 0.03021501 0.10791234 -0.04583893 -0.057266667
0.07709188 -0.043510444 -0.009669823 0.014595324 0.027149567 -0.09993317 0.04318409 -0.008019903
-0.088412866 -0.050796185 -0.07821787 0.021452008 0.08394561 0.028313715 0.02658441 -0.042200916
0.043675102 -0.07495889 -0.11343976 -0.04928334 0.08367236 0.08788863 0.07996695 0.07660451
-0.09575996 0.07680678 0.052842956 0.007017071 -0.009754571 0.09129465 0.047315307 0.06594838
-0.10479195 -0.026296053 -0.093768656 -0.11852416 0.06885157 0.012681022 0.08942668 0.08436819
-0.026532002 -0.09288542 -0.0030136015 -0.09089277 -0.072781935 -0.11250325 -0.014382566 0.07404611
0.018212002 -0.12146611 -0.09269244 -0.10513211 0.066898234 0.05675206 0.046819516 -0.08024588
0.05527697 -0.1119769 0.060267556 0.004967207 -0.10139343 0.07997673 -0.013547604 -0.11692562
0.08598023 -0.11920557 -0.055815667 -0.105196774 0.028462015 -0.045414656 -0.007520083 -0.025983758
-0.014941422 -0.07914248 0.020568699 0.05363103 0.08519753 0.053753246 0.00049271435 0.027047614
00000000: 2857 0d3d 80d7 e0bb 3d0e 89bb c500 c13d
00000010: 1b8a c5bd ff7c ac3d c326 12bd 1278 3abd
00000020: 8c8d ba3d 0e27 853d d1ae 95bc 1c6d 52bc
00000030: 0822 eabd 9166 6c3d bb7b 863d a48e a4bd
00000040: b6b7 d3bd 8b12 91bd f4ab c2bd e210 4b3d
00000050: fee7 af3d 7a79 8dbd 342f a2bd 67fa b03d
00000060: 5e1c 4a3d 0530 533d bd4f a1bc 3c8d 50bd
00000070: 3bae adbd aa83 b6bd d68f 133c 1f1a d6bd
00000080: 08f2 19bd 9de6 fd3c 21fa b2bd 5226 c5bd
00000090: a0bd 5abc b00d b43b 785a 7ebc 3429 b4bd
000000a0: 6ea8 c6bd 5ced f1bb 3d08 a03d a857 c4bd
000000b0: 0816 a43c 86a7 11bc 76c1 bf3d a178 053d
000000c0: a6fe 32bd 209e 93bd fcd9 1dbc a25f 4a3c
000000d0: 1d6d 4d3c 0b81 12bd 9b18 44bd 2c0b efbd
000000e0: 8b7f 933d 2987 4bbc 5c5c c43c 3f9d e93c
000000f0: 70eb 323c 08c4 653d 56da 273d 972d b9bd
00000100: 5250 9f3d bfaf ecbd 006e 2b3d b1b9 a4bd
00000110: b28e 983b 6d86 c73d 2d40 b8bd e7c7 98bd
00000120: c4b6 52bd 3957 933d 2f69 a23d 9f35 6b3d
00000130: aa83 d7bd c0db ad3b f9a3 9f3d 2800 c43d
00000140: a4b3 16bd b3f5 393d 47a2 e7bc 9d67 c7bd
00000150: 65df ad3d 03bf 39bc 086c 803c d267 a7bd
00000160: f281 e6bd dd89 9c3d ef4f 3b3a 5c51 893d
00000170: 39ba bebd 3867 bc3a 5acc eeb9 8c4e 0dbc
00000180: f436 0f3d b5b6 133d e6a6 943d 7fd5 0f3d
00000190: e702 8c3d 2aa1 863d 6308 623d fe1e c5bb
000001a0: 3935 853d 6811 0f3c 85b2 123d df2f 3bbd
000001b0: cdef 523d ea70 d3bd 673f b1bd b98b 9ebd
000001c0: 2a46 8fbd 7352 81bd 415b c4bc dc61 893c
000001d0: 8a50 8cbc 0aea a8bc aa3e e1bc b0af c1bd
000001e0: 1e57 423d 201e e5bd 000b 72bb 1033 fdba
000001f0: 3df6 8e3c fc1d 9abd fdba 3d3d 856e c53d
00000200: ac65 f5bd 162d 463d 75f0 86bd 50e5 223c
00000210: 42f3 e0bd a2ef 83bd 4044 6cbb b403 053d
00000220: c795 9d3c 4b1b 9ebd 4d0e 3ebd 38bf b93c
00000230: 8396 ae3d e482 453d 3c11 b63d 4037 f43a
00000240: caea a33d 59bb 74bb 38e0 b63d a2a1 5ebd
00000250: f19b acbd b6d7 17bd 3e10 8ebc a737 0b3d
00000260: e2e1 de39 4877 e43c be3d 51bd e21c a2bd
00000270: 3ee9 22bb 9ecd 653d 9d2d 98bd 0bfa 19bd
00000280: 0b9d 523c d5f3 71bd c25a ccbd f31f 9a3d
00000290: 982d 80bd 75c0 dabc 51cb a13d e8fd cabd
000002a0: 8cb8 b13d 84c9 423d 1d4b a43d 7868 b93d
000002b0: 7885 f73c 2501 dd3d 9ac1 3bbd 7490 6abd
000002c0: 59e2 9d3d 0238 32bd 2d6e 1ebc 3a21 6f3c
000002d0: c568 de3c c3a9 ccbd cde1 303d e965 03bc
000002e0: ce11 b5bd a90f 50bd b130 a0bd 1fbc af3c
000002f0: adeb ab3d 2af2 e73c 8cc7 d93c deda 2cbd
00000300: aae4 323d 0c84 99bd 1b53 e8bd 54dd 49bd
00000310: 6a5c ab3d f4fe b33d b6c5 a33d d3e2 9c3d
00000320: cc1d c4bd e04c 9d3d db71 583d 75ef e53b
00000330: a3d1 1fbc b1f8 ba3d b2cd 413d f20f 873d
00000340: 299d d6bd d26a d7bc c809 c0bd cbbc f2bd
00000350: 0d02 8d3d 10c4 4f3c 5625 b73d 3bc9 ac3d
00000360: a459 d9bc b63a bebd d87f 45bb fd25 babd
00000370: b20e 95bd 1b68 e6bd dba4 6bbc 7da5 973d
00000380: 5631 953c 39c3 f8bd 89d5 bdbd 814f d7bd
00000390: f101 893d d974 683d d2c5 3f3d f457 a4bd
000003a0: 1b6a 623d 2554 e5bd 1ddb 763d f4c3 a23b
000003b0: 5ca7 cfbd d7ca a33d c5f6 5dbc b376 efbd
000003c0: 6716 b03d 0d22 f4bd f89e 64bd 6871 d7bd
000003d0: 2c29 e93c b804 3abd 076b f6bb e4db d4bc
000003e0: decc 74bc 7415 a2bd b07f a83c 36ac 5b3d
000003f0: 0b7c ae3d 5d2c 5c3d 8029 013a f592 dd3c

layer3.bias f4 [256]
-0.016000796 -0.013033187 0.0 -0.009846534 0.039146367 0.00048238604 0.0 -0.017617838
-0.014567879 0.0006560782 -0.0006035514 -0.009057287 -0.003989589 0.06580003 0.0054988335 0.0
0.007874415 -0.031777754 -0.004791731 -0.007294269 -0.008525673 -0.015106986 0.0 0.006146071
-0.017345687 0.13402817 0.0021987683 -0.006005508 0.07736954 -0.012626463 -0.0017883508 -0.01936923
0.02480326 0.0 -0.0051161125 -0.025897853 -0.0074458537 0.034844566 -0.0029819473 0.0
0.034931213 -0.0025735646 -0.012262657 -0.021655677 -0.012884483 0.0 -0.009819678 -0.00051219773
0.0039635906 0.0071974746 0.030180492 -0.004882703 -0.0016030569 -0.0057065724 -0.0069553563 -0.0056558726
-0.005436701 0.0 0.0034710227 0.0 -0.007163618 0.0 -0.015224865 0.0
-0.06427294 -0.006005508 -0.013882855 0.0 0.0004573499 -0.005136203 0.0055860747 0.007347795
-0.0060816994 -0.013990406 -0.004550997 0.00455506 -0.01048383 -0.0043910607 0.026527118 -0.009628478
-0.009920808 -0.013706275 0.0 -0.020144403 -0.029759416 -0.007900877 0.03419892 -0.0058796904
-0.011204984 -0.012920696 0.001531262 -0.00069501897 0.0070091425 -0.008231008 0.0 -0.0008832418
-0.015830118 0.0015572789 -0.008594049 -0.009526553 0.0007697615 -0.0020020853 -0.03626707 -0.008733853
-0.010513751 -0.00642107 -0.017287783 -0.0077822916 -0.010854933 -0.006005507 -0.03136094 0.003803419
0.0073657706 0.0059714043 -0.025961094 0.0 -0.0051657083 -0.00028422056 -0.008334876 0.0
-0.00989248 0.08152476 -0.018415498 -0.008993384 0.0035972327 -0.007212547 0.0028925377 -0.0040137917
-0.0016463763 0.005977328 -0.015382749 0.0016818434 -0.0122759715 -0.013054356 -0.0019444651 0.15912834
-0.022857232 -0.0151039045 -0.003713747 -0.017658554 -0.00846758 0.099936254 0.0021439032 -0.00044276108
-0.0037296508 0.0 0.0 0.0045557544 -0.01305435 0.0059897904 0.16310222 -0.012052494
-0.005292807 -0.015263481 -0.0053228135 -0.0029292647 -0.0019097622 0.0025569566 -0.009865386 -0.011038096
0.0 -0.013884484 0.01231361 -0.0106489835 0.0021811537 -0.027770612 -0.012122356 -0.0069978586
-0.07491675 -0.013835423 -0.009108477 0.0064787026 -0.0038886573 0.006124917 1.741889e-05 0.0016805507
-0.0020999985 -0.0029085954 0.022792162 0.034771513 0.108037464 -0.008763539 -0.002222068 -0.010095258
-0.012699647 0.0005139803 -0.014267439 -0.009209489 0.0044324957 0.0024722354 0.0 -0.008164039
-0.02196704 0.00086734985 -0.010065643 -0.0040914444 0.0026591818 -0.012183208 0.013398374 -0.003956797
-0.017305143 0.015169766 -0.01378779 -0.006153876 -0.0029075816 -0.008867456 -0.008736537 -0.004759114
-0.008487427 0.13029146 -0.009958849 -0.012722963 -0.009400887 0.0 -0.0055573033 0.0
0.004146279 -0.0017981088 0.095790364 -0.012071012 0.00064318057 -0.012514538 -0.010506973 -0.009824423
0.006366511 0.0073066736 -0.006005506 -0.00346755 0.0052563963 0.0 0.0 -0.008860435
0.0 -0.0060055074 -0.013615876 0.0262926 -0.016141856 -0.00880356 0.00057906477 -0.011714752
-0.009372811 -0.010221753 0.003671533 -0.011803673 0.0044341874 -0.002408782 -0.00017775153 -0.0008780424
0.0 -0.011169723 0.0049437997 -0.006886179 -0.016464379 -0.00025712614 0.060319204 -0.0060041584
00000000: 1a14 83bc 2689 55bc 0000 0000 5b53 21bc
00000010: f157 203d c2e8 fc39 0000 0000 4953 90bc
00000020: 1dae 6ebc aafc 2b3a a637 1eba 0465 14bc
00000030: 19bb 82bb 2bc2 863d 8f2f b43b 0000 0000
00000040: b103 013c 6429 02bd f403 9dbb c304 efbb
00000050: 44af 0bbc 4b83 77bc 0000 0000 fb64 c93b
00000060: 8b18 8ebc ae3e 093e 3619 103b dac9 c4bb
00000070: ec73 9e3d 39df 4ebc 1867 eaba 38ac 9ebc
00000080: 3530 cb3c 0000 0000 10a5 a7bb bc27 d4bc
00000090: 59fc f3bb 2db9 0e3d c66c 43bb 0000 0000
000000a0: 0814 0f3d 40a9 28bb 50e9 48bc 3f67 b1bc
000000b0: 7019 53bc 0000 0000 b7e2 20bc 0245 06ba
000000c0: 02e1 813b cbd8 eb3b 143d f73c 15ff 9fbb
000000d0: aa1d d2ba 33fe babb c2e9 e3bb e654 b9bb
000000e0: 5a26 b2bb 0000 0000 197a 633b 0000 0000
000000f0: c9bc eabb 0000 0000 b671 79bc 0000 0000
00000100: 88a1 83bd dac9 c4bb ea74 63bc 0000 0000
00000110: 77c8 ef39 984d a8bb 640b b73b c6c5 f03b
00000120: fe48 c7bb 0438 65bc 8820 95bb 9d42 953b
00000130: 5fc4 2bbc e3e2 8fbb 664f d93c c4c0 1dbc
00000140: e28a 22bc 4990 60bc 0000 0000 e005 a5bc
00000150: 05ca f3bc ae72 01bc 2b14 0c3d 6baa c0bb
00000160: 1c95 37bc 54b1 53bc a0b4 c83a ef31 36ba
00000170: f3ac e53b 5adb 06bc 0000 0000 5b89 67ba
00000180: 2aae 81bc 9c1d cc3a 0ece 0cbc 4215 1cbc
00000190: d2c9 493a 6b35 03bb c78c 14bd 6f18 0fbc
000001a0: de41 2cbc d767 d2bb 1c9f 8dbc 9802 ffbb
000001b0: e4d8 31bc d8c9 c4bb 5474 00bd c842 793b
000001c0: 905c f13b c5ab c33b 5cac d4bc 0000 0000
000001d0: 1a45 a9bb 7003 95b9 018f 08bc 0000 0000
000001e0: 1214 22bc 74f6 a63d 19dc 96bc fd58 13bc
000001f0: 8dbf 6b3b 3b57 ecbb bb90 3d3b 2086 83bb
00000200: 39cb d7ba 76dd c33b ed07 7cbc 4d71 dc3a
00000210: 2821 49bc f0e1 55bc 6cdd feba 8af2 223e
00000220: 173f bbbc 5e76 77bc 5662 73bb aca8 90bc
00000230: 9bbb 0abc 61ab cc3d ba80 0c3b 6322 e8b9
00000240: 286d 74bb 0000 0000 0000 0000 7048 953b
00000250: eae1 55bc 0146 c43b 4504 273e d377 45bc
00000260: 486f adbb ae13 7abc ff6a aebb e8f8 3fbb
00000270: fc50 faba 9d92 273b 6ea2 21bc 21d9 34bc
00000280: 0000 0000 bf7b 63bc 06bf 493c 1379 2ebc
00000290: b0f1 0e3b 327f e3bc d99c 46bc 4b4e e5bb
000002a0: f46d 99bd f8ad 62bc b93b 15bc 4c4b d43b
000002b0: d8d8 7ebb 87b3 c83b c81e 9237 ed45 dc3a
000002c0: 21a0 09bb 229e 3ebb a1b6 ba3c 936c 0e3d
000002d0: bf42 dd3d f294 0fbc 1da0 11bb 9566 25bc
000002e0: 2e12 50bc a2bc 063a fac1 69bc 66e3 16bc
000002f0: 783e 913b 3a05 223b 0000 0000 76c2 05bc
00000300: 39f4 b3bc dd5e 633a 5eea 24bc 8611 86bb
00000310: ab45 2e3b 149c 47bc db84 5b3c 05a8 81bb
00000320: 84c3 8dbc 9c8a 783c 2fe6 61bc 74a6 c9bb
00000330: 208d 3ebb ce48 11bc b123 0fbc 57f2 9bbb
00000340: d90e 0bbc 206b 053e 712a 23bc f973 50bc
00000350: 2e06 1abc 0000 0000 0a1a b6bb 0000 0000
00000360: 82dd 873b 85ae ebba bd2d c43d 7ec5 45bc
00000370: 1e9b 283a c709 4dbc 7025 2cbc 9ef6 20bc
00000380: 2a9e d03b d26c ef3b d6c9 c4bb d63f 63bb
00000390: d93d ac3b 0000 0000 0000 0000 5c2b 11bc
000003a0: 0000 0000 d9c9 c4bb 2015 5fbc 9463 d73c
000003b0: ed3b 84bc cf3c 10bc 61cc 173a 3bef 3fbc
000003c0: 6b90 19bc 2479 27bc 1a9e 703b 3164 41bc
000003d0: a94c 913b a8dc 1dbb d062 3ab9 6e2c 66ba
000003e0: 0000 0000 3701 37bc 99ff a13b 75a5 e1bb
000003f0: 4ee0 86bc e3ce 86b9 4511 773d 88be c4bb

mu.weight f4 [4, 256]
-0.028027166 -0.006152375 0.1250628 -0.13605365 0.07340006 -0.14845178 0.037776545 0.03330535
-0.040261276 -0.18623678 -0.1951194 0.038544983 -0.13531898 -0.019166904 -0.16330336 -0.07635443
0.021236917 -0.16341555 -0.089201376 -0.0020540121 0.00041838296 0.06444736 -0.03086818 -0.12387596
-0.031773582 -0.039929118 -0.13041294 0.13954736 0.15652396 -0.13142927 -0.19468147 -0.12206385
0.085491434 -0.09729782 0.08381505 -0.047352895 -0.089334495 -0.22155571 -0.13011363 0.0071036518
-0.16868971 -0.1835261 0.11579017 -0.07423137 -0.08347346 0.1506218 -0.039467696 0.025031518
0.0023554743 -0.0128014535 -0.2501364 -0.007932788 -0.118909925 -0.15018786 0.06153044 0.046451688
-0.11288334 -0.14206019 -0.15721536 -0.045909442 0.12847556 0.034919083 0.06393791 0.0132211745
-0.16471614 -0.020047616 -0.14710453 -0.040875956 -0.085679635 -0.046346378 -0.14375448 0.098486334
0.037216883 -0.14888392 0.027122578 -0.13435571 0.005604384 -0.11799651 -0.18256232 0.07298081
-0.11822855 -0.09203388 0.07924494 -0.09472274 0.06997003 -0.23585553 0.11017877 -0.10228
-0.14805089 -0.13025622 -0.09850606 -0.029705295 -0.019069014 0.09099018 0.13219532 -0.09392224
-0.062335987 -0.18042175 0.020005092 0.072739534 -0.020504452 -0.087380536 -0.05678197 -0.009155962
-0.12609257 0.12281433 -0.024579292 0.07616643 0.13338141 -0.14797077 -0.006147458 -0.16310261
-0.1886225 -0.068985455 -0.03692888 0.12275386 -0.07196038 -0.11956544 -0.0017863922 -0.09627922
0.105195425 0.05710353 0.07686188 0.10595016 -0.13242587 -0.03563697 -0.17361522 0.06584092
-0.072774075 -0.12446031 -0.00690028 -0.15876953 0.02287783 0.13665539 -0.1829669 0.14914675
-0.044097662 0.01730221 -0.1584644 -0.12504847 0.1368917 0.0948237 -0.17131612 -0.2000986
-0.1405434 -0.14258623 0.014810145 -0.07047374 0.110356316 -0.2007784 0.2183304 0.00012320388
-0.18360129 -0.16322422 0.1301165 -0.059467517 -0.14190201 -0.13494623 -0.057401292 -0.011243997
0.11597809 0.09870191 -0.2666746 -0.06524204 -0.19297117 -0.031179816 -0.115607776 0.11932552
-0.07032025 -0.075862296 -0.09326078 -0.15341203 -0.028525323 -0.12829834 -0.030461201 -0.15406053
0.07398946 -0.13823405 -0.22651066 -0.23353702 0.21404071 0.0708632 0.08915704 0.10854729
-0.1275775 -0.039632015 0.03176955 -0.066628516 -0.11207803 -0.045208506 0.117889285 -0.1039129
-0.0478592 0.025301918 0.074590825 -0.038095817 -0.12623046 -0.06708028 -0.20853625 -0.15330617
-0.053331412 0.10829726 0.12609303 0.0028546422 0.015238863 -0.09094763 -0.024438389 -0.18406348
0.060433723 0.07752768 0.13740274 0.08825149 0.122342534 0.050203487 -0.032368682 0.023368418
0.040204775 0.138238 0.118471324 0.15239538 -0.17575222 -0.029963892 0.063472904 -0.17897122
-0.19424008 -0.0175627 0.08979476 -0.15091285 -0.030484656 0.05334522 -0.1357093 0.12512758
0.033870816 -0.0071091466 0.042118013 -0.24581815 -0.1839209 0.043030124 -0.11354985 -0.111446366
0.008709995 0.0053284173 -0.17477551 0.07623151 -0.14867707 -0.14621289 -0.07505494 -0.116387144
-0.014225677 0.11378147 -0.09229554 0.14242704 -0.060984645 -0.18880697 0.15414853 0.066055454
00000000: 3a99 e5bc dd99 c9bb 7610 003e a651 0bbe
00000010: c552 963d be03 18be 94bb 1a3d 316b 083d
00000020: 02e9 24bd dbb4 3ebe 61cd 47be 58e1 1d3d
00000030: 0f91 0abe e903 9dbc ff38 27be b65f 9cbd
00000040: 0bf9 ad3c 6856 27be 36af b6bd 9b9c 06bb
00000050: 695a db39 fafc 833d 44df fcbc aeb2 fdbd
00000060: 0425 02bd b78c 23bd f88a 05be 81e5 0e3e
00000070: d147 203e 6595 06be 945a 47be 9dfc f9bd
00000080: 2216 af3d 1444 c7bd 3aa7 ab3d 1cf5 41bd
00000090: 01f5 b6bd 80df 62be 823c 05be c0c5 e83b
000000a0: ffbc 2cbe 44ee 3bbe 6623 ed3d 9e06 98bd
000000b0: 22f4 aabd 9a3c 1a3e e1a8 21bd e60e cd3c
000000c0: 4d5e 1a3b 30bd 51bc e111 80be 86f8 01bc
000000d0: 0c87 f3bd d9ca 19be 5807 7c3d 2044 3e3d
000000e0: 612f e7bd 3a78 11be 10fd 20be 8a0b 3cbd
000000f0: 198f 033e 5007 0f3d e1f1 823d a09d 583c
00000100: 59ab 28be e63a a4bc 92a2 16be 8c6d 27bd
00000110: ce78 afbd b3d5 3dbd 6034 13be 34b3 c93d
00000120: bb70 183d 0775 18be 2b30 de3c 8b94 09be
00000130: fba4 b73b 27a8 f1bd 9ef1 3abe f776 953d
00000140: cf21 f2bd 427c bcbd 2c4b a23d fffd c1bd
00000150: 724c 8f3d 1d84 71be 68a5 e13d 2d78 d1bd
00000160: a79a 17be e361 05be 8cbd c9bd 8558 f3bc
00000170: 9f36 9cbc 0f59 ba3d 365e 073e 4e5a c0bd
00000180: 0554 7fbd 7bc0 38be b8e1 a33c 77f8 943d
00000190: f4f8 a7bc 91f4 b2bd 3694 68bd e302 16bc
000001a0: 691e 01be 1486 fb3d 835a c9bc 25fd 9b3d
000001b0: 2395 083e a685 17be 9e70 c9bb 5f04 27be
000001c0: 4226 41be 3f48 8dbd bd42 17bd 6066 fb3d
000001d0: f75f 93bd bade f4bd 6025 eaba 0a2e c5bd
000001e0: b370 d73d 64e5 693d c369 9d3d 66fc d83d
000001f0: a69a 07be 12f8 11bd 30c8 31be 9bd7 863d
00000200: 930a 95bd 0ce5 febd be1b e2bb 7b94 22be
00000210: 496a bb3c 64ef 0b3e ad5b 3bbe edb9 183e
00000220: c09f 34bd 5dbd 8d3c 7e44 22be b50c 00be
00000230: 562d 0c3e ee32 c23d 7e6d 2fbe a6e6 4cbe
00000240: 9cea 0fbe 2002 12be 40a6 723c 8954 90bd
00000250: 7e02 e23d da98 4dbe 0192 5f3e 4a30 0139
00000260: fa01 3cbe 4024 27be 433d 053e 3694 73bd
00000270: c34e 11be 582f 0abe 9e1d 6bbd be38 38bc
00000280: ec85 ed3d 3a24 ca3d 9389 88be 9e9d 85bd
00000290: 3c9a 45be d06c ffbc c5c3 ecbd f060 f43d
000002a0: 1004 90bd b15d 9bbd 82ff bebd 0b18 1dbe
000002b0: f0ad e9bc a460 03be c589 f9bc 0bc2 1dbe
000002c0: c987 973d 3a8d 0dbe 69f2 67be 5424 6fbe
000002d0: 7d2d 5b3e ba20 913d f797 b63d 0b4e de3d
000002e0: ada3 02be 2e55 22bd ca20 023d 8874 88bd
000002f0: 2b89 e5bd 8e2c 39bd f06f f13d 49d0 d4bd
00000300: 0208 44bd f845 cf3c 13c3 983d 5c0a 1cbd
00000310: 8f42 01be 6361 89bd 878a 55be 4bfc 1cbe
00000320: 0a72 5abd f4ca dd3d 881e 013e f314 3b3b
00000330: 6dac 793c c042 babd 0433 c8bc 237b 3cbe
00000340: 5a89 773d d5c6 9e3d 4eb3 0c3e 32bd b43d
00000350: b98e fa3d 2ca2 4d3d 0695 04bd 206f bf3c
00000360: c3ad 243d 438e 0d3e 18a1 f23d 890d 1c3e
00000370: 64f8 33be d676 f5bc 15fe 813d 3b44 37be
00000380: dfe6 46be a7df 8fbc 51e6 b73d e688 1abe
00000390: f5ba f9bc 8480 5a3d 61f7 0abe 7221 003e
000003a0: 20bc 0a3d d8f3 e8bb f083 2c3d c1b7 7bbe
000003b0: c355 3cbe 5b40 303d d38c e8bd fe3d e4bd
000003c0: 5eb4 0e3c 019a ae3b 5af8 32be 441f 9c3d
000003d0: cd3e 18be d5b8 15be 68b6 99bd 625c eebd
000003e0: d012 69bc 4206 e93d 7205 bdbd 65d8 113e
000003f0: 09cb 79bd 9d56 41be 1dd9 1d3e 1548 873d

mu.bias f4 [4]
-0.013302835 -0.012913079 -0.020299451 -0.019823661
00000000: 22f4 59bc 6191 53bc 094b a6bc 3b65 a2bc
