llirl_sumo/saves/sumo_single_intersection/optimal_policy_period_1.pth (torch, 196916 bytes, 7 tensors)

sigma f4 [4]
00000000: 5a81 efbb ed91 8d3b aec9 183c 8a19 e83a
-0.007309121 0.004320374 0.009325428 0.0017707807

layer1.weight f4 [200, 36]
00000000: 9d89 683d 9f3d 203e e84e 63bb d934 f53c
00000010: e7c4 393d 9d44 703d 8ad0 6cbd e03c a03d
00000020: e889 1cbd 266e bc3d 99bf d2bc c4ea 6e3d
00000030: 9a32 d33d b051 ddbd c0bf 473d a1d4 e03c
00000040: e0d0 fbbd d9e9 d6bc e5b6 823b e6d4 013e
00000050: 9faa 9fbd d332 ec3d f0a9 8abd 77cd 893d
00000060: 89bc 0b3d 6bba d53d 2d52 ca3d 0018 12be
00000070: 3907 13bc c9dc 19be 853a ed3a 936f c2bd
00000080: 45cb 0e3e 6c70 a53d f1c3 9bbd e752 c13c
00000090: 6102 c4bd 6553 18be 5591 a73d b024 e8bc
000000a0: c0ae 17bb 1525 c5ba 297e 3e3d e76c a43d
000000b0: 6fe2 69bd 012f 80bc 8070 a4bd 7f4a 9cbd
000000c0: e731 5cbd f830 d93c a5fe f0bd 2eb5 adba
000000d0: 4b8b 043e dd66 0fbe e4ff 9d3c 2ffb d93d
000000e0: 7947 863c 6ce8 bb3d 3476 b6bd 4338 023c
000000f0: 51c9 45bd d055 0f3c efe3 ecbc 7da4 b73c
00000100: ddd5 133e 8073 2abd 0333 063d 2d3d d5bd
00000110: 8bde be3d ffef 153d f128 c8bd 8f4f e83d
00000120: 6260 bebd 8027 f6bd f11d 1abe 60e3 b1bd
00000130: 057e f8bc 24ad 95bd e456 1e3e 9e84 11be
00000140: 2e79 adbc ea50 debd dd3a 203e a2a8 36bd
00000150: 360d 0fbe 7b2e 963d 2e83 a7bd 071b 9e3d
00000160: bcdf 213e fdcd febc 8097 c2bb e3b9 0cbe
00000170: d575 98bc 1383 d03d 9efd d33d 56d6 8a3d
00000180: bf87 01be 42fe f63d 06a0 aa3d 9846 0abd
00000190: 22ce 17be 3058 f53d 42d7 93bc 465a e5bd
000001a0: bd42 d83d 502d 17be 1270 1bbe c5fb d83d
000001b0: 6c4b df3d 40c0 19bc b0c3 17bc 8ce5 76bd
000001c0: e84d f0bd 9b16 a3bd 23af dbbd 606c 14bc
000001d0: 08cf 62bd b00b a7bc d498 c6bd 019d 8e3d
000001e0: 4ef6 9d3d 9e16 44bd 7f75 e23d 3ebc d73c
000001f0: 6e91 0fbe fa5f 71bd 0ab8 12be d92e 30bd
00000200: 9022 b43d 5f46 a6bc d5a1 76bd d528 d23a
00000210: af99 5ebd bb11 21be 8608 11bc 9f71 1abe
00000220: 7fbf 0a3d 6a48 82bd 5cff 0b3d ee34 e7bd
00000230: a86b cb3c f002 b93c cefd a8bd 8f27 29bc
00000240: 72f0 593d 65be ecbc 988a 53bd 165d c43d
00000250: 65d3 0e3e 5aa3 afbd 56d7 2a3c 4bd1 3dbd
00000260: c819 5abc b2bb b53d e81b 9abc 5a05 8cbc
00000270: 7f29 363d 6d57 df3d a8a9 0f3e 72fc 833d
00000280: 14b1 afbd 9c57 59bd ee90 eabd 5006 1fbe
00000290: e61e 21be fd8e f7bc 34d2 453d 8bdd 0c3e
000002a0: dac8 6b3b 687d 1fbe a0a8 a1bd ca04 ee3d
000002b0: 8429 0c3e fb12 1c3d b314 d9bc e2b9 df3d
000002c0: 1f44 133d 466e e4bd f8b8 bfbd 0395 42bd
000002d0: 41fc 2ebd fcf2 a8bd 3707 34bd 8bcf c53d
000002e0: f00a d13d f3e4 25bd b44d b83d 6158 d33d
000002f0: 610c 8bbd e06c fe3d 69eb 253d b835 59bd
00000300: 2e6c 203e 41e6 f3bc fc15 473a 1baf 573d
00000310: c11c 983c 43c8 eb3c 963e 85bd 0315 2a3d
00000320: 4334 dc3c 8e75 dfbc a119 0abe 7561 54bd
00000330: d26f 1f3e d1e6 e03d 5d68 633d e5cd 82bd
00000340: 6b0e ae3d 644a d93d 3ab7 bbbd 7d69 20bd
00000350: 1278 febd 0c4e 1dbe 832d 1b3e bd3d 253d
00000360: d115 5ebc e682 86bc e3cd 91bb 728c 213e
00000370: c835 10be 021f ea3d 8d0e 923d 3d1b 00bc
00000380: bff6 90bd e4a3 25bd 7ba0 96bd 43d9 593d
00000390: 951d f03d 9905 d83d 5639 f8bd 6776 b93d
000003a0: bb15 193d 77cb 15bd d86d e9bd 4c09 a6bd
000003b0: 7fe7 093e ed64 003d 0ffb dbbd 4cb9 b0ba
000003c0: 793b 92bd eff0 00bd d49d 943d 4c61 14be
000003d0: c56c eebd 7529 c4bd 5d19 c6bd a7d0 ccbd
000003e0: 4565 cf3d e77f 173e 9ee1 fbbd 2c8e b0bd
000003f0: aaa9 d33d 01f1 993d 59fa 00be 63a0 0bbd
0.056771863 0.15648507 -0.0034684483 0.029932426 0.045353796 0.058659185 -0.057816066 0.07824111
-0.038217455 0.09200697 -0.025726127 0.05832936 0.10312386 -0.10806596 0.04876685 0.02744514
-0.12295699 -0.026234554 0.003989088 0.1267887 -0.07796215 0.115331315 -0.06770694 0.067286424
0.034115348 0.10435947 0.09878955 -0.14266968 -0.00897389 -0.15025629 0.0018099105 -0.09493937
0.13944729 0.080780834 -0.07605732 0.023599101 -0.09570766 -0.14875562 0.08182017 -0.028337806
-0.002314493 -0.0015040959 0.046507034 0.08028584 -0.05710071 -0.015647413 -0.0802927 -0.076313965
-0.053758528 0.026512608 -0.117673196 -0.0013252848 0.12943761 -0.14004083 0.019287057 0.106436126
0.016391503 0.0917519 -0.08909264 0.007947984 -0.048287693 0.008748487 -0.028917281 0.022417301
0.14437051 -0.041614056 0.032763492 -0.10412059 0.093197905 0.03660583 -0.09773434 0.113432996
-0.09295727 -0.12019253 -0.15050484 -0.086859465 -0.030333528 -0.073084146 0.15462834 -0.14210746
-0.021175947 -0.10855277 0.15647455 -0.044594415 -0.13969883 0.07333084 -0.081793174 0.07719999
0.15808004 -0.031104082 -0.0059384704 -0.13742785 -0.018610874 0.101812504 0.10351108 0.067791626
-0.1264944 0.120602146 0.08331303 -0.03375873 -0.14824727 0.11979711 -0.018046979 -0.11198859
0.10559604 -0.14763379 -0.1517947 0.10594896 0.109030575 -0.009384215 -0.009262964 -0.060277507
-0.117336094 -0.07963296 -0.10726764 -0.009059042 -0.05537322 -0.020391315 -0.096971184 0.0696354
0.077129945 -0.047873132 0.11057567 0.026334878 -0.14020321 -0.05892942 -0.14328018 -0.043013427
0.08795655 -0.020297227 -0.06021293 0.0016033897 -0.054345783 -0.1572942 -0.00885213 -0.15082406
0.03387403 -0.06361468 0.034179077 -0.112893924 0.024831608 0.022584409 -0.082515344 -0.010324373
0.053207822 -0.028899381 -0.051645845 0.09588067 0.13947828 -0.08576079 0.010427317 -0.046342175
-0.013311811 0.08873691 -0.018812135 -0.017092396 0.044473168 0.10905347 0.14029562 0.064446345
-0.08578697 -0.053062066 -0.114534244 -0.15529752 -0.15734443 -0.03021955 0.04829617 0.13756387
0.003597787 -0.15575182 -0.07893491 0.11622007 0.13687712 0.03810404 -0.026499128 0.10924126
0.035953637 -0.111538455 -0.09361452 -0.04750539 -0.042721037 -0.082494706 -0.043952193 0.09658726
0.10207164 -0.040501546 0.08999196 0.10319591 -0.067894705 0.1242311 0.040507708 -0.053029746
0.15666267 -0.02977288 0.00075945235 0.052657228 0.018568398 0.028782016 -0.06506078 0.041523945
0.02688039 -0.027277734 -0.13486339 -0.051850755 0.1557 0.10981525 0.05551945 -0.063869275
0.08498844 0.10609892 -0.09165807 -0.0391631 -0.12425245 -0.15361804 0.1515408 0.04034208
-0.013555006 -0.01641984 -0.0044495924 0.15776232 -0.14083016 0.114316955 0.071316816 -0.007818994
-0.07078313 -0.0404395 -0.07354828 0.053185713 0.11724392 0.10547943 -0.12120311 0.090557866
0.03737424 -0.036570992 -0.11397904 -0.08107242 0.13467215 0.03134625 -0.10741245 -0.0013482957
-0.0714025 -0.031479772 0.07256666 -0.14490241 -0.1164184 -0.0957822 -0.096728064 -0.10000735
0.101267375 0.14794885 -0.122988924 -0.08620867 0.10335095 0.07516671 -0.125955 -0.034088504

layer1.bias f4 [200]
00000000: 9a4a 57b9 76ca 6f39 da32 cc39 2323 55b8
00000010: a512 d4ba 8391 353a 6a0e 8639 b40c a138
00000020: 7a68 b8b9 89e8 d7b9 fbca f4b9 b568 433a
00000030: 65e1 89b8 3095 66b9 6feb 51b9 e035 c2b9
00000040: 97d9 cc39 a352 b3ba d1bc b239 d165 4cb9
00000050: d497 1139 64f7 79b9 a1b6 9037 5717 1a38
00000060: d30b fc37 320a 2738 0aeb 843a 4e8e 723a
00000070: 8d30 a139 c83f 89ba c5d9 2fba 6b28 77b9
00000080: 8801 113a 9525 90b9 48f1 b539 e950 d837
00000090: d945 cb39 1b19 deba 3627 b739 6f92 8137
000000a0: 04c4 9239 973d 1cba 3685 e139 1965 22b9
000000b0: 3926 28b9 143e 94ba 4d93 0a37 2189 4839
000000c0: 5f87 7f38 e7e9 1f3a 58f7 c9b9 d6ef 6839
000000d0: 8f78 10b9 f0ce 0b3a f5b9 11b9 ca7c 073a
000000e0: 9c0b de39 0928 9239 0735 0cba ebef ef38
000000f0: 3f17 dcb9 87f1 8f39 ceb6 4db9 f0b4 e9b9
00000100: fb9b 5037 c71d 99ba 3bb5 8b3a ed20 93b9
00000110: ac21 fbb8 94f2 ba38 e33b 9f3a 2c36 a1b9
00000120: b8b2 55ba 8465 04ba 31aa 063a 9ba0 cc39
00000130: 7cda afb8 b198 16ba b296 c239 97d2 cfb6
00000140: f2a2 e5b9 43d6 2e39 996c a43a 7f77 23b9
00000150: eeb8 64b9 6557 d1b9 3335 0db9 e65d 9c39
00000160: 2dda cc39 9aef 32b9 4ba5 9738 b76a 1a39
00000170: 483c 5fb8 b1f4 e438 7854 383a 8e1b e2b9
00000180: a417 fab9 3244 d2b9 c620 77ba 3b72 97b9
00000190: eb34 c6b9 e71e d6b8 512b 1b3a eff9 d5b9
000001a0: a60b 2c3a aff4 9937 b391 e538 4f84 0eba
000001b0: d8d2 913a 8433 92b9 8609 b53a 4c5f 25b9
000001c0: 8cde 5b39 9117 47b8 2a97 b638 e886 98b8
000001d0: 66da 8338 47d0 38b9 4b5a a7ba 102b 703a
000001e0: 1129 0d3a 9583 173a e1cd adb8 f3c7 3d39
000001f0: 64ad 5c39 0e7b c139 9448 ca38 9ca6 f0b9
00000200: 489f 2ab9 0820 0eb9 0883 e339 4aa5 003a
00000210: 6a3c 4bba 26c2 acb9 5856 bfb9 54f1 d7b9
00000220: 501c cc3a c79f 86b8 435a 81b9 843d 4cb9
00000230: 5742 e038 0aca f1b9 58dc b7b7 86ce 9ab8
00000240: ae41 fdb9 bd23 e1b8 4936 4bb9 3377 3239
00000250: 9866 3939 5e76 ee39 73b0 a238 0d2f 9e39
00000260: d1d4 873a 00e6 c7b9 5cd4 24ba 1856 cfb8
00000270: 48c7 873a 68f3 7738 eac4 c0b9 dfb7 d2b9
00000280: 9159 c038 1c8b 10b9 8ae7 11ba a901 2839
00000290: 7f97 b2b9 7411 2cba 7441 bdb9 f1cb cdb8
000002a0: d67f 5e3a e5a6 c1b9 11ef eab9 0156 123a
000002b0: 72c7 68ba dcaa 95ba 4af2 c2b9 65f7 913a
000002c0: 4302 d43a 84b0 853a 2722 4239 41ee 163a
000002d0: 48e8 16ba daaa 833a 104c 8638 2b91 6a36
000002e0: b143 353a 3ca8 e0b9 4544 b2b8 b37f da39
000002f0: a2bb 36b8 e2d9 14ba aa23 d339 0d19 9fb8
00000300: e1c6 cc39 2634 83b8 8f00 a3b9 0000 0000
00000310: b8d9 a93a 9398 8b3a 0445 c8b9 c60e f837
-0.00020531789 0.00022868239 0.000389478 -5.081588e-05 -0.0016179873 0.0006926285 0.0002556921 7.6794444e-05
-0.00035173056 -0.00041181248 -0.0004669054 0.0007454262 -6.574652e-05 -0.00021990086 -0.00020019499 -0.00037042703
0.0003907203 -0.0013681244 0.00034091485 -0.00019492886 0.00013884838 -0.0002383865 1.725118e-05 3.6738198e-05
3.0046247e-05 3.9825398e-05 0.0010140848 0.00092527724 0.00030744486 -0.0010471279 -0.00067081704 -0.00023570812
0.0005531539 -0.0002749382 0.0003470278 2.5786883e-05 0.00038771218 -0.0016944738 0.00034933694 1.5446187e-05
0.00027993333 -0.00059601053 0.00043014594 -0.00015487186 -0.00016035968 -0.0011310005 8.259737e-06 0.00019124571
6.0922812e-05 0.0006100223 -0.00038521993 0.0002221459 -0.00013777822 0.0005333265 -0.00013897552 0.00051684363
0.0004235179 0.0002787712 -0.0005348478 0.00011441096 -0.0004197899 0.00027455037 -0.00019618424 -0.00044576032
1.2434083e-05 -0.0011681848 0.0010658869 -0.00028062557 -0.000119748845 8.914355e-05 0.0012148585 -0.00030748674
-0.00081519363 -0.00050505274 0.0005137055 0.00039029573 -8.385346e-05 -0.00057447987 0.0003711484 -6.1935966e-06
-0.00043799687 0.00016673752 0.0012544572 -0.00015589407 -0.00021812666 -0.000399287 -0.00013466626 0.00029824598
0.00039072466 -0.00017064661 7.231029e-05 0.00014726339 -5.3223484e-05 0.000109174645 0.000703163 -0.0004312661
-0.0004770133 -0.0004010513 -0.0009427186 -0.00028886073 -0.0003780493 -0.00010210071 0.00059192354 -0.0004081274
0.0006563015 1.8352961e-05 0.000109467095 -0.00054365856 0.0011125458 -0.00027885672 0.0013812042 -0.00015771127
0.00020968373 -4.7467245e-05 8.706593e-05 -7.273053e-05 6.287247e-05 -0.00017625197 -0.0012767998 0.000916169
0.00053848425 0.00057798 -8.287631e-05 0.00018098931 0.00021045428 0.00036903511 9.645629e-05 -0.000459005
-0.000162718 -0.00013554108 0.0004339444 0.00049074425 -0.0007752838 -0.00032951048 -0.0003649469 -0.000411878
0.0015572403 -6.419379e-05 -0.00024672048 -0.00019477872 0.00010693509 -0.00046117633 -2.1917906e-05 -7.38176e-05
-0.00048304856 -0.00010735493 -0.00019379811 0.00017019808 0.00017681194 0.00045483088 7.757628e-05 0.00030171164
0.0010363107 -0.000381276 -0.00062877475 -9.8865654e-05 0.0010359073 5.911608e-05 -0.00036767806 -0.00040191316
9.1719565e-05 -0.00013784732 -0.0005565813 0.00016022347 -0.0003406368 -0.000656388 -0.00036097656 -9.813149e-05
0.0008487677 -0.00036936175 -0.00044810076 0.00055822736 -0.00088798173 -0.0011418718 -0.00037183083 0.0011136351
0.001617499 0.00101997 0.00018514004 0.00057575485 -0.00057566585 0.0010045425 6.403786e-05 3.4953216e-06
0.0006914689 -0.00042849954 -8.5004176e-05 0.00041675344 -4.3566928e-05 -0.0005678219 0.00040271628 -7.586377e-05
0.00039058088 -6.25628e-05 -0.000310902 0.0 0.0012958562 0.0010650329 -0.00038198393 2.9570783e-05

layer2.weight f4 [200, 200]
00000000: 406b d73c d886 933d f924 bbbd f69b e2bd
00000010: 3be9 9f3c 8aa2 8abc 3f58 a83d e8db 8f3c
00000020: a21d 8ebd e1f4 88bd 77c7 613c d2c0 083d
00000030: 26e5 e8bd eb51 813d bb9b e93d 91b7 b73d
00000040: e373 96bb e0fb f5bd e445 0abd 505b c93d
00000050: 4c77 abbd d910 7cbd 5111 26bd 3de6 693d
00000060: 5d19 1cbb dcf8 f4bd b113 323d edc3 d2bb
00000070: 4c20 e33a 3d5c 213b 6855 10bd f682 8cbd
00000080: 386c 653d 4e90 aebd 5456 c13c 2779 c23c
00000090: 6eac c03d c58b bc3d b226 37bd a837 0e3d
000000a0: a6d7 4c3c e1c8 95bc b499 853d 8bbe ec3d
000000b0: 01d8 333c d377 3dbd bdb3 5dbb 5abc 203d
000000c0: 9695 19bd 1a8a a33a bbdd b63c 566d 133d
000000d0: 9275 b33d faf9 26bd 22d7 cdbd 2fb9 fabc
000000e0: 01a4 bfbd 85de 8fbd 1714 9fbc 79c1 a13b
000000f0: 02ee 8e3d 00e5 823d 0e0e 6c3d 643d 99bd
00000100: 018f 513d 9c89 453d b4cc dc3d 0a32 973d
00000110: 6c5f 293c 5f5f f73d 0177 d13d 46b6 aabd
00000120: 6ea7 9b3d 201e 52bc 6bf3 e1bd 5646 e7ba
00000130: 8c86 c8bd 8e11 7b3d 7e27 0e3c 4a6a 4bbc
00000140: 77e8 9fbc ec60 76bd 478b f7bd 086b 8f3d
00000150: 0e3f c83c eb3a f5bd cbff 7f3d 6b2b d6bd
00000160: 9dd8 90bc a7a5 f13d 7bea 873c 962b 86bd
00000170: 99f4 c8bd 6d00 963d 57fd a1bd 126e 0bbd
00000180: b1c0 98bd caa5 ad3d 8303 eabd 64d9 ffbb
00000190: bb35 5f3b a51a 67bd 790f dd3d 3815 f5bd
000001a0: 290f 0abd ab5e 2b3d a095 e2ba ecb6 233d
000001b0: d1ef adbd 12ef 153d 32d0 63bd dcdd d13d
000001c0: ed00 e2bd 7895 13bd f1ff 93bd b118 c0bd
000001d0: 299d a0bc 3750 a1bd 0d8c c3bd b2ee 7ebd
000001e0: 9b0d 51bd 41f7 193c e59a 50bc 7189 903d
000001f0: 22c2 7b3d 41ae 87bd 3423 3dbd 0cad 8bbd
00000200: 6fe5 25bd 0a89 98bd 5efc 9f3c 782f a33d
00000210: d59c df3c a50a 55bd c091 8bbc 551c c2bd
00000220: 593c 133d 8176 d73d b08d 18bd b8ac c73d
00000230: 7a8d 473c 98ea 3dbd 14b5 a03d 8510 e5bc
00000240: 1b81 943d 1ccd c63c 1289 c5bd d509 78bc
00000250: 04a7 933d 9266 62bd 12b7 20bd 9916 ac3d
00000260: 55c6 9e3d f2b9 3abd 7d9e 03bd 00a7 d3bc
00000270: b96e e3bd 5cb0 e9bd d6ec 7e3d 732f ee3d
00000280: f10a b53d b4d0 efbc 426f 66bc de9a 183d
00000290: 9559 ebbb f5ca 413d ecea ec3d d435 9c3d
000002a0: 71be d43d d673 25bd b740 afbd 5bc6 f2bc
000002b0: 1b32 adbd f0e0 d03d 7a27 ea3d b6e0 c3bd
000002c0: 24bc 9dbd 8396 4f3c 1dec d6bc dd01 f9bc
000002d0: 19f5 c0bd 7c82 4c3d 3413 8c3b b862 efbd
000002e0: 09df e63d ad14 c33d a9b8 98ba 07f8 8f3d
000002f0: 8899 983d 98e0 d3bd 8543 9a3d 60ff 4c3c
00000300: a850 35bb 4cff e0bd 9059 833d 0000 71b9
00000310: 8487 863d 8bc6 5abc e0a1 52bb 24fd bebd
00000320: 06d6 93bd 484a 1a3c f173 57bc 943f b53d
00000330: 9a6d 8b3d 421b 9fbc f06f a6bd c60b c13c
00000340: 088e 413d 97f8 2f3c 73a9 8dbc 0af1 de3d
00000350: 2629 f9bd 9cc6 f8bc b197 c83d 03c2 9ebd
00000360: 6256 01bd 695c 253d 04f8 5dbd 01e6 103d
00000370: 14c4 c9bc 8500 80bc 851a d8bd 1cde b7bd
00000380: ff5a ddbb 96e7 5dbc 2619 0f3d 458c 6a3c
00000390: 9bdc b43d 43a3 9d3d 83d9 f9bd 732b 9d3d
000003a0: 0a17 7a3c db7b 143d 1544 173d e1ef 733b
000003b0: 13ec 843d 2ce2 5fbd 5ea8 2e3c 5cba 47bc
000003c0: 3f7b fa3d a146 64bc 4576 f9bc 8c0d 313d
000003d0: 808a 9b3d 326f 393d 3b5f 863d 1beb cfbb
000003e0: 4694 803c 13dd cabd 77d6 82bd fffb 91bd
000003f0: 74d5 b23c b42e ee3d 4ded bb3d 9e29 c33d
0.026296258 0.07203454 -0.09137911 -0.110649034 0.019520393 -0.016923208 0.082199566 0.017560914
-0.06939246 -0.06687332 0.013780466 0.033387013 -0.113718316 0.06314453 0.11406656 0.089705594
-0.0045914515 -0.12010932 -0.03375806 0.098318696 -0.083723634 -0.061539505 -0.040543858 0.057104338
-0.0023818829 -0.11961529 0.04347581 -0.0064320476 0.0017328351 0.0024621629 -0.0352377 -0.06860916
0.05601141 -0.08523618 0.023600735 0.02373941 0.09407888 0.092063464 -0.044714637 0.034721047
0.0125025865 -0.018284263 0.06523457 0.11559781 0.010976792 -0.04625685 -0.0033829056 0.039242126
-0.037496172 0.001247707 0.022322526 0.035992943 0.08762659 -0.04076574 -0.10050799 -0.03060588
-0.09357453 -0.07024864 -0.01941876 0.004936394 0.0697899 0.063913345 0.05763059 -0.074824125
0.05116177 0.048226938 0.107812315 0.07382591 0.010337692 0.120787375 0.10227776 -0.08335547
0.07600294 -0.012824565 -0.110327564 -0.0017644863 -0.09791288 0.06129604 0.008676408 -0.012415478
-0.019520028 -0.060151026 -0.12087112 0.070028365 0.02444413 -0.11974128 0.062499803 -0.104575
-0.017681414 0.11799174 0.016591301 -0.06551282 -0.09812278 0.073243 -0.07909649 -0.034040518
-0.07458628 0.084788874 -0.11426451 -0.0078078974 0.0034059125 -0.056421895 0.10793967 -0.11966938
-0.033705864 0.04183833 -0.0017287023 0.03996937 -0.08493007 0.03660495 -0.055618472 0.102473944
-0.11035333 -0.036031216 -0.07226551 -0.093797095 -0.01960619 -0.07876628 -0.09548197 -0.062239356
-0.051038366 0.009397329 -0.012732242 0.07057465 0.061464436 -0.06625033 -0.04617615 -0.068201154
-0.040502008 -0.07448013 0.019529518 0.07968038 0.027296463 -0.052012105 -0.017037272 -0.0947806
0.035946224 0.1052065 -0.0372445 0.0974974 0.012179727 -0.046366304 0.07847038 -0.027961979
0.072511874 0.024267726 -0.09645285 -0.015139063 0.0720959 -0.0552736 -0.03923709 0.08402748
0.077526726 -0.045587488 -0.032133568 -0.025836468 -0.11105103 -0.11410591 0.062237583 0.11630144
0.088399775 -0.029274322 -0.014064612 0.037257068 -0.00718231 0.047312696 0.11568245 0.076274544
0.10387886 -0.040393673 -0.08557265 -0.029635599 -0.084568225 0.101991534 0.11433311 -0.095643446
-0.077019006 0.012670162 -0.026235634 -0.030396396 -0.09421749 0.049929127 0.00427475 -0.11688751
0.11273009 0.09525428 -0.0011651713 0.07029729 0.07451159 -0.10345572 0.075324096 0.012512058
-0.0027666483 -0.10986194 0.06413567 -0.00022983551 0.06568816 -0.013353 -0.0032139942 -0.093256265
-0.07218556 0.009417124 -0.013150201 0.08850017 0.06808014 -0.019422177 -0.08126819 0.023565184
0.047254592 0.010740421 -0.017292714 0.10885818 -0.121660516 -0.030368142 0.09794558 -0.077518485
-0.03157652 0.040371332 -0.054191604 0.0353756 -0.02462963 -0.015625248 -0.10551933 -0.08977911
-0.0067552323 -0.013543984 0.034936093 0.014315669 0.0883114 0.07697155 -0.1219969 0.07674303
0.015264282 0.03625093 0.036930162 0.0037221836 0.0649034 -0.054659054 0.010660259 -0.012190428
0.122305386 -0.013932855 -0.030451903 0.04322581 0.07594776 0.04527206 0.065611325 -0.0063451654
0.015695702 -0.09905448 -0.06388562 -0.071281426 0.021830298 0.11630002 0.09176121 0.09529422

layer2.bias f4 [200]
00000000: 828b 1c39 4df9 e5b9 8eb5 3b39 3d49 7f3a
00000010: 7936 cdba eceb 1eba 418b 14ba 9ada 77ba
00000020: 5358 a33a 05a9 563a f018 40b9 ba5e 833a
00000030: e708 7c35 c8ce 793a 3ebd efba a2f8 0f39
00000040: a7d0 92b9 a6a3 58b9 5f21 8639 9664 5b3a
00000050: 93dd 86b9 15cc 4fba 299b 2dba c4fa 2eb9
00000060: b6e4 a23a 1310 31ba 9371 8fb9 11a8 44ba
00000070: 040b 1bba 510a 74b9 be62 98b9 a6bc 913a
00000080: b415 9739 0733 7d3a 4d55 6f38 2658 abb9
00000090: 0af3 ae3a 80ba 4bba 9702 ac38 6727 3fba
000000a0: 5772 e13a 6ce5 3138 a619 0ebb 0a7b 203a
000000b0: 8831 f13a 2db6 2539 5d05 7a39 4383 a7ba
000000c0: b8e6 9d39 f49b 633a 0000 0000 0edb 343a
000000d0: b995 ff3a ece4 daba 62ee 8aba a7aa 383a
000000e0: ebca 5cb9 0000 0000 de03 c5b8 eea6 7c38
000000f0: 28b7 013b 0000 0000 af90 103b 5bab 463a
00000100: c4b3 71ba 08cc a53a 327c ccb9 73be 4c3a
00000110: df6b 92ba dec9 1439 e8fc 0b3a 1d50 b539
00000120: 0ade 563a db49 6e39 dab0 1eba 89d6 55ba
00000130: 5a47 eb39 7a1e e6b9 b9e9 a7b9 6340 1c39
00000140: 1aef 8cb9 7b2b 09b6 4117 31ba 48bf e43a
00000150: 2c1c 74ba d98c 3239 0000 0000 3cbb d43a
00000160: c77c 9bba 235f 6e3a 25c5 d637 104c 1737
00000170: 11be 4c39 197e 58b9 c982 d4b9 c6c3 9939
00000180: 0d62 5d3a 99af ea39 7598 853a 9116 9fba
00000190: 0aec baba d24f 0aba c384 2bb9 5042 2539
000001a0: ec72 8eb9 9e7e 913a 6e74 8bba 4f57 19b9
000001b0: 5041 4c39 ea29 cd3a 31b1 ef3a 17d3 b2ba
000001c0: bfcc 4839 090a bfb9 f107 e038 edbd bcba
000001d0: c13c 86ba 3335 6938 3471 43b9 c4d2 443a
000001e0: 393d 9438 f4e4 0fba 1e6c c539 42a0 403a
000001f0: b1ef cb3a 7e63 6c38 db72 713a 6500 1fbb
00000200: 19fc d738 8b35 59b9 3e0b bb38 ab07 4cb9
00000210: f7d1 d53a 6237 1eba 472c 4039 5568 34ba
00000220: 0e3e 6ab9 287e b03a d765 78ba e41f 7fb9
00000230: 49d5 51ba cbda 0839 9728 663a c11a cf39
00000240: 525b a839 6a16 d5b7 f4c1 2ab9 2148 09ba
00000250: 6f18 c2ba 6552 0f3b 9285 213a bc0b 1b3b
00000260: 6b21 cdba dca2 87b9 9f7a 19b9 c798 20b8
00000270: dbd4 9d3a 9776 abba fba3 4239 1158 fa3a
00000280: 3ebc d33a 42e2 e339 f42e c23a 8e20 c73a
00000290: 53f9 79b9 3b5a 1abb d73b abb8 b24e d039
000002a0: 8cd4 62b9 4c45 3537 2a76 99ba 9c67 d5b9
000002b0: c8bc dfba a403 f839 d255 88b9 dc75 22ba
000002c0: 4f99 6939 232f 42ba 8ed4 113b a860 d9ba
000002d0: a1a3 9839 999b b43a da59 1cba 1d92 14bb
000002e0: 8a21 0aba 9b90 e5ba 2141 dcb9 e119 803a
000002f0: 96d0 da39 4d68 2dbb 86e3 9fba 3704 163a
00000300: 7b50 e538 5d9f 2638 bb78 3fb8 7177 05ba
00000310: 7be8 dd3a 503b 8bb7 aa6e 9eba 11b5 97b8
0.0001492929 -0.00043864027 0.00017901344 0.00097383914 -0.0015656493 -0.0006062377 -0.00056665024 -0.00094548764
0.0012462236 0.0008188638 -0.00018319837 0.0010022738 9.389027e-07 0.0009529409 -0.0018290651 0.00013730166
-0.00028002748 -0.00020660329 0.00025583335 0.00083691755 -0.00025723557 -0.0007926834 -0.0006622547 -0.0001668735
0.001242778 -0.00067544094 -0.00027359705 -0.00075018505 -0.0005914422 -0.00023273496 -0.00029065268 0.0011118844
0.00028817134 0.0009658788 5.7061483e-05 -0.00032681337 0.0013347578 -0.0007771626 8.2020815e-05 -0.0007291943
0.0017200214 4.2413754e-05 -0.0021682768 0.000612185 0.0018401602 0.00015803492 0.00023843856 -0.0012780208
0.00030117272 0.00086826016 0.0 0.0006899097 0.0019499577 -0.0016700304 -0.0010599608 0.0007044472
-0.00021056428 0.0 -9.394412e-05 6.0236947e-05 0.0019793008 0.0 0.0022058894 0.00075786345
-0.00092202076 0.0012649307 -0.00039002445 0.00078103616 -0.0011171064 0.00014189581 0.0005340115 0.000345827
0.00081965385 0.00022724962 -0.00060535746 -0.00081572734 0.00044875854 -0.00043891725 -0.0003202686 0.00014901305
-0.00026881025 -2.04399e-06 -0.0006755479 0.0017452026 -0.0009312059 0.00017027873 0.0 0.0016230117
-0.0011862748 0.0009093156 2.560259e-05 9.018011e-06 0.00019525761 -0.0002064634 -0.00040533234 0.00029328297
0.00084450917 0.00044762788 0.001019253 -0.0012137463 -0.0014261019 -0.00052761764 -0.00016357288 0.0001576033
-0.00027169974 0.0011100357 -0.0010639557 -0.00014623742 0.00019479287 0.001565275 0.001828706 -0.0013643232
0.0001914976 -0.00036437836 0.000106826315 -0.0014399864 -0.0010241495 5.5601075e-05 -0.0001863882 0.0007508213
7.0685935e-05 -0.0005489134 0.00037655322 0.0007348099 0.0015559105 5.6359444e-05 0.0009210535 -0.002426171
0.00010298956 -0.00020714679 8.918949e-05 -0.00019457813 0.0016313185 -0.00060354744 0.00018327041 -0.0006882002
-0.00022339096 0.0013465332 -0.00094756245 -0.00024330575 -0.0008004499 0.00013051477 0.0008779852 0.0003950205
0.00032111496 -2.5402016e-05 -0.00016284717 -0.00052368833 -0.0014808307 0.002186918 0.0006161566 0.0023658117
-0.0015650218 -0.00025870546 -0.00014636897 -3.8289258e-05 0.0012041585 -0.0013081607 0.00018562369 0.0019099732
0.0016154123 0.0004346539 0.0014815019 0.0015192197 -0.00023839371 -0.0023552317 -8.1650614e-05 0.00039731484
-0.0002163222 1.0804575e-05 -0.0011708189 -0.0004070372 -0.0017069811 0.0004730496 -0.00026003883 -0.0006197372
0.00022277723 -0.00074075366 0.0022251937 -0.0016584592 0.00029113612 0.0013779282 -0.00059643167 -0.0022670098
-0.000526928 -0.0017514409 -0.00042010195 0.0009773338 0.0004173561 -0.0026459873 -0.0012198545 0.0005722674
0.000109345616 3.9725903e-05 -4.5650388e-05 -0.00050913455 0.0016930246 -1.659771e-05 -0.0012087424 -7.233967e-05

mu.weight f4 [4, 200]
00000000: 119f d13d a4d8 7f3d 002e aabd cc84 f6ba
00000010: 61ac 28be 7faa 3abd 221d 9f3d dbe2 2b3e
00000020: bd7c d03d c39d 17be 6d79 99bd aed1 c5bd
00000030: 356e 0c3e 9ba4 063c fcf3 e53d 4664 87bd
00000040: f497 283e e930 033e ff2e 9b3d 271e d03d
00000050: 691d 853d 65cf 923d 8680 a83c 8d56 babd
00000060: 3392 d63c 34b6 a23d 8763 9abb fab4 003e
00000070: 9775 d6bd 2e31 ddbd 71c3 183e 5d7c 87bd
00000080: b13f 26be 8320 9138 39a0 a53c 6337 1abe
00000090: 0be2 15be 35d4 ed3c 636a 97bd 656f 21bd
000000a0: 476a 16bd 96bf 14be a7c3 c5bd a07d 023e
000000b0: 9516 aebd ea70 0bbe 5718 dc3c b885 77bd
000000c0: cf3f e6bd 1398 fbbc 0d0b 2a3e e907 95bd
000000d0: a36d 9dbd f8c4 ae3d 5639 2d3d 5ecc 08be
000000e0: 2814 e03d 72d9 9cbd 0d69 183d 1c7e e33d
000000f0: 587c 2cbe 8c7c 783d 8838 13be f180 39bd
00000100: 244f e2bc ec83 cb3d d2c0 043e 5764 9bbd
00000110: 801e a93d 7e4a 53bd 8b8c f3bd 222e ed3d
00000120: 4719 263c 868e bdbc 166d 64bd 5e03 263e
00000130: b429 46bc 29f4 b8bd 18b3 06be a2bb ca3d
00000140: 6935 afbd cba1 053d c4f5 b13d 06c6 21bd
00000150: 7545 ea3d 299c 6d3c 46b3 1bbe 2df8 03be
00000160: 438c 9f3d 3abe 01be d132 733c 4abc 873c
00000170: 638f 1e3d 0d5f 5bbd a463 283b 0faf a43d
00000180: 47e6 233e 404f c2bd 8f7d 07be 332c 003e
00000190: 773c 26bd 200c 1a3e f6c6 713c 47dc b2bd
000001a0: 7fb4 5bbd dde8 05be 8b0b c33d fecc 163e
000001b0: bffa 09be d252 a03c a258 07bc bdbd 58bc
000001c0: 7688 ca3d ead2 793d 4195 debc 536b 483d
000001d0: 8016 d5bd e408 1c3b 4ccc f1bd 1d91 e1bd
000001e0: 1f26 53bd 63d6 073e 4878 933c a581 5c3d
000001f0: 780d eabc ff2c 5ebd b8f8 c3bd 30aa 073e
00000200: b511 f43c 6e49 18be bca4 80bd 80c9 a5bc
00000210: 34e6 8a3d 4ae1 f93d ce34 f43d 6367 f5bd
00000220: 5f2c cfbd 51ee 21be 38ef 213d f6ce a1bc
00000230: 3059 bc3d cda2 363d 591a 07be 5260 b9bd
00000240: 8649 88bd 695a 0abd 9598 093e 69ec 773d
00000250: a69f 53bd 1975 10be 9c58 d7bd 4fa5 97bd
00000260: 5238 e7bc 37fe 723b a9e1 e03d bdf4 c0b9
00000270: af11 ff3d 09c4 1c3e 58cc 883d 9033 3fbc
00000280: 6314 b1bd d82a f6bd 2d15 1dbe 0e9f 2c3d
00000290: 8f4f 0c3e 1e96 99bd 3bb4 cdbc 7ae8 b3bd
000002a0: a14b 863d a9bd 11bd 7a01 633d 1274 d9bd
000002b0: acd1 173e 2d57 22be fd53 15be ae2a 063e
000002c0: ce25 f9bc bbf6 12be f96e 24be 010f fa3d
000002d0: 9435 78bd 2df4 9c3d 4563 a8bd 46dc d93d
000002e0: f957 be3d 309f 123e 52a2 26be 1b27 393d
000002f0: 8339 b53d 48af 203e a00d 433d dee5 e93d
00000300: b46c b2bd 3cd8 a63d dbbd adbd 373f 54bc
00000310: 8271 a13d a423 783d 2c03 86bb d8e5 ea3d
00000320: 99e2 873d 795a 0fbe 3b71 be3d f6bc 34bd
00000330: 7916 e9bd 79ae ac3d d3d7 01be b804 05be
00000340: b852 7c3d 1c53 fc3d ef87 033e ae7e d8bd
00000350: 0940 0cbe b758 a23d d308 f1bd 5471 47bd
00000360: 62e1 d53d 9e07 23bd cf35 5fbd 4c6c f23d
00000370: 0d22 ac3d a21f 833d 14a2 ca3c fa9d bbbc
00000380: f2d3 a0bd 02b3 bd3d deee 033e aefc 21be
00000390: 3d0d b3bd 0495 6fbd 0e4d b6bd 98ab 623d
000003a0: e120 8e3c 668f 25be b17a f0bc ce55 9ebc
000003b0: e8fa f03d 5a9b fabd 7c66 2bbb 945e 6c3d
000003c0: 32e2 10be 4a8b 5ebd ed87 8e3d 890a 27be
000003d0: 5f57 08bd ac0f cc3d c8e7 25be 1b7f ac3d
000003e0: 4751 29be d365 97bd 2020 333c 811f 1bbe
000003f0: 6b47 4ebd 05a3 8fbd 606c a63c 2b45 853d
0.10235418 0.062462464 -0.08309555 -0.0018807887 -0.16472007 -0.045572754 0.077692285 0.16785757
0.10180042 -0.14806275 -0.07493863 -0.09659134 0.13713916 0.008217956 0.11228177 -0.066109225
0.16464216 0.12811626 0.07577323 0.10162001 0.0649975 0.071684636 0.020569097 -0.090985395
0.02619276 0.07944909 -0.0047115716 0.12569037 -0.10471647 -0.10800396 0.14918305 -0.06615517
-0.16235234 6.9201946e-05 0.020218002 -0.15060191 -0.1463701 0.029031852 -0.073933385 -0.039412875
-0.036722448 -0.14526209 -0.09656458 0.12743235 -0.08500401 -0.13617292 0.026867075 -0.06043026
-0.11242639 -0.030712163 0.16605778 -0.07276899 -0.07686927 0.085336626 0.042291008 -0.1335921
0.109413445 -0.07658662 0.03720956 0.11108038 -0.16844308 0.060665652 -0.14377034 -0.045288984
-0.027625628 0.099372715 0.1296418 -0.07587498 0.082577705 -0.051584713 -0.11892041 0.11581065
0.0101378625 -0.02313925 -0.055768095 0.16212222 -0.012094904 -0.09030945 -0.13154256 0.09899069
-0.08555109 0.032625 0.08689454 -0.03949549 0.11439029 0.0145025635 -0.15205106 -0.1288764
0.07790425 -0.12670222 0.014843659 0.016569275 0.038710963 -0.053557444 0.0025694156 0.08041202
0.16005813 -0.09487772 -0.1323149 0.1251686 -0.040585008 0.15043688 0.014756909 -0.08733421
-0.05363893 -0.13077112 0.09523686 0.14726636 -0.13474558 0.019570742 -0.008260878 -0.013228831
0.09889309 0.06099216 -0.02717078 0.048930477 -0.10404682 0.002380901 -0.11806545 -0.11014006
-0.051550027 0.13265376 0.01800169 0.053834576 -0.028570876 -0.05424213 -0.09568924 0.13248515
0.0297936 -0.14871761 -0.062814206 -0.020237684 0.06782189 0.122011736 0.11924134 -0.1198261
-0.10115885 -0.15813567 0.039534777 -0.019752007 0.09196699 0.044588853 -0.13193645 -0.09051575
-0.066546485 -0.033777628 0.13437112 0.060528193 -0.051665924 -0.14107169 -0.10514948 -0.07404577
-0.028225098 0.0037077793 0.10980541 -0.00036803438 0.12454545 0.15309156 0.066796005 -0.011670008
-0.086464666 -0.120198905 -0.15340109 0.042143874 0.13702224 -0.07499336 -0.025110355 -0.08784576
0.06557394 -0.035581265 0.05542133 -0.10617842 0.14826077 -0.15853567 -0.1458282 0.13102219
-0.030413534 -0.14351933 -0.16057958 0.12209893 -0.06059797 0.0766376 -0.08222059 0.10637717
0.09294123 0.14318538 -0.16272858 0.04520331 0.0884886 0.15691864 0.047620416 0.11420797
-0.0871214 0.08146712 -0.08483478 -0.012954525 0.07882978 0.060580865 -0.0040897336 0.114696205
0.06635017 -0.13999356 0.09298941 -0.04412552 -0.113812394 0.084317155 -0.12679987 -0.12990081
0.061602324 0.12320539 0.12844823 -0.10571037 -0.13696302 0.07927077 -0.11769261 -0.048692062
0.10443379 -0.039802186 -0.054494675 0.11837062 0.08404932 0.06402518 0.024735488 -0.022902478
-0.07852925 0.09262659 0.1288409 -0.15819046 -0.087427594 -0.05849172 -0.08901416 0.055339426
0.017349662 -0.16167983 -0.029355379 -0.019328024 0.117666066 -0.12236662 -0.0026153615 0.057707384
-0.14148787 -0.054332055 0.069595195 -0.16312613 -0.03328645 0.09963927 -0.16201699 0.08422681
-0.16534911 -0.07392468 0.010932952 -0.15148737 -0.05036108 -0.070135154 0.02031535 0.06507333

mu.bias f4 [4]
00000000: 554c 9abb 6418 09bb 5520 50bc 3cec 8236
-0.0047088065 -0.002091908 -0.012703021 3.901803e-06
