llirl_sumo/saves/sumo_single_intersection/optimal_policy_period_4.pth (torch, 196916 bytes, 7 tensors)

sigma f4 [4]
00000000: 999f 9dbc 7031 ddbb 6f8c c63c e68f 1bbb
-0.019241141 -0.006750278 0.024236886 -0.0023736893

layer1.weight f4 [200, 36]
00000000: bca8 683d 426c 1f3e 2fc1 59bb 1173 f53c
00000010: 757f 363d 77dd 703d 34f0 6cbd 707d 9e3d
00000020: bb11 1cbd 515e bc3d 58bd d9bc f162 6f3d
00000030: c522 d33d 2011 dfbd ed37 483d 62e0 e03c
00000040: e9e1 fabd bfd4 d1bc ebe5 823b 634c 023e
00000050: 5865 9ebd 7bb3 ec3d 496b 89bd fbed 8a3d
00000060: d8bd 0c3d 12f9 d63d b172 cb3d a9d7 11be
00000070: ff11 09bc 874c 19be ca6b ee3a 9f23 c3bd
00000080: f83f 0f3e 2e75 a53d fd77 9cbd 77f8 c43c
00000090: 6102 c4bd 6553 18be d480 a73d b024 e8bc
000000a0: c0ae 17bb 9045 c9ba 1c7f 3e3d 7787 a43d
000000b0: ab8c 69bd 272d 80bc f055 a4bd 9d1f 9cbd
000000c0: f430 5cbd 369b d93c c3d3 f0bd 213a b1ba
000000d0: 0f2c 043e 0f68 0fbe 95c7 9d3c ba3c d93d
000000e0: fd3d 863c 5013 bc3d e341 b6bd 7765 023c
000000f0: 8373 45bd 69f8 103c 57cd ecbc 1a50 b83c
00000100: 0af0 133e 3568 2abd 584b 063d dd11 d5bd
00000110: 6bf0 be3d 5408 163d a1fd c7bd 6f61 e83d
00000120: 2361 bebd 8929 f6bd fc0a 1abe 21e4 b1bd
00000130: 2d86 f8bc 3d87 95bd 495f 1e3e 465e 11be
00000140: 1f4a abbc 2740 debd 3561 203e 1c91 35bd
00000150: d104 0fbe 2c7b 963d 6af7 a6bd bf39 9e3d
00000160: 1e49 223e 8cd8 fcbc f4ab c0bb 8150 0cbe
00000170: 6480 96bc 9cca d03d ec8a d53d 0488 8b3d
00000180: fa63 01be 908b f83d b451 ab3d 7fb7 09bd
00000190: 7c07 17be de09 f63d 31e9 93bc 0755 e5bd
000001a0: 687f d83d 8f2f 17be 716d 1bbe 7038 d93d
000001b0: 6c4b df3d 40c0 19bc 5f0f 16bc 8ce5 76bd
000001c0: e84d f0bd 0ce0 a2bd 23af dbbd 606c 14bc
000001d0: d96b 62bd b00b a7bc d498 c6bd 99ce 8e3d
000001e0: 4ef6 9d3d 9e16 44bd 17a7 e23d 8fa4 d73c
000001f0: 6594 0fbe f295 72bd 01bb 12be b33a 30bd
00000200: 9487 b33d 5a33 a6bc 5398 76bd 54fa d03a
00000210: 2d90 5ebd 5b0f 21be 572e 11bc 3f6f 1abe
00000220: 01c9 0a3d 234d 82bd 5cff 0b3d ee34 e7bd
00000230: fef3 ca3c f002 b93c cefd a8bd e116 2abc
00000240: 3820 5a3d 5180 eabc 0013 53bd fa74 c43d
00000250: 271b 0f3e 8f67 afbd 8780 2b3c fb96 3abd
00000260: 4725 55bc d6d0 b53d 44a7 93bc 188b 89bc
00000270: ca53 363d 95f4 e03d f1f8 0f3e 5ff8 833d
00000280: 8ea0 afbd d9c7 59bd 0195 eabd 0bfe 1ebe
00000290: f53a 21be b10e f8bc 03ea 453d d9b9 0c3e
000002a0: 3ccb 673b 7777 1fbe 08f0 a1bd dae4 ed3d
000002b0: 752f 0c3e 2e84 1b3d 76ce d8bc f7ab e03d
000002c0: 4246 133d b75c e4bd e3c6 bebd e092 42bd
000002d0: 514b 2fbd 779d aabd 885c 34bd 03a8 c53d
000002e0: 7560 cf3d 443a 26bd 5b20 b83d ae15 d13d
000002f0: 3e6e 8abd 873f fe3d 0966 213d 72f9 57bd
00000300: 8255 203e 06f1 fcbc c413 8b3a 7e7d 573d
00000310: 47a9 9b3c 1e7c f03c 6157 85bd 42db 2b3d
00000320: 1ee8 e03c a6a0 ddbc d1fa 08be 753e 52bd
00000330: 6caa 1f3e 6e24 e33d 5d8b 653d ab58 82bd
00000340: 084c b03d e45b da3d 7bc2 bbbd a1e3 21bd
00000350: ef41 febd ac53 1dbe f9ce 1a3e 05aa 253d
00000360: afaa 5ebc f117 87bc 48b7 94bb 2683 213e
00000370: 6948 10be 69f0 e93d e504 923d 7553 02bc
00000380: 8401 91bd 3ab7 25bd 80e7 96bd b0c3 593d
00000390: ed13 f03d 94be d73d 1b44 f8bd 1776 b93d
000003a0: a112 193d 1f54 15bd 286e e9bd d90a a6bd
000003b0: 5305 0a3e 4f64 003d 5ffb dbbd 8ae9 b0ba
000003c0: c93b 92bd 8df1 00bd 129d 943d 7561 14be
000003d0: 156d eebd 372a c4bd d71a c6bd 21d2 ccbd
000003e0: 53b1 cf3d 297f 173e 18e3 fbbd 1e42 b0bd
000003f0: e8e7 d33d af93 9c3d 69dc 00be e523 0bbd
0.056801543 0.15568641 -0.0033226719 0.029962095 0.044555146 0.058804955 -0.057846263 0.07738769
-0.038102847 0.09197677 -0.026579544 0.058443967 0.10309366 -0.10891938 0.04888146 0.027450744
-0.1225012 -0.02561414 0.0039946935 0.12724452 -0.077341735 0.11557671 -0.06709916 0.067836724
0.034360737 0.10496725 0.09933985 -0.14242424 -0.008366107 -0.14970599 0.0018190083 -0.095282786
0.13989246 0.08078991 -0.076400734 0.024044259 -0.09570766 -0.14875562 0.08178869 -0.028337806
-0.002314493 -0.0015355814 0.04650794 0.0803365 -0.057018917 -0.01564653 -0.08024204 -0.07623217
-0.053757623 0.026563268 -0.1175914 -0.0013521352 0.12907432 -0.14004539 0.019260207 0.10607286
0.01638698 0.09183371 -0.08899286 0.007958761 -0.048205864 0.008848288 -0.028906507 0.022499133
0.14447036 -0.041603286 0.032786697 -0.10403798 0.093232 0.036629036 -0.09765173 0.11346709
-0.09295871 -0.12019641 -0.15043253 -0.0868609 -0.030337417 -0.07301185 0.15466036 -0.14196119
-0.020909367 -0.1085208 0.15662082 -0.04432784 -0.13966681 0.07347712 -0.08152659 0.07725858
0.15848204 -0.030864976 -0.0058798734 -0.13702585 -0.018371768 0.10194895 0.10426888 0.06813052
-0.12635794 0.121359944 0.08365193 -0.03362226 -0.14748949 0.12013601 -0.01805553 -0.11197858
0.10571176 -0.14764236 -0.15178467 0.10606468 0.109030575 -0.009384215 -0.009158938 -0.060277507
-0.117336094 -0.0795289 -0.10726764 -0.009059042 -0.055278633 -0.020391315 -0.096971184 0.06972999
0.077129945 -0.047873132 0.11067026 0.026323585 -0.14021452 -0.05922503 -0.14329149 -0.04302473
0.08766094 -0.020288158 -0.06020386 0.0015943744 -0.054336715 -0.15728514 -0.008861146 -0.150815
0.0338831 -0.06362369 0.034179077 -0.112893924 0.024774548 0.022584409 -0.082515344 -0.010381431
0.053253382 -0.02862564 -0.05153179 0.09592624 0.13975202 -0.08564674 0.010467655 -0.045554142
-0.013009376 0.08877723 -0.018024094 -0.016789958 0.0445135 0.1098415 0.14059807 0.064438574
-0.08575545 -0.053169105 -0.114542015 -0.15526597 -0.15745147 -0.030280443 0.048318874 0.1374277
0.003536894 -0.15572916 -0.079071105 0.116159156 0.13689978 0.037967853 -0.026465636 0.109703
0.035955675 -0.111504965 -0.093152784 -0.047503352 -0.042796437 -0.08330815 -0.044033557 0.09651186
0.101258196 -0.04058291 0.08990546 0.10209213 -0.06759308 0.12414461 0.03940395 -0.052728124
0.15657619 -0.030876648 0.0010610749 0.052609913 0.019001616 0.029356059 -0.06510807 0.041957147
0.027454432 -0.027054142 -0.13376929 -0.051329095 0.15592355 0.11090933 0.05604111 -0.06364568
0.08608252 0.10662058 -0.091679536 -0.039523724 -0.124149196 -0.1536395 0.15118016 0.040445346
-0.013590499 -0.016490908 -0.0045384504 0.15772685 -0.14090122 0.11422808 0.0712984 -0.007954468
-0.07080367 -0.04045794 -0.07368374 0.053165138 0.117225505 0.10534397 -0.12122365 0.09055727
0.03737128 -0.036457177 -0.11397964 -0.08107538 0.13478594 0.03134566 -0.107413046 -0.0013497334
-0.07140309 -0.03148036 0.07256521 -0.14490302 -0.116418995 -0.09578364 -0.09673088 -0.100010164
0.10141244 0.14794602 -0.12299174 -0.08606361 0.10346967 0.07645356 -0.1258408 -0.03396978

layer1.bias f4 [200]
00000000: fb45 9539 22c7 1d39 547f d63a 46c1 2bb9
00000010: c8dd 36ba f85f a63a 3bb9 3a39 7cc2 b23a
00000020: d236 a0ba b492 08ba c57d 8239 8a9d 483a
00000030: 4a6e 61ba 6db9 eab9 b8a1 c5ba 6295 063a
00000040: 7d8f 763a d06e 5dbb 0adb ff39 fcfd ae3a
00000050: 3b44 71ba 28b0 69ba 6327 8439 7732 3439
00000060: 048b f7ba 57fa 4cb8 f3a8 5a3a a43d cc3a
00000070: 16f5 da3a 0f26 c138 723b d9ba cf05 8eb9
00000080: 3e48 aa3a 1edf 73ba 27ed af38 dd79 4139
00000090: 7478 9b39 ff02 29bb 3a1a b7b9 a581 fab7
000000a0: 70ce 343a a8eb f439 6bd5 553a 6b18 7db9
000000b0: 3f5f d4b9 5637 c7ba 819f a739 722d be3a
000000c0: 5995 bd38 3a31 1ab8 f937 a0ba a239 3b3a
000000d0: bc85 09b7 95d7 90b8 2a3d f4b8 ee15 d73a
000000e0: eeeb 163a 0ebb 22ba 2031 9dba 498b ae3a
000000f0: 0e23 e438 486f 3e3a e2bd c0b9 1518 15bb
00000100: ec5f 86b8 e225 b2ba 655e a93a 730d 93ba
00000110: 48d3 3aba e3b8 5339 7360 aa3a 903c 6eba
00000120: c7b4 ddba b6c0 1e3a 545d 91b9 3ac5 f238
00000130: 8f4a cf39 4bd8 8cb9 b8cc 1c3a 6f8b 08b7
00000140: 8d90 d6b9 8852 1eb9 98a2 e63a f707 c739
00000150: 1d2c 5138 932b 9cba a168 c839 da40 f838
00000160: 9ec6 903a b23a aab8 53e4 adb8 6c05 bc3a
00000170: 313c a039 cf11 663a 1c48 4a3b f4ef 70ba
00000180: c5ad 21ba cddb a7b9 a0d4 2bbb 4d92 9439
00000190: df90 8fb8 ff4d f2b9 76d4 463a 8a88 9eba
000001a0: 3e9f a83a eab1 5339 eba6 1d38 8fb7 76b9
000001b0: bf62 2a3a 4de5 e6b8 ef77 6e3b 7dca 53ba
000001c0: 49e3 053b 9347 cbba e2f6 0dba 0a78 5cb9
000001d0: 7197 0e39 d9db 72b8 4ecb 30bb c27e c83a
000001e0: 71e7 0739 5528 fe3a 0fd5 5a3a e354 bc3a
000001f0: 6df8 fa39 a1db db3a 4959 6939 26f2 74b9
00000200: c4ec 56ba a8ab 7c39 e72f bf3a 5b53 4039
00000210: b672 33b8 3cfd a9b8 84a9 b739 e852 fbba
00000220: 3d07 473b 1b93 a6b8 ab7c 7d3a 6382 5cba
00000230: 3c19 b03a 65ee a9ba a59f 72ba 82c4 33b9
00000240: 5dad e2ba d815 d3b9 f0e9 1eb8 6663 153b
00000250: c0c2 5339 d25a 393a 2405 a1b7 8e90 0f3a
00000260: d4a7 5b3a 9ef9 a2b9 b0ef 4bba 9718 dbb9
00000270: eb45 213b 0638 943a 6ac8 18b9 7227 ce39
00000280: 1626 b33a 8136 7aba bccf b6b9 5e76 073b
00000290: 1437 c0b9 b3cc 2eb9 7df7 e437 2e8b 45ba
000002a0: 020e ee3a 8603 0e3a ae2f b7ba 5998 183a
000002b0: aca4 25bb e45d 06bb 018e 1cb8 b133 103b
000002c0: 0c11 e43a 31c3 30b8 8fc0 31b9 a5cb 0eb8
000002d0: dda1 0dbb 6f69 8e3a eec2 8f3a 40f9 e1b8
000002e0: 681a 9b3a 32ac f2ba df1a 4fb9 6d12 333a
000002f0: 5244 bf38 700b 7cba 2c65 97b9 ae4a 25ba
00000300: 61c6 7c39 326a 3f39 9616 89ba 0000 0000
00000310: 2fb6 b13a cd7a e93a 2ff9 a739 f5e2 d939
0.00028471634 0.0001504687 0.0016364851 -0.00016379831 -0.0006975797 0.0012693396 0.00017807346 0.0013638283
-0.0012223369 -0.0005209849 0.00024889238 0.00076528697 -0.0008599503 -0.0004477011 -0.0015078103 0.0005133954
0.00094055367 -0.0033787973 0.00048800587 0.001335084 -0.00092035875 -0.0008914494 0.00025206347 0.00017184937
-0.0018886034 -4.8870537e-05 0.00083412154 0.0015582335 0.0016705121 9.210046e-05 -0.0016573502 -0.00027088678
0.00129915 -0.00093029614 8.388823e-05 0.00018451312 0.00029653648 -0.002578914 -0.0003492402 -2.9862693e-05
0.00068972167 0.00046714884 0.0008157107 -0.00024137057 -0.00040506755 -0.0015198987 0.00031971562 0.0014509393
9.0400405e-05 -3.6762307e-05 -0.0012223712 0.0007142072 -8.196974e-06 -6.90661e-05 -0.00011646219 0.0016409734
0.0005757202 -0.0006207683 -0.001199279 0.0013316657 0.00010878417 0.0007264507 -0.00036762567 -0.002274995
-6.407485e-05 -0.0013591612 0.0012921809 -0.0011219218 -0.000712682 0.00020191404 0.0012998715 -0.0009088004
-0.0016914838 0.0006055938 -0.0002772609 0.000115761955 0.00039537667 -0.00026864032 0.0005981433 -8.138696e-06
-0.0004092496 -0.000150988 0.0017596064 0.00037962172 4.9870567e-05 -0.0011914842 0.00038224927 0.00011837641
0.0011045521 -8.1171645e-05 -8.2918115e-05 0.0014344878 0.00030562424 0.00087764574 0.0030865734 -0.0009191029
-0.0006167556 -0.00032016487 -0.0026219264 0.00028337762 -6.845756e-05 -0.00046215949 0.000758476 -0.0012095135
0.0012864841 0.00020188806 3.758717e-05 -0.00023528769 0.00064996997 -0.00011009965 0.0036387404 -0.00080791843
0.0020429662 -0.0015509002 -0.00054155116 -0.00021025553 0.00013598592 -5.7902045e-05 -0.0026976648 0.0015296566
0.00012960822 0.0019390682 0.0008347788 0.001436856 0.00047868807 0.0016773829 0.00022253873 -0.0002335986
-0.0008198733 0.0002409654 0.001458642 0.00018341599 -4.278376e-05 -8.1057166e-05 0.0003503078 -0.0019174488
0.0030369305 -7.942897e-05 0.0009669761 -0.0008411763 0.0013435255 -0.0012964724 -0.0009255356 -0.00017143975
-0.0017294098 -0.0004026133 -3.7888007e-05 0.0022794842 0.00020195078 0.0007070723 -1.919509e-05 0.00054765574
0.00083791954 -0.00031085027 -0.00077795517 -0.00041789256 0.0024608325 0.00113082 -0.0001457051 0.0003932077
0.0013667967 -0.0009544865 -0.0003486852 0.0020669918 -0.0003666213 -0.0001667019 2.7294964e-05 -0.0007535693
0.0018162134 0.0005417395 -0.0013976002 0.00058210414 -0.0025275154 -0.002050274 -3.732555e-05 0.0022003467
0.00174001 -4.2143456e-05 -0.00016951769 -3.4045097e-05 -0.002161137 0.0010865162 0.0010968128 -0.000107752625
0.0011833431 -0.0018514453 -0.00019751069 0.0006831054 9.1203154e-05 -0.00096147414 -0.00028876343 -0.00063053786
0.00024106495 0.0001825474 -0.0010459002 0.0 0.0013558323 0.0017813087 0.00032038378 0.00041558561

layer2.weight f4 [200, 200]
00000000: ec6c d73c e46d 933d 753c bbbd f69b e2bd
00000010: d1c4 9f3c 6a22 8bbc c156 a83d 0963 8f3c
00000020: 1b0c 8ebd 5539 89bd 4a97 603c 9e80 083d
00000030: ab20 e9bd d34a 813d f870 e93d be92 b73d
00000040: 6107 97bb e118 f6bd a05d 0abd 5a40 c93d
00000050: 0687 abbd 692d 7cbd 193c 26bd e2eb 693d
00000060: 401b 23bb dcf8 f4bd 239b 313d 0e1d d5bb
00000070: 2c4c d53a d81f 1f3b d876 10bd 25a0 8cbd
00000080: 88e7 643d d9ec aebd 37be c03c 1c7a c23c
00000090: f3a9 c03d d880 bc3d 7864 37bd 0f14 0e3d
000000a0: ffeb 4a3c b307 96bc 888e 853d d4ba ec3d
000000b0: 39f9 323c d99d 3dbd c0df 5fbb 7c6c 203d
000000c0: 02ad 19bd dbba 9f3a 951a b73c d06f 133d
000000d0: 9276 b33d c6ee 26bd fbd3 cdbd 65dd fabc
000000e0: 49b6 bfbd f2dd 8fbd a491 9fbc 29e6 a13b
000000f0: 4acf 8e3d b4bb 823d 6ab1 6b3d 1634 99bd
00000100: b465 513d 4b86 453d 0bab dc3d 3836 973d
00000110: edbe 283c 885b f73d c039 d13d c4a8 aabd
00000120: a77b 9b3d 2597 53bc 360a e2bd 269c edba
00000130: 089a c8bd 9d0e 7b3d 6bdb 0d3c 166c 4bbc
00000140: a455 a0bc caa2 76bd 81aa f7bd 9c60 8f3d
00000150: 4928 c83c 473c f5bd 2b00 803d 8e35 d6bd
00000160: e66b 91bc cc7c f13d 5ae0 873c b42d 86bd
00000170: fdf1 c8bd 8ae5 953d 78fe a1bd 6acf 0bbd
00000180: 50bc 98bd 0264 ad3d cf1d eabd cc61 02bc
00000190: 71b6 5f3b 7d1b 67bd ef0d dd3d 8137 f5bd
000001a0: 9925 0abd 7e49 2b3d 3dbd e3ba 6cac 233d
000001b0: cce4 adbd 3fe0 153d 4e09 64bd d6da d13d
000001c0: 33fd e1bd 4207 14bd 4532 94bd 051e c0bd
000001d0: 1e9b a0bc e948 a1bd 1197 c3bd 917e 7fbd
000001e0: 7f3b 51bd 7458 183c 487c 50bc 286a 903d
000001f0: 1973 7b3d 40e1 87bd 0024 3dbd 54be 8bbd
00000200: a775 26bd f68b 98bd a2fe 9f3c 74f3 a23d
00000210: fa71 df3c 4f07 55bd 58c8 8bbc 1f3c c2bd
00000220: 6e51 133d 8176 d73d 03b3 18bd 62a2 c73d
00000230: 285b 463c d419 3ebd bdb2 a03d 5125 e5bc
00000240: 1561 943d 58d4 c63c 2797 c5bd 9e5d 78bc
00000250: ffae 933d cb5b 62bd c3e1 20bd a11f ac3d
00000260: 3298 9e3d 94dc 3abd 3f19 04bd 4888 d4bc
00000270: 599d e3bd fcef e9bd 1db3 7e3d ff11 ee3d
00000280: 0f0a b53d 98db efbc 4e57 66bc 6763 183d
00000290: 4c62 eebb a6b8 413d 7ab7 ec3d 322c 9c3d
000002a0: 16a2 d43d 3171 25bd a540 afbd 611d f3bc
000002b0: 8e48 adbd 329e d03d 1a11 ea3d 9914 c4bd
000002c0: ccda 9dbd 1435 4e3c 49f5 d6bc 4a23 f9bc
000002d0: 4fff c0bd 6f13 4c3d 8154 8b3b 3685 efbd
000002e0: 48e8 e63d 0303 c33d b198 9aba 8904 903d
000002f0: 0890 983d 3df6 d3bd 4b38 9a3d e76b 4c3c
00000300: ee1a 34bb 690b e1bd 9645 833d 0000 71b9
00000310: 277c 863d 137f 5cbc c22a 52bb a830 bfbd
00000320: 68c2 93bd 6b82 1d3c f38c 54bc ff4b b53d
00000330: 0357 8b3d 9675 9ebc 4e69 a6bd 463e c13c
00000340: 1b02 423d 0397 383c c6dd 8abc 234c df3d
00000350: 60b0 f8bd 0ec9 f8bc bb66 c83d 34e9 9dbd
00000360: 00c7 00bd 9327 263d 687d 5ebd 69e7 103d
00000370: 244e c9bc 827c 7cbc e0b5 d7bd d3bf b7bd
00000380: 06ec d3bb 8bea 5dbc aa71 103d 157b 6c3c
00000390: 6423 b63d e8df 9d3d f47a f9bd 5e3e 9d3d
000003a0: a0c5 7f3c 1bfd 153d e078 173d 0791 733b
000003b0: fc2f 853d 9211 5fbd 2d4c 303c 82df 44bc
000003c0: 0e4a fb3d 9d1b 62bc 4093 f8bc a136 313d
000003d0: 3695 9b3d b2d0 393d 4333 863d 8ced cebb
000003e0: 24e3 803c f65b cabd 1e62 82bd 5cc6 91bd
000003f0: 45e2 b23c 9f27 ee3d 6aeb bb3d 9770 c33d
0.026297055 0.07198694 -0.09142391 -0.110649034 0.019503029 -0.016984183 0.08219672 0.017503278
-0.06935903 -0.06700388 0.013707945 0.033325784 -0.11383184 0.063131 0.113985 0.08963536
-0.004609034 -0.12016464 -0.033780694 0.09826727 -0.08375363 -0.061566744 -0.040584657 0.05710972
-0.0024888068 -0.11961529 0.04336084 -0.0065037077 0.0016273311 0.0024280455 -0.03526959 -0.06866483
0.055884868 -0.08541269 0.023528202 0.023739867 0.09407415 0.092042625 -0.04477355 0.034687098
0.012385367 -0.018314218 0.06521326 0.11559072 0.010923677 -0.046293113 -0.0034160465 0.03916596
-0.03751851 0.0012186425 0.022351542 0.035995305 0.0876285 -0.040755056 -0.10050198 -0.030623147
-0.0936094 -0.070247546 -0.019478627 0.0049407673 0.06973131 0.06383458 0.057542242 -0.07480638
0.051122382 0.048223775 0.10774811 0.07383388 0.0102994265 0.12078005 0.10216093 -0.08332971
0.07591944 -0.012914454 -0.11037104 -0.0018128201 -0.09795004 0.061293233 0.00865827 -0.012415906
-0.019572087 -0.06021384 -0.12093068 0.07000849 0.024433272 -0.119743876 0.06250032 -0.104594335
-0.017751645 0.11791381 0.016586471 -0.06551686 -0.098117806 0.07319172 -0.07909864 -0.034133352
-0.07457793 0.084663406 -0.11431467 -0.007957887 0.0034135843 -0.0564227 0.10793673 -0.11973477
-0.033727262 0.041818134 -0.0017375123 0.039959356 -0.08490905 0.03659081 -0.055672936 0.10246818
-0.11034622 -0.036139734 -0.07236151 -0.09380726 -0.019605216 -0.07875235 -0.09550298 -0.062376563
-0.05108213 0.009298433 -0.012724943 0.07051498 0.061389063 -0.0663476 -0.04617691 -0.068234116
-0.040639546 -0.074485704 0.019530598 0.07956591 0.027276028 -0.052008923 -0.017063305 -0.094841234
0.03596633 0.1052065 -0.037280094 0.09747769 0.012106694 -0.04641135 0.078465916 -0.027971895
0.072450794 0.024271175 -0.09647971 -0.015159039 0.07211112 -0.05526332 -0.039277803 0.0840447
0.07743873 -0.045620516 -0.03225064 -0.02594389 -0.11113996 -0.114227265 0.062182534 0.11624526
0.08839809 -0.029279515 -0.014058901 0.037204172 -0.0072749015 0.047295235 0.11558433 0.07625617
0.10382478 -0.04039115 -0.08557252 -0.029677095 -0.08461104 0.10186423 0.11429043 -0.09574241
-0.07707748 0.012585897 -0.026240008 -0.030412335 -0.09423696 0.04982322 0.004252017 -0.1169533
0.11274773 0.09522059 -0.0011794773 0.07032115 0.07449347 -0.103497006 0.07530268 0.012476898
-0.0027481872 -0.109885044 0.06409757 -0.00022983551 0.06566649 -0.013458031 -0.0032068943 -0.09335452
-0.072148144 0.009613614 -0.012973058 0.08852386 0.068037055 -0.019343179 -0.08125554 0.023589265
0.04736529 0.011266473 -0.016951453 0.10903194 -0.12143016 -0.030369308 0.09785219 -0.077104956
-0.03143978 0.040565085 -0.054318815 0.03537694 -0.024573393 -0.015410544 -0.10532737 -0.089721344
-0.006467345 -0.013544689 0.03526465 0.014433642 0.08893469 0.07708722 -0.121816546 0.07677911
0.015611082 0.036618333 0.03698051 0.00371653 0.06503293 -0.054460116 0.010760349 -0.012016179
0.12269984 -0.013800529 -0.030343652 0.04326499 0.07596819 0.045365043 0.06552746 -0.006314939
0.01573331 -0.098808214 -0.063663706 -0.07117912 0.02183641 0.11628651 0.09175761 0.09542959

layer2.bias f4 [200]
00000000: 5c93 cdb9 5ff7 203a 3aae 473b 316e 2d3b
00000010: 10b8 4038 595c c7ba fddd 443a 65a6 d2b7
00000020: ab08 2b3b e146 a3b8 fe8c d3ba bd70 e93a
00000030: 7b3f 3d3a 757b b53a 9afc 79bb ff3b ec39
00000040: 1d9a 21b7 70d1 17ba f292 093b 9d0d aa3a
00000050: 05de 5bba 4993 3bba c4fe bf38 6f16 6439
00000060: 6259 c43a 3aa5 b6ba c0a3 86ba b317 acba
00000070: 986e 19ba 44de ca39 8ccc 94ba 5f6f ad3a
00000080: 7545 98ba cde2 713b fd3e 1b39 e415 82ba
00000090: 7257 af39 caf7 40ba 63b5 b138 d881 72ba
000000a0: 6a22 343b 8ab0 b038 289f 48bb 2ac5 693b
000000b0: 5872 f23a b648 a53a 526d ee3a 7796 22bb
000000c0: 4388 e6ba e65d af3a 0000 0000 ab8f 6a3a
000000d0: 05ed 913b 612a 1fbb 0cc9 c8ba 6887 5d3a
000000e0: 2bdb b6ba 4d9f d6b6 3bb6 fc38 a5a6 883a
000000f0: bac5 7f3b 0000 0000 19b6 2b3b 0ac5 933a
00000100: f0c6 c6ba 3e19 a83a 8978 5039 814b 1e3b
00000110: 8c74 e3b9 4254 5e39 0a53 b539 ce26 843a
00000120: ee37 de39 b0fe b7b9 b817 a6b9 354a 6dba
00000130: 16ab 0d39 346e e3ba 2fe4 b9ba 5117 69ba
00000140: 8d7f d639 562d 02ba 6c9a b4ba 9060 093b
00000150: 0c4c 8739 380e 60b9 0000 0000 e8e9 103b
00000160: eb99 31bb 0630 ac3a f7e6 fb38 a8e2 873a
00000170: ee25 4cba 708e bd38 1e12 57ba e2bf 8e3a
00000180: c3da 8f3a 1257 fb39 66ea 253b 5671 47ba
00000190: dab9 08bb bd39 75ba 9092 eeb9 949c 9639
000001a0: 6fbf 6db9 4676 893a 90f5 603a 11cc 853a
000001b0: fb35 4039 1d9f 733a 091c c739 1253 53ba
000001c0: 4a9e 2e39 ebf6 423a 9146 88b9 00be 20bb
000001d0: 05ac daba fbad e836 30cb eaba 42f7 d73a
000001e0: 4c11 4039 41d2 1db9 886e 443a a4a8 d239
000001f0: ac04 f23a 7b94 81ba 08f4 523b 707a 91bb
00000200: 2041 4c3a b020 66ba c6ff 27ba 042c 31ba
00000210: 7220 d13a a257 feb9 0ce4 4938 141f 2aba
00000220: a536 3a39 cb69 e43a e1e9 91ba b676 9639
00000230: b2fa 44bb 216b 063b 688a 5d39 75d3 b8b9
00000240: 0742 a33a 2273 e5b8 3ac6 11ba b272 e939
00000250: 1602 dbba d9a3 a23b 3b70 893a a950 b53b
00000260: 06f8 72bb 06e7 8cb9 fc64 c738 bda6 53b8
00000270: a554 f23a a175 09bb 9f64 7538 950e 9d3b
00000280: 85a5 d13a 8668 0d3b 8984 2f3b 020a e63a
00000290: de00 b4b9 a912 9dbb 20e3 fdb9 b455 423a
000002a0: 8f4d 79ba 4c03 ceb8 28ad 6bba 50e5 343a
000002b0: 2f81 39bb 12d4 323b 393b 06bb 6152 88ba
000002c0: d6a9 2239 3183 1fba 50e9 823b 036d 15bb
000002d0: 4781 693a 46d8 b23a 2cf8 10bb 13fe 14bb
000002e0: 9833 03bb 44d5 7ebb 24f3 dcba 0f27 e13a
000002f0: 294b a339 83d4 b4bb 7fb6 3ebb 90dc 1e3a
00000300: 62f3 913a 9b60 6cb9 4356 10ba 019b 79b6
00000310: 75e5 793b 0088 48b8 e806 04bb be00 4339
-0.00039210438 0.0006140377 0.0030468837 0.0026463384 4.594779e-05 -0.0015210017 0.00075098855 -2.5111434e-05
0.0026097696 -7.785648e-05 -0.0016140041 0.0017810088 0.0007219237 0.0013845997 -0.0038144947 0.00045058128
-9.63223e-06 -0.00057914015 0.0020992127 0.0012974028 -0.00083872705 -0.0007155431 9.1550435e-05 0.00021752132
0.0014980251 -0.0013934739 -0.001027219 -0.0013129622 -0.00058529666 0.00038694043 -0.0011352464 0.0013232044
-0.001161738 0.0036908865 0.00014805417 -0.0009924737 0.00033443753 -0.0007361142 8.4738036e-05 -0.00092509156
0.0027486333 8.425217e-05 -0.0030612443 0.0035670497 0.0018497212 0.001261017 0.0018190539 -0.0024808922
-0.0017588217 0.0013379424 0.0 0.00089478 0.0044533038 -0.0024286734 -0.0015318706 0.0008450658
-0.0013950815 -6.396242e-06 0.000120502395 0.001042564 0.0039027766 0.0 0.0026201068 0.0011273932
-0.0015165489 0.0012824906 0.00019881329 0.002415389 -0.00043383648 0.00021202958 0.0003458488 0.0010082365
0.0004238481 -0.00035094237 -0.0003167966 -0.000905189 0.00013510542 -0.0017351569 -0.0014182384 -0.0008891719
0.00040912293 -0.0004965862 -0.0013778931 0.0020962097 0.00025805866 -0.00021367602 0.0 0.0022112075
-0.00270998 0.0013136871 0.00012011633 0.0010367231 -0.00077876344 9.038753e-05 -0.0008204299 0.0010890926
0.001097523 0.00047939323 0.0025316714 -0.0007608136 -0.002086273 -0.0009354612 -0.00045504095 0.0002872689
-0.00022673396 0.0010487519 0.00085815135 0.0010207911 0.00018330656 0.0009293424 0.00037977126 -0.00080613897
0.000166529 0.00074373063 -0.00025992517 -0.0024527311 -0.0016683346 6.934393e-06 -0.0017913338 0.0016476887
0.0001831699 -0.00015051012 0.0007493277 0.00040179968 0.0018464527 -0.000988617 0.003218891 -0.0044396445
0.0007791687 -0.00087786745 -0.00064086576 -0.0006758573 0.0015955104 -0.00048511947 4.813452e-05 -0.00064896164
0.00017758699 0.0017426548 -0.0011132323 0.00028698676 -0.0030056653 0.002051063 0.00021127763 -0.00035252763
0.0012455591 -0.00010941016 -0.0005560849 0.00044526678 -0.0016708996 0.00496338 0.0010485718 0.005533297
-0.0037074103 -0.00026875007 9.507869e-05 -5.0461607e-05 0.0018488361 -0.0020974653 5.8506263e-05 0.004792998
0.0015994763 0.0021577193 0.0026781878 0.001755059 -0.00034332921 -0.004793484 -0.00048425142 0.00074132835
-0.00095101533 -9.8234595e-05 -0.0008990341 0.00069006253 -0.002830576 0.0027287048 -0.0020482077 -0.0010400527
0.00015512793 -0.00060849177 0.003995098 -0.0022800572 0.00089075085 0.0013644777 -0.0022120578 -0.0022734448
-0.0020019766 -0.003888444 -0.001685713 0.0017177778 0.0003114578 -0.0055184974 -0.0029100475 0.0006060088
0.0011135156 -0.00022542702 -0.0005506018 -3.7194116e-06 0.0038131152 -4.7810376e-05 -0.0020145718 0.00018596926

mu.weight f4 [4, 200]
00000000: 5b78 cd3d 44a3 7e3d 3602 abbd 6a23 23bb
00000010: ce1f 29be 929a 36bd 23fb 9e3d ac18 2d3e
00000020: 7ba0 d33d ad0d 18be fdc5 98bd d625 c5bd
00000030: d567 0c3e a3cd f23b 3322 e53d fd80 84bd
00000040: a099 283e 9c14 033e 4ce1 9d3d 6c8f cf3d
00000050: 8cd2 853d 39ba 8e3d 9a0b a73c 4312 babd
00000060: 4002 d53c e5e1 a63d 207d 4bbb c512 023e
00000070: e29a d5bd 1379 ddbd b039 183e 8599 87bd
00000080: c57c 25be d786 0a3b 3d5b a53c 11c7 1abe
00000090: 7426 17be 405d e13c d268 97bd 8602 24bd
000000a0: d5f4 12bd c8ba 14be 6c6f c7bd 7e51 033e
000000b0: acc5 adbd ee9a 0bbe 9236 dd3c 9192 72bd
000000c0: 5d42 e8bd 98f0 efbc 0d0b 2a3e c539 96bd
000000d0: 52f9 9cbd 4107 b33d badc 323d 8711 09be
000000e0: 5460 de3d ddd8 9cbd 6501 173d 566c e53d
000000f0: af54 2cbe 8c7c 783d 02d4 12be 2bd1 37bd
00000100: 1cfe e2bc ab15 ca3d e3cc 043e 35a6 9bbd
00000110: db7c a83d dd3c 52bd d741 f2bd 88a5 ee3d
00000120: 6356 273c 6372 bdbc d8b1 63bd f0ca 263e
00000130: e760 3cbc 1b13 b9bd 467a 06be 8a90 c93d
00000140: 54e9 aebd 0f7a 053d e393 b13d ef5b 21bd
00000150: 8b6e ea3d 0b30 6f3c 46b3 1bbe 7e5f 04be
00000160: 580a a03d 6652 02be b999 723c f9db 893c
00000170: f856 1d3d fdee 5bbd c969 843b 8fe1 a43d
00000180: 468b 233e 5231 bfbd b5ac 07be 4a8d 003e
00000190: a3cc 27bd 8113 1a3e 1fcd 763c eee4 b2bd
000001a0: 1539 5abd 2686 05be d445 c73d 44b9 153e
000001b0: f2f8 09be ef33 a73c 75a7 0ebc 9c00 57bc
000001c0: ad76 ca3d 2202 793d 8c16 d9bc 4883 433d
000001d0: 70ce d3bd 8221 213b a074 f1bd cb33 e3bd
000001e0: 8f02 54bd 2107 083e 01d0 943c 01d5 5d3d
000001f0: 6584 f2bc 280e 5bbd 697a c4bd 7d67 0a3e
00000200: 24d0 f73c 3883 18be f986 80bd 28ea a0bc
00000210: 4fd7 8d3d 9f14 fb3d fc8c f63d 4c0a f3bd
00000220: a6cb cfbd 2f99 21be f33e 243d ec90 a1bc
00000230: fe6c bb3d 737b 373d 0915 05be ab22 b8bd
00000240: 7ef2 88bd 1986 0abd 7c82 093e ac76 773d
00000250: 3486 53bd 55e6 10be 6648 d7bd 38a7 96bd
00000260: 4401 d8bc 765d 763b 6af3 e23d 8fe4 bfb9
00000270: 8d6a ff3d d0e7 1c3e 25a3 883d b414 30bc
00000280: edac abbd b61d f7bd 34a2 1cbe 1c4f 2a3d
00000290: 1565 0c3e 1487 9abd 2abb cdbc e995 b1bd
000002a0: fb24 873d a1d0 10bd 7209 6a3d 07eb dcbd
000002b0: 38bc 163e c4f3 21be a5b4 14be 538b 043e
000002c0: 3d29 fcbc 6b73 13be c10d 26be 1738 fa3d
000002d0: 1e90 7cbd f867 9d3d 7484 a9bd 58d8 db3d
000002e0: dd95 bf3d 6f3e 123e e57e 26be dc9e 363d
000002f0: 7cb4 b23d a2fc 203e 7252 423d 3a75 e93d
00000300: 00ff afbd 7020 a63d 0734 adbd 06fa 4fbc
00000310: b687 a23d 6523 783d 5838 04bb 8fe3 ea3d
00000320: 8dba 8a3d 008a 0fbe 8c69 be3d 3844 32bd
00000330: 4d23 eabd 8086 ab3d 4984 02be dfe0 06be
00000340: 1240 723d fc4c fc3d 544b 033e 42b3 dbbd
00000350: 395a 0cbe 570f a33d bfdf f1bd 2678 4bbd
00000360: b7e0 d53d 34b1 22bd 959e 66bd daaf f23d
00000370: 3d99 aa3d 49d6 843d 1aff c73c ec0e b9bc
00000380: b488 a1bd 87c2 b83d efa4 023e 127d 23be
00000390: ea45 b6bd 178e 70bd 2e59 b6bd eb00 613d
000003a0: bcda 843c 2d0c 27be 5c8f f0bc 54f1 a5bc
000003b0: 2673 f03d 80d8 f7bd 6135 2bbb 77f0 6a3d
000003c0: 2963 12be a68f 5ebd 51a4 8e3d 899b 28be
000003d0: 1b81 0bbd 1c99 cc3d 596f 26be c2ab aa3d
000003e0: f8d6 28be 2a02 99bd 2020 333c f5de 1abe
000003f0: c7c0 50bd 632f 93bd 007a 953c cee7 843d
0.100327216 0.06216742 -0.08350031 -0.0024892935 -0.16516039 -0.044581003 0.07762744 0.16903943
0.103333436 -0.14848967 -0.07459638 -0.09626357 0.13711484 0.0074097677 0.111881636 -0.06469915
0.16464853 0.1280083 0.077089876 0.101347774 0.06534299 0.06969113 0.020391274 -0.090855144
0.02600205 0.08148555 -0.0031049922 0.12702473 -0.10429932 -0.10814109 0.14865756 -0.066210784
-0.16160877 0.00211375 0.020185107 -0.15115 -0.14760762 0.027510285 -0.0739304 -0.04004147
-0.03587802 -0.14524376 -0.09738049 0.12824056 -0.084849685 -0.1363332 0.02700356 -0.059221808
-0.11340783 -0.029289529 0.16605778 -0.073352374 -0.076647416 0.08741618 0.043667533 -0.13385592
0.10858217 -0.07658551 0.036866564 0.11202304 -0.16829179 0.060665652 -0.14338687 -0.044877212
-0.02770906 0.09867414 0.12968783 -0.07600061 0.08226939 -0.051327575 -0.11828964 0.11652666
0.010213467 -0.023125833 -0.055589527 0.16288352 -0.011497713 -0.09036847 -0.13132581 0.09842022
-0.085405976 0.032587107 0.08670785 -0.039394315 0.11446866 0.014598857 -0.15205106 -0.12927052
0.07814473 -0.12726745 0.014807158 0.016828524 0.038413018 -0.053694714 0.004040931 0.080508344
0.15971097 -0.09335579 -0.13249476 0.12553898 -0.04096664 0.15046503 0.015063553 -0.08735071
-0.053277094 -0.13039455 0.097301155 0.14621454 -0.13473871 0.020410506 -0.008706917 -0.013122704
0.09885917 0.06079305 -0.026500009 0.04773262 -0.10342109 0.0024586623 -0.117898226 -0.11093863
-0.051760253 0.1328397 0.01816559 0.054158214 -0.029604146 -0.053480297 -0.095936604 0.1351604
0.030250616 -0.14893806 -0.06275744 -0.019642904 0.069258325 0.122597925 0.120386094 -0.11867198
-0.10146265 -0.15781091 0.040099096 -0.019722424 0.09151648 0.044795465 -0.12996306 -0.089909874
-0.06686877 -0.03381929 0.13428682 0.06041591 -0.051641658 -0.14150365 -0.10511856 -0.07356113
-0.026367791 0.0037592328 0.11081584 -0.00036600648 0.12471495 0.15322804 0.06671742 -0.0107471235
-0.08382592 -0.12066214 -0.1529625 0.04157935 0.13710435 -0.07545295 -0.02511366 -0.08671171
0.0659885 -0.035355214 0.057137914 -0.107870154 0.14720237 -0.15815645 -0.14522035 0.12943773
-0.030781383 -0.14399497 -0.16216184 0.122177295 -0.06166088 0.07685846 -0.082772166 0.10734624
0.09354756 0.14281629 -0.16259344 0.044585094 0.08725831 0.15721372 0.047441907 0.11399312
-0.08593559 0.08111656 -0.08457189 -0.012693888 0.07936041 0.06058063 -0.0020175185 0.114691846
0.06773863 -0.14017487 0.09297475 -0.04352209 -0.11432514 0.08375263 -0.12745775 -0.13171719
0.059143133 0.12319371 0.12821704 -0.1072755 -0.13706292 0.0796191 -0.11810254 -0.04967513
0.104432516 -0.039719775 -0.05630358 0.11849947 0.08330009 0.06486184 0.024413634 -0.022590123
-0.07887402 0.09021478 0.1275823 -0.1596568 -0.08900054 -0.058729257 -0.089037284 0.054932516
0.016217582 -0.16313238 -0.029365234 -0.020256676 0.11740713 -0.12101841 -0.0026124346 0.05735823
-0.14295639 -0.054336213 0.069649346 -0.16465582 -0.03405867 0.09990141 -0.16253413 0.083335415
-0.16488254 -0.07471116 0.010932952 -0.15124114 -0.050965097 -0.07186773 0.01824665 0.06489526

mu.bias f4 [4]
00000000: 62b2 a8bb f617 0cbc c6da aebc 5b02 e23b
-0.005148218 -0.008550635 -0.021344554 0.0068972535
