llirl_sumo/saves/sumo_single_intersection/optimal_policy_period_2.pth (torch, 196916 bytes, 7 tensors)

sigma f4 [4]
00000000: a5fe 1cbc 6479 5c39 4da3 343c e576 bd3b
-0.009582196 0.00021026056 0.011025262 0.0057819956

layer1.weight f4 [200, 36]
00000000: 6230 683d 77aa 1f3e 9996 64bb 6082 f43c
00000010: 4478 373d 2230 703d f9d3 6cbd f2f0 9f3d
00000020: 692d 1cbd 706c bc3d 51ef d3bc 4347 6f3d
00000030: e430 d33d 9e9d ddbd 3f1c 483d b915 e03c
00000040: a834 fcbd 3dba d6bc 9176 7f3b 03a3 013e
00000050: b89e 9fbd 1947 ec3d dcd6 89bd 1917 8a3d
00000060: 13e5 0b3d 7f8d d63d cf9b ca3d dd0d 12be
00000070: 926e 0cbc f8b7 19be 3f9d ea3a b9d1 c2bd
00000080: 1526 0f3e f565 a53d 1726 9cbd 6a29 c43c
00000090: 6102 c4bd 6553 18be 7e76 a73d b024 e8bc
000000a0: c0ae 17bb cfda cbba 4d85 3e3d 9b9d a43d
000000b0: 4fd4 69bd bb20 80bc cc3f a4bd 6f43 9cbd
000000c0: c32a 5cbd c5f3 d93c 95f7 f0bd 999a b1ba
000000d0: db4f 043e dd75 0fbe 8ec1 9d3c 4d84 d93d
000000e0: 74cf 853c 46e4 bb3d fe8a b6bd a7f0 013c
000000f0: 9cd1 45bd 8aaf 0e3c bc07 edbc e793 b73c
00000100: 79cb 133e 6785 2abd 923c 063d e931 d5bd
00000110: c2fc be3d 8ef9 153d ad1d c8bd c66d e83d
00000120: fb60 bebd 5f28 f6bd f81a 1abe f9e3 b1bd
00000130: 8481 f8bc 34a7 95bd 545b 1e3e ee67 11be
00000140: 237b adbc 0b48 debd 8d57 203e 9ea9 36bd
00000150: c608 0fbe dc67 963d ab83 a7bd ec23 9e3d
00000160: bde2 213e 951b febc 3709 c2bb e2b6 0cbe
00000170: 6dc3 97bc 2f97 d03d 45e1 d43d dcf9 8a3d
00000180: b17d 01be e9e1 f73d 8cc3 aa3d 5e1e 0abd
00000190: 4f5c 17be b67b f53d 50d6 93bc 7550 e5bd
000001a0: 004c d83d 332d 17be 296b 1bbe 0805 d93d
000001b0: 6c4b df3d 40c0 19bc 72f4 17bc 8ce5 76bd
000001c0: e84d f0bd b01c a3bd 23af dbbd 606c 14bc
000001d0: bd05 63bd b00b a7bc d498 c6bd a781 8e3d
000001e0: 4ef6 9d3d 9e16 44bd 255a e23d a7b2 d73c
000001f0: a392 0fbe e6a9 71bd 3fb9 12be a633 30bd
00000200: 9bfd b33d ff52 a6bc 26a8 76bd 29d1 d33a
00000210: 00a0 5ebd 4e13 21be 7cd3 10bc 3273 1abe
00000220: 2eb9 0a3d c841 82bd 5cff 0b3d ee34 e7bd
00000230: 62f9 ca3c f002 b93c cefd a8bd 190c 2abc
00000240: ca1c 5a3d a43f eabc 96fb 52bd 4473 c43d
00000250: 3e23 0f3e d95b afbd badb 2a3c 97ca 3cbd
00000260: 53bf 58bc 3dbc b53d 800e 98bc 1e58 8bbc
00000270: 982a 363d c7da df3d 50bf 0f3e 6d01 843d
00000280: f29d afbd c25e 59bd f38b eabd befc 1ebe
00000290: b020 21be 383c f7bc 2055 463d a7d0 0c3e
000002a0: fb5e 6e3b af5c 1fbe 69c2 a1bd 7b19 ee3d
000002b0: 3d4a 0c3e 69df 1b3d 5295 d8bc 9ec7 e03d
000002c0: c053 133d 6d4e e4bd 3cab bebd 6285 42bd
000002d0: c3f0 2ebd 0b6a a8bd 9fea 33bd 4ad5 c53d
000002e0: e193 d13d 5bc8 25bd 2656 b83d 09ff d33d
000002f0: edb4 8abd 5275 fe3d ba38 273d cf86 58bd
00000300: 6670 203e 9e4b f1bc 24d0 723a 2f7e 573d
00000310: 679a 963c 84bf ec3c 0b57 85bd d553 293d
00000320: 842b dd3c c0d9 debc a995 09be 138d 53bd
00000330: 4b83 1f3e c3ee e13d bf3c 643d f0a6 82bd
00000340: 5d16 af3d 94b4 d93d 8aa6 bbbd 442b 1fbd
00000350: 3045 febd b645 1dbe 117d 1b3e 80a3 253d
00000360: b11e 5fbc cd41 87bc 8361 96bb e47b 213e
00000370: a64d 10be c8d5 e93d 2e0c 923d 6e95 00bc
00000380: 3efd 90bd a3a8 25bd bfaf 96bd 41cc 593d
00000390: 361b f03d 55f6 d73d d53f f8bd 4676 b93d
000003a0: 7714 193d 1682 15bd f96d e9bd ee09 a6bd
000003b0: d7f9 093e ad64 003d 30fb dbbd adc1 adba
000003c0: 9a3b 92bd 2ff1 00bd b2a9 943d 5d61 14be
000003d0: e66c eebd 971d c4bd cd1a c6bd 17d2 ccbd
000003e0: b1bb cf3d 2e7f 173e 0ee3 fbbd c037 b0bd
000003f0: a6c7 d33d e43f 9b3d a8fb 00be 6b64 0bbd
0.056686766 0.15592371 -0.0034879802 0.029847324 0.04479243 0.058639653 -0.05781934 0.078096285
-0.038129244 0.0920037 -0.02587095 0.05841757 0.103120595 -0.10821079 0.048855063 0.027354108
-0.12314731 -0.026211852 0.0038980583 0.1265984 -0.07793945 0.11536998 -0.06730434 0.06742687
0.03415401 0.10476207 0.098929994 -0.14263101 -0.008571284 -0.15011585 0.0017899646 -0.09512658
0.13979371 0.080760874 -0.076244526 0.023945529 -0.09570766 -0.14875562 0.081768975 -0.028337806
-0.002314493 -0.0015552881 0.046513844 0.08037873 -0.05708724 -0.015640607 -0.08019981 -0.076300494
-0.05375172 0.026605496 -0.117659725 -0.0013550102 0.12921087 -0.14009805 0.019257333 0.106209375
0.016334273 0.09174399 -0.089132294 0.007930911 -0.048295602 0.008708844 -0.028934352 0.022409393
0.14433087 -0.04163113 0.032772608 -0.1040991 0.093255535 0.036614947 -0.09771285 0.113490626
-0.09295841 -0.12019419 -0.1504935 -0.086860605 -0.030335195 -0.07307282 0.15464526 -0.14199802
-0.02117688 -0.10853585 0.15658398 -0.044595353 -0.1396819 0.07344028 -0.081794105 0.07721695
0.1580915 -0.031019012 -0.0059215087 -0.1374164 -0.018525803 0.10185086 0.10394529 0.06785938
-0.12645604 0.12103636 0.08338079 -0.033720367 -0.14781307 0.119864866 -0.018046528 -0.111969866
0.10561371 -0.14763336 -0.15177597 0.10596663 0.109030575 -0.009384215 -0.009274589 -0.060277507
-0.117336094 -0.07964456 -0.10726764 -0.009059042 -0.055425394 -0.020391315 -0.096971184 0.06958323
0.077129945 -0.047873132 0.1105235 0.026330305 -0.14020781 -0.05899992 -0.14328478 -0.043018006
0.08788606 -0.020303247 -0.060218953 0.0016160357 -0.054351807 -0.1573002 -0.008839484 -0.15083006
0.033868007 -0.06360203 0.034179077 -0.112893924 0.024777118 0.022584409 -0.082515344 -0.010378861
0.05325011 -0.0285948 -0.051509462 0.09592298 0.13978288 -0.085624404 0.010428363 -0.046091642
-0.013229209 0.08873794 -0.018561602 -0.017009791 0.044474214 0.109304 0.14037824 0.064455844
-0.085750476 -0.053068884 -0.114524744 -0.15526101 -0.15735126 -0.030180082 0.048421025 0.1375147
0.003637253 -0.155627 -0.07898409 0.11625954 0.13700195 0.038054857 -0.026438389 0.10975574
0.035968542 -0.11147771 -0.09310004 -0.047490485 -0.042710077 -0.08223351 -0.043924924 0.09659822
0.10233284 -0.040474277 0.090008065 0.103513785 -0.0677279 0.12424721 0.040825583 -0.05286294
0.15667877 -0.029455002 0.0009262583 0.052610572 0.018384172 0.028899916 -0.06510743 0.041339714
0.026998289 -0.02720344 -0.13435997 -0.05164821 0.15577428 0.11031868 0.055721994 -0.06379497
0.08549187 0.10630146 -0.09162624 -0.03885962 -0.1241554 -0.15358624 0.15184428 0.04043913
-0.013618157 -0.016510868 -0.004589261 0.15769917 -0.1409212 0.11417729 0.07131229 -0.007848127
-0.07079552 -0.040444028 -0.0735774 0.053173307 0.1172394 0.10545031 -0.1212155 0.09055762
0.037373032 -0.036501013 -0.11397929 -0.08107363 0.13474213 0.031346012 -0.107412696 -0.0013256572
-0.07140274 -0.03148001 0.07258929 -0.14490266 -0.116418645 -0.09575956 -0.096730806 -0.10001009
0.10143221 0.14794609 -0.122991666 -0.086043835 0.10340814 0.075805455 -0.12595999 -0.034031313

layer1.bias f4 [200]
00000000: 94c4 66b8 e881 4039 58de 673a 719d 35b9
00000010: 97a3 7eba 42d7 ca3a 0958 a439 151f e339
00000020: 3362 8dba 650b 00ba 5a10 d7b7 2253 1e3a
00000030: 498f 18ba 4ab9 63b9 fa27 b8b9 718c 2438
00000040: 87a7 5539 7652 06bb 7702 7239 f1cd a83a
00000050: 0fa5 0cb9 665f 5337 f075 5c36 acc7 c9b9
00000060: 9e0b 50ba 92d8 96b7 e1a1 7a3a 8eab 5a3a
00000070: f0e4 5d3a 5b6f d1b9 ec96 34ba dcd0 a3b9
00000080: 0cd8 753a d9a0 29b9 bc6a 7238 db11 3739
00000090: 9fe8 eb39 9790 e3ba 87a9 3439 8831 0937
000000a0: ee96 a639 edeb 5db9 4a19 5a39 b072 54b9
000000b0: bf32 fdb9 b11b 75ba e53f a039 3f38 8f3a
000000c0: e412 5ab8 6434 2439 7534 44ba 5ce4 ed39
000000d0: ffda 02b9 e835 2e3a 9217 e938 9d33 9c3a
000000e0: 0ff0 ec39 d3e2 41ba 814e 28ba 814f aa37
000000f0: cd75 1839 6277 cc39 22b7 6db9 3393 adba
00000100: 42c4 2839 e6fe c6ba 71f1 843a 75c6 33ba
00000110: d1de 0bba b12f c6b8 b705 b53a ce0e 87ba
00000120: da6e 2dba 7bd2 48b9 b511 5b39 925f 8239
00000130: c3c5 4f38 a03c 9bb9 d0be aeb8 fd82 3e38
00000140: b61a 09ba c9b8 153a a299 8f3a 11b7 4c38
00000150: d983 f4b9 da9e 3dba 8c75 093a 43c9 ec39
00000160: 84c6 0d3a 557f 60ba 1228 3139 1e6e 613a
00000170: 6369 2d39 4f5f 6e3a f0e8 5f3a 7708 c2ba
00000180: 521c 0bba dd06 7bb9 df1c 25bb b341 2bba
00000190: 939a afb9 94a1 0bba 54dd 503a 7993 82ba
000001a0: 845e aa3a 7b09 c438 584b 38b9 e48e 33ba
000001b0: 8885 913a 53c6 7238 3881 073b efdf cbb9
000001c0: 286a b039 87fb 18ba 9e19 5dba 370d 9137
000001d0: a788 f038 9721 20ba a6ed 1bbb 41d8 463a
000001e0: a4ee dc39 80bd 213a 2c32 c038 5464 6f39
000001f0: 1036 313a 9d0e 8d3a 7d6c 0039 4b6f 55b9
00000200: 8da5 b1b7 3eb5 ccb8 9dd5 f537 a936 b2b8
00000210: 5a98 97b9 954d 57b9 2930 1ab9 b9af 0bba
00000220: 1c42 ef3a 81da 87b8 94f6 bb39 a83e 44b9
00000230: 30fa f439 d8b4 13ba 08e0 95b9 46f5 4eb9
00000240: 84e6 34ba 3aa0 acb8 5aec 003a 4f2d ab3a
00000250: 43d5 71b9 7be7 d139 680e 3d39 8477 9839
00000260: 7836 943a 1028 e1b9 2380 80ba 51ad a6b9
00000270: c492 dc3a 0208 6339 74df 09ba f3fd 8fb9
00000280: 3630 4a3a 4878 12b9 0d61 00ba bc5a 693a
00000290: 48dc c4b8 51c2 b1b9 6ed3 51b9 2f57 e1b6
000002a0: 8cc6 903a 9362 5d39 75ad 3dba 9b5f 5f3a
000002b0: 17c8 27ba 9c3d 9cba 866f 34b8 2548 e13a
000002c0: b051 be3a 5710 863a dfe9 8337 6f9d df39
000002d0: 4ccf 8bba 4987 a03a fe5c 1a3a 3443 f338
000002e0: 7ff0 943a 02fa d8b9 596b 2e39 6802 4e39
000002f0: bfbc 08b9 3d5e 79ba 1c95 1038 82ce 03ba
00000300: 9aed 013a 9687 deb7 3682 4bba 0000 0000
00000310: 13ee 503a 3f99 543a 8e31 e8b8 76f3 713a
-5.501935e-05 0.0001835894 0.00088450825 -0.00017320157 -0.0009713708 0.0015475529 0.0003134611 0.00043319972
-0.0010786712 -0.00048845104 -2.5637612e-05 0.00060396094 -0.0005819691 -0.00021717433 -0.00035125 3.9231443e-05
0.00020375672 -0.0020495928 0.00023079837 0.0012878758 -0.0001341293 1.2598792e-05 3.2851203e-06 -0.00038486475
-0.00079363014 -1.7982242e-05 0.0009560865 0.00083416037 0.00084645953 -0.00039946553 -0.0006888944 -0.00031245395
0.0009378202 -0.00016177016 5.77967e-05 0.00017458892 0.0004499601 -0.0017361817 0.00017229292 8.177369e-06
0.0003177444 -0.00021164092 0.00020799521 -0.0002026062 -0.0004829373 -0.00093501346 0.00030565183 0.0010926797
-5.1992844e-05 0.00015659776 -0.00074846233 0.00045374304 -0.00012479349 0.0006645606 0.00011114696 0.0011917237
0.00045192285 -0.0007396165 -0.00064203894 2.0302601e-05 0.00014539734 0.0003899886 -0.00022670304 -0.0013242721
0.0001609484 -0.0015182167 0.0010142756 -0.00068578805 -0.00053356314 -9.450259e-05 0.0013810907 -0.0010304095
-0.00066159444 -0.00019151896 0.00020892064 0.00024866738 4.9536826e-05 -0.00029609073 -8.332508e-05 4.5421522e-05
-0.00052301155 0.0005711434 0.001095582 4.8807884e-05 -0.0004663754 -0.00072334486 0.0005243651 0.0004516338
0.0005408304 -0.0008563896 0.00016894963 0.00085994776 0.00016537825 0.00090931816 0.00085414853 -0.0014803548
-0.0005306649 -0.00023939782 -0.002519421 -0.0006532922 -0.00033493768 -0.0005326506 0.0007967551 -0.0009962163
0.0012998139 9.347774e-05 -0.00017575675 -0.00068496005 0.0011102417 5.7882e-05 0.0020676386 -0.0003888602
0.00033648429 -0.00058358203 -0.0008434298 1.72915e-05 0.00011469545 -0.0006108521 -0.0023792773 0.0007585325
0.0004213947 0.00061699003 9.164619e-05 0.00022830191 0.000676007 0.0010761801 0.00012247446 -0.00020354723
-2.1177135e-05 -9.761237e-05 2.9305747e-05 -8.497883e-05 -0.00028914475 -0.000205329 -0.00014704526 -0.0005328614
0.0018253955 -6.478001e-05 0.00035851134 -0.00018715358 0.0004672571 -0.0005634553 -0.0002858641 -0.00019737062
-0.00069008046 -8.231444e-05 0.00049180316 0.0013059768 -0.00023062997 0.00040036053 0.00018029811 0.00029080745
0.0011307737 -0.00042945193 -0.0009803813 -0.00031791118 0.0016828408 0.0002165139 -0.00052594324 -0.00027464292
0.00077128725 -0.00013968453 -0.0004897274 0.0008901765 -9.387039e-05 -0.00033904848 -0.00020010557 -6.715672e-06
0.00110455 0.00021112924 -0.0007235625 0.0008521021 -0.000640036 -0.0011920216 -4.301921e-05 0.0017187638
0.0014520194 0.0010228258 1.5725322e-05 0.00042651172 -0.0010666638 0.0012247349 0.00058884907 0.000115996605
0.0011363177 -0.00041385 0.00016633923 0.00019646587 -0.00013040284 -0.0009512639 3.4471144e-05 -0.00050280255
0.0004956365 -2.65276e-05 -0.00077632384 0.0 0.0007970046 0.00081099937 -0.00011071852 0.0009229699

layer2.weight f4 [200, 200]
00000000: 31cf d73c b775 933d 1c3d bbbd f69b e2bd
00000010: e712 a03c d69e 8abc 9457 a83d 235e 8f3c
00000020: 92fb 8dbd ce15 89bd 5808 613c d9d9 083d
00000030: f304 e9bd 7253 813d d18c e93d e3a0 b73d
00000040: 69d6 96bb dcfe f5bd c96c 0abd f265 c93d
00000050: 8b6e abbd b4d9 7bbd 4913 26bd efec 693d
00000060: 7906 1abb dcf8 f4bd 8430 323d 009f d3bb
00000070: e06a e13a 250b 213b 2940 10bd 999d 8cbd
00000080: 1c14 653d c1bb aebd d6e4 c03c 257a c23c
00000090: 0bac c03d b79b bc3d 3161 37bd fc6e 0e3d
000000a0: 1513 4c3c 6bfb 95bc 728a 853d 44ba ec3d
000000b0: 028c 333c 4d7a 3dbd 8cd5 5fbb 54ae 203d
000000c0: 46ab 19bd 9614 a33a 1ca1 b73c 076d 133d
000000d0: 2c76 b33d 4dfa 26bd 96d0 cdbd b3fb fabc
000000e0: dba1 bfbd 7ced 8fbd 4c34 9fbc ec3b a23b
000000f0: 90dd 8e3d b3cc 823d e2f5 6b3d 7c1d 99bd
00000100: fa6a 513d 48bc 453d 28b9 dc3d 3e32 973d
00000110: 2af1 283c 2756 f73d 1656 d13d fb9f aabd
00000120: dfbc 9b3d 0895 52bc eefd e1bd e78b ebba
00000130: 089e c8bd 540a 7b3d 4dcf 0d3c 497a 4bbc
00000140: 7318 a0bc 078e 76bd 3f7d f7bd b760 8f3d
00000150: bb34 c83c 1d37 f5bd 1711 803d b533 d6bd
00000160: 483f 91bc d78b f13d 11e5 873c c72c 86bd
00000170: 01f3 c8bd fff5 953d e201 a2bd bba5 0bbd
00000180: 1bc3 98bd 2191 ad3d c615 eabd 295f 01bc
00000190: 95f2 5f3b 1925 67bd 3640 dd3d a316 f5bd
000001a0: 7f0b 0abd bc96 2b3d 7d0b e4ba c4b0 233d
000001b0: 8fcd adbd 13e0 153d e2e1 63bd c0db d13d
000001c0: 84f7 e1bd 30e7 13bd 3b09 94bd 9812 c0bd
000001d0: 5693 a0bc a846 a1bd ee7f c3bd be24 7fbd
000001e0: 2734 51bd d93d 193c 4a7d 50bc 8b65 903d
000001f0: 697c 7b3d a8c0 87bd 8223 3dbd 85ad 8bbd
00000200: c132 26bd 138a 98bd 8803 a03c e70f a33d
00000210: c9cd df3c dd0b 55bd 38aa 8bbc 9431 c2bd
00000220: bc43 133d 8176 d73d 2fb2 18bd 06aa c73d
00000230: 37ff 463c c0f5 3dbd 6db5 a03d 572d e5bc
00000240: 386d 943d 35cd c63c 619d c5bd f144 78bc
00000250: 62c1 933d 065f 62bd a9c3 20bd 6e20 ac3d
00000260: 20d2 9e3d d9d1 3abd 7be6 03bd aae6 d3bc
00000270: ec75 e3bd efc6 e9bd 4cce 7e3d b51d ee3d
00000280: 210d b53d 90c1 efbc 358c 66bc a0c1 183d
00000290: 5f97 edbb a712 423d a4dc ec3d 1a3f 9c3d
000002a0: 17a6 d43d 8171 25bd f040 afbd 3cde f2bc
000002b0: cc42 adbd ffe7 d03d c339 ea3d ded3 c3bd
000002c0: bdb8 9dbd 78a8 4e3c 7aef d6bc 3041 f9bc
000002d0: 7eff c0bd 1d32 4c3d 1dd6 8b3b 9864 efbd
000002e0: 84eb e63d da08 c33d 14fd 93ba 0506 903d
000002f0: 998b 983d 5bed d3bd c448 9a3d d022 4d3c
00000300: 3e5b 33bb 050b e1bd 7538 833d 0000 71b9
00000310: 6695 863d e96b 5bbc e51b 4fbb 9039 bfbd
00000320: cebc 93bd 833d 1b3c a21c 57bc f542 b53d
00000330: 85b6 8b3d 4d78 9dbc 756d a6bd e36e c23c
00000340: 3e75 413d 77cd 323c 6a67 8dbc 0b2d df3d
00000350: 1216 f9bd bc7b f8bc 4c06 c93d f3c0 9ebd
00000360: d822 01bd 983e 263d 6de9 5cbd a194 113d
00000370: f44a c9bc c6b1 80bc 6d09 d8bd 59d4 b7bd
00000380: 84ed d2bb 221b 5ebc 461a 103d dcc4 6c3c
00000390: 35be b43d e7b2 9d3d a0f3 f9bd b243 9d3d
000003a0: 1edc 7c3c 834c 153d 94c3 173d 94d3 733b
000003b0: f3d8 843d a2a1 5fbd 6d15 303c b115 45bc
000003c0: 7963 fa3d 1d3c 64bc 034d f9bc 7731 313d
000003d0: e882 9b3d e52b 3a3d a258 863d e779 cebb
000003e0: 2bc5 803c ecc4 cabd 4704 83bd 7df0 91bd
000003f0: d3d9 b23c 1b7a ee3d 48f6 bb3d f10f c33d
0.026343914 0.07200187 -0.09142515 -0.110649034 0.019540263 -0.016921442 0.08219829 0.017500943
-0.06932749 -0.06693612 0.013734899 0.03341088 -0.11377897 0.06314744 0.11403812 0.089662336
-0.0046031964 -0.12011501 -0.03379515 0.09833898 -0.08370694 -0.061486915 -0.040545736 0.057110723
-0.0023502393 -0.11961529 0.0435033 -0.0064581633 0.0017197989 0.0024573293 -0.035217438 -0.06865997
0.05592738 -0.08531905 0.023546617 0.023739884 0.094078146 0.09209388 -0.044770423 0.03477381
0.012455721 -0.018308362 0.06520547 0.11558965 0.010958673 -0.046259213 -0.0034154383 0.039228752
-0.037516855 0.0012442048 0.02241569 0.03599265 0.08762774 -0.04076605 -0.1004955 -0.030637598
-0.09357043 -0.070277184 -0.019434117 0.004950991 0.069758534 0.063866995 0.05760754 -0.07476327
0.05112741 0.048275262 0.10777503 0.0738263 0.010311404 0.12076979 0.10221498 -0.08331295
0.07604384 -0.012852915 -0.11034761 -0.0017970771 -0.09795767 0.061289147 0.008655381 -0.012419292
-0.019542908 -0.06019404 -0.12084436 0.07000869 0.024439206 -0.11973403 0.0625326 -0.10459081
-0.01773037 0.117942505 0.01658872 -0.06551509 -0.09811974 0.07322311 -0.07910515 -0.0340936
-0.074590884 0.08474947 -0.11429934 -0.007896223 0.003417169 -0.056431863 0.10803263 -0.11967208
-0.03370237 0.0418918 -0.0017398443 0.0399635 -0.08486473 0.036590647 -0.05563534 0.10246992
-0.11033538 -0.03610915 -0.07228323 -0.093785465 -0.019601505 -0.07874805 -0.09545885 -0.0622909
-0.051075127 0.009353125 -0.012725184 0.07050618 0.061397944 -0.06628543 -0.04617644 -0.068202056
-0.040575746 -0.074482106 0.019532934 0.079620175 0.027319806 -0.052013267 -0.01704894 -0.094821125
0.03595327 0.1052065 -0.037279304 0.09749226 0.012145809 -0.046376944 0.07847104 -0.027975721
0.07247394 0.024267772 -0.09649158 -0.015153156 0.07214619 -0.055266403 -0.039249096 0.08404623
0.07754922 -0.045610283 -0.032202225 -0.025866825 -0.11106476 -0.11414897 0.06220846 0.1162676
0.08840395 -0.029267102 -0.014071514 0.03729403 -0.007250711 0.04738107 0.11565521 0.07629223
0.103832416 -0.04039145 -0.08557308 -0.029646985 -0.08460006 0.102005 0.114367984 -0.09561895
-0.07701252 0.012613408 -0.026237238 -0.030426592 -0.09423731 0.04985248 0.0042674677 -0.116891086
0.1127539 0.09523173 -0.0011290633 0.07032398 0.07448501 -0.10348006 0.0753341 0.012520507
-0.0027367617 -0.1098843 0.06407253 -0.00022983551 0.06571464 -0.013392427 -0.003160232 -0.09337151
-0.07213746 0.009475115 -0.013129385 0.08850662 0.06821922 -0.019222403 -0.08126346 0.023734516
0.04723095 0.010913244 -0.017261226 0.10897263 -0.12162413 -0.030332439 0.09815654 -0.07751646
-0.03152737 0.040587038 -0.05393355 0.035542134 -0.024571873 -0.015709769 -0.10548673 -0.08976049
-0.0064370055 -0.013556274 0.035181306 0.014451232 0.088253416 0.077001385 -0.12204671 0.076789275
0.015433339 0.03644992 0.037051752 0.0037204968 0.06486692 -0.054597504 0.010747296 -0.012029097
0.12226004 -0.013930348 -0.03043223 0.043260064 0.07593328 0.045452017 0.06559874 -0.006301153
0.015719017 -0.09900841 -0.063973 -0.071259476 0.021832382 0.116443835 0.09177834 0.09524525

layer2.bias f4 [200]
00000000: 101a 8438 da21 5e3a 9b6a c33a 381c f93a
00000010: 0871 9739 a996 ebb9 1d24 0f3a 4376 5c39
00000020: 5257 d53a ef76 32b6 9e62 80ba f924 a83a
00000030: d738 cb39 f29f 023a b4e5 00bb ee3a 1939
00000040: 2797 d7b9 474a 91b8 2767 1b3a 2810 9f3a
00000050: 7f97 05ba 1853 19ba 9c70 31b9 55fb a2b9
00000060: c3b0 c33a 235b a3ba 239f 4cba 2b27 4eba
00000070: af14 e4b9 e1b6 2139 3b2f 5c39 5866 1f3a
00000080: cc7d 45b9 da9b c43a aba7 3238 4874 14ba
00000090: 13f1 84b8 aec7 02ba 4210 ef38 692a 2cba
000000a0: 62f3 e13a 6711 b2b9 5857 45bb ecc1 da3a
000000b0: c4f2 fd3a 9b9e 70b9 6fb4 4d3a 771e ddba
000000c0: baf4 6aba 28b0 ac3a 0000 0000 0f29 343a
000000d0: 7283 433b a04f e4ba 6461 89ba 5ca4 6839
000000e0: 1943 50ba 6931 dd37 ef0b 833a 78fe c039
000000f0: 349e 243b 0000 0000 8a79 ad3a d38c 213a
00000100: f910 14ba 07a0 d53a 4fe4 7db9 bc89 b63a
00000110: 95cd 9fb9 a741 db38 3a56 4339 9201 873a
00000120: d0b2 5a3a a11c 53b9 c43e 0fb8 01a7 9bba
00000130: 5892 9f38 1031 4fba 74b4 2aba 72e0 67b8
00000140: 3272 6ab9 600f dfb9 3e00 3eba fc0d dd3a
00000150: b723 32ba b468 e0b9 0000 0000 19d0 bb3a
00000160: 6765 e8ba 3f65 133a 38e8 3638 f8f8 8d3a
00000170: 90ba d3b8 59cd c7b8 cf39 14ba 2a65 053a
00000180: 0dfd 013a a4e5 bb39 003c b83a f639 8cba
00000190: 3b04 07bb 90a7 1dba 22fd 4f39 9291 be39
000001a0: eaf7 67b9 0de6 2a3a 67a3 db39 4ff5 7d3a
000001b0: 9632 8639 bfd7 f639 c87d 013b 7778 3bba
000001c0: 7670 5939 7111 6fb9 2daf 3b39 a9c0 ccba
000001d0: 9bed b1ba 3759 b7b6 4b5e 3dba 8af9 c53a
000001e0: 3b73 33b9 3a19 ccb9 53e5 ad39 7332 0a38
000001f0: d0e0 1e3a 6ee0 99b9 9667 f33a be81 2dbb
00000200: 0168 1e3a c9f5 12ba 813c 8fb8 e1db 02ba
00000210: a691 823a 070f 19ba 3515 b8b8 a265 eeb9
00000220: f770 a339 fb4a af39 698f 06ba 54b9 4038
00000230: 600b 20bb 1781 553a f45a 063a 738d 88b9
00000240: a637 3c3a 2c88 55b8 9454 e8b9 8319 0eba
00000250: 5aa9 c7ba c6bf 5e3b f2c0 0139 c14a 683b
00000260: e09a 17bb 3330 ddb9 315c af39 18c2 3cb6
00000270: 6ca4 b73a 5ef4 a7ba 5bfd d438 99b4 533b
00000280: 4f76 be3a 9933 c33a 40ff 003b 6b78 8e3a
00000290: 31b7 3aba d6ab 6bbb 5a6e bc38 62b1 163a
000002a0: fb8c 21ba 97dd ce37 3e50 45ba 079f 45ba
000002b0: 383a cbba dfef 053b a3e2 ccb8 53d5 42ba
000002c0: eebd ff38 5a68 d0ba 2396 423b 1c2f 67ba
000002d0: 82c1 763a 2ee9 af3a dc6d 02bb f8d8 faba
000002e0: a0bd ccb9 8f28 07bb d082 a1ba e334 d73a
000002f0: 99a8 f239 0f41 6fbb 5e29 d3ba 4aba 9638
00000300: 83d5 383a ec15 a539 7935 d2b9 0bf9 d538
00000310: a0dc 323b 35b1 5ab8 4c0f 88ba c6ef 48b8
6.299105e-05 0.0008473672 0.001490909 0.0019005602 0.0002888518 -0.00044934943 0.00054603984 0.00021024891
0.0016276634 -2.6593295e-06 -0.0009795015 0.0012828402 0.00038761526 0.000498294 -0.0019668164 0.0001461317
-0.00041120613 -6.927974e-05 0.00059281517 0.0012135552 -0.0005096122 -0.0005848869 -0.00016921986 -0.00031086305
0.0014929998 -0.0012463074 -0.00078056956 -0.0007864113 -0.0004350296 0.00015422284 0.0002099843 0.0006080619
-0.00018834247 0.0015000061 4.259466e-05 -0.0005663079 -6.339154e-05 -0.0004988861 0.00011399436 -0.0006567599
0.0017238671 -0.0003396377 -0.0030111875 0.0016689873 0.0019374718 -0.00022947269 0.0007847016 -0.0016870041
-0.00089628587 0.0013175057 0.0 0.0006872573 0.0029832986 -0.001741875 -0.0010481295 0.00022186473
-0.00079445686 2.6368261e-05 0.0009998063 0.00036810688 0.002511871 0.0 0.0013235074 0.0006162647
-0.0005648281 0.0016298302 -0.00024213012 0.0013926546 -0.00030480014 0.000104549625 0.00018628771 0.0010300151
0.0008342685 -0.00020133193 -3.4152312e-05 -0.0011875333 7.6089695e-05 -0.0007903734 -0.0006511875 -5.5283723e-05
-0.0002235852 -0.0004254533 -0.0007247961 0.001686513 -0.0006795483 -0.0004280262 0.0 0.0014328986
-0.0017730416 0.0005622692 4.3608452e-05 0.0010831645 -0.00010096014 -9.5273084e-05 -0.0005654366 0.0005088622
0.0004958667 0.00035838515 0.0014055967 -0.0010698426 -0.0020601887 -0.00060140435 0.00019835358 0.00036348082
-0.00022122232 0.00065192656 0.0004189268 0.0009687738 0.0002559616 0.0004708152 0.001975881 -0.00071514345
0.00020736628 -0.00022799314 0.00017898968 -0.0015621382 -0.001357484 -5.464211e-06 -0.00072238286 0.0015104276
-0.00017113697 -0.00038928707 0.0003316799 3.294875e-05 0.00060607214 -0.00029349647 0.00185703 -0.0026475037
0.00060427195 -0.0005606083 -6.830041e-05 -0.0004991871 0.000996162 -0.0005838726 -8.777754e-05 -0.0004547062
0.00031173948 0.00033434466 -0.0005133064 4.5948967e-05 -0.0024420843 0.0008144541 0.00051252474 -0.0002604533
0.0007179923 -5.0909977e-05 -0.00044313504 -0.00054206717 -0.0015232966 0.0033988818 0.00012374276 0.0035444947
-0.0023133084 -0.00042188316 0.0003344729 -2.812716e-06 0.0014010794 -0.0012813916 0.00010156139 0.003230369
0.0014531108 0.0014892697 0.001968339 0.0010869628 -0.00071226346 -0.0035960576 8.985093e-05 0.0005748478
-0.00061626703 2.46603e-05 -0.00075269106 -0.00075386505 -0.0015505021 0.0020437164 -9.7696924e-05 -0.00074323005
0.00012194725 -0.001590024 0.002969154 -0.00088189705 0.000941299 0.0013420933 -0.0019901907 -0.0019138148
-0.00039051194 -0.002062354 -0.001232231 0.001641896 0.00046283452 -0.0036507284 -0.0016110351 7.1872564e-05
0.00070508587 0.00031487586 -0.00040094162 0.00010203019 0.0027292147 -5.2140287e-05 -0.0010380535 -4.7907022e-05

mu.weight f4 [4, 200]
00000000: 7403 d13d 29f0 7f3d 0f73 aabd c76b bcba
00000010: e7a2 28be 3ddd 38bd df49 9f3d 07f3 2b3e
00000020: e5e9 d13d f8c6 17be 6f0e 99bd 5cde c5bd
00000030: 037a 0c3e 3c33 063c 92ce e53d 3822 87bd
00000040: da90 283e a8e3 033e e3e4 9b3d 0303 d03d
00000050: 2dc4 853d f623 923d d939 a83c 7fe5 b9bd
00000060: 4732 d53c 597a a43d 7f74 81bb 349b 013e
00000070: 4034 d5bd f060 ddbd 55ae 183e b090 87bd
00000080: f7f4 25be dd20 763a 8484 a53c 3f2a 1abe
00000090: 2ddf 15be ae24 ed3c ae6b 97bd 9427 21bd
000000a0: 79a0 15bd d6b9 14be 8bd3 c5bd ffd9 023e
000000b0: 1e63 aebd df5e 0bbe d14c dc3c a28f 75bd
000000c0: eb80 e6bd b37a f6bc 0d0b 2a3e 8444 95bd
000000d0: d01d 9dbd 86cd b03d f1fe 2f3d aec6 08be
000000e0: 747e df3d 3ad9 9cbd 3224 183d 257c e43d
000000f0: d565 2cbe 8c7c 783d fc2b 13be a64f 36bd
00000100: eb0b e4bc ee29 cb3d 9dc2 043e ac22 9bbd
00000110: 2030 a93d 1b54 53bd c46d f3bd 2192 ee3d
00000120: 726e 263c b36c bdbc b0ac 64bd 8c2a 263e
00000130: e5ee 41bc d9f5 b8bd 18a4 06be ce5e ca3d
00000140: eb5c afbd 43b6 053d fbd4 b13d e76a 22bd
00000150: ca77 ea3d bc95 6b3c 46b3 1bbe 7ff9 03be
00000160: 356c a03d 7de9 01be 7f1b 733c 4329 873c
00000170: d73d 1e3d b27c 5bbd f1dc 6d3b eebd a43d
00000180: 12a7 233e 9bef c1bd 9ea0 07be 1732 003e
00000190: 23b3 26bd 2c19 1a3e e20d 763c 08af b2bd
000001a0: a133 5bbd dba2 05be bfe7 c43d 47c1 163e
000001b0: 0bf9 09be 8d54 a03c 764d 0abc 3dde 5ebc
000001c0: 8782 ca3d f16e 793d c5e1 dcbc 5ee9 473d
000001d0: 6e8c d4bd d831 1e3b 082c f2bd 6d60 e1bd
000001e0: baec 53bd d0f9 073e 0596 933c d00a 5d3d
000001f0: 8d74 ecbc 5ce0 5cbd ca4a c4bd 8574 083e
00000200: a261 f53c 7223 18be 1fba 80bd 977f a5bc
00000210: 5f79 8b3d e659 fa3d 9792 f43d 0d0f f4bd
00000220: 2a59 cfbd fccb 21be 4acf 233d 52cf a1bc
00000230: 6a4f bc3d 3ed7 363d 4453 06be 46ec b8bd
00000240: 4646 88bd 4058 0abd 9a91 093e 5a80 773d
00000250: a5ad 52bd 0a7c 10be ee16 d7bd 98eb 95bd
00000260: c4cb debc 2b55 723b 64df e13d 0e22 c2b9
00000270: 7703 003e e0ac 1c3e fcb6 883d c51b 37bc
00000280: b352 aebd 6364 f6bd 680f 1dbe 63f4 2d3d
00000290: e265 0c3e fc10 99bd 0dd7 cdbc bb8c b2bd
000002a0: 0a65 863d 96a8 11bd 8c0d 673d e8b0 d9bd
000002b0: 4c42 183e ad7b 22be cbfd 14be ca11 063e
000002c0: 16b0 f9bc 891d 13be 8f98 24be ba2d fb3d
000002d0: f03c 79bd 35cd 9d3d d5ba a8bd 31bc da3d
000002e0: 4dc9 be3d 9da2 123e 455e 26be 9fb1 383d
000002f0: 7c94 b53d 03e1 203e 1cf0 423d 1b9c e93d
00000300: 9107 b0bd ba18 a73d c983 adbd 3b7b 4abc
00000310: 442a a23d b624 783d 8431 52bb 60df ea3d
00000320: bed1 873d 3bd0 0fbe 35f9 bd3d 3f3b 35bd
00000330: 6062 eabd d13d ac3d 13e8 01be 6a1b 06be
00000340: 57db 763d 2d44 fc3d f440 033e 2f3f dabd
00000350: 7956 0cbe 05e4 a13d 2536 f2bd b3c3 49bd
00000360: 4fd0 d53d ddd4 24bd 0e32 63bd ed7a f23d
00000370: ef79 ab3d bb69 823d 810d c83c 3af5 bcbc
00000380: f6b3 a1bd 6b4a bc3d 9d7c 033e 8960 22be
00000390: 7086 b4bd 7027 70bd bcfb b6bd dccf 613d
000003a0: f3a2 8b3c af94 25be 5d66 f0bc 123f a5bc
000003b0: 6fa6 ef3d da0a fbbd 4e23 2bbb 9fd8 693d
000003c0: e585 11be 147b 5ebd 7ffe 8d3d 7186 27be
000003d0: 207f 09bd 20eb cb3d 870f 26be e8be ab3d
000003e0: d981 29be 8625 98bd 2020 333c 6a13 1bbe
000003f0: e659 51bd 4855 90bd 0220 a03c b948 853d
0.10205737 0.062484894 -0.08322727 -0.0014375382 -0.16468392 -0.045132864 0.07777762 0.16791926
0.1024969 -0.14821994 -0.07473456 -0.09661552 0.13718419 0.008190926 0.11221041 -0.065983236
0.16461506 0.12879813 0.07612016 0.101568244 0.06531558 0.07135765 0.020535396 -0.09076976
0.02602495 0.080311485 -0.003950655 0.12656862 -0.104103565 -0.10809505 0.14910252 -0.06619394
-0.16206728 0.0009389052 0.02020479 -0.15055178 -0.14635916 0.028948154 -0.07393585 -0.039344385
-0.03652999 -0.14524016 -0.09659489 0.12778471 -0.08514999 -0.13610409 0.026892098 -0.059951432
-0.11255058 -0.030087804 0.16605778 -0.07288459 -0.07671702 0.086329505 0.04296774 -0.1335704
0.10912791 -0.0765862 0.037143894 0.11156491 -0.16835721 0.060665652 -0.14372247 -0.044509552
-0.027837714 0.09920107 0.12964864 -0.075749725 0.08261132 -0.05159388 -0.118861705 0.116489656
0.010158168 -0.02312312 -0.05582875 0.16227168 -0.011836742 -0.09031267 -0.13148534 0.09881364
-0.085626446 0.03264452 0.08683201 -0.03965273 0.11448629 0.014378961 -0.15205106 -0.12888144
0.07833139 -0.12686725 0.014838099 0.016499167 0.038633194 -0.053585716 0.0036295021 0.08044039
0.15981701 -0.09469529 -0.13244864 0.12519108 -0.04069818 0.15048665 0.015017958 -0.08724791
-0.053516034 -0.13050406 0.096145146 0.14722167 -0.13473909 0.019571567 -0.00844132 -0.01360279
0.09888177 0.060896818 -0.026963124 0.04880654 -0.10378347 0.0024138596 -0.118248045 -0.1100472
-0.051739432 0.1327889 0.01801587 0.05396539 -0.02886417 -0.053924903 -0.095845774 0.13325699
0.029953782 -0.14857271 -0.062855 -0.020202441 0.06810259 0.12224178 0.11942022 -0.11916933
-0.101244286 -0.1580047 0.039992608 -0.019752178 0.091948345 0.044638865 -0.13117701 -0.090294406
-0.066540286 -0.033775568 0.13434449 0.06042514 -0.05143513 -0.14109817 -0.1050242 -0.073203266
-0.027196772 0.0036977034 0.110289365 -0.00037027936 0.12501322 0.15300322 0.066755265 -0.011176054
-0.085118674 -0.12030866 -0.15337908 0.042469393 0.1371074 -0.07473943 -0.025126958 -0.087182485
0.065622404 -0.035561167 0.056409404 -0.10629445 0.1486904 -0.15867491 -0.1454994 0.13092723
-0.030479472 -0.14366736 -0.16073821 0.12264581 -0.06084913 0.07705156 -0.082387604 0.10680426
0.09315739 0.14319845 -0.16246898 0.045091268 0.08866212 0.15710835 0.047592267 0.11406728
-0.08595193 0.08159013 -0.08472402 -0.012358482 0.07918218 0.060581885 -0.003207297 0.11468387
0.06631802 -0.14044277 0.09276048 -0.044245955 -0.11444545 0.08410228 -0.12686186 -0.13096395
0.060267773 0.12317691 0.12817746 -0.106565826 -0.13704862 0.079048194 -0.118267335 -0.0492589
0.10440122 -0.040242065 -0.055467658 0.118398525 0.08372866 0.06367823 0.024420502 -0.023066152
-0.07895653 0.091938816 0.12840505 -0.15857138 -0.088147044 -0.05863136 -0.08934733 0.05512987
0.017045474 -0.1617 -0.029345686 -0.020171676 0.117016666 -0.12257929 -0.0026113573 0.05709135
-0.14211233 -0.054316595 0.06933307 -0.16359879 -0.0335685 0.09956956 -0.1621686 0.08386022
-0.16553439 -0.07429032 0.010932952 -0.15144125 -0.051111124 -0.07047516 0.019546513 0.06508011

mu.bias f4 [4]
00000000: beea 45bb 9af2 efbb 9e95 5fbc 21dd 8d3b
-0.0030199732 -0.0073226215 -0.013646511 0.004329339
