llirl_sumo/saves/sumo_single_intersection/optimal_policy_period_3.pth (torch, 196916 bytes, 7 tensors)

sigma f4 [4]
0	0xbc8623ff	-0.016374586
1	0xbbf4afb9	-0.007467237
2	0x3c827ac7	0.015927685
3	0xbb461be7	-0.0030229033

layer1.weight f4 [200, 36]
0	0x3d68894d	0.056771565
1	0x3e1f41d4	0.15552455
2	0xbb552827	-0.0032525153
3	0x3cf53432	0.029932115
4	0x3d35d5b8	0.04439327
5	0x3d712708	0.058875114
6	0xbd6cfcc7	-0.057858255
7	0x3d9ecc52	0.07753815
8	0xbd1a7f8d	-0.0377193
9	0x3dbc5808	0.09196478
10	0xbcd881d4	-0.026429094
11	0x3d70f51f	0.058827516
12	0x3dd31c7c	0.10308167
13	0xbddec23e	-0.108768925
14	0x3d49ca1b	0.04926501
15	0x3ce11773	0.027477002
16	0xbdfad453	-0.12247529
17	0xbcd33459	-0.025781797
18	0x3b83c22e	0.0040209508
19	0x3e02532d	0.12727042
20	0xbd9ebd3e	-0.07750939
21	0x3dec96f8	0.115522325
22	0xbd8903b5	-0.0669016
23	0x3d8a9828	0.06767303
24	0x3d0c84d2	0.034306355
25	0x3dd760a6	0.10516481
26	0x3dcb1cde	0.09917615
27	0xbe11e5ec	-0.14247864
28	0xbc05d553	-0.008168536
29	0xbe197771	-0.1498697
30	0x3af4b88b	0.0018670721
31	0xbdc31a3d	-0.09526489
32	0x3e0f426e	0.13990185
33	0x3da58e62	0.08083798
34	0xbd9c6e9b	-0.07638284
35	0x3cc50c2a	0.024053652
36	0xbdc40261	-0.09570766
37	0xbe185365	-0.14875562
38	0x3da78338	0.08179325
39	0xbce824b0	-0.028337806
40	0xbb17aec0	-0.002314493
41	0xbac8ac71	-0.0015310181
42	0x3d3e893f	0.046517607
43	0x3da4bcfb	0.08043858
44	0xbd69839d	-0.05701028
45	0xbc8018db	-0.015636852
46	0xbda4206c	-0.080139965
47	0xbd9c1b17	-0.076223545
48	0xbd5c26d1	-0.053747956
49	0x3cda7147	0.026665343
50	0xbdf0cf3d	-0.117582776
51	0xbaaeb6be	-0.0013329608
52	0x3e045180	0.12921715
53	0xbe0f6327	-0.14002667
54	0x3c9defcc	0.019279383
55	0x3dd98799	0.10621566
56	0x3c86652c	0.016405664
57	0x3dbc120a	0.09183128
58	0xbdb5e1ff	-0.08880996
59	0x3c02922b	0.0079694195
60	0xbd457613	-0.048208307
61	0x3c13f784	0.00903118
62	0xbcecb6fb	-0.028895846
63	0x3cb84af8	0.022496685
64	0x3e141ffa	0.14465323
65	0xbd2a5d06	-0.04159262
66	0x3d06542d	0.03279512
67	0xbdd4ff0b	-0.10400208
68	0x3dbeee24	0.093227655
69	0x3d161129	0.03663746
70	0xbdc7eacf	-0.09761583
71	0x3de85f28	0.113462746
72	0xbdbe613e	-0.09295891
73	0xbdf6293b	-0.12019583
74	0xbe1a0d33	-0.15044098
75	0xbdb1e43c	-0.086861104
76	0xbcf884f2	-0.03033683
77	0xbd958bac	-0.07302031
78	0x3e1e5e21	0.15465595
79	0xbe115428	-0.1419226
80	0xbcabd5e7	-0.02097602
81	0xbdde4275	-0.108525194
82	0x3e206b53	0.15665941
83	0xbd35d6ff	-0.04439449
84	0xbe0f05f9	-0.13967122
85	0x3d968f66	0.0735157
86	0xbda71a5d	-0.08159325
87	0x3d9e2de1	0.077235945
88	0x3e221a43	0.1583033
89	0xbcfdf02d	-0.030998314
90	0xbbc169e2	-0.005902515
91	0xbe0c7f5c	-0.13720459
92	0xbc979805	-0.018505106
93	0x3dd0bca4	0.1019223
94	0x3dd5390d	0.10411272
95	0x3d8b6558	0.06806439
96	0xbe016af7	-0.1263846
97	0x3df839b1	0.12120379
98	0x3dab2f08	0.0835858
99	0xbd09d372	-0.033648916
100	0xbe17306b	-0.14764564
101	0x3df5e732	0.12006988
102	0xbc93a576	-0.018023234
103	0xbde52cdc	-0.11190197
104	0x3dd86603	0.10566332
105	0xbe172717	-0.14761005
106	0xbe1b595c	-0.15170807
107	0x3dd91f0b	0.10601624
108	0x3ddf4b6c	0.109030575
109	0xbc19c040	-0.009384215
110	0xbc17b705	-0.009259944
111	0xbd76e58c	-0.060277507
112	0xbdf04de8	-0.117336094
113	0xbda31502	-0.07962991
114	0xbddbaf23	-0.10726764
115	0xbc146c60	-0.009059042
116	0xbd634333	-0.055484008
117	0xbca70bb0	-0.020391315
118	0xbdc698d4	-0.096971184
119	0x3d8e62ec	0.069524616
120	0x3d9df64e	0.077129945
121	0xbd44169e	-0.047873132
122	0x3de23b6a	0.110464886
123	0x3cd7a25f	0.026322542
124	0xbe0f94ac	-0.14021558
125	0xbd7241a2	-0.059144624
126	0xbe12bb48	-0.14329255
127	0xbd303bcb	-0.043025773
128	0x3db3b1bc	0.087741345
129	0xbca628a0	-0.020283043
130	0xbd7692f7	-0.06019875
131	0x3ad2136b	0.0016027516
132	0xbd5e8ad1	-0.054331604
133	0xbe210e04	-0.15728003
134	0xbc110b34	-0.008852769
135	0xbe1a6de8	-0.15080988
136	0x3d0ace5d	0.03388821
137	0xbd8248bf	-0.063615315
138	0x3d0bff5c	0.034179077
139	0xbde734ee	-0.112893924
140	0x3cca79b0	0.024716228
141	0x3cb902f0	0.022584409
142	0xbda8fdce	-0.082515344
143	0xbc2b0b7c	-0.01043975
144	0x3d5a43c8	0.053287297
145	0xbce64eac	-0.028113686
146	0xbd534c4b	-0.05158643
147	0x3dc486c4	0.09596017
148	0x3e0fa15d	0.14026399
149	0xbdaf8433	-0.08570137
150	0x3c2b9170	0.010471687
151	0xbd3a6daf	-0.04551476
152	0xbc5a50db	-0.0133249415
153	0x3db5d2f4	0.08878127
154	0xbc9354ad	-0.017984712
155	0xbc8c20e2	-0.017105523
156	0x3d365806	0.04451754
157	0x3de1093c	0.109880894
158	0x3e0fa638	0.14028251
159	0x3d83f5e0	0.06443381
160	0xbdafa695	-0.08576695
161	0xbd59ef74	-0.053206876
162	0xbdea9780	-0.114546776
163	0xbe1f0111	-0.1552775
164	0xbe2144dc	-0.15748924
165	0xbcf7d9df	-0.030255256
166	0x3d4539f6	0.04815098
167	0x3e0cb46d	0.13740702
168	0x3b6971c2	0.0035620783
169	0xbe1fa37a	-0.15589705
170	0xbda1fade	-0.07909177
171	0x3dedf210	0.116184354
172	0x3e0c0372	0.1367319
173	0x3d1b6e80	0.037947178
174	0xbcd8b8d5	-0.026455322
175	0x3de15e5e	0.11004327
176	0x3d13332c	0.035937473
177	0xbde4574f	-0.11149465
178	0xbdbe147c	-0.09281251
179	0xbd42a5f6	-0.047521554
180	0xbd2f3367	-0.04277363
181	0xbdaa2391	-0.08307565
182	0xbd3429ef	-0.043985303
183	0x3dc5b3f9	0.09653468
184	0x3dcfda5b	0.1014907
185	0xbd2607ab	-0.040534656
186	0x3db82a01	0.089923866
187	0x3dd2652a	0.10273202
188	0xbd8aac3c	-0.06771132
189	0x3dfe492d	0.12416301
190	0x3d240500	0.04004383
191	0xbd58756e	-0.052846365
192	0x3e205a53	0.15659456
193	0xbcf7b315	-0.03023676
194	0x3a772886	0.00094283407
195	0x3d57916d	0.052628923
196	0x3c99c31e	0.018769797
197	0x3ceebe30	0.029143423
198	0xbd854d6b	-0.06508907
199	0x3d2ae830	0.041725338
200	0x3cdf2a30	0.027241796
201	0xbcde0156	-0.027100246
202	0xbe0928e3	-0.13394503
203	0xbd5279c1	-0.051385645
204	0x3e1f9e58	0.15587747
205	0x3de2c84e	0.11073361
206	0x3d655011	0.05598456
207	0xbd8270d6	-0.06369178
208	0x3dafefe8	0.0859068
209	0x3dda3e3d	0.10656402
210	0xbdbbbd03	-0.091669105
211	0xbd2188d4	-0.03943713
212	0xbdfe5a33	-0.12419548
213	0xbe1d50f0	-0.15362906
214	0x3e1ae5ad	0.15126677
215	0x3d25797c	0.04039906
216	0xbc5e2f4b	-0.01356108
217	0xbc86803e	-0.016418573
218	0xbb9299a9	-0.004473884
219	0x3e218adb	0.15775625
220	0xbe103573	-0.1408289
221	0x3dea1243	0.114292644
222	0x3d920710	0.07130253
223	0xbc028ba7	-0.007967866
224	0xbd90fb4e	-0.070791826
225	0xbd25b2e4	-0.040453807
226	0xbd96ee86	-0.073697135
227	0x3d59d01d	0.053176988
228	0x3df01618	0.11722964
229	0x3dd7b78e	0.10533057
230	0xbdf83de5	-0.121211804
231	0x3db97625	0.090557374
232	0x3d191326	0.037371777
233	0xbd154e30	-0.03645152
234	0xbde96e1a	-0.11397953
235	0xbda60a97	-0.081074886
236	0x3e0a06cf	0.1347916
237	0x3d006469	0.03134576
238	0xbddbfb51	-0.10741294
239	0xbab15798	-0.0013530133
240	0xbd923bbb	-0.07140299
241	0xbd00f173	-0.031480264
242	0x3d949b5b	0.07256194
243	0xbe14616d	-0.1449029
244	0xbdee6d07	-0.11641889
245	0xbdc42bee	-0.095786914
246	0xbdc61aac	-0.09673056
247	0xbdccd1f6	-0.10000984
248	0x3dcfa7ee	0.10139452
249	0x3e177f3e	0.14794633
250	0xbdfbe2ed	-0.12299142
251	0xbdb04b83	-0.08608153
252	0x3dd3e3f2	0.103462115
253	0x3d9c680d	0.076370336
254	0xbe00efeb	-0.12591521
255	0xbd0b2bd3	-0.03397734

layer1.bias f4 [200]
0	0x3a124a80	0.00055805594
1	0x39a316c5	0.00031106747
2	0x3aac20d5	0.0013132343
3	0xb9ad6ec6	-0.00033079664
4	0xba238d21	-0.00062389864
5	0x3aa5901f	0.0012631452
6	0x39756311	0.00023401926
7	0x3a8ea354	0.0010882416
8	0xbac04cbc	-0.0014671306
9	0xb9cfd7e8	-0.0003964298
10	0xba317ae4	-0.0006770326
11	0x3a6c5b67	0.00090163056
12	0xb9c9c2c2	-0.00038482813
13	0xba0f92ea	-0.0005476909
14	0xbaa4d181	-0.0012574644
15	0xb93676af	-0.00017401086
16	0x3a666ac6	0.0008789714
17	0xbb2870e5	-0.0025702056
18	0x399bf016	0.00029742782
19	0x3ab78099	0.0014000117
20	0xba48e36f	-0.0007663285
21	0xba2c1bb1	-0.00065654056
22	0x39c5716e	0.0003765928
23	0x39b43a8d	0.000343759
24	0xbabdc0f5	-0.0014477061
25	0xb697b9d7	-4.5217853e-06
26	0x3a90fa2d	0.0011060886
27	0x3b013fd8	0.0019721892
28	0x3b11b0a5	0.0022230532
29	0x3833b350	4.2843923e-05
30	0xbab48476	-0.0013772387
31	0xba136a7b	-0.0005623472
32	0x3ab870e1	0.0014071726
33	0xba7114f9	-0.00091965456
34	0x39897458	0.0002621736
35	0x39476802	0.00019016865
36	0x3a212e8f	0.00061486004
37	0xbb35f5c1	-0.002776489
38	0x3a00c19c	0.00049116625
39	0xb8a188b2	-7.70254e-05
40	0x3a7b9d06	0.00095982885
41	0x3a073d34	0.0005158961
42	0x3a11253a	0.0005536858
43	0xb9c60bc9	-0.00037774284
44	0xba169e35	-0.00057456206
45	0xbb056838	-0.0020356309
46	0x39c9b967	0.00038475843
47	0x3ab04d52	0.0013450778
48	0xb916ff8d	-0.00014400315
49	0xb89421c2	-7.063478e-05
50	0xbaa1fce7	-0.0012358696
51	0x3a7ac532	0.00095661276
52	0xb7906526	-1.7213239e-05
53	0x393b75bf	0.00017877574
54	0x39535558	0.00020154321
55	0x3a885a86	0.0010402955
56	0x3a616171	0.0008597589
57	0xb98dcd77	-0.000270467
58	0xba3f7847	-0.00073039945
59	0x3a56eb02	0.0008198471
60	0x39adb5d7	0.00033132613
61	0x3a4db224	0.00078466744
62	0x37d719ab	2.564195e-05
63	0xbae4670c	-0.001742573
64	0xb90afe18	-0.00013255363
65	0xba99cf22	-0.0011734704
66	0x3a8f223d	0.0010920238
67	0xba7227b6	-0.0009237485
68	0xba114fe9	-0.00055432186
69	0x394432bf	0.00018710921
70	0x3acd0063	0.0015640374
71	0xba8c3f7b	-0.0010700071
72	0xba985ac8	-0.0011623735
73	0x39b7c961	0.0003505452
74	0x398b44e7	0.00026563482
75	0x39865acb	0.00025626118
76	0x39920f3f	0.0002785865
77	0xb9a09276	-0.000306267
78	0x39ecf4df	0.0004519587
79	0x38afd4c8	8.384284e-05
80	0xba775f32	-0.00094364875
81	0xb980518d	-0.00024474823
82	0x3ad37f60	0.0016135983
83	0x3987919c	0.00025857694
84	0x39d1100e	0.00039875548
85	0xb8ff90d2	-0.000121863224
86	0x39c93e5f	0.00038384178
87	0x39a5ae11	0.00031600942
88	0x3a517081	0.00079894817
89	0xba23ad69	-0.00062437967
90	0xb9934d54	-0.0002809564
91	0x3a99778c	0.0011708601
92	0x39b448e2	0.00034386577
93	0x3a85a74d	0.0010196954
94	0x3b2a4e08	0.0025986452
95	0xbaa4cd48	-0.0012573386
96	0xba3015e2	-0.0006717128
97	0x381b0fee	3.6969715e-05
98	0xbb3899c6	-0.0028167828
99	0xb90a4a5a	-0.00013188404
100	0x38a261b9	7.742964e-05
101	0xb9bfb60a	-0.0003656599
102	0x3a84234e	0.0010081322
103	0xbad56bcf	-0.001628274
104	0x3a959273	0.0011411443
105	0x394bf7c2	0.00019451886
106	0xb8a90333	-8.059144e-05
107	0xb81649a0	-3.5831355e-05
108	0x3a4b516a	0.0007755967
109	0x3796a077	1.7956116e-05
110	0x3b360a4d	0.0027777136
111	0xba544509	-0.0008097445
112	0x3a9ce1ca	0.0011969146
113	0xbab6b14c	-0.0013938337
114	0xba985436	-0.0011621777
115	0x399b4e75	0.0002962236
116	0x37de6ead	2.6516e-05
117	0xb9ed90ba	-0.00045311992
118	0xbb407703	-0.0029367812
119	0x3ac9524c	0.0015359609
120	0x3a3fe63d	0.000732038
121	0x3a8d6314	0.0010786974
122	0x3a048efc	0.0005056707
123	0x3a382316	0.0007024271
124	0x39a664c1	0.00031737055
125	0x3aa8cfbe	0.0012879295
126	0x38d8b0f4	0.00010332643
127	0xb8aa952d	-8.134018e-05
128	0xb8a8d9b8	-8.0514175e-05
129	0x3752bf22	1.2561477e-05
130	0x3a775320	0.0009434689
131	0x39774191	0.00023580181
132	0x38c321c9	9.3046176e-05
133	0xb8ee4008	-0.00011360651
134	0x3847a7f9	4.7601734e-05
135	0xbadbdd92	-0.0016774407
136	0x3b2abb21	0.002605148
137	0xb8355ce8	-4.324029e-05
138	0xb90ec89b	-0.00013616907
139	0xb9e4cdc7	-0.00043640865
140	0x3a6339b2	0.000866796
141	0xba44ae10	-0.0007502744
142	0xba5a1347	-0.00083189126
143	0xb956d7d4	-0.00020489033
144	0xbad82826	-0.0016491457
145	0xb9acc27e	-0.00032951304
146	0x388815b6	6.489029e-05
147	0x3ad989f6	0.0016596902
148	0x39e3fa24	0.00043483183
149	0x3a16f9cf	0.000575927
150	0xb7ead650	-2.799477e-05
151	0x3a2e9b7c	0.0006660742
152	0x3a7b5541	0.0009587594
153	0xb9ef91f9	-0.0004569439
154	0xba6dd502	-0.0009072573
155	0xb7a1897d	-1.9256719e-05
156	0x3b10b834	0.002208245
157	0x3ab899f6	0.001408397
158	0x38af909b	8.371585e-05
159	0x39d044d5	0.00039724135
160	0x3aa2206a	0.0012369279
161	0xba24f4a5	-0.00062925584
162	0xb9d4fb7a	-0.00040623156
163	0x3ad1456e	0.0015966126
164	0xb98cb39c	-0.000268367
165	0xb8f5f4a0	-0.00011728075
166	0xb9b96597	-0.0003536164
167	0xba3b10f8	-0.00071360124
168	0x3aa4b420	0.0012565888
169	0x3a31f7f5	0.00067889626
170	0xba58a43e	-0.000826422
171	0x39f4c6a0	0.00046687294
172	0xbaee6f37	-0.0018191104
173	0xbaec6a21	-0.0018037
174	0x3a019397	0.0004942952
175	0x3b0ab8b3	0.0021167218
176	0x3b0b12d9	0.002122095
177	0xb7c81a24	-2.385403e-05
178	0xb6a89793	-5.0244357e-06
179	0x39cec09e	0.00039434893
180	0xbae4613b	-0.0017423996
181	0x3a7ece12	0.0009720038
182	0x3a74a73b	0.00093327806
183	0x3a1b6225	0.00059274054
184	0x3a1fe8b4	0.0006100044
185	0xbada4144	-0.0016651531
186	0x3a4b3e7c	0.00077531463
187	0x39becb8c	0.00036391278
188	0x388e94e8	6.7988236e-05
189	0xba1be3f9	-0.00059467513
190	0xb9500561	-0.0001983843
191	0xba998c41	-0.0011714773
192	0x3954ca52	0.00020293266
193	0x38a551aa	7.883024e-05
194	0xba95f2c0	-0.0011440143
195	0x00000000	0.0
196	0x3ab397e2	0.0013701881
197	0x3ae778d7	0.0017659914
198	0x396d7d18	0.00022648682
199	0x3a62c020	0.00086498447

layer2.weight f4 [200, 200]
0	0x3cd76f09	0.026298063
1	0x3d937899	0.072007366
2	0xbdbb3305	-0.091405906
3	0xbde29bf6	-0.110649034
4	0x3c9fe8cc	0.019520186
5	0xbc8afe00	-0.01696682
6	0x3da85a5e	0.08220361
7	0x3c8f7edb	0.017516544
8	0xbd8e02b6	-0.06934111
9	0xbd893e68	-0.06701356
10	0x3c60c963	0.013719889
11	0x3d0882a3	0.03332771
12	0xbde919ac	-0.1138185
13	0x3d81533b	0.06314703
14	0x3de97472	0.11399163
15	0x3db79806	0.08964543
16	0xbb96bd29	-0.0046001864
17	0xbdf61526	-0.120157525
18	0xbd0a5f72	-0.03378243
19	0x3dc955cf	0.0983082
20	0xbdab7741	-0.08372355
21	0xbd7c1e17	-0.061552133
22	0xbd262502	-0.040562637
23	0x3d69eb32	0.057109065
24	0xbb222efc	-0.0024747243
25	0xbdf4f8dc	-0.11961529
26	0x3d31b419	0.043384645
27	0xbbd47b59	-0.0064844307
28	0x3ad9d909	0.0016620468
29	0x3b1f66bc	0.002432271
30	0xbd10711f	-0.03526413
31	0xbd8ca1a1	-0.06866766
32	0x3d64d76b	0.0558695
33	0xbdaef11b	-0.08542081
34	0x3cc0c273	0.02353022
35	0x3cc27a41	0.023739936
36	0x3dc0aa51	0.09407485
37	0x3dbc8736	0.09205477
38	0xbd377b3c	-0.04479526
39	0x3d0e2f9a	0.034713365
40	0x3c4aa69e	0.012368826
41	0xbc960a85	-0.018315563
42	0x3d8587f0	0.06520069
43	0x3decb845	0.11558584
44	0x3c331245	0.010929649
45	0xbd3da21b	-0.046297174
46	0xbb5fc4c4	-0.003414438
47	0x3d2087a0	0.039191842
48	0xbd19ae31	-0.037519637
49	0x3aa2b4fb	0.0012413556
50	0x3cb7406d	0.022369588
51	0x3d13691f	0.035988923
52	0x3db3763c	0.08762786
53	0xbd26e215	-0.040742952
54	0xbdcdd0e1	-0.10049606
55	0xbcfaf0af	-0.030632345
56	0xbdbfb083	-0.09359839
57	0xbd8fdcb3	-0.07024517
58	0xbc9f5762	-0.019450847
59	0x3ba1e756	0.0049409075
60	0x3d8ed1bb	0.06973597
61	0x3d82c47a	0.06385131
62	0x3d6bce62	0.05756987
63	0xbd992594	-0.074778706
64	0x3d516aac	0.05112712
65	0x3d45aa2c	0.04825799
66	0x3ddcba17	0.10777681
67	0x3d9734b9	0.07383103
68	0x3c28a99a	0.010294342
69	0x3df75b38	0.120779455
70	0x3dd140d4	0.10217443
71	0xbdaaa7e8	-0.08332807
72	0x3d9b8b3d	0.07594917
73	0xbc53b047	-0.012920446
74	0xbde208ac	-0.1103681
75	0xbaebfeb8	-0.0018004989
76	0xbdc8a404	-0.097969085
77	0x3d7b03fb	0.061283093
78	0x3c0ddbff	0.008658408
79	0xbc4b7245	-0.012417381
80	0xbca04a14	-0.019566573
81	0xbd76a247	-0.060213353
82	0xbdf7a051	-0.12091125
83	0x3d8f5a99	0.06999702
84	0x3cc82cc1	0.024435403
85	0xbdf538ff	-0.11973762
86	0x3d800590	0.06251061
87	0xbdd63210	-0.104587674
88	0xbc91673d	-0.017749423
89	0x3df17c83	0.11791327
90	0x3c87e8f0	0.016590565
91	0xbd862d5f	-0.065516226
92	0xbdc8f112	-0.098116055
93	0x3d95e7a4	0.073195726
94	0xbda20294	-0.07910648
95	0xbd0bcc5b	-0.034130435
96	0xbd98bf4f	-0.07458364
97	0x3dad7046	0.0846868
98	0xbdea1b1f	-0.11430954
99	0xbc02bc05	-0.007979398
100	0x3b5fb666	0.0034135818
101	0xbd671fad	-0.056426693
102	0x3ddd1d8a	0.1079665
103	0xbdf53586	-0.119730994
104	0xbd0a1d60	-0.03371942
105	0x3d2b5cc5	0.04183652
106	0xbae31aad	-0.0017326676
107	0x3d23ac94	0.039959505
108	0xbdadc8aa	-0.08485539
109	0x3d15dfb9	0.03659031
110	0xbd63f47a	-0.055653073
111	0x3dd1daf7	0.10246842
112	0xbde1fb65	-0.11034278
113	0xbd13fcfd	-0.03612994
114	0xbd942386	-0.07233338
115	0xbdc01a7d	-0.09380052
116	0xbca0a3b1	-0.019609304
117	0xbda146a1	-0.078747995
118	0xbdc38b87	-0.09548097
119	0xbd7f8b35	-0.062388618
120	0xbd51426a	-0.051088728
121	0x3c18b3f1	0.009320245
122	0xbc507167	-0.01272235
123	0x3d906962	0.0705135
124	0x3d7b739d	0.061389554
125	0xbd87d1e9	-0.06631834
126	0xbd3d239b	-0.046176534
127	0xbd8bb3cf	-0.06821405
128	0xbd267287	-0.040636566
129	0xbd988a49	-0.07448251
130	0x3ca0122f	0.01953992
131	0x3da3059b	0.079600535
132	0x3cdf5f08	0.027266994
133	0xbd5508c1	-0.0520103
134	0xbc8bf98b	-0.017086765
135	0xbdc23118	-0.0948202
136	0x3d1353fe	0.035968773
137	0x3dd77681	0.1052065
138	0xbd18b2a5	-0.037279744
139	0x3dc7ae00	0.09749985
140	0x3c45f87d	0.01208317
141	0xbd3e0557	-0.04639181
142	0x3da0b397	0.07846754
143	0xbce52928	-0.027973726
144	0x3d946606	0.07246022
145	0x3cc6dbe4	0.024274774
146	0xbdc59eee	-0.09649454
147	0xbc7857f0	-0.015157685
148	0x3d93c009	0.07214362
149	0xbd625d58	-0.0552648
150	0xbd20d200	-0.03926277
151	0x3dac21a3	0.08404853
152	0x3d9e9e8a	0.07745083
153	0xbd3ad74d	-0.045615483
154	0xbd0421ca	-0.032258786
155	0xbcd45c92	-0.025923047
156	0xbde397b6	-0.11112921
157	0xbde9e1dd	-0.11420033
158	0x3d7ec38f	0.062198218
159	0x3dee1adb	0.11626216
160	0x3db50b68	0.08840066
161	0xbcefb968	-0.029263213
162	0xbc6638f4	-0.014051665
163	0x3d188fe6	0.037246607
164	0xbbee0cd5	-0.0072647133
165	0x3d41ca09	0.047311816
166	0x3decabf0	0.11556232
167	0x3d9c344e	0.07627164
168	0x3dd4b651	0.103863366
169	0xbd256e76	-0.040388547
170	0xbdaf3e2f	-0.085567825
171	0xbcf2e848	-0.029651776
172	0xbdad54b3	-0.08463421
173	0x3dd0b9eb	0.10191711
174	0x3dea14fb	0.11429783
175	0xbdc3fd43	-0.0956979
176	0xbd9dcd61	-0.077051885
177	0x3c4e1399	0.012577915
178	0xbcd6e983	-0.026234394
179	0xbcf9352b	-0.03042086
180	0xbdc0fef8	-0.094236314
181	0x3d4c1525	0.049824852
182	0x3b8b9bd5	0.00426052
183	0xbdef7629	-0.11692459
184	0x3de6e208	0.11273581
185	0x3dc30492	0.09522356
186	0xba96a330	-0.0011492725
187	0x3d8ff596	0.07029264
188	0x3d988d88	0.0744887
189	0xbdd3f7ac	-0.10349974
190	0x3d9a3b89	0.07530887
191	0x3c4cddb2	0.012504028
192	0xbb35b658	-0.0027727094
193	0xbde10770	-0.10987747
194	0x3d83451b	0.06409665
195	0xb9710000	-0.00022983551
196	0x3d868ef0	0.06570232
197	0xbc5c0f0e	-0.013431324
198	0xbb506a44	-0.003180162
199	0xbdbf3b01	-0.09337426
200	0xbd93b4cb	-0.07212218
201	0x3c1dbce8	0.009627558
202	0xbc54aded	-0.01298092
203	0x3db54586	0.08851151
204	0x3d8b91bc	0.06814906
205	0xbc9d8d63	-0.019232458
206	0xbda66b72	-0.08125962
207	0x3cc1cdab	0.02365764
208	0x3d41ff1b	0.04736243
209	0x3c362f9a	0.011119748
210	0xbc8b3099	-0.016990947
211	0x3ddf5aa6	0.10905962
212	0xbdf8a962	-0.12141682
213	0xbcf8e486	-0.030382406
214	0x3dc895c5	0.09794191
215	0xbd9e101a	-0.07717915
216	0xbd009ea4	-0.03140129
217	0x3d269b16	0.040675245
218	0xbd5de5db	-0.054174285
219	0x3d114f0f	0.035475787
220	0xbcc91025	-0.024543831
221	0xbc7c78b9	-0.015409642
222	0xbdd7d565	-0.10538749
223	0xbdb7c7b0	-0.08973634
224	0xbbd1775e	-0.0063924035
225	0xbc5df002	-0.013545992
226	0x3d10e849	0.035377774
227	0x3c6cb53f	0.014447509
228	0x3db5f9cd	0.08885536
229	0x3d9de699	0.07709999
230	0xbdf9838c	-0.12183294
231	0x3d9d3f1b	0.07678052
232	0x3c7dcfaa	0.0154914055
233	0x3d160a37	0.036630835
234	0x3d177a75	0.03698202
235	0x3b734c0b	0.0037124183
236	0x3d85202b	0.06500276
237	0xbd5f4e04	-0.05451776
238	0x3c2fbb33	0.010725784
239	0xbc429cf6	-0.011878243
240	0x3dfae3a7	0.122504525
241	0xbc62cf3e	-0.013843356
242	0xbcf89251	-0.030343207
243	0x3d3125db	0.043248992
244	0x3d9b901d	0.07595847
245	0x3d39f69d	0.045401204
246	0x3d864420	0.065559626
247	0xbbd05efb	-0.006358979
248	0x3c80dbaf	0.015729753
249	0xbdca522c	-0.09878954
250	0xbd824f30	-0.0636276
251	0xbd91db40	-0.07121897
252	0x3cb2e053	0.021835482
253	0x3dee5bc5	0.116385974
254	0x3dbbf21c	0.09177038
255	0x3dc36e9c	0.095425814

layer2.bias f4 [200]
0	0xb987d92e	-0.00025911018
1	0x3a890991	0.0010455122
2	0x3b20e9fa	0.0024553523
3	0x3b16e020	0.0023021773
4	0x3a8a8997	0.001056957
5	0xbab770e7	-0.001399544
6	0x39f0043c	0.00045779522
7	0xb8871029	-6.440312e-05
8	0x3ac78a44	0.0015223701
9	0x3a52433f	0.00080208847
10	0xbae58136	-0.0017509821
11	0x3b19158d	0.0023358793
12	0x39e34b33	0.00043352842
13	0x3a481c2d	0.0007633593
14	0xbb3453c2	-0.0027515744
15	0x3a26ad8a	0.0006358257
16	0xba053479	-0.00050813664
17	0xba300d5d	-0.00067158585
18	0x3ad3a703	0.0016147796
19	0x3aa9eca5	0.0012964202
20	0xbaaf8098	-0.0013389764
21	0xba8c97d1	-0.0010726397
22	0x38ee2e60	0.000113573624
23	0x39c57a8c	0.00037666073
24	0x3ac5ce8d	0.0015091464
25	0xbafd3473	-0.0019317999
26	0xbabeccc2	-0.0014556872
27	0xba32d376	-0.0006821671
28	0x37fc65bc	3.0088115e-05
29	0x39c15f90	0.00036883028
30	0xba81290b	-0.0009854151
31	0x3a4b1bac	0.0007747959
32	0xba07cbf2	-0.00051802315
33	0x3b58f419	0.0033104478
34	0x3925f107	0.00015825416
35	0xb91c5a6d	-0.00014911006
36	0x39306c56	0.00016825026
37	0xb9970d47	-0.00028810857
38	0x38f85228	0.00011840864
39	0xba682255	-0.00088552135
40	0x3b3da595	0.0028937806
41	0xb9117a33	-0.000138738
42	0xbb3ed772	-0.0029120115
43	0x3b385ba9	0.0028130806
44	0x3af88ffc	0.0018963809
45	0x3a1a434f	0.00058846636
46	0x3aa7ab6f	0.001279218
47	0xbb14386d	-0.002261664
48	0xba4654d0	-0.00075657386
49	0x3ad5df5d	0.0016317178
50	0x00000000	0.0
51	0x3a0232f7	0.0004966701
52	0x3b828786	0.003983441
53	0xbb0bb38d	-0.0021316737
54	0xbac53be1	-0.0015047753
55	0x3a5a47e7	0.00083267543
56	0xbaa9ff40	-0.0012969747
57	0x3810a9a3	3.4490262e-05
58	0xb896d0a7	-7.191422e-05
59	0x393d8679	0.0001807454
60	0x3b7ee951	0.0038896392
61	0x00000000	0.0
62	0x3b1e1796	0.0024122945
63	0x3a5e8691	0.000848868
64	0xba8f7ceb	-0.0010947263
65	0x3a939fbd	0.0011262816
66	0xb97e067a	-0.0002422574
67	0x3b1d1993	0.0023971542
68	0x374a13fc	1.2044791e-05
69	0x3972df8a	0.00023162193
70	0x3a05ab8c	0.000509911
71	0x3a6f404a	0.0009126706
72	0x38cf3604	9.8805904e-05
73	0xb987c7be	-0.00025898026
74	0x39c394c3	0.00037304134
75	0xbb098a15	-0.0020986844
76	0xb9471c6b	-0.00018988705
77	0xbadb384c	-0.0016725152
78	0xba82cc72	-0.0009979142
79	0xba05fec4	-0.00051115104
80	0x390a82e8	0.00013209472
81	0xba25dfd5	-0.0006327604
82	0xba684ed8	-0.0008861846
83	0x3b120d69	0.0022285825
84	0xb9fca63e	-0.00048189046
85	0xb9ce3770	-0.00039332686
86	0x00000000	0.0
87	0x3b1b8096	0.0023727766
88	0xbb30f982	-0.0027004187
89	0x3a91a6d0	0.0011112336
90	0x3858985b	5.1640305e-05
91	0x3a48a6fd	0.0007654278
92	0xba20e0a8	-0.0006136992
93	0x38edec8f	0.00011345103
94	0xba39cab3	-0.00070873945
95	0x3a23749b	0.0006235332
96	0x3a270cf2	0.00063724734
97	0x3a528e70	0.0008032089
98	0x3b09a36a	0.0021001943
99	0xbad00647	-0.0015871011
100	0xbb0c1f5f	-0.0021381003
101	0xba2639ba	-0.00063409994
102	0xb9c268f8	-0.0003708077
103	0xb79dda7d	-1.88176e-05
104	0xba172064	-0.00057650195
105	0x3a963e36	0.0011462632
106	0x3a723d82	0.0009240733
107	0x3a6de7f2	0.0009075395
108	0x39a07a4f	0.00030608705
109	0x392d8e76	0.00016551637
110	0x3a5e14c3	0.00084717217
111	0xba15edce	-0.00057193346
112	0xb81bac5f	-3.7115413e-05
113	0x39e09b60	0.00042840373
114	0xb8bd623d	-9.0305206e-05
115	0xbb17f16d	-0.0023184672
116	0xbb050517	-0.0020297223
117	0xb8571d85	-5.1287487e-05
118	0xba9401dd	-0.0011292059
119	0x3aefd886	0.0018298782
120	0x39d3cdf9	0.00040398518
121	0xb9e65c78	-0.00043937913
122	0x3a977d11	0.0011557658
123	0x385b79e0	5.2327174e-05
124	0x3a71cbe2	0.00092238013
125	0xba6e6501	-0.000909403
126	0x3b3aa476	0.0028479374
127	0xbb68d981	-0.0035530033
128	0x3a501194	0.00079371897
129	0xb887ed68	-6.481522e-05
130	0xba116a77	-0.00055471755
131	0xba228ff6	-0.00062012614
132	0x3a844e9a	0.0010094226
133	0xbad1dd36	-0.001601136
134	0xba9a57c5	-0.0011775425
135	0x39d74bc0	0.00041064434
136	0x3a5cf398	0.0008428632
137	0x3a9158e9	0.0011089119
138	0xba48ce64	-0.0007660149
139	0x39b2ea34	0.000341253
140	0xbb32ac1e	-0.0027263234
141	0x3ad59251	0.0016294216
142	0x39aaf639	0.00032608377
143	0xb961599a	-0.00021491051
144	0x3abee60f	0.0014564412
145	0xb9322991	-0.00016990888
146	0xba21fcaf	-0.00061793154
147	0xb910908c	-0.00013786758
148	0xbad9c418	-0.0016614227
149	0x3ba30145	0.0049745166
150	0x3a54f93f	0.0008124299
151	0x3ba36ea7	0.004987556
152	0xbb3dd871	-0.002896812
153	0xb99ea84a	-0.00030261494
154	0xb9eb066e	-0.00044827483
155	0xb9bc4e03	-0.00035916278
156	0x3ac526c2	0.0015041458
157	0xbae9c620	-0.0017835535
158	0x393df25a	0.00018114728
159	0x3b91f4b2	0.004454219
160	0x3afec8bd	0.0019438487
161	0x3b05965f	0.0020383818
162	0x3b452978	0.0030084532
163	0x3aa13d7c	0.0012301649
164	0xba654524	-0.00087459595
165	0xbb8d4285	-0.0043109083
166	0xb9a427f3	-0.00031310282
167	0x3ab7d68b	0.0014025731
168	0xbacf00e4	-0.0015793112
169	0xb88566f7	-6.361113e-05
170	0xba4a39c0	-0.0007714294
171	0x398ad15e	0.00026477402
172	0xbb26bf33	-0.0025443553
173	0x3b2330b4	0.0024900855
174	0xbaa56ba1	-0.0012620577
175	0xbaddaaf9	-0.0016911916
176	0xb88780da	-6.461302e-05
177	0xba74244d	-0.00093132706
178	0x3b7b5f06	0.00383562
179	0xbadd4936	-0.001688278
180	0x3a5cace9	0.00084180996
181	0x3a595576	0.0008290628
182	0xbaee8e21	-0.0018200317
183	0xbb0beec5	-0.0021352035
184	0xbae250f1	-0.0017266554
185	0xbb666625	-0.0035156098
186	0xbb00cb82	-0.001965255
187	0x3ae66ee6	0.0017580658
188	0x39e99a27	0.00044556076
189	0xbba4c7ab	-0.005028685
190	0xbb1a5c89	-0.002355369
191	0x3964b170	0.00021809875
192	0x3a9a813b	0.0011787781
193	0xb937236a	-0.00017465433
194	0xba020709	-0.0004960155
195	0x3a0af29f	0.00053004356
196	0x3b588cd8	0.0033042934
197	0xb868c3ab	-5.549534e-05
198	0xbad385c3	-0.0016137887
199	0xb83d70ed	-4.516628e-05

mu.weight f4 [4, 200]
0	0x3dcf37dc	0.10118076
1	0x3d7dbaf4	0.06194587
2	0xbdaacbe5	-0.08339671
3	0xbb0d4289	-0.002155455
4	0xbe28bf8b	-0.16479318
5	0xbd37b493	-0.044849943
6	0x3d9f3417	0.07773607
7	0x3e2c0751	0.16799666
8	0x3dd1fa92	0.102528706
9	0xbe1802cf	-0.14844821
10	0xbd992ab8	-0.07478851
11	0xbdc612f0	-0.09671581
12	0x3e0c7067	0.13714753
13	0x3bff19f4	0.0077850763
14	0x3de4e14c	0.111757845
15	0xbd8656e7	-0.06559544
16	0x3e288992	0.16458729
17	0x3e02cc5c	0.1277327
18	0x3d9c9689	0.076459
19	0x3dcfc270	0.10144508
20	0x3d854893	0.06507983
21	0x3d903f01	0.07043267
22	0x3ca74676	0.02041934
23	0xbdba0dbf	-0.09084653
24	0x3cd2fa76	0.025754195
25	0x3da53a6c	0.08067784
26	0xbb673539	-0.0035279526
27	0x3e015bec	0.12632722
28	0xbdd6635c	-0.1046817
29	0xbddd6ec5	-0.10812143
30	0x3e188168	0.14893115
31	0xbd87cf54	-0.066313416
32	0xbe25d910	-0.16196084
33	0x3a98b796	0.0011651393
34	0x3ca58e3c	0.020209424
35	0xbe1ac71c	-0.15115017
36	0xbe16a760	-0.14712286
37	0x3ce6403c	0.028106801
38	0xbd976931	-0.073931105
39	0xbd227a08	-0.03966716
40	0xbd167876	-0.036735974
41	0xbe14b9c9	-0.14523996
42	0xbdc6c61c	-0.09705755
43	0x3e02d084	0.12774855
44	0xbdae3d01	-0.08507729
45	0xbe0b92bd	-0.13630195
46	0x3cdc69b1	0.026905866
47	0xbd74647f	-0.059666153
48	0xbde78e42	-0.113064304
49	0xbcf504b1	-0.029909464
50	0x3e2a0b0d	0.16605778
51	0xbd95bd0d	-0.07311449
52	0xbd9d8146	-0.076906726
53	0x3db13bfe	0.08654021
54	0x3d30a217	0.04312333
55	0xbe08f955	-0.13376363
56	0x3dde9eff	0.1087017
57	0xbd9cd962	-0.0765865
58	0x3d176e73	0.036970567
59	0x3de4aa14	0.11165252
60	0xbe2c7d19	-0.16844596
61	0x3d787c8c	0.060665652
62	0xbe132e6b	-0.14373176
63	0xbd394c7e	-0.045238964
64	0xbce70552	-0.02820078
65	0x3dcad324	0.09903553
66	0x3e04b617	0.12960087
67	0xbd9b7fbb	-0.07592722
68	0x3da8e517	0.082468204
69	0xbd535116	-0.051591
70	0xbdf362e9	-0.118841
71	0x3ded9b4e	0.11601888
72	0x3c261b66	0.010138368
73	0xbcbd7bee	-0.023130383
74	0xbd6448bf	-0.05573344
75	0x3e262fed	0.1622922
76	0xbc3ff74d	-0.011716676
77	0xbdb8ea76	-0.09029095
78	0xbe069bdc	-0.13145393
79	0x3dc9fd61	0.09862781
80	0xbdaf49fa	-0.08559032
81	0x3d058250	0.03259498
82	0x3db1c91b	0.08680936
83	0xbd21f5a1	-0.03954089
84	0x3dea7eb4	0.11449948
85	0x3c68ed5e	0.014216749
86	0xbe1bb346	-0.15205106
87	0xbe0472b2	-0.12934378
88	0x3d9f9087	0.07791238
89	0xbe023c52	-0.12718323
90	0x3c731fcf	0.014839127
91	0x3c877e1d	0.016539628
92	0x3d1da8d1	0.038491074
93	0xbd5bbcb7	-0.05364677
94	0x3b6d2066	0.003618264
95	0x3da4c18e	0.0804473
96	0x3e238000	0.15966797
97	0xbdc11fae	-0.094298705
98	0xbe0792d9	-0.13239612
99	0x3e004135	0.12524875
100	0xbd277823	-0.040886056
101	0x3e1a0c30	0.15043712
102	0x3c736b3f	0.014857112
103	0xbdb2a803	-0.08723452
104	0xbd5a131a	-0.053240873
105	0xbe05aadb	-0.13053457
106	0x3dc59fca	0.09649618
107	0x3e1614dd	0.14656396
108	0xbe09fab4	-0.13474542
109	0x3ca40f07	0.020026697
110	0xbc0df585	-0.008664493
111	0xbc5fb478	-0.013653867
112	0x3dca7ab2	0.098866835
113	0x3d791e92	0.06082017
114	0xbcda8e9e	-0.026679333
115	0x3d4457d1	0.04793531
116	0xbdd407c3	-0.10353043
117	0x3b1e0830	0.0024113767
118	0xbdf231e8	-0.11825925
119	0xbde2de8d	-0.110776044
120	0xbd54f2e4	-0.05198945
121	0x3e080a93	0.13285284
122	0x3c938be6	0.018011045
123	0x3d5d05fb	0.05396078
124	0xbcf19907	-0.029491914
125	0xbd5b7e9d	-0.053587545
126	0xbdc52383	-0.09625914
127	0x3e08cfc6	0.1336051
128	0x3cf607e1	0.030033054
129	0xbe186fa0	-0.14886332
130	0xbd80a617	-0.06281679
131	0xbca4a254	-0.020096935
132	0x3d8bcc23	0.06826045
133	0x3dfa4368	0.12219888
134	0x3df4d205	0.119541205
135	0xbdf399ca	-0.11894567
136	0xbdcfcddc	-0.101466864
137	0xbe21f04a	-0.15814319
138	0x3d2281f7	0.039674725
139	0xbca19671	-0.019725056
140	0x3dbbe6cb	0.0917488
141	0x3d377de8	0.044797808
142	0xbe062f4e	-0.13103983
143	0xbdb8a356	-0.09015529
144	0xbd887f28	-0.06664878
145	0xbd0a740f	-0.03380209
146	0x3e098524	0.13429695
147	0x3d76f9a9	0.06029669
148	0xbd53b20d	-0.051683474
149	0xbe10e5c9	-0.14150156
150	0xbdd732a3	-0.10507705
151	0xbd96defc	-0.0736675
152	0xbcdccae1	-0.026952209
153	0x3b750d49	0.0037391952
154	0x3de240ca	0.11047514
155	0xb9bfb14e	-0.0003656246
156	0x3dfe5421	0.1241839
157	0x3e1cb82c	0.15304631
158	0x3d88d4b9	0.066811986
159	0xbc36852b	-0.011140148
160	0xbdae7fc6	-0.085204646
161	0xbdf6b837	-0.12046855
162	0xbe1ce5ae	-0.15321991
163	0x3d2a41da	0.041566707
164	0x3e0c5ead	0.13707991
165	0xbd9a3b82	-0.075308815
166	0xbccdb509	-0.025110738
167	0xbdb2e959	-0.08735914
168	0x3d869ab3	0.06572475
169	0xbd1182f8	-0.035525292
170	0x3d67cd7b	0.056592446
171	0xbddb8b22	-0.10719897
172	0x3e1769e2	0.14786485
173	0xbe2254ee	-0.1585271
174	0xbe14effa	-0.14544669
175	0x3e051943	0.12997918
176	0xbcfbcb98	-0.03073673
177	0xbe135380	-0.14387321
178	0xbe255c56	-0.16148505
179	0x3df9d56a	0.121989086
180	0xbd7b6259	-0.06137309
181	0x3d9d278a	0.07673557
182	0xbda983fa	-0.08277126
183	0x3ddb0c05	0.10695652
184	0x3dbf7578	0.09348577
185	0x3e1253d2	0.14289787
186	0xbe268324	-0.16260964
187	0x3d37791d	0.044793237
188	0x3db40f08	0.087919295
189	0x3e20f487	0.1571828
190	0x3d42600d	0.047454882
191	0x3de96c59	0.11397619
192	0xbdb15d29	-0.08660347
193	0x3da62f1c	0.08114454
194	0xbdad41a8	-0.084597886
195	0xbc5070ae	-0.012722177
196	0x3da1f36d	0.07907758
197	0x3d782402	0.060581215
198	0xbb3c0841	-0.0028691443
199	0x3deaef6e	0.11471449
200	0x3d89f482	0.06736089
201	0xbe0fee15	-0.14055665
202	0x3dbe3d99	0.092890926
203	0xbd3470cd	-0.044052888
204	0xbdea723c	-0.1144757
205	0x3dab3370	0.0835942
206	0xbe023496	-0.12715372
207	0xbe075528	-0.13216078
208	0x3d7049b5	0.058664043
209	0x3dfc97c2	0.12333633
210	0x3e032386	0.1280652
211	0xbddbf634	-0.10740319
212	0xbe0c5b4f	-0.13706706
213	0x3da2e324	0.0795348
214	0xbdf25262	-0.118321195
215	0xbd4cdc32	-0.050014682
216	0x3dd5d789	0.10441501
217	0xbd25a797	-0.04044303
218	0xbd66de25	-0.056364197
219	0x3df299e0	0.118457556
220	0x3daa09d2	0.08302654
221	0x3d84125e	0.06448816
222	0x3cc857f2	0.024455998
223	0xbcbb6365	-0.022874543
224	0xbda1ba17	-0.07896822
225	0x3db89975	0.090136446
226	0x3e029f66	0.12756118
227	0xbe23e9c1	-0.16007139
228	0xbdb6df5a	-0.0892932
229	0xbd707956	-0.058709465
230	0xbdb62b09	-0.08894927
231	0x3d60c56a	0.05487577
232	0x3c84ee83	0.016227013
233	0xbe273517	-0.16328846
234	0xbcf0802b	-0.02935799
235	0xbca9c081	-0.020721676
236	0x3deff81b	0.11717244
237	0xbdf907f2	-0.121597186
238	0xbb2b6155	-0.0026150544
239	0x3d6a3926	0.057183407
240	0xbe12b079	-0.14325131
241	0xbd5e8cea	-0.054333605
242	0x3d8ea380	0.06964779
243	0xbe28a091	-0.16467501
244	0xbd0c4ddb	-0.034253936
245	0x3dcc43a0	0.09973836
246	0xbe265f15	-0.16247208
247	0x3da9de7d	0.082943894
248	0xbe290e2a	-0.1650931
249	0xbd998c79	-0.07497496
250	0x3c332020	0.010932952
251	0xbe1af982	-0.15134242
252	0xbd522c42	-0.05131174
253	0xbd941e19	-0.07232303
254	0x3c988bea	0.018621404
255	0x3d85c663	0.0653198

mu.bias f4 [4]
0	0xbbec2b7c	-0.007207332
1	0xbc32b5fa	-0.010907644
2	0xbc8d176c	-0.017223082
3	0x3bac637f	0.0052608843
