llirl_sumo/saves/sumo_single_intersection/policies_final.pth (torch, 197245 bytes, 7 tensors)

sigma f4 [4]
0	0xbcc0e454	-0.023546375
1	0x3a4f913a	0.0007918064
2	0x3d136c1c	0.035991773
3	0x3ba8915d	0.005144282

layer1.weight f4 [200, 36]
0	0x3d68cf9a	0.05683861
1	0x3e1f96d6	0.15584883
2	0xbb46bd26	-0.0030325144
3	0x3cf5c0ce	0.029999163
4	0x3d3729c6	0.044717573
5	0x3d720db7	0.05909511
6	0xbd6ca20b	-0.057771724
7	0x3d9e8f4b	0.07742175
8	0xbd1a0690	-0.037603915
9	0x3dbc8565	0.092051305
10	0xbcd975ec	-0.026545487
11	0x3d716e1c	0.0589429
12	0x3dd349d9	0.1031682
13	0xbddeff45	-0.108885325
14	0x3d4a4318	0.04938039
15	0x3ce17ed8	0.027526304
16	0xbdf9c477	-0.12195676
17	0xbccfc011	-0.02536014
18	0x3b855fc0	0.004070252
19	0x3e02db1c	0.12778896
20	0xbd9de02e	-0.077087745
21	0x3decd1fa	0.11563487
22	0xbd87dff2	-0.06634511
23	0x3d8afbcf	0.0678631
24	0x3d0cfad6	0.034418903
25	0x3dd88469	0.1057213
26	0x3dcb8085	0.099366225
27	0xbe11c869	-0.14236607
28	0xbbf96e8f	-0.0076120566
29	0xbe19459c	-0.1496796
30	0x3af6b3c0	0.001882188
31	0xbdc27f91	-0.094969876
32	0x3e0f5ebf	0.14000987
33	0x3da5964e	0.08085309
34	0xbd9bd3ef	-0.076087825
35	0x3cc5eead	0.024161661
36	0xbdc40261	-0.09570766
37	0xbe185365	-0.14875562
38	0x3da7580e	0.08171092
39	0xbce824b0	-0.028337806
40	0xbb17aec0	-0.002314493
41	0xbad376dc	-0.0016133445
42	0x3d3e7158	0.04649481
43	0x3da4687c	0.08027741
44	0xbd69778b	-0.05699877
45	0xbc8048b0	-0.01565966
46	0xbda474eb	-0.08030113
47	0xbd9c150d	-0.076212026
48	0xbd5c3eb8	-0.05377075
49	0x3cd91f49	0.026504176
50	0xbdf0c933	-0.11757126
51	0xbab07447	-0.0013462388
52	0x3e04187f	0.1289997
53	0xbe0f6953	-0.14005022
54	0x3c9dd3f3	0.019266104
55	0x3dd9159d	0.105998255
56	0x3c8633da	0.016382147
57	0x3dbc148e	0.09183608
58	0xbdb61903	-0.08891489
59	0x3c01564c	0.00789411
60	0xbd457109	-0.0482035
61	0x3c123f71	0.008926258
62	0xbced54ec	-0.028971158
63	0x3cb8550b	0.02250149
64	0x3e14047b	0.14454834
65	0xbd2aac01	-0.041667942
66	0x3d065276	0.032793485
67	0xbdd50210	-0.10400784
68	0x3dbee1b7	0.093203954
69	0x3d160f72	0.036635824
70	0xbdc7edd4	-0.09762159
71	0x3de852bb	0.113439046
72	0xbdbe61eb	-0.0929602
73	0xbdf62e78	-0.12020582
74	0xbe1a0757	-0.15041862
75	0xbdb1e4e9	-0.08686239
76	0xbcf899ef	-0.030346839
77	0xbd957ff5	-0.072997965
78	0x3e1e5e48	0.15465653
79	0xbe117bd6	-0.14207396
80	0xbcab3044	-0.020897038
81	0xbdde4223	-0.10852458
82	0x3e2043a5	0.15650804
83	0xbd35842e	-0.04431551
84	0xbe0f05d2	-0.13967064
85	0x3d96400e	0.07336436
86	0xbda6f0f3	-0.08151426
87	0x3d9e403c	0.077270955
88	0x3e2212d6	0.15827498
89	0xbcfd1d94	-0.030897893
90	0xbbc04423	-0.0058674975
91	0xbe0c86c9	-0.13723291
92	0xbc96c56c	-0.018404685
93	0x3dd0cb19	0.10194988
94	0x3dd52d8a	0.104090765
95	0x3d8b55a1	0.06803442
96	0xbe0163bb	-0.126357
97	0x3df82e2e	0.12118183
98	0x3dab1f51	0.083555825
99	0xbd09b683	-0.033621322
100	0xbe17362d	-0.1476676
101	0x3df5d77b	0.1200399
102	0xbc93e801	-0.018054964
103	0xbde543d4	-0.11194578
104	0x3dd87f4f	0.10571157
105	0xbe172f6a	-0.14764181
106	0xbe1b64d6	-0.15175185
107	0x3dd93857	0.10606449
108	0x3ddf4b6c	0.109030575
109	0xbc19c040	-0.009384215
110	0xbc18137a	-0.009281987
111	0xbd76e58c	-0.060277507
112	0xbdf04de8	-0.117336094
113	0xbda3208e	-0.07965194
114	0xbddbaf23	-0.10726764
115	0xbc146c60	-0.009059042
116	0xbd62f59c	-0.055410013
117	0xbca70bb0	-0.020391315
118	0xbdc698d4	-0.096971184
119	0x3d8e89b7	0.06959861
120	0x3d9df64e	0.077129945
121	0xbd44169e	-0.047873132
122	0x3de26235	0.11053888
123	0x3cd79b68	0.02631922
124	0xbe0f9589	-0.14021887
125	0xbd72b5b0	-0.059255302
126	0xbe12bc25	-0.14329584
127	0xbd303f46	-0.043029092
128	0x3db377b4	0.08763066
129	0xbca63f0e	-0.020293739
130	0xbd769e2e	-0.060209446
131	0x3ad3290e	0.0016110258
132	0xbd5e9608	-0.0543423
133	0xbe2110d0	-0.1572907
134	0xbc10e880	-0.008844495
135	0xbe1a70b4	-0.15082055
136	0x3d0ac326	0.033877514
137	0xbd824468	-0.06360704
138	0x3d0bff5c	0.034179077
139	0xbde734ee	-0.112893924
140	0x3cca94f7	0.024729235
141	0x3cb902f0	0.022584409
142	0xbda8fdce	-0.082515344
143	0xbc2ad4ef	-0.010426744
144	0x3d5a3649	0.053274427
145	0xbcece01e	-0.028915461
146	0xbd533175	-0.051560838
147	0x3dc48004	0.095947295
148	0x3e0ecf2d	0.13946219
149	0xbdaf76c9	-0.08567578
150	0x3c2a8be5	0.01040933
151	0xbd3b0629	-0.04566017
152	0xbc592ae8	-0.013254859
153	0x3db5b241	0.0887189
154	0xbc9485a1	-0.018130125
155	0xbc8b8dea	-0.017035443
156	0x3d3616a2	0.044455178
157	0x3de0bcfd	0.10973547
158	0x3e0fb898	0.1403526
159	0x3d83f6f1	0.06443585
160	0xbdaf9d64	-0.08574942
161	0xbd5a355c	-0.053273544
162	0xbdea966f	-0.11454474
163	0xbe1efc78	-0.15525997
164	0xbe215656	-0.15755591
165	0xbcf81613	-0.030283963
166	0x3d456066	0.048187636
167	0x3e0cbde7	0.13744317
168	0x3b679028	0.0035333727
169	0xbe1f99de	-0.1558604
170	0xbda1e7eb	-0.07905563
171	0x3dede301	0.11615563
172	0x3e0c0d0e	0.13676855
173	0x3d1b9468	0.037983328
174	0xbcd9511f	-0.02652794
175	0x3de04250	0.10950148
176	0x3d1240ba	0.03570626
177	0xbde47d62	-0.111567274
178	0xbdbf308a	-0.0933543
179	0xbd439868	-0.047752768
180	0xbd2f2d69	-0.042767916
181	0xbdaac00c	-0.08337411
182	0xbd34a8f5	-0.044106442
183	0x3dc5b6f6	0.09654038
184	0x3dcf3de0	0.101192236
185	0xbd2686b1	-0.040655795
186	0x3db7e699	0.0897953
187	0x3dcfbd79	0.10143561
188	0xbd8a9b1b	-0.06767865
189	0x3dfe05c5	0.12403444
190	0x3d1eb5a1	0.038747434
191	0xbd58532e	-0.0528137
192	0x3e2038a0	0.156466
193	0xbd0128eb	-0.031533163
194	0x3a7fb8b2	0.0009755
195	0x3d57801b	0.052612405
196	0x3c99a4c9	0.018755333
197	0x3cf1a676	0.02949832
198	0xbd855612	-0.06510557
199	0x3d2ad903	0.041710865
200	0x3ce21276	0.027596693
201	0xbcddf02c	-0.027092062
202	0xbe09269a	-0.13393632
203	0xbd52ba95	-0.05144747
204	0x3e1fa07b	0.15588562
205	0x3de2ccda	0.110742286
206	0x3d650f3d	0.055922735
207	0xbd826c8c	-0.0636836
208	0x3daff474	0.085915476
209	0x3dda1dd4	0.106502205
210	0xbdbbd1b1	-0.09170855
211	0xbd230b07	-0.03980544
212	0xbdfe6c3e	-0.12422989
213	0xbe1d5b49	-0.15366854
214	0x3e1a851e	0.15089843
215	0x3d255565	0.04036464
216	0xbc5f6a58	-0.013636194
217	0xbc879465	-0.016550252
218	0xbb98c3c3	-0.0046620085
219	0x3e21772c	0.15768117
220	0xbe1057f9	-0.14096059
221	0x3de9afa0	0.11410451
222	0x3d920842	0.07130481
223	0xbc027059	-0.007961356
224	0xbd90fb6f	-0.07079207
225	0xbd25b082	-0.040451534
226	0xbd96eb1d	-0.07369063
227	0x3d59cfdb	0.053176742
228	0x3df0174a	0.11723192
229	0x3dd7baf7	0.105337076
230	0xbdf83e06	-0.12121205
231	0x3db975f9	0.090557046
232	0x3d19118e	0.037370257
233	0xbd15732a	-0.036486782
234	0xbde96e46	-0.11397986
235	0xbda60b62	-0.0810764
236	0x3e09fd91	0.13475634
237	0x3d006418	0.031345457
238	0xbddbfb7d	-0.10741327
239	0xbab57cfe	-0.0013846455
240	0xbd923be7	-0.07140332
241	0xbd00f1c4	-0.031480566
242	0x3d948ac3	0.07253029
243	0xbe146183	-0.14490323
244	0xbdee6d33	-0.11641922
245	0xbdc43c86	-0.095818564
246	0xbdc61b59	-0.09673185
247	0xbdccd2a3	-0.10001113
248	0x3dcfb2f4	0.101415545
249	0x3e177eea	0.14794508
250	0xbdfbe39a	-0.12299271
251	0xbdb0407d	-0.0860605
252	0x3dd3e941	0.10347224
253	0x3d9d0813	0.07667556
254	0xbe00e84d	-0.12588616
255	0xbd0b2136	-0.03396722

layer1.bias f4 [200]
0	0x3ae63d5d	0.0017565895
1	0x38f47e9d	0.0001165841
2	0x3aa20b22	0.0012362937
3	0xb98ad40d	-0.000264794
4	0xba86c58b	-0.0010282261
5	0x3a111a82	0.0005535261
6	0x38a4ec40	7.8641344e-05
7	0x3ad96266	0.0016585111
8	0xbaba327c	-0.0014205719
9	0xba90a604	-0.0011035805
10	0xbababc48	-0.0014246786
11	0x3ad77960	0.0016439371
12	0xb9471e17	-0.00018989328
13	0xba81d806	-0.0009906299
14	0xbb0c394c	-0.0021396456
15	0xb9b7d1dd	-0.0003506084
16	0x3a812922	0.0009854177
17	0xbb3b4b41	-0.002857879
18	0x3a9d4f88	0.0012001852
19	0x3adea173	0.0016985371
20	0xbaa84e0e	-0.0012840645
21	0xba94def9	-0.0011357955
22	0x39979898	0.00028914656
23	0x39ac3c8e	0.00032851513
24	0xbb276d1f	-0.002554722
25	0xb892f250	-7.006957e-05
26	0x3a9cad1e	0.0011953448
27	0x3b328a9a	0.0027243258
28	0x3b5e7354	0.0033943253
29	0xb9a2ccf1	-0.0003105174
30	0xbae4d655	-0.0017458895
31	0xba2bccac	-0.0006553631
32	0x3ad0c929	0.0015929091
33	0xbb12128c	-0.0022288887
34	0xb92c51f6	-0.00016433731
35	0x389f8844	7.607092e-05
36	0x39f3f674	0.00046532194
37	0xbb553ea8	-0.0032538567
38	0xb694d284	-4.435251e-06
39	0xb96bc669	-0.0002248526
40	0xb26e2a1f	-1.38630005e-08
41	0x37354328	1.0804077e-05
42	0x3a209f41	0.00061272463
43	0xb98d10ca	-0.00026906125
44	0xb80a2e0d	-3.2944652e-05
45	0xbb1ae347	-0.0023634003
46	0x39d4834e	0.0004053362
47	0x3af1ab0d	0.0018437818
48	0x39d22d4b	0.00040088067
49	0xb92cb58f	-0.00016470834
50	0xbaa0ea6e	-0.0012276897
51	0x3a86f4b9	0.0010296322
52	0x3854da2f	5.0747938e-05
53	0xb8710d84	-5.7471465e-05
54	0xb9b2f57a	-0.000341337
55	0x3aa9e74f	0.0012962612
56	0x3aaad90d	0.0013034657
57	0xba927f8d	-0.0011176929
58	0xba58ef98	-0.00082754483
59	0x3a912eb1	0.0011076537
60	0xb979e443	-0.00023831525
61	0x39b1ef80	0.00033938512
62	0xb9de273a	-0.00042372366
63	0xbb2bcd09	-0.002621474
64	0xb99fc354	-0.00030472374
65	0xbad15a84	-0.001597241
66	0x3afae9e4	0.0019143191
67	0xbab5475c	-0.0013830471
68	0xb9bd7c1e	-0.00036141364
69	0x399f3af0	0.00030370755
70	0x3b14ecd7	0.0022724175
71	0xba4557c6	-0.0007528033
72	0xbacafcd5	-0.0015486727
73	0x3a7c4fa3	0.0009624904
74	0x3a40a0f6	0.0007348204
75	0x3951a6cc	0.0001999393
76	0x39b38ccc	0.00034246442
77	0xb97a0cfa	-0.00023846692
78	0x3a6c5d41	0.00090165815
79	0x3825f3e5	3.956621e-05
80	0xb996af76	-0.00028740958
81	0xb823b43d	-3.903009e-05
82	0x3b017f10	0.0019759573
83	0x39c16840	0.000368895
84	0x3a600bcd	0.00085466803
85	0xba233cb8	-0.00062270043
86	0x39a01466	0.00030532776
87	0xb86a32e6	-5.583735e-05
88	0x3abd30a8	0.0014434056
89	0x39bdb66e	0.0003618481
90	0xb99032a8	-0.00027503562
91	0x3aad19d2	0.0013206548
92	0x381131f0	3.4617202e-05
93	0x3a284340	0.00064187124
94	0x3b62fa61	0.00346341
95	0xbab4814e	-0.0013771446
96	0xba3ce3f3	-0.0007205598
97	0x370833cc	8.118292e-06
98	0xbb447da3	-0.0029982112
99	0xb965fae9	-0.00021932613
100	0xb99d5627	-0.00030009562
101	0xb81e0606	-3.7675745e-05
102	0x3a73c535	0.00092991005
103	0xbafafecc	-0.0019149422
104	0x3ac03abb	0.001466594
105	0x39e0ca25	0.0004287522
106	0xb88228e6	-6.206501e-05
107	0xb9823c4f	-0.00024840466
108	0x3ab0f9fd	0.0013502237
109	0x398c1337	0.00026717197
110	0x3b83872e	0.0040139174
111	0xba1ef116	-0.0006063146
112	0x3ad428cb	0.0016186474
113	0xbaedb1de	-0.0018134674
114	0xba9eda47	-0.0012119495
115	0xb891715b	-6.935253e-05
116	0x39a53f88	0.00031518587
117	0xb6f5e2e3	-7.327982e-06
118	0xbb49787a	-0.0030741976
119	0x3b0a7021	0.0021123963
120	0x3a811104	0.000984699
121	0x3b02ea95	0.0019976248
122	0x3a845ad8	0.0010097874
123	0x3a23e105	0.0006251487
124	0x3a294330	0.000645685
125	0x3aa704e5	0.0012742548
126	0x39a34f16	0.00031148706
127	0x39f6f65c	0.00047104328
128	0x39145987	0.00014147731
129	0x39314912	0.00016907256
130	0x3adfa5a4	0.0017062915
131	0x3a3a9484	0.00071174675
132	0x39ede896	0.00045377453
133	0xb96e8a5c	-0.00022748992
134	0xb8bff0a3	-9.152412e-05
135	0xbb0c7b7f	-0.0021435914
136	0x3b5a7141	0.0033331665
137	0xb8c2f647	-9.2965136e-05
138	0xb9507574	-0.0001988018
139	0xba50d108	-0.00079657184
140	0x3afbc27b	0.001920774
141	0xba4fbe8f	-0.0007924819
142	0xba363b88	-0.000695162
143	0xb915a586	-0.0001427141
144	0xbb121d86	-0.002229543
145	0xb9829f14	-0.00024914055
146	0x39a1cd7a	0.00030861405
147	0x3b18d251	0.0023318718
148	0x3a1a99ef	0.00058975717
149	0x3a33f714	0.00068651256
150	0xb96986b4	-0.00022270792
151	0x395498f2	0.00020274872
152	0x3ac61be1	0.001511451
153	0xb9518735	-0.00019982162
154	0xbac3c1fa	-0.0014935129
155	0x39c1b672	0.0003694776
156	0x3b4201a5	0.002960303
157	0x3ae15c2c	0.0017193607
158	0x3947c153	0.00019050138
159	0x3a54a035	0.0008111031
160	0x3ada0580	0.0016633719
161	0xbacf3de2	-0.0015811289
162	0xba1616c2	-0.0005725437
163	0x3ae8a7a7	0.001775016
164	0xba265757	-0.0006345412
165	0xb903ebea	-0.00012581018
166	0xb9f09683	-0.00045888507
167	0xbaab64b9	-0.0013076282
168	0x3b30b126	0.0026961057
169	0x3a3c69f6	0.000718742
170	0xba5d50ff	-0.00084425503
171	0x3a47697e	0.0007606967
172	0xbaf22271	-0.0018473399
173	0xbb1396b5	-0.0022520248
174	0x37182cf5	9.070373e-06
175	0x3b3ce787	0.0028824524
176	0x3b3cb938	0.0028796922
177	0xb9452857	-0.00018802412
178	0x36f27a34	7.2263883e-06
179	0x38ca57cb	9.648463e-05
180	0xbb1fdbdb	-0.0024392519
181	0x3a4be7d8	0.0007778383
182	0x3a993948	0.0011690045
183	0x3a8fe8cb	0.0010979412
184	0x3ac306bb	0.0014879325
185	0xbacd2772	-0.0015652014
186	0x3a393406	0.0007064942
187	0x398dbaef	0.00027032892
188	0x37d53210	2.541489e-05
189	0xba5be47a	-0.00083882327
190	0x39298b54	0.00016169
191	0xbaa57498	-0.0012623249
192	0x38c50aef	9.3957286e-05
193	0x37585d7a	1.28963675e-05
194	0xbac850f8	-0.001528292
195	0x00000000	0.0
196	0x3afaa1cf	0.0019121709
197	0x3ae2a318	0.0017291037
198	0x38e1a059	0.00010758703
199	0x39b1ca38	0.00033910736

layer2.weight f4 [200, 200]
0	0x3cd7aa4c	0.026326321
1	0x3d934385	0.07190613
2	0xbdbb53fc	-0.09146878
3	0xbde29bf6	-0.110649034
4	0x3ca007d4	0.019534983
5	0xbc8b5b72	-0.017011378
6	0x3da854f9	0.08219332
7	0x3c8f3f8f	0.017486362
8	0xbd8e00cd	-0.069337465
9	0xbd898159	-0.06714124
10	0x3c5f9bf4	0.013648022
11	0x3d083252	0.033251114
12	0xbde93ccc	-0.11388549
13	0x3d81375c	0.06309387
14	0x3de94dfa	0.11391826
15	0x3db778e1	0.08958603
16	0xbb97800d	-0.004623419
17	0xbdf61477	-0.12015622
18	0xbd0a630c	-0.033785865
19	0x3dc9120f	0.098178975
20	0xbdab9fc5	-0.08380083
21	0xbd7c59e8	-0.06160918
22	0xbd265664	-0.040609732
23	0x3d69f581	0.057118896
24	0xbb2290f5	-0.002480564
25	0xbdf4f8dc	-0.11961529
26	0x3d3108db	0.043221336
27	0xbbd76116	-0.006572853
28	0x3ac4dd0e	0.0015019493
29	0x3b1c2eeb	0.0023831676
30	0xbd1079d0	-0.03527242
31	0xbd8caf92	-0.06869425
32	0x3d64859d	0.055791486
33	0xbdaf214e	-0.08551274
34	0x3cc07dfe	0.023497578
35	0x3cc27a95	0.023740092
36	0x3dc0a855	0.09407107
37	0x3dbc88d7	0.09205788
38	0xbd379b1c	-0.04482566
39	0x3d0ddf62	0.034636863
40	0x3c493424	0.012280498
41	0xbc96163d	-0.01832115
42	0x3d858745	0.06519941
43	0x3decba5d	0.115589835
44	0x3c32a389	0.010903248
45	0xbd3dd928	-0.046349674
46	0xbb60f81c	-0.0034327572
47	0x3d200ca0	0.03907454
48	0xbd19c119	-0.037537668
49	0x3a96a544	0.0011493345
50	0x3cb76a59	0.022389578
51	0x3d13672d	0.035987068
52	0x3db376cd	0.08762894
53	0xbd26cf22	-0.04072488
54	0xbdcdd15c	-0.10049698
55	0xbcfb1f75	-0.030654648
56	0xbdbfc2c8	-0.093633235
57	0xbd8fe828	-0.07026702
58	0xbc9f9613	-0.01948074
59	0x3ba1e7e4	0.0049409736
60	0x3d8ea8fb	0.06965824
61	0x3d828ab0	0.06374109
62	0x3d6b4510	0.05743891
63	0xbd992276	-0.07477276
64	0x3d5146bc	0.05109285
65	0x3d45b615	0.04826935
66	0x3ddcb459	0.10776586
67	0x3d974060	0.073853254
68	0x3c28813a	0.010284716
69	0x3df74eb7	0.120755605
70	0x3dd131f7	0.10214608
71	0xbdaa9565	-0.08329276
72	0x3d9b5929	0.07585365
73	0xbc556b95	-0.013026138
74	0xbde219ac	-0.11040053
75	0xbaf23c01	-0.0018481017
76	0xbdc8a9b4	-0.09797993
77	0x3d7b01df	0.06128108
78	0x3c0d6e69	0.008632281
79	0xbc4b6453	-0.012414056
80	0xbca08232	-0.019593332
81	0xbd76d436	-0.060260974
82	0xbdf7c568	-0.12098199
83	0x3d8f5943	0.06999447
84	0x3cc80f77	0.024421437
85	0xbdf53b2a	-0.11974175
86	0x3d800450	0.062508225
87	0xbdd6478b	-0.104628645
88	0xbc91b99f	-0.017788706
89	0x3df15301	0.1178341
90	0x3c87cc3b	0.016576877
91	0xbd862fa9	-0.06552059
92	0xbdc8f54e	-0.09812413
93	0x3d95c367	0.07312661
94	0xbda20531	-0.079111464
95	0xbd0bf0ae	-0.034165077
96	0xbd98bc15	-0.07457749
97	0x3dad46e3	0.08460786
98	0xbdea2610	-0.11433041
99	0xbc038663	-0.008027646
100	0x3b5f8d0b	0.0034111168
101	0xbd672a05	-0.056436557
102	0x3ddd4615	0.10804383
103	0xbdf55439	-0.11978955
104	0xbd0a62cd	-0.03378563
105	0x3d2b9b57	0.04189619
106	0xbae65e63	-0.0017575737
107	0x3d23ab4c	0.039958283
108	0xbdadca79	-0.08485884
109	0x3d15d5bc	0.036580786
110	0xbd6414e1	-0.055683974
111	0x3dd1d527	0.10245734
112	0xbde1f8f8	-0.11033815
113	0xbd142bad	-0.036174465
114	0xbd946b02	-0.072469726
115	0xbdc01e10	-0.09380734
116	0xbca09f18	-0.019607112
117	0xbda142c3	-0.07874062
118	0xbdc3aa8b	-0.09554013
119	0xbd7fa497	-0.062412824
120	0xbd5149b5	-0.051095683
121	0x3c17924e	0.00925119
122	0xbc508385	-0.012726669
123	0x3d904819	0.070450015
124	0x3d7b401f	0.061340448
125	0xbd87e0c7	-0.0663467
126	0xbd3d23de	-0.046176784
127	0xbd8be57b	-0.06830879
128	0xbd26bc11	-0.040706698
129	0xbd988ded	-0.07448945
130	0x3ca02ddc	0.019553117
131	0x3da2cd89	0.07949359
132	0x3cdf7197	0.027275844
133	0xbd550705	-0.052008647
134	0xbc8c4b54	-0.017125763
135	0xbdc25c06	-0.09490208
136	0x3d137c99	0.036007497
137	0x3dd77681	0.1052065
138	0xbd18d4ba	-0.037312247
139	0x3dc78ea5	0.09744004
140	0x3c468241	0.012116016
141	0xbd3e5941	-0.046471838
142	0x3da0b0dd	0.07846234
143	0xbce5367d	-0.027980084
144	0x3d943aae	0.07237755
145	0x3cc6bd21	0.024260106
146	0xbdc59b99	-0.096488185
147	0xbc78b955	-0.015180905
148	0x3d93e433	0.0722126
149	0xbd62555c	-0.055257186
150	0xbd20f33c	-0.039294466
151	0x3dac246d	0.08405385
152	0x3d9e78d2	0.077378884
153	0xbd3af4c2	-0.045643575
154	0xbd042b86	-0.03226807
155	0xbcd56178	-0.026047453
156	0xbde39b1b	-0.111135684
157	0xbdea34d1	-0.11435855
158	0x3d7e8a61	0.062143687
159	0x3dede940	0.116167545
160	0x3db51a9e	0.088429675
161	0xbcefface	-0.029294398
162	0xbc663cbe	-0.014052568
163	0x3d183058	0.03715548
164	0xbbefee00	-0.007322073
165	0x3d41d311	0.04732043
166	0x3dec8896	0.11549489
167	0x3d9c2fea	0.076263264
168	0x3dd4a70f	0.103834264
169	0xbd257a0f	-0.040399607
170	0xbdaf4451	-0.08557952
171	0xbcf32f33	-0.029685592
172	0xbdad6435	-0.084663786
173	0x3dd09083	0.101838134
174	0x3de9d9a3	0.11418464
175	0xbdc44444	-0.09583333
176	0xbd9dea05	-0.07710651
177	0x3c4d47a3	0.012529287
178	0xbcd7011e	-0.02624565
179	0xbcf942d5	-0.030427376
180	0xbdc0f5bb	-0.09421869
181	0x3d4bd32b	0.049761932
182	0x3b8aea67	0.0042393687
183	0xbdefa4b7	-0.11701339
184	0x3de6e0fa	0.112733796
185	0x3dc2fd25	0.0952094
186	0xbaa02605	-0.0012218362
187	0x3d8ff33f	0.070288174
188	0x3d989745	0.074507274
189	0xbdd3fe0a	-0.103511885
190	0x3d9a3be3	0.07530954
191	0x3c4b825d	0.012421218
192	0xbb33d91d	-0.0027442642
193	0xbde11f22	-0.10992266
194	0x3d83347c	0.06406495
195	0xb9710000	-0.00022983551
196	0x3d868f95	0.06570355
197	0xbc5e8b41	-0.013583005
198	0xbb51b206	-0.003199698
199	0xbdbf49f5	-0.09340278
200	0xbd93e79f	-0.072219126
201	0x3c1d9b51	0.00961955
202	0xbc545938	-0.0129607245
203	0x3db53dca	0.08849676
204	0x3d8b35c5	0.06797365
205	0xbc9eeaa3	-0.019398993
206	0xbda66e5a	-0.08126517
207	0x3cc17b64	0.023618408
208	0x3d41eacf	0.04734307
209	0x3c362752	0.011117773
210	0xbc8b69f1	-0.01701829
211	0x3ddf2214	0.10895172
212	0xbdf8c031	-0.121460326
213	0xbcf8a8b7	-0.030353887
214	0x3dc8304a	0.097748354
215	0xbd9e2903	-0.07722666
216	0xbd00a277	-0.03140494
217	0x3d2615dc	0.04054819
218	0xbd5eae8e	-0.054365687
219	0x3d10580f	0.03524023
220	0xbcc9610d	-0.02458241
221	0xbc7c8de9	-0.015414693
222	0xbdd7f0c1	-0.10543967
223	0xbdb7b257	-0.089695625
224	0xbbdbf549	-0.00671259
225	0xbc5e0997	-0.013552091
226	0x3d0fb4f0	0.035084665
227	0x3c69ef4f	0.014278247
228	0x3db5e90b	0.0888234
229	0x3d9dd966	0.07707481
230	0xbdf96d9b	-0.12179109
231	0x3d9d4db2	0.07680835
232	0x3c7e5c8d	0.0155249955
233	0x3d15824b	0.03650121
234	0x3d173747	0.03691795
235	0x3b7326f7	0.0037102082
236	0x3d854670	0.065075755
237	0xbd5f8e60	-0.05457914
238	0x3c3075ac	0.010770243
239	0xbc45aa1f	-0.012064486
240	0x3dfaeaa3	0.12251785
241	0xbc610a33	-0.013735342
242	0xbcf8ab50	-0.030355126
243	0x3d313464	0.043262854
244	0x3d9b9547	0.07596832
245	0x3d39b901	0.04534245
246	0x3d86298b	0.065508924
247	0xbbd174d3	-0.0063921004
248	0x3c80ca5e	0.015721496
249	0xbdca5ba5	-0.09880761
250	0xbd823b6f	-0.06358992
251	0xbd91d73d	-0.071211316
252	0x3cb2e319	0.021836804
253	0x3dee236b	0.11627849
254	0x3dbbe6ac	0.091748565
255	0x3dc3783c	0.09544417

layer2.bias f4 [200]
0	0xba4d8172	-0.0007839418
1	0x39a67378	0.00031748018
2	0x3b47463f	0.003040686
3	0x3b2a0c61	0.002594732
4	0x3ac4c2a3	0.001501162
5	0xbaba8630	-0.0014230665
6	0x39f6d5c5	0.00047080047
7	0xbab77a5d	-0.0013998259
8	0x3a922a55	0.0011151532
9	0x39166feb	0.00014346807
10	0xbb0c349d	-0.0021393665
11	0x3b4530a9	0.0030088818
12	0x39869b70	0.00025674282
13	0x3adc610b	0.0016813589
14	0xbb87aafb	-0.0041402555
15	0x3a8c10ef	0.0010686199
16	0xb71e8484	-9.448388e-06
17	0xba8e702a	-0.0010867168
18	0x3ad6ee52	0.0016397929
19	0x3af9b8dc	0.0019052285
20	0xbafc7eb3	-0.0019263834
21	0xba9b6921	-0.0011856892
22	0x36c38da5	5.8279425e-06
23	0x3a33d430	0.00068599265
24	0x3a981b7b	0.001160487
25	0xbb518928	-0.003197262
26	0xbb037a09	-0.0020061752
27	0xba9c1db5	-0.0011910709
28	0x3a1c5690	0.00059638266
29	0x3a6d07fb	0.00090420217
30	0xbadf7213	-0.0017047547
31	0x3adea063	0.0016985055
32	0x39840988	0.00025184103
33	0x3b94d320	0.0045417696
34	0x398902b9	0.00026132705
35	0x39ddc559	0.0004229944
36	0x3acd76bb	0.0015675643
37	0xba4289fa	-0.0007421073
38	0x38dd2553	0.000105450534
39	0xbaaebe2c	-0.0013331822
40	0x3b93e1b1	0.0045129885
41	0x39b356c8	0.00034206198
42	0xbb4ddc01	-0.003141165
43	0x3b7f620b	0.003896835
44	0x3b205a9c	0.002446807
45	0x3af933ae	0.0019012594
46	0x3b0f9908	0.0021911282
47	0xbb09042e	-0.0020907032
48	0xba91c39b	-0.0011120917
49	0x3b073e5a	0.002063653
50	0x00000000	0.0
51	0x3a5709b4	0.0008203045
52	0x3ba1ee63	0.004941748
53	0xbb353087	-0.0027647333
54	0xbb18f123	-0.0023337088
55	0x3a69aeee	0.0008914311
56	0xbb05164e	-0.0020307484
57	0x374dabe3	1.2258973e-05
58	0x39c2fd06	0.0003719108
59	0xb9b0b244	-0.00033702154
60	0x3bbe31cd	0.0058042766
61	0x00000000	0.0
62	0x3b8e013e	0.004333644
63	0x3abcd99b	0.0014408113
64	0xbaac0c51	-0.0013126229
65	0x3aaabc7e	0.0013026146
66	0xb95a347b	-0.0002080965
67	0x3b77a853	0.0037789538
68	0xba733eb6	-0.0009279059
69	0x39807645	0.0002450218
70	0x3a954d7d	0.0011390891
71	0x3a586344	0.0008254538
72	0x398f7641	0.00027363191
73	0x38968af7	7.1784416e-05
74	0x3a2fab6c	0.0006701264
75	0xbb44b5eb	-0.0030015658
76	0xb9bc3783	-0.00035899514
77	0xbb209a60	-0.0024506077
78	0xbabedd36	-0.0014561776
79	0xba87de41	-0.001036592
80	0x39fc5b08	0.0004813301
81	0xba4038fc	-0.000733271
82	0xbac0fc9a	-0.0014723719
83	0x3b161083	0.0022898025
84	0x39b69897	0.00034827433
85	0xb9d24798	-0.00040107663
86	0x00000000	0.0
87	0x3b416312	0.0029508513
88	0xbb4ddacb	-0.0031410928
89	0x3b11b348	0.0022232104
90	0x392ff3f1	0.00016780176
91	0x3a8ff257	0.0010982257
92	0xba4e0ce0	-0.0007860195
93	0x3874095e	5.8182857e-05
94	0xba66301b	-0.0008780972
95	0x3a95ac75	0.0011419194
96	0x3a4d7011	0.00078368286
97	0x3ab4da5f	0.001379799
98	0x3b4d7e6a	0.0031355866
99	0xbb23ca47	-0.0024992393
100	0xbad78056	-0.0016441445
101	0xba6fd430	-0.0009148745
102	0xb9eac7e8	-0.000447809
103	0x3a19e388	0.00058703916
104	0x3953e9b5	0.00020209591
105	0x3af6b2f6	0.0018821645
106	0x3aa33711	0.0012452324
107	0x39b37fd5	0.00034236783
108	0xb959b248	-0.00020761148
109	0x39ae6a5f	0.0003326712
110	0x39865a78	0.00025625876
111	0xbab9edf8	-0.00141853
112	0x39767f3c	0.00023507787
113	0x3a6fef5c	0.0009152794
114	0xb78eb59a	-1.7012284e-05
115	0xbb3c5fe4	-0.0028743679
116	0xbaaa7185	-0.0013003802
117	0x386c3810	5.6318997e-05
118	0xba965893	-0.0011470489
119	0x3b375f37	0.0027980336
120	0x39675830	0.00022062729
121	0xba57ac96	-0.00082273164
122	0x3a88966d	0.0010420807
123	0xba9f7b6f	-0.0012167523
124	0x3b0544cb	0.0020335193
125	0xba8097c9	-0.000981086
126	0x3ba47c37	0.0050196904
127	0xbb9ff534	-0.0048815254
128	0x3a98c644	0.0011655767
129	0x39d55b2f	0.00040694463
130	0xba4305d8	-0.00074395305
131	0xba43573a	-0.00074516574
132	0x3ae3c743	0.001737811
133	0xbade56cf	-0.0016963127
134	0xbadc3481	-0.0016800315
135	0x39c26ede	0.00037085166
136	0x3aa2d59d	0.0012423281
137	0x3b07456c	0.0020640744
138	0xbab96ee6	-0.001414743
139	0x3a330844	0.000682954
140	0xbb51acd9	-0.0031993894
141	0x3afb7931	0.0019185898
142	0x39c5e0e1	0.00037742316
143	0xb967a6b8	-0.00022091984
144	0x3aef1308	0.0018239925
145	0xb8f1373a	-0.00011502062
146	0xba541b76	-0.000809125
147	0x38ec669e	0.00011272471
148	0xbabe16ee	-0.0014502683
149	0x3bd7d4c7	0.0065866443
150	0x3a9030de	0.0011000892
151	0x3bd42dbe	0.0064751795
152	0xbb51e07c	-0.0032024672
153	0xb93f2ddd	-0.00018232265
154	0xba2c6551	-0.00065763766
155	0xb7a82ec7	-2.0048943e-05
156	0x3ae9478e	0.0017797814
157	0xbb222c20	-0.0024745539
158	0x399f30c2	0.0003036317
159	0x3babba34	0.005240703
160	0x3b537bae	0.0032269764
161	0x3b3fc043	0.0029258884
162	0x3b8a1286	0.004213634
163	0x3ae27fba	0.0017280497
164	0xb9fecbb2	-0.0004859842
165	0xbb83a078	-0.004016932
166	0xb98f3866	-0.00027317106
167	0x3b107d26	0.002204725
168	0xbb242672	-0.002504733
169	0xb9300d87	-0.00016789707
170	0xbaff9067	-0.0019497991
171	0x3a4539a6	0.0007523544
172	0xbb7accef	-0.0038269123
173	0x3b876f82	0.004133166
174	0xbaf61f74	-0.0018777684
175	0xbb48b3f0	-0.003062483
176	0x391409b6	0.00014117997
177	0xb98a8139	-0.0002641769
178	0x3ba5b708	0.0050572194
179	0xbb388c21	-0.0028159695
180	0x3a9a8574	0.001178904
181	0x3a459a0f	0.000753791
182	0xbae82f1f	-0.0017714238
183	0xbb495c84	-0.003072531
184	0xbb51f099	-0.0032034277
185	0xbba67733	-0.0050801276
186	0xba41c5ae	-0.00073918223
187	0x3b16958e	0.0022977325
188	0x38f82d45	0.000118339936
189	0xbbdf99bc	-0.0068237465
190	0xbb5652a1	-0.003270306
191	0x38b17f51	8.463732e-05
192	0x3abee09c	0.0014562788
193	0xba264953	-0.00063433236
194	0xb9c24f0c	-0.00037061458
195	0x3aaadf94	0.0013036602
196	0x3b845409	0.004038338
197	0xb880ec80	-6.147567e-05
198	0xbb0abfa7	-0.0021171363
199	0x39da8f3a	0.00041686912

mu.weight f4 [4, 200]
0	0x3dcc77f8	0.0998382
1	0x3d799091	0.060928885
2	0xbdab6d90	-0.08370507
3	0xbb45cb10	-0.003018085
4	0xbe29a585	-0.16567047
5	0xbd374a16	-0.04474839
6	0x3d9e90ba	0.07742448
7	0x3e2b8713	0.16750745
8	0x3dcf9f96	0.101378605
9	0xbe1809f2	-0.14847544
10	0xbd992572	-0.07477845
11	0xbdc72b74	-0.09725085
12	0x3e0c55ae	0.13704559
13	0x3bed4e2f	0.007241986
14	0x3de3bc0c	0.111198515
15	0xbd85e459	-0.065376945
16	0x3e2895f1	0.16463448
17	0x3e017b91	0.12644793
18	0x3d9d095d	0.076678015
19	0x3dcfa1ce	0.10138284
20	0x3d8369a3	0.06416633
21	0x3d8daa79	0.06917281
22	0x3ca4f5d7	0.020136757
23	0xbdbae934	-0.09126511
24	0x3cd29ee0	0.025710523
25	0x3da4b90c	0.080431074
26	0xbb612144	-0.0034352103
27	0x3e005d46	0.12535581
28	0xbdd7d43b	-0.105385266
29	0xbddd9172	-0.10818757
30	0x3e180a62	0.1484771
31	0xbd883937	-0.06651538
32	0xbe26050e	-0.16212866
33	0x3a996a0c	0.0011704578
34	0x3ca5274d	0.020160342
35	0xbe1c40e4	-0.15259129
36	0xbe18335c	-0.14863342
37	0x3cd9b1ee	0.026574101
38	0xbd976ae5	-0.073934354
39	0xbd271504	-0.040791526
40	0xbd186071	-0.03720135
41	0xbe14c064	-0.14526516
42	0xbdc78732	-0.09742583
43	0x3e02905b	0.1275038
44	0xbdaee6f4	-0.085401446
45	0xbe0be868	-0.13662875
46	0x3cdcf324	0.026971407
47	0xbd7731b2	-0.060350128
48	0xbde943da	-0.11389895
49	0xbcf4a08f	-0.029861717
50	0x3e2a0b0d	0.16605778
51	0xbd9613ad	-0.073279716
52	0xbd9f7225	-0.07785443
53	0x3db0d37b	0.08634087
54	0x3d2efd23	0.04272188
55	0xbe091252	-0.13385895
56	0x3ddd64db	0.10810252
57	0xbd9cd85d	-0.076584555
58	0x3d16f8a6	0.036858223
59	0x3de4dc8f	0.11174881
60	0xbe2d8048	-0.16943467
61	0x3d787c8c	0.060665652
62	0xbe1385ec	-0.14406556
63	0xbd3c4f43	-0.045974027
64	0xbce7d3c5	-0.028299222
65	0x3dc9c5d3	0.09852185
66	0x3e04b976	0.12961373
67	0xbd9f260f	-0.07770931
68	0x3da8227b	0.08209702
69	0xbd52d3db	-0.051471572
70	0xbdf4171a	-0.11918469
71	0x3dec884f	0.11549436
72	0x3c27933d	0.010227975
73	0xbcbd0439	-0.023073303
74	0xbd64b101	-0.055832867
75	0x3e25ae2f	0.16179727
76	0xbc443213	-0.011974829
77	0xbdb90f20	-0.09036088
78	0xbe06833b	-0.13135998
79	0x3dc988a9	0.09840519
80	0xbdaf2ac9	-0.085530825
81	0x3d055310	0.032549918
82	0x3db196e0	0.08671355
83	0xbd23a5b3	-0.039952945
84	0x3dea754f	0.11448156
85	0x3c6b3fc8	0.014358468
86	0xbe1bb346	-0.15205106
87	0xbe053ab6	-0.13010678
88	0x3d9ecc13	0.07753768
89	0xbe02e79d	-0.12783666
90	0x3c724488	0.014786847
91	0x3c88e0e8	0.016708806
92	0x3d1d1318	0.038348287
93	0xbd5c11fa	-0.05372808
94	0x3b44c19b	0.0030022624
95	0x3da4e3c6	0.08051257
96	0x3e228f9a	0.15875092
97	0xbdc1a2dc	-0.09454891
98	0xbe07d081	-0.13263132
99	0x3e0051e0	0.12531233
100	0xbd28270a	-0.041052856
101	0x3e1a1cb0	0.15050006
102	0x3c6f9454	0.0146227665
103	0xbdb32541	-0.0874734
104	0xbd5ae07c	-0.05343674
105	0xbe05b4a5	-0.13057192
106	0x3dc56d2c	0.096399635
107	0x3e14a40e	0.14515707
108	0xbe09f525	-0.13472421
109	0x3c9d38d9	0.019192146
110	0xbc135a8e	-0.008993758
111	0xbc5e809c	-0.013580468
112	0x3dca8157	0.09887951
113	0x3d78378a	0.06059984
114	0xbcdbe42b	-0.026842197
115	0x3d423eb6	0.047423087
116	0xbdd4d615	-0.103923954
117	0x3b2316a0	0.0024885312
118	0xbdf27deb	-0.11840423
119	0xbde52967	-0.111895375
120	0xbd560d40	-0.05225873
121	0x3e07fc3d	0.13279815
122	0x3c93493c	0.017979257
123	0x3d5cc798	0.053901285
124	0xbcfaaae4	-0.030599065
125	0xbd5b9cc7	-0.05361631
126	0xbdc53cc0	-0.09630728
127	0x3e079268	0.13239443
128	0x3cf7d1b3	0.03025136
129	0xbe18cdfe	-0.1492233
130	0xbd810b4e	-0.06300984
131	0xbca210e2	-0.019783441
132	0x3d8b97e6	0.06816082
133	0x3df99ee1	0.12188507
134	0x3df3bc9c	0.11901209
135	0xbdf413c6	-0.11917834
136	0xbdd08c17	-0.1018297
137	0xbe2276f5	-0.15865691
138	0x3d1cbe39	0.038267348
139	0xbca2ca9f	-0.019872008
140	0x3dbb2dfc	0.0913963
141	0x3d365163	0.04451121
142	0xbe069f54	-0.13146716
143	0xbdb890ff	-0.09012031
144	0xbd898069	-0.067139454
145	0xbd0a9502	-0.03383351
146	0x3e097966	0.13425216
147	0x3d76df71	0.060271684
148	0xbd55d9fa	-0.05220983
149	0xbe12adf2	-0.14324167
150	0xbdd76043	-0.10516407
151	0xbd9864f5	-0.07441131
152	0xbce3dec2	-0.02781618
153	0x3b75ca73	0.0037504702
154	0x3de28e6a	0.110623196
155	0xb9bd909d	-0.00036156634
156	0x3dfc7543	0.123270534
157	0x3e1cbb5b	0.15305845
158	0x3d88949d	0.06668971
159	0xbc491795	-0.012273689
160	0xbdaea6d1	-0.085279115
161	0xbdf7bfd1	-0.12097133
162	0xbe1d1f9a	-0.15344086
163	0x3d235a84	0.039881244
164	0x3e0c5379	0.13703717
165	0xbd9bbb71	-0.07604111
166	0xbccdccbf	-0.025122045
167	0xbdb3ea6a	-0.08784945
168	0x3d865e57	0.06560963
169	0xbd114c41	-0.035473112
170	0x3d667401	0.056262974
171	0xbddeb0b8	-0.1087355
172	0x3e15a191	0.14612414
173	0xbe22b6b7	-0.15890013
174	0xbe15025e	-0.14551684
175	0x3e035a1f	0.12827347
176	0xbcfc95c1	-0.030833127
177	0xbe139d4e	-0.14415476
178	0xbe26effd	-0.16302486
179	0x3df7c92e	0.12098919
180	0xbd7e349e	-0.0620619
181	0x3d9ada5d	0.07561181
182	0xbdab7cb1	-0.083733924
183	0x3dd9dece	0.106382
184	0x3dbf47c3	0.09339859
185	0x3e1117c7	0.14169227
186	0xbe27b62d	-0.16378088
187	0x3d361eb7	0.044462886
188	0x3db06fb2	0.08615054
189	0x3e20f437	0.1571816
190	0x3d4053dd	0.04695498
191	0x3de919b3	0.11381855
192	0xbdb5ce30	-0.08877218
193	0x3da43c8e	0.080193624
194	0xbdad6c87	-0.084679656
195	0xbc5d4f67	-0.0135077005
196	0x3da00cb9	0.07814927
197	0x3d78232e	0.060580425
198	0xbb2f4e7a	-0.0026749657
199	0x3deac8ed	0.11464105
200	0x3d8b82bd	0.06812046
201	0xbe100de1	-0.14067794
202	0x3dbe1d8c	0.09282979
203	0xbd332804	-0.043739334
204	0xbde9c64c	-0.11414775
205	0x3dab4822	0.083633676
206	0xbe028b1e	-0.12748381
207	0xbe07a336	-0.13245854
208	0x3d6d8ac4	0.057993665
209	0x3dfbb8f4	0.122911364
210	0x3e030baa	0.12797418
211	0xbddcc13e	-0.107790455
212	0xbe0c60dc	-0.13708824
213	0x3da35358	0.07974881
214	0xbdf26829	-0.11836273
215	0xbd4d44ab	-0.050114315
216	0x3dd5d7f9	0.10441584
217	0xbd24e6b8	-0.040259093
218	0xbd66f9cd	-0.056390572
219	0x3df2da40	0.11858034
220	0x3da96f62	0.08273198
221	0x3d85e611	0.06538022
222	0x3cc89cfb	0.024488917
223	0xbcbc5535	-0.022989849
224	0xbda19324	-0.07889393
225	0x3db6fdc2	0.08935119
226	0x3e029ebb	0.12755863
227	0xbe249f85	-0.16076477
228	0xbdb72249	-0.08942086
229	0xbd70c2a8	-0.05877939
230	0xbdb6317a	-0.08896156
231	0x3d5ffca7	0.054684307
232	0x3c8211c4	0.015877612
233	0xbe284706	-0.16433343
234	0xbcf07f71	-0.029357644
235	0xbca891e0	-0.020577371
236	0x3df1826c	0.11792454
237	0xbdf7baa9	-0.120961495
238	0xbb2b0c0a	-0.0026099705
239	0x3d6ababc	0.05730699
240	0xbe135d18	-0.14390981
241	0xbd5e9c03	-0.054348003
242	0x3d8ea05a	0.069641784
243	0xbe299257	-0.1655973
244	0xbd0cc379	-0.034366105
245	0x3dcc8cab	0.09987768
246	0xbe2675b9	-0.16255845
247	0x3da94eac	0.082669586
248	0xbe288d10	-0.16460061
249	0xbd9a2c31	-0.0752796
250	0x3c332020	0.010932952
251	0xbe1ac17b	-0.1511287
252	0xbd514c9b	-0.051098447
253	0xbd94de3e	-0.07268952
254	0x3c92bf8f	0.017913608
255	0x3d84d465	0.064858235

mu.bias f4 [4]
0	0xbc685248	-0.014179774
1	0xbc5fda67	-0.013662911
2	0xbcb371f6	-0.021904927
3	0x3b739ebc	0.003717347
