llirl_sumo/saves/sumo_single_intersection/policies_final_ddqn_intermediate.pth (torch, 376577 bytes, 12 tensors)

network.0.weight f4 [200, 24]
000000 86 0e d6 3e fd ec cd 3e ee 13 7e bb c6 f4 d6 be
       0.41807956 0.4021987 -0.0038769203 -0.41983622
000010 05 1e 8d bf bd b1 56 bf 66 ef 88 bf 93 53 20 bf
       -1.1024786 -0.8386496 -1.0698059 -0.62627524
000020 e1 97 13 c0 49 66 51 bf e8 b1 90 be 1b 1d c8 bf
       -2.306145 -0.817967 -0.28260732 -1.5633882
000030 60 74 b4 be 60 21 cf 3f e5 84 22 c0 95 1c a2 bf
       -0.35245037 1.618206 -2.5393612 -1.2664973
000040 ca ba 1b 3f 56 66 25 c0 7b 38 13 3e 49 be 07 3f
       0.6083189 -2.584371 0.14377014 0.5302473
000050 0e 3d 6f 3f ef 4c 05 be b1 be 82 3d a2 11 44 be
       0.9345254 -0.13017629 0.06384028 -0.19147351
000060 f8 00 04 3f ab 18 95 3e b6 bd 22 3e 79 07 2a 3f
       0.5156398 0.29120383 0.15892681 0.6641765
000070 79 3e 06 3f a7 63 0b 3f 64 fb 2b 3f 60 1a 4c 3e
       0.52439076 0.5444893 0.67180467 0.19931936
000080 6b 2b 54 3e ca 5c 31 3f cf d1 30 3f b5 9f 33 3e
       0.20719688 0.6928221 0.6907014 0.17541392
000090 c3 22 fe bf 3e 2b 91 bf 58 87 bd 3e d4 d8 e4 bf
       -1.9854358 -1.1341321 0.37017322 -1.7878671
0000a0 33 70 97 bf 4d 09 34 3f 10 e3 52 3f 4d e1 2e 3d
       -1.1831115 0.7032669 0.8237772 0.042695332
0000b0 4b c2 91 be 2d 2f 19 3f 34 32 3b 3f 75 94 14 3c
       -0.28468546 0.5983761 0.7312348 0.009068598
0000c0 af 6b 33 3e 26 91 e6 3d 5d 92 bf ba 38 61 9a 3e
       0.17521547 0.112581536 -0.0014615763 0.30152297
0000d0 7f e3 db 3e 9e b3 b5 3d 6d 41 06 3f 3a df 6b 3e
       0.42947003 0.0887215 0.5244358 0.23034373
0000e0 b6 d0 05 3f 02 2d 8b 3e 8a 13 ed 3e 9b b3 ab 3e
       0.5227159 0.27182776 0.4630397 0.33535466
0000f0 99 53 04 3f 0e 07 c7 3e b5 d0 e4 3c e0 90 b1 3e
       0.5169006 0.3887257 0.02793155 0.34680843
000100 af 3e ae 3e b4 0a cb 3d 0d 62 2a 3f dd 32 41 3e
       0.340322 0.09914151 0.66555864 0.18867059
000110 57 3c c3 bd bf 28 ea 3e 7c d8 23 3f 36 8d cf bd
       -0.09532993 0.45734212 0.64002204 -0.10134356
000120 8e 5b 9f 3e 33 d7 f6 bd d9 af 92 be 85 69 ec 3d
       0.31124538 -0.12052765 -0.28649786 0.11543564
000130 df 29 1a 3f 0e ee 9c bd 11 d3 9f 3e 69 38 33 be
       0.6022014 -0.07662593 0.31215718 -0.17501988
000140 b3 a1 9e 3e 5a 48 38 3e 8d 25 b0 3d 63 6d 0f 3c
       0.30982742 0.1799635 0.08600912 0.008754107
000150 22 9b 1f 3f 9a 32 b5 be 05 a3 86 3d 75 08 73 3e
       0.6234609 -0.35390168 0.06574062 0.23733695
000160 f7 70 cc bb cc b9 31 3d 58 fb 7d 3f 4c bb f4 3e
       -0.0062390524 0.04339008 0.99211645 0.47799146
000170 30 e3 15 be 5a 36 6e 3e 6b 74 61 3f c0 72 e8 be
       -0.14637446 0.23262921 0.88068265 -0.45400047
000180 1e 61 b3 3d 4d f3 20 be 07 f2 57 be a0 15 b8 3e
       0.08758758 -0.15717812 -0.2108842 0.35954
000190 b4 1b 0a be 27 02 be bc f3 d6 a4 3d da 5c d7 3b
       -0.1348713 -0.023194386 0.08048811 0.006572348
0001a0 24 a6 b4 3e 1c 6d 2b 3e 0f 46 b3 be b9 6d 81 3e
       0.35283005 0.1674084 -0.35014388 0.25279024
0001b0 de 26 17 3f 86 18 00 be 56 98 7d 3e e8 2d ee 3d
       0.5904368 -0.12509355 0.24765143 0.1162985
0001c0 08 0a ab bd ac c7 8c be ce 1f 25 3f 68 65 c1 3d
       -0.08351523 -0.27496088 0.64501655 0.0944317
0001d0 6f e1 84 3e 68 cf ca 3e a9 34 ac be d8 7f 38 bd
       0.25953242 0.39611363 -0.33633927 -0.045043796
0001e0 66 34 78 3d d7 98 13 3e 0b 8c 0d bf 04 28 10 bd
       0.060596846 0.14413773 -0.55291814 -0.035194412
0001f0 8e 5e bc 3e ab 2e d8 be 5b 27 df 3e 0c 39 73 3e
       0.3679089 -0.42223105 0.43584713 0.2375223
000200 47 b0 51 3e ed 2a d0 3e 38 ef e5 3e 41 66 8e 3e
       0.204774 0.4065775 0.44909072 0.2781239
000210 fb d1 11 3f 24 31 b1 3c 20 27 21 be 6f 01 16 3e
       0.5696103 0.021629877 -0.15737581 0.14648984
000220 93 3c e2 3d 85 e2 a1 be 72 e3 31 3f c4 a2 2d 3e
       0.1104671 -0.31618133 0.6948768 0.16956621
000230 1b 73 4e be 0d e0 e2 3e 3a 45 e5 3d 94 0d 38 be
       -0.20161097 0.44311562 0.111948445 -0.1797393
000240 a7 16 a0 3e 2e b5 35 3e cc b7 0f be 96 69 9d 3e
       0.31267282 0.17744896 -0.14034957 0.30744618
000250 56 30 05 3f 2b 83 85 3e 7e 6a 7a 3e 4f cf 50 bd
       0.5202688 0.26076636 0.24454686 -0.050978955
000260 c5 d0 9c 3e 45 8d 34 bd 70 bf 0e 3e 8a d1 b3 3e
       0.3062803 -0.044080038 0.13940215 0.35120803
000270 85 ff fd 3e 23 f4 b1 3e 07 76 41 3e 9b 8d 13 3f
       0.49609008 0.34756574 0.1889268 0.5763795
000280 4c 37 ac 3e ac 71 99 3e 61 be a7 3e 03 8b 2c 3e
       0.33635938 0.29969537 0.32762435 0.16849904
000290 13 c6 09 be 11 69 9e 3e 44 f3 00 3f 66 0d 8c be
       -0.13454466 0.30939534 0.50371194 -0.27353972
0002a0 d3 27 15 3e c6 e7 d5 3d 25 a2 56 be 91 ba 92 3e
       0.14565973 0.10444598 -0.2096029 0.28657964
0002b0 61 64 11 3e 7a 79 aa 3d b6 cc 07 3f c2 72 26 3e
       0.14198448 0.08323951 0.5304674 0.16254714
0002c0 28 a2 20 3f 68 0c cf 3e 27 92 9f 3e 06 ac 0d 3f
       0.6274743 0.40439153 0.31166193 0.5534061
0002d0 56 4f 00 3f d2 e5 e6 3e f7 f1 48 3e 6e fd db 3e
       0.5012106 0.45097214 0.19623552 0.4296679
0002e0 89 3a 94 3e 2f e7 5b 3d 9f bf da 3e a0 f0 00 3e
       0.2895091 0.05368727 0.4272432 0.12591791
0002f0 c3 66 23 bd 5c 34 07 3f 9d b6 cf 3e 9d 72 7f bd
       -0.039892923 0.5281427 0.4056901 -0.062365163
000300 04 a8 cf be 87 e7 b4 be ce e0 07 3f f2 7a e0 3e
       -0.40557873 -0.3533289 0.530774 0.438438
000310 4d 9e ca bd a2 90 83 3f 92 4e b0 bd 1b 48 be be
       -0.09893475 1.0278513 -0.08608736 -0.37164387
000320 36 ce b4 3e c7 7d ab 3d 08 12 37 3f a9 38 e5 3e
       0.35313576 0.083735995 0.7151189 0.4476979
000330 cc 55 73 bf 0b 7c 1d bf 17 ff 18 3f a3 a4 c0 bd
       -0.9505279 -0.615174 0.59764236 -0.09406402
000340 30 3f 62 bf 9e 95 06 3f 55 33 0d 3f e6 b4 59 bd
       -0.88377666 0.5257205 0.5515645 -0.053151034
000350 58 d2 e2 be f7 93 16 3f 06 6f 5e 3f cb 6d bd be
       -0.44301105 0.58819526 0.8688816 -0.36997828
000360 b5 9f 52 bd 25 ad 4b 3d bc 77 1a be 89 88 1e 3e
       -0.05142184 0.04972567 -0.15084738 0.15481772
000370 47 dc d8 3e 3f f3 50 be 53 4c 21 be 76 b8 89 be
       0.42355558 -0.20405291 -0.15751772 -0.26898545
000380 64 e2 57 3e 22 b3 14 be cf 21 2e bb 7e 16 a9 3e
       0.21082455 -0.14521459 -0.0026570444 0.33024973
000390 d5 4d cd 3e 44 96 e2 3d e6 a9 15 bd 16 37 43 3e
       0.40098444 0.11063817 -0.03653898 0.19063982
0003a0 6c 4b 40 3e 92 9d 33 3e 07 98 14 3f 61 41 10 3e
       0.18778771 0.17540577 0.58044475 0.1408744
0003b0 8b 7f 42 bd 67 85 a6 bd 21 6c 02 3f 25 e0 26 bf
       -0.047484916 -0.08130913 0.5094624 -0.6518577
0003c0 ae 48 3c be 1c 87 ae 3e a7 ce 82 be 61 f8 aa 3b
       -0.183871 0.34087455 -0.25548288 0.0052175974
0003d0 74 cc 81 3e 99 14 3a 3e dd f2 3b 3e a2 7e 7d be
       0.25351298 0.1817192 0.18354364 -0.24755338
0003e0 3e ca 31 3e 6d 82 b1 3e c4 41 37 3d e2 d1 df 3e
       0.17362306 0.3466982 0.044740453 0.43714815
0003f0 e2 8f 2b 3f c3 04 49 3e b1 82 47 3d b1 c1 bc 3e
       0.6701642 0.19630723 0.04870862 0.36866525

network.0.bias f4 [200]
000000 3d 91 35 3f 7f ab 16 3f e6 74 69 bd 9f e1 ff be
       0.7092474 0.5885543 -0.05699625 -0.49976823
000010 6e 9c 1c 3f a3 6c 81 be a5 05 16 be 56 5a 37 3e
       0.6117619 -0.25278196 -0.1465059 0.17905554
000020 32 58 7c be 16 ab 11 be f9 bd cc be 61 16 eb be
       -0.24643019 -0.1422542 -0.39988688 -0.4591551
000030 1b 69 d4 3e 50 7a df be b2 22 73 3f 3f 01 30 3e
       0.4148644 -0.43648005 0.94974816 0.17187975
000040 13 4d a6 3e a8 8e 4b 3e 64 cd dd bc b5 d8 22 3f
       0.32480678 0.19878638 -0.027075477 0.6361192
000050 a2 ba 36 3e 1d 86 b4 bc f1 24 65 be 5c 54 32 bd
       0.17844632 -0.022036606 -0.22377373 -0.043537483
000060 c9 4f da bd f9 c8 47 3e 68 5f 0a 3c 81 79 30 3f
       -0.10659749 0.19510259 0.008445598 0.689354
000070 9f 63 c2 be 5e b8 02 be 84 5e ac 3e cf 0f 83 3f
       -0.3796663 -0.12765643 0.3366586 1.0239199
000080 b2 37 7b bf 36 3e a1 be 63 75 c8 3f 82 31 81 3e
       -0.9813186 -0.31492776 1.5660824 0.25233084
000090 dc 6a 99 bc 8e 65 1f bf ac 43 89 3e 8f da 23 be
       -0.018727712 -0.62264335 0.26809442 -0.16001342
0000a0 b5 e7 c0 be 0b 4d 99 be 0a bb 2c 3e ae c1 bb 3e
       -0.37676778 -0.29941592 0.16868225 0.36671203
0000b0 ba 4e c9 3e 9e a3 12 be 22 b8 49 3f 40 5f 5e 3c
       0.39317876 -0.14320228 0.7879659 0.013572514
0000c0 6a 32 a3 3f a4 bb ab bf 9b 6c 94 3f 49 c4 03 3d
       1.274976 -1.3416638 1.1595644 0.032169614
0000d0 c0 b2 85 be 50 2d 7b 3e 34 62 40 3e 03 4e 73 3e
       -0.26112938 0.24529004 0.18787462 0.23760228
0000e0 df 3d 15 bd 98 be 8c 3c c7 5c db be 00 9e 57 be
       -0.036435958 0.017180726 -0.4284422 -0.21056366
0000f0 31 43 94 3e 14 f4 85 be 4f 6f 32 be 68 f4 0d 3f
       0.28957513 -0.2616278 -0.17425273 0.5545106
000100 d0 6a 2f 3e b5 17 01 3e 77 57 30 3e 72 ce b3 3d
       0.1713059 0.126067 0.17220865 0.08779611
000110 2a f7 e2 be 7c 55 44 3e a6 8c 05 3f 30 85 9e 3f
       -0.44329196 0.19173235 0.5216774 1.2384396
000120 51 89 dd be 4b 29 6a 3e b8 a6 18 bf 84 c5 1a be
       -0.43268827 0.22867315 -0.5962939 -0.15114409
000130 7d 03 e5 bb 9e de 5e 3e 90 00 f5 bd 18 fa 88 3f
       -0.006988941 0.21764609 -0.11962998 1.0701323
000140 86 7c 8e be 3f 9d 62 bd 19 3a 51 be 09 03 38 3e
       -0.2782938 -0.055325743 -0.20432319 0.17969908
000150 db b7 9e 3e b9 f4 50 bb 3c ed 78 be 59 c2 9c 3f
       0.30999646 -0.0031884147 -0.24309248 1.224681
000160 4f ab 7e 3f 32 cc f7 be a8 7b 31 3f a4 0c 7f be
       0.99480146 -0.48397976 0.6932931 -0.24907166
000170 05 c4 b3 3d 31 be 8e bf 30 18 25 bf 0d 15 11 be
       0.08777622 -1.1151792 -0.6449003 -0.14168186
000180 d5 c1 55 3f a4 c6 28 3f 56 f8 d6 3d c2 e9 56 3c
       0.8349889 0.659281 0.10496585 0.013117256
000190 00 f3 55 be 9e ba d8 bd e8 0e b8 bd 70 d7 a9 3d
       -0.20893478 -0.105824694 -0.08987218 0.082930446
0001a0 5a 33 75 be 5e ae fd be 33 21 10 3f 29 07 6b 3f
       -0.2394537 -0.49547094 0.5630066 0.918078
0001b0 7a ad 52 3f dd 2a f0 be e6 9f 88 3d ee 0f 29 be
       0.82295954 -0.46907702 0.06671123 -0.16509983
0001c0 a1 d0 33 3f 01 97 c6 bb 96 84 1a be 14 f3 f9 bd
       0.7024022 -0.0060604815 -0.1508964 -0.122045666
0001d0 36 f8 cb 3e 7f 60 2e bf 86 47 67 3e 39 0f 3d bf
       0.39837807 -0.6811599 0.22585878 -0.7385135
0001e0 6d 8a 5a 3e 81 2c 29 bf 0b 64 57 bf f5 07 08 3e
       0.21341868 -0.6608353 -0.8413703 0.13284285
0001f0 5a 8d 75 be d1 e5 b2 3e 87 1e 8d 3e 80 ad 4d bf
       -0.23979703 0.3494096 0.27562353 -0.80342865
000200 ca 45 52 3d e8 5b 67 3e 8f 04 08 3f f2 10 d8 3e
       0.051336087 0.22593653 0.53131956 0.42200428
000210 75 04 a1 3d 05 39 27 be bc 15 91 3c ce 7c 60 be
       0.07862178 -0.16330345 0.01771056 -0.21922609
000220 ec ad 3a bd c8 96 cb 3c f7 29 94 3f 8b 28 15 bf
       -0.04557602 0.024852172 1.1575307 -0.5826499
000230 1b 03 3c 3c f4 11 1d be 6d 7f b0 be 81 3c 3b 3f
       0.01147535 -0.1533888 -0.34472218 0.73139197
000240 6c 21 9a 3f 9b 93 02 be d4 17 89 3e 31 e1 8d 3d
       1.204145 -0.1275162 0.26775992 0.069277175
000250 b5 aa 38 3f b1 38 50 3e 03 46 71 3e d6 f4 b8 be
       0.7213548 0.20334126 0.23561864 -0.36124295
000260 3c 30 98 3e 5e bc d4 be 97 88 c0 be d8 f4 c3 3f
       0.297243 -0.41549963 -0.3760421 1.5309095
000270 17 50 cf 3d 04 19 39 be 17 51 52 3d 2e 52 36 3e
       0.10122698 -0.18075949 0.051346865 0.17804787
000280 7d 4a b2 3e d3 a3 65 3f 36 07 f1 bc c5 9c ac bd
       0.34822455 0.897031 -0.029422384 -0.08428339
000290 f6 02 50 3f af ea ed 3e a7 91 78 3e 3c 19 52 bf
       0.8125452 0.46468112 0.24274312 -0.82069755
0002a0 48 28 6e 3e 90 32 5c 3f 12 02 90 be 3c 6d d8 3e
       0.23257554 0.8601465 -0.2812658 0.4227084
0002b0 ef 7c 6b 3e 30 58 66 be ca a5 f9 bd 31 19 f2 bd
       0.22996877 -0.22494578 -0.12189825 -0.11821211
0002c0 dd 68 ea 3d 91 38 69 be 6a 71 16 3f ea af 0f 3f
       0.11445782 -0.22775485 0.58766806 0.561278
0002d0 00 b7 b6 bd 43 ec ec 3d 77 9a 83 3e 69 34 15 3e
       -0.08921623 0.11568501 0.25703785 0.14570774
0002e0 e1 df 49 3f c9 e3 43 3e 9f 4f 8c 3f 6e 3c 98 be
       0.7885724 0.19129862 1.0961798 -0.29733604
0002f0 61 49 6d 3f 3b 5a c7 bd 8b 56 86 bb cb e0 84 be
       0.9269009 -0.09734007 -0.004099672 -0.25952753
000300 7c 26 74 3f 31 2f 8a be 54 fb 30 be f3 b9 7c 3e
       0.9537122 -0.2698913 -0.17283374 0.24680309
000310 dc 63 25 3e b0 43 55 3e d7 54 f2 3e 17 72 48 3e
       0.16151375 0.20826602 0.47330353 0.19574772

network.2.weight f4 [200, 200]
000000 7a cc 71 c0 78 65 4e 3f d8 6e 5f 3e 98 81 24 3e
       -3.7781053 0.8062358 0.21819627 0.16065061
000010 4f b5 a2 3e c7 ba 61 3e 6e 1f 2b 3e c9 a6 7a 3e
       0.31778952 0.22043906 0.16711208 0.24477686
000020 46 3c 0c 3f 95 3f 71 3c f4 4e c1 bd e5 1e 8c 3e
       0.5477947 0.014724632 -0.09438887 0.2736732
000030 44 cf d8 3f 04 46 f4 bd d9 09 57 c0 74 3f 04 3d
       1.6938252 -0.11927417 -3.359976 0.032287076
000040 e7 4f a2 bd 90 9a bd 3d 64 0b bb 3e 31 d7 7c c0
       -0.079253964 0.09257996 0.36532128 -3.9506342
000050 a8 0d 88 be cd 89 e0 3d d0 90 ed 3c 7a 73 09 3f
       -0.2657292 0.109637834 0.028999716 0.5369183
000060 7a 25 c7 3b e6 88 94 3e a7 1e 72 bf 9b 95 a4 bf
       0.0060774656 0.29010695 -0.9457802 -1.2858156
000070 cd c0 76 3e 8d 01 07 c0 74 95 6f bd fb 91 16 c0
       0.24096985 -2.1094697 -0.05849214 -2.35266
000080 6c b5 b5 bf dd 5a 07 3f 1c e2 91 c0 47 74 81 bf
       -1.419599 0.5287302 -4.5588512 -1.011361
000090 13 3f 02 c0 f9 79 fe bc f1 9c d5 3e 0d e1 1c 3e
       -2.0350997 -0.03106402 0.417213 0.15320225
0000a0 d7 8a 3d 40 ba 24 a3 bf b2 19 a3 3a 33 5d db 3c
       2.961599 -1.2745583 0.0012443571 0.02677784
0000b0 9d 01 df bf 08 31 ae 3e 90 83 b2 c0 07 fd 14 3f
       -1.7422367 0.34021783 -5.57856 0.5819859
0000c0 f2 8f b5 c0 a2 af 1b c0 2b 65 ed ba f8 e7 7f 3d
       -5.6738214 -2.4325948 -0.0018111815 0.062477082
0000d0 9e 2c e5 bd f0 25 66 3e 2b 00 d7 bc 9e 32 06 3e
       -0.11190151 0.2247541 -0.026245197 0.13105246
0000e0 4d a9 fb 3c 23 ab 91 3e 37 fb b8 3c 89 5b 24 3e
       0.030720377 0.2845088 0.022580726 0.16050543
0000f0 a2 fd a9 3e 64 9d 12 be 1a 24 fa be 66 f1 41 3f
       0.3320132 -0.14317852 -0.48855668 0.7575897
000100 93 51 51 3e 74 a1 c3 3e e5 08 0c 3e 0f 8a 01 3e
       0.20441274 0.38209116 0.13675268 0.12650321
000110 db 2a 28 bf 3f 0b 35 3e 6d c7 a0 bf 28 7f b8 bd
       -0.6569039 0.17680071 -1.256086 -0.09008628
000120 3d a5 81 bf 61 9c 9f 3e 16 f4 d7 bd 8c 58 78 bf
       -1.0128552 0.31173995 -0.105446026 -0.9701011
000130 98 54 d7 3d 7e 31 05 3e 14 4d 03 bf f8 54 0a 3c
       0.10514182 0.13007161 -0.51289487 0.00844311
000140 8e 1c 83 40 6c 16 2f 3c 92 1a eb be 7d 27 8b 3e
       4.0972357 0.010686498 -0.4591871 0.27178565
000150 ce fc 6f be 9e 9c e2 3d 93 03 09 be be 7b 92 3d
       -0.23436281 0.110650286 -0.1338027 0.07152508
000160 d3 8e 8a c0 25 a7 3f be 40 56 34 3f 19 e4 0f bf
       -4.3299346 -0.18716104 0.7044411 -0.56207424
000170 bf 44 60 3e 81 0f 36 c0 e3 45 0b c0 84 69 a3 3e
       0.21901225 -2.8446963 -2.1761405 0.3191644
000180 52 cc 50 c0 91 d9 be bf eb 57 56 3e 36 13 8b 3e
       -3.2624707 -1.4910146 0.20931976 0.27163094
000190 28 24 86 3e 1e 5c 57 c0 69 08 e3 3d a1 74 e5 3d
       0.2619946 -3.3649974 0.110855885 0.11203886
0001a0 9f 80 3d be 01 ad e6 3e 48 1b 2a 3d 10 05 2d c0
       -0.18506096 0.45053867 0.041529924 -2.703434
0001b0 a0 e5 a9 c0 a8 54 d0 be 91 2c 99 3e f2 0e 84 3e
       -5.3092804 -0.40689588 0.29916814 0.25792652
0001c0 7b b7 07 c0 e5 e9 5f 3e b6 92 25 40 08 98 ad 3e
       -2.1205738 0.21866567 2.5870795 0.33905053
0001d0 93 f7 fc bd ac 1f 20 c0 6b 39 8f 3e 20 1e 02 ba
       -0.123519085 -2.501933 0.27973494 -0.00049635954
0001e0 02 5e 9a 3d 97 4e 2d c0 4b e0 29 3f db dc 49 3d
       0.07537462 -2.7079217 0.6635787 0.04928289
0001f0 26 45 33 be 87 a6 71 be 12 86 8a 3e c4 90 0a c0
       -0.17506847 -0.23598681 0.27055413 -2.1650858
000200 01 c0 9c 3e 80 82 76 3e cb 8a a1 c0 8b f7 e4 be
       0.30615237 0.2407322 -5.0481925 -0.4472011
000210 7c 82 a7 bf 36 a6 84 be e7 95 34 3e 15 3c 58 3c
       -1.3086696 -0.2590806 0.17635308 0.013197918
000220 62 cb 3c 3e 6e 10 a0 3f 38 ee 89 c0 13 4a 23 be
       0.1843696 1.2505014 -4.3103294 -0.15946226
000230 eb f5 8d be 05 8f 23 3e d1 a3 33 3b ce 2b 76 3d
       -0.27726683 0.15972526 0.0027410875 0.06010037
000240 fd 74 2a c0 3e 4b 3d bc d1 ce 68 3e b8 30 6f 3e
       -2.6633904 -0.011553584 0.22735144 0.23358428
000250 cb 29 8b c0 b7 77 a2 3d 9b dd 5a 3f 02 18 e3 bd
       -4.3488517 0.0793299 0.85494393 -0.110885635
000260 c5 cd 5e 3e c9 f9 83 3f 3c 8e 49 3d 27 9b 76 c0
       0.21758182 1.0310603 0.04920791 -3.8532197
000270 e2 cf 81 3e af 89 77 3d 2f 2b 91 3e 45 d2 5e 3e
       0.25353914 0.06043404 0.2835326 0.21759899
000280 cb 7b b7 3e 8f 5f 9b c0 df c2 a8 3d e3 27 06 bf
       0.35836634 -4.855415 0.08240294 -0.5240461
000290 66 fd 96 c0 b9 5a 64 c0 8c 18 41 bf 2d d6 0b bf
       -4.7184324 -3.5680373 -0.7542808 -0.5462368
0002a0 43 c0 d7 be 9b 35 9a c0 2f da 8a 3d 44 e9 98 be
       -0.42138872 -4.8190436 0.067798965 -0.29865468
0002b0 3f 75 08 3e ae 39 af bf 05 96 37 3e b4 2a 7f 3f
       0.13325976 -1.3689477 0.17928322 0.99674535
0002c0 97 45 c2 be e3 8d 64 bf 5c b1 cf bf 58 2d 9b c0
       -0.37943718 -0.89279 -1.6226001 -4.849285
0002d0 2b dc cd 3f ec d3 f4 3d 4d 7e c5 3e 33 e8 86 3e
       1.6082815 0.119544834 0.38572922 0.2634903
0002e0 c1 9d 9b c0 43 5f 14 3e a7 6f 23 3e 03 6f ef 3f
       -4.863007 0.14489464 0.1596056 1.8705753
0002f0 62 54 bc 3f 3e cd 0e 3e 8a 0d b4 bf d8 ac a1 3e
       1.4713252 0.13945481 -1.4066632 0.31577182
000300 b9 f9 66 c0 91 5e 20 bf 02 a5 65 3f f2 ad d2 3d
       -3.6089919 -0.62644297 0.89704907 0.10287084
000310 a8 c8 a5 3d e1 45 2f 3d e6 13 8e 3d 7d 87 a2 3e
       0.08094913 0.04279125 0.06937389 0.31743994
000320 be 2e 9e 3d af e2 18 bd 29 58 a1 bd 75 8f 89 bd
       0.07723759 -0.037325557 -0.07878143 -0.067168154
000330 3e 03 9a bd 5e ca 97 bd 51 7d bd bd 35 85 d4 bb
       -0.0752015 -0.07411645 -0.09252418 -0.006485606
000340 96 5d 81 bd a5 41 29 3d 3a f4 93 bd ad 3d ff bd
       -0.06316678 0.04132237 -0.07224317 -0.124629356
000350 7c 1a 80 3c 54 94 f7 bd ba 47 2c 3d a5 73 0e be
       0.015637629 -0.12088838 0.04206059 -0.13911302
000360 c6 fd cd bd 57 9d 0b 3c e1 76 2f be 4d 58 9d bd
       -0.10058169 0.008521399 -0.17135192 -0.07682858
000370 10 10 16 3d 5f db 05 be 63 3f 07 be cb e9 31 be
       0.036636412 -0.13071965 -0.13207774 -0.17374341
000380 b8 71 93 bd 38 34 dc bd a2 50 92 3c d1 6f 2d be
       -0.071994245 -0.107521474 0.017860714 -0.16937186
000390 d9 04 09 bd f0 37 95 bd 4e 87 89 bd 9f ef 98 3c
       -0.03345189 -0.0728606 -0.067152604 0.018668948
0003a0 13 cb e9 3c 18 4c d7 3c fa 79 56 3d 77 ae 16 be
       0.028539216 0.026281402 0.05236242 -0.1471499
0003b0 d0 27 3f bd e7 26 9c bd fd 2f 5e bd b2 cd 5a bd
       -0.046668828 -0.076246075 -0.054244984 -0.053418823
0003c0 0f 7b 84 3c f0 3d 8c 3a 47 2a 19 be 46 ca b7 bd
       0.01617196 0.0010699611 -0.14957534 -0.089741275
0003d0 34 5b d1 bd 5d 93 c4 bd f0 9e 87 3d 86 ad ac 3d
       -0.10222474 -0.0959842 0.06622112 0.084315345
0003e0 58 20 f3 bb 71 e0 ce 3c c0 1d 90 bc ce 1f 9b 3b
       -0.007419627 0.025253506 -0.01759231 0.004734016
0003f0 44 22 01 be 71 99 f1 bd 5b 4f b9 bd 04 f0 99 3c
       -0.12610728 -0.11796845 -0.09048339 0.018791206

network.2.bias f4 [200]
000000 17 63 21 3e a9 d2 e5 bc af 83 34 bd 66 63 c2 3c
       0.15760456 -0.028054552 -0.044070896 0.023729037
000010 c8 c1 63 bc c3 ab 23 bd 73 57 d4 3f d1 77 8a 3f
       -0.0139011815 -0.039958727 1.6589187 1.0817815
000020 2a be 63 bc a2 8d 58 bf 62 9b 97 bc e8 c0 9c 3e
       -0.013900319 -0.84591115 -0.01850671 0.30615926
000030 ea 1c 98 bc f0 f9 ad 3f be da ac be b8 5e 96 bc
       -0.018568475 1.35919 -0.33760637 -0.018355712
000040 b6 ad b5 bc 62 0d c2 bc 09 06 2e bc ed 39 8c bc
       -0.022177558 -0.023688022 -0.010621556 -0.017117465
000050 4a 19 33 3f 77 6e d3 be c0 72 fb bc ea 83 73 b9
       0.69960463 -0.41295215 -0.030694366 -0.00023223428
000060 a8 d4 58 bf b0 f8 4f bc a8 d8 bb 3f 33 7c 3a bc
       -0.8469949 -0.012693569 1.4675493 -0.01138215
000070 6c 5e e5 3e be c7 2e 3c 8e 8e d3 3d 7b 5c c2 bf
       0.447986 0.010667739 0.103299245 -1.5184473
000080 79 52 f4 3d c1 7c c1 be d5 4f 22 bd 0e eb 83 3e
       0.11929793 -0.37790492 -0.039626915 0.2576527
000090 57 e1 56 3f 4a 3b 71 3b 7f 8b f8 bc d2 e6 0c bd
       0.8393759 0.003680902 -0.030339954 -0.034399815
0000a0 40 a6 68 3f 04 83 c5 3f 0a e6 aa 3f 7b 44 a7 bd
       0.9087868 1.5430608 1.3351452 -0.081673585
0000b0 ac 1c fe bc 23 8e 1e bd a2 9e 19 3f 76 33 28 bd
       -0.031019531 -0.03870977 0.6000768 -0.041064702
0000c0 e0 2d 2a 3f 1f 9f e3 bc 3d 0b 7f be 82 85 34 3f
       0.6647625 -0.027785836 -0.24906631 0.70516217
0000d0 b8 73 2e bc f5 e3 25 bd 6a 25 dc 3e b6 4b be 3f
       -0.010647707 -0.0405006 0.42997295 1.4866855
0000e0 e7 aa 8c bb 8a 07 28 bc dd 91 b6 bc 14 bc 11 bc
       -0.004292834 -0.010255704 -0.02228635 -0.008894939
0000f0 f8 01 38 bd f5 82 0c 3f 05 03 2c bd 59 ba d6 bc
       -0.044923753 0.54887325 -0.041995067 -0.026211904
000100 9c ad f8 bc a6 bb a5 bc 1d 65 83 3f 12 ff 4e bb
       -0.03035622 -0.02023108 1.0265232 -0.003158514
000110 b7 0c 93 3f 11 2b 9b 3f 22 57 ab 3e b8 a0 a1 3f
       1.1488255 1.2122518 0.33464915 1.2627172
000120 32 de 02 bd 85 c9 c4 bb 12 43 15 3f da 4e a0 bc
       -0.031950183 -0.0060054683 0.58305466 -0.01956885
000130 ea 81 c9 3f 46 93 33 bd 9b 16 6f 3f 02 29 05 bc
       1.5742772 -0.043841623 0.9339387 -0.008127453
000140 be 05 a6 bc 29 2d 72 be 35 0c 07 3d e7 8d f4 bb
       -0.02026641 -0.2365004 0.032970626 -0.007463205
000150 1d 15 9c be 8a 6b b6 3f d9 60 70 3f 1e 37 8d 3f
       -0.30484858 1.4251568 0.9389778 1.1032445
000160 68 12 30 bd f4 6f b4 3f 36 50 1b bd 03 4b 96 bc
       -0.042986304 1.4096665 -0.037918292 -0.018346315
000170 f8 b7 41 3d 49 99 d4 3f 3f 21 f9 bc 3a f4 29 3f
       0.047294587 1.6609279 -0.03041136 0.66388285
000180 81 a2 1b ba 3c ff 9e bf 11 0b 41 be 29 3b 40 be
       -0.0005936996 -1.2421641 -0.18851878 -0.18772568
000190 05 2b 9e be 8e 85 bb 3e f9 e6 81 3f b1 fa ae bc
       -0.30892196 0.36625332 1.0148612 -0.021359773
0001a0 7c 06 b8 3e 1c 3e 8a bf 88 ec 0d bd 66 ba e3 3f
       0.35942447 -1.0800204 -0.034649402 1.7791259
0001b0 00 00 00 00 80 54 2d bd 07 3d 1f bf 05 2e 87 3a
       0.0 -0.042316914 -0.62202495 0.0010313398
0001c0 8f 07 ee be 66 3b 35 bd db 18 0c b8 5f be dd 3e
       -0.46490142 -0.0442461 -3.340175e-05 0.43309304
0001d0 26 b0 fb 3e bb b9 01 bd eb b5 66 3f 21 db 96 3f
       0.49157828 -0.031671267 0.90121335 1.1785623
0001e0 23 69 28 bd e2 0d 80 3e 68 05 bd 3b 1f 0a bb 3e
       -0.04111589 0.25010592 0.0057684667 0.3653116
0001f0 2f 0b 59 3d 22 4b a4 3f e8 62 20 bc ff f5 13 bd
       0.05298918 1.2835429 -0.009789206 -0.036123272
000200 39 f8 6f 3d b9 f3 cf 3e 56 2c 65 be bd 54 36 bf
       0.058586333 0.40615633 -0.22380194 -0.7122305
000210 55 a3 81 bc bd bf c0 3e a0 63 b8 bc d2 83 d9 bc
       -0.015824953 0.37646285 -0.022508442 -0.026552115
000220 3e b0 42 3c 4c 29 50 bb 4e 97 18 3f 8c f6 c0 3f
       0.01188284 -0.0031762896 0.5960587 1.507524
000230 66 cf c0 3f 17 f9 b8 3d 54 40 31 bd 3a 29 2f bc
       1.5063293 0.09031885 -0.04327424 -0.0106909815
000240 a9 31 9f bf 96 67 11 bd 7f af 63 3f 09 ba 0a 3e
       -1.243703 -0.035499178 0.8893966 0.1354753
000250 8c 39 04 bd f6 6f 1f bd 09 60 b2 bc 6e 64 b0 be
       -0.032281443 -0.038925134 -0.021774309 -0.34451622
000260 ea ab 93 3f f1 2d 2d bf 9d a4 3e 3f 74 60 00 bf
       1.1536839 -0.67648226 0.7446993 -0.50147176
000270 37 dc 4e 3f ea 2a ba 3e 1a 13 23 3f 33 da 23 3f
       0.8080477 0.36360866 0.6370102 0.6400482
000280 63 86 6e bf 57 9a 3a 3a 14 3a e3 bc dd 02 2a 3d
       -0.9317381 0.00071183353 -0.027737655 0.041506637
000290 35 5b 0c bd a3 3f 2e 3f 0d b5 2c 3e 60 36 01 3f
       -0.03426667 0.6806585 0.1686594 0.50473595
0002a0 b1 45 31 be 0d 16 8e 3e e0 cf 9b bc a4 ab 6d 3f
       -0.17311741 0.27751198 -0.019020021 0.9284003
0002b0 cf 05 93 3e 9f ca 2e bf 42 79 50 bd 51 33 1a bd
       0.2871537 -0.68277925 -0.05089689 -0.037646595
0002c0 81 5a 56 3f 55 b1 a1 3f 3d 6c 0e 3f 2b 5e 07 be
       0.8373185 1.2632242 0.5563391 -0.13219516
0002d0 24 cb ea 3b f9 db 22 3f b2 84 25 bd bd 1a b3 3f
       0.0071653295 0.636169 -0.04040975 1.3992535
0002e0 cc 20 85 3e a5 16 b7 ba ed 95 30 3e 08 a6 4c 3f
       0.26001585 -0.0013968541 0.17244692 0.79940844
0002f0 c9 6c 70 3f a2 f8 85 3d 30 ef 7d 3f 29 b1 16 bd
       0.9391599 0.065415636 0.99193096 -0.036790047
000300 e9 30 b3 3f 17 e8 88 3e f7 d4 b1 3f 62 87 d8 3b
       1.3999301 0.2673957 1.3893117 0.0066079358
000310 b9 8e fa bc 88 79 43 3f 7d ed 78 bf 11 bd 16 bd
       -0.030585634 0.76357317 -0.9723738 -0.0368014

network.4.weight f4 [6, 200]
000000 47 eb f0 bf 47 f9 fd bc 78 ad 1e 3e 64 26 a2 bf
       -1.8821801 -0.031002654 0.1549586 -1.2667966
000010 3c f6 16 3d 83 09 00 3e 3d 11 8d bc 76 1f 27 40
       0.03685592 0.12503628 -0.017220134 2.6112952
000020 46 91 05 be ee e8 3a c0 32 41 17 3c 4e 82 5e bf
       -0.13043699 -2.920467 0.009231852 -0.8691758
000030 68 84 74 bc 4f c5 eb be 22 7d 95 bf d8 60 75 3d
       -0.014924146 -0.46048972 -1.1678813 0.05990681
000040 d6 83 04 bd 27 1b 82 3d 1e 55 e5 3d 0e 4b 18 3e
       -0.03235229 0.06352835 0.111978754 0.14872381
000050 2d af be bf 04 d3 8f bf b9 30 8c 3d b6 12 01 3e
       -1.489721 -1.1236272 0.068452306 0.12604794
000060 2e df 3c 3e a4 cd d1 bc 7b 88 51 3e c3 95 d8 3c
       0.18444511 -0.025610752 0.2046222 0.0264386
000070 a6 91 2a bf 2d 50 51 bf d8 c1 64 bf fb 94 37 40
       -0.6662849 -0.81762964 -0.8935828 2.868468
000080 4e 3b 1d c0 5c 00 a1 3f 57 00 d6 3d 4a 2d 80 bf
       -2.4567447 1.2578235 0.104492836 -1.0013821
000090 81 b4 a8 3f 72 ba 05 3e a6 e4 f9 3c 7f c0 d1 bd
       1.3180085 0.13059404 0.030504536 -0.10241794
0000a0 62 f6 02 bf 69 84 cb be 57 fa d6 be f6 69 1d c0
       -0.511572 -0.39749458 -0.4198787 -2.4595923
0000b0 66 4d 6d 3d 5b 4c ae bd 38 e2 61 40 44 c4 7e bd
       0.05793514 -0.085106574 3.5294323 -0.062198892
0000c0 12 7e 13 bf d1 63 3e 3d be 07 7f bf 07 87 e2 3f
       -0.57614243 0.04648191 -0.9962119 1.7697457
0000d0 1f 5c d2 bd 92 f9 2a be 32 20 34 bf 5a 52 a7 be
       -0.10271477 -0.16696766 -0.70361626 -0.32680017
0000e0 d1 36 71 bf 24 03 d0 bd 65 2e 8d bd b2 a5 d8 3d
       -0.9422427 -0.10156849 -0.06893615 0.10578479
0000f0 30 8c 97 bd e1 3e 1e bf 8d 6c 75 3d 6c d7 0c be
       -0.073997855 -0.61814696 0.059917975 -0.13754052
000100 09 28 8b bd 03 8c 0f 3e 3d 5c 34 bf d0 cb 63 3d
       -0.067947455 0.14018254 -0.70453244 0.055614293
000110 c7 c7 0f bf 98 b7 c7 be 04 fb 39 bf 01 7a fd be
       -0.5616421 -0.39007258 -0.72648644 -0.49507144
000120 cf 00 1d 3a fc 32 de bd 87 62 79 bf cd bb 89 3d
       0.0005989195 -0.10849568 -0.97415966 0.06725273
000130 3a c8 98 be c6 73 10 3e 0b 41 23 bf 90 de a0 3d
       -0.2984026 0.14106664 -0.6377112 0.078549504
000140 f5 b9 1d be 76 db 56 bf 29 d7 05 c0 fa 9a c5 bd
       -0.15402968 -0.8392862 -2.0912573 -0.096487
000150 36 3d 3e 40 7e 4c c9 bf 2a 45 0a bf 38 dc d9 be
       2.972486 -1.5726469 -0.54011786 -0.42550826
000160 fa 2a 17 3e 00 91 ce be 08 9e 33 bd 40 b5 17 3e
       0.14762488 -0.40345 -0.043851882 0.14815235
000170 08 f7 ab be 25 d1 c4 c0 1e ad 16 3e 30 68 12 bf
       -0.33586907 -6.1505303 0.14714476 -0.5719023
000180 de 3c c6 bd 6e cc 5c bf 84 ff 15 c0 ea 83 57 c0
       -0.09679578 -0.86249435 -2.3437204 -3.3674264
000190 84 41 d5 be d0 72 1f bf ab 95 e0 be cc 21 15 3e
       -0.41651547 -0.62284565 -0.43864188 0.14563674
0001a0 7c 4c 12 c0 62 f9 8f 40 ed 78 94 3d 27 4d cc 3f
       -2.2859182 4.499192 0.07249627 1.5961045
0001b0 ba 62 06 3e 68 50 2f 3c fb fd 25 c0 c4 9e c4 bc
       0.13123599 0.010700323 -2.5936267 -0.024001487
0001c0 4a 8e 90 bf 52 e2 db 3d 37 63 9d 3a ca ca 2a bf
       -1.1293423 0.107365265 0.0012007718 -0.6671568
0001d0 89 16 b5 bf af 87 b1 bd 1f 72 9d bf fc 79 0d bf
       -1.4147502 -0.08668458 -1.2300452 -0.5526426
0001e0 95 43 7e bd b8 f6 a8 bf 85 aa 4d 3c e8 b9 ac bf
       -0.06207617 -1.3200293 0.012552862 -1.3494234
0001f0 93 97 a6 3f 85 70 02 bf a7 16 b2 3d c7 61 19 bd
       1.3015007 -0.5095294 0.08695727 -0.037446763
000200 ef 33 09 40 06 42 ac bf 31 0c 21 bf b6 6f f2 bf
       2.1437948 -1.3457649 -0.6290923 -1.8940341
000210 87 39 8a bd d6 52 79 bf 7f 02 1d 3e b4 10 22 3d
       -0.06749254 -0.9739202 0.15332983 0.03956671
000220 56 db 86 3d cd f6 12 3e da b9 12 bf 18 07 e5 be
       0.06584804 0.1435196 -0.57314837 -0.44731975
000230 90 13 df be 6a 4a 70 c0 69 6a d2 3d 2c 9e 14 be
       -0.43569613 -3.7545419 0.102742024 -0.14513463
000240 48 3a a1 be bd 12 80 bd 91 85 29 c0 32 30 b0 bf
       -0.31489778 -0.06253574 -2.6487772 -1.3764708
000250 83 82 1a be 59 26 13 3c 72 68 1a 3b 1a c7 bb 3f
       -0.15088849 0.008981311 0.002356079 1.4670136
000260 b1 de 43 3f b1 9b e7 bf b9 0c d1 bf 8b cf d0 bf
       0.76511675 -1.8094388 -1.6332008 -1.6313337
000270 e2 32 df bf 62 f0 3a bf 6f 00 23 bf e2 ec 06 bf
       -1.7437403 -0.73023045 -0.63672537 -0.52705204
000280 6e e4 74 3f 2a 79 9f 3d d9 cf 76 3d 5b 27 ee be
       0.95661056 0.07786782 0.060256813 -0.465144
000290 33 98 7a 3a 37 51 c6 bf 09 17 6f bf 5e b4 27 bf
       0.00095594226 -1.5493535 -0.93394524 -0.65509593
0002a0 5f 34 a4 bf 33 7c 47 bf bf 28 96 bc 55 68 f0 be
       -1.2828482 -0.7792389 -0.018329976 -0.469546
0002b0 82 b9 41 bf e6 63 98 be 8d bb 25 3e a1 b9 14 3e
       -0.7567369 -0.29763716 0.16184826 0.14523937
0002c0 ea f9 13 bf 64 0e e7 be d5 f2 c8 3f 77 c7 48 bf
       -0.57803214 -0.45128167 1.5699106 -0.7842936
0002d0 af 79 0c 3e 73 d6 22 bf 5b 1c 24 3e a1 28 9d bf
       0.13718294 -0.63608474 0.16026442 -1.2278024
0002e0 3c 03 95 bf ef ae bf 3d 67 c4 6f bf 78 72 0d bf
       -1.1641612 0.09359538 -0.9365906 -0.5525279
0002f0 f3 a9 0a bf 1f a1 12 c0 9c bf 0b c0 a6 7d b8 bd
       -0.5416557 -2.291084 -2.18357 -0.090083405
000300 a7 bc ff be 8d 0f dc 3f 89 e0 cd be dd e2 b4 bd
       -0.49948618 1.7192246 -0.4021037 -0.08832333
000310 a0 69 a5 3c de d0 02 bf 1c 63 b6 bf cd 21 e2 bd
       0.020191967 -0.51099956 -1.4248996 -0.11041603
000320 f6 1d 86 bf 02 06 29 bd da c9 92 3d ca 5a a6 bf
       -1.0477893 -0.041265495 0.071674064 -1.2996457
000330 18 45 f9 3d 87 33 3b be db 4c 6c bf 50 6a a4 3f
       0.12171382 -0.18281375 -0.9230477 1.2844944
000340 6b e0 4f bd b2 ea 31 bf 39 74 13 bd 85 2c 6d bf
       -0.05075113 -0.6949874 -0.03599951 -0.92646056
000350 cc df dc 3d 5d 8b dd be e7 9d 72 bf 36 85 69 3d
       0.10784873 -0.43270388 -0.9477219 0.057011805
000360 36 cb 62 3e ea 87 04 bc e3 8d 10 3e 40 99 8e 3b
       0.22147831 -0.008089045 0.14116625 0.004351765
000370 52 af 8c bf 29 14 f5 be 94 e9 0c 3d 42 c5 20 be
       -1.0991004 -0.47866943 0.034402445 -0.15700248
000380 c7 80 20 3f 04 8e 09 be 0c e9 91 bf d5 a3 19 3e
       0.626965 -0.13433081 -1.1399245 0.15003903
000390 a4 59 57 bf a6 6b b1 bf 85 2e 7f bf 49 67 87 3f
       -0.84121156 -1.3860977 -0.9968036 1.0578395
0003a0 8b 92 88 bf 6d c5 8c 3f ba cd 1a 3e 34 71 17 bf
       -1.0669721 1.099775 0.15117541 -0.5915711
0003b0 2f 18 14 40 c0 38 9d bd ed 7f c2 3c 4f f2 dd bc
       2.313976 -0.0767684 0.02374264 -0.02709308
0003c0 70 be 43 bf c9 08 0e bf da c4 c6 be 46 0b 6a bf
       -0.7646246 -0.55482155 -0.3882206 -0.9142345
0003d0 33 a3 3c be 52 18 07 3e 47 1d 36 3e 2c f1 14 39
       -0.1842163 0.13192871 0.17784606 0.00014204223
0003e0 b1 4d 45 bf 50 1d 2a be 36 c2 62 bf f7 57 c8 3f
       -0.7707167 -0.16612744 -0.8857759 1.5651845
0003f0 46 8e 08 3e 88 6d d4 3d fd 72 3f bf 6d 70 f4 be
       0.13335523 0.10372454 -0.74784833 -0.47742024

network.4.bias f4 [6]
000000 da 40 d2 3e 60 3a 60 bf 5a b9 39 bf c7 cf 69 bf
       0.41065103 -0.87589073 -0.7254845 -0.9133267
000010 58 81 6a bf 0e cd 8e bf
       -0.9160361 -1.1156328

network.0.weight f4 [200, 24]
000000 fd dc d3 3e 94 06 cd 3e d4 67 eb bb 68 81 d9 be
       0.41379538 0.4004408 -0.007184008 -0.42481542
000010 e7 99 8d bf 06 9c 57 bf 97 72 88 bf 54 82 1f bf
       -1.1062592 -0.8422245 -1.065997 -0.6230824
000020 cc 79 13 c0 b7 02 51 bf 72 bd 8f be 57 0b c8 bf
       -2.304309 -0.8164477 -0.28074223 -1.5628461
000030 27 c2 b6 be cf d3 ce 3f 22 b5 22 c0 58 a3 a2 bf
       -0.35695 1.6158389 -2.5423055 -1.2706099
000040 67 6e 1b 3f 9e 92 25 c0 fa 2a 10 3e 40 79 07 3f
       0.60715336 -2.5870738 0.14078894 0.5291939
000050 4c 60 6e 3f 7b ee 07 be 26 22 7d 3d 8c 1a 47 be
       0.9311569 -0.13274567 0.061800145 -0.1944372
000060 f3 63 03 3f cc 52 93 3e 76 e7 20 3e a2 b4 28 3f
       0.51324385 0.28774107 0.15713295 0.65900624
000070 a2 e3 04 3f 3a 5e 0a 3f 72 4e 2b 3f ca ad 49 3e
       0.5190984 0.5405003 0.66916573 0.19695202
000080 cd af 50 3e 2b 5a 30 3f f3 fd 2e 3f 03 cb 2e 3e
       0.20379563 0.68887585 0.68356246 0.1706963
000090 87 8c fe bf c0 5b 91 bf 57 8d bb 3e df 3d e5 bf
       -1.9886636 -1.1356125 0.3663127 -1.7909507
0000a0 f4 f7 97 bf e1 5a 33 3f ea 9b 52 3f 18 b8 26 3d
       -1.1872544 0.70060545 0.82269156 0.04070291
0000b0 d3 30 93 be 6d da 18 3f 75 e1 3a 3f ab 89 c4 3b
       -0.28748187 0.5970829 0.7300027 0.0059978566
0000c0 20 10 33 3e 79 a4 e0 3d ad 37 17 ba 1b 06 98 3e
       0.1748662 0.10968871 -0.0005768489 0.29692158
0000d0 84 32 d9 3e ef 60 b0 3d ec ab 05 3f 46 e5 6a 3e
       0.42421353 0.086122386 0.52215457 0.22939023
0000e0 fd e0 04 3f 78 4a 89 3e a9 3d ea 3e c9 ad a9 3e
       0.51905805 0.26814628 0.45750168 0.331404
0000f0 91 a5 05 3f 36 87 c6 3e eb d2 00 3d 47 e5 b4 3e
       0.5220576 0.38775033 0.031451147 0.35331175
000100 03 ec ae 3e aa c3 d5 3d 37 2d 2b 3f d6 fd 40 3e
       0.34164438 0.104377106 0.6686587 0.1884683
000110 e5 7b c4 bd ca cb ea 3e ab cd 23 3f e1 d4 d0 bd
       -0.095939435 0.45858604 0.639857 -0.101968534
000120 04 f5 9d 3e 6b b7 fe bd 4b a1 92 be ea ef de 3d
       0.30850995 -0.12437328 -0.28638682 0.10885604
000130 60 3b 18 3f 42 81 a0 bd 6d bb 9d 3e 0a e2 36 be
       0.594656 -0.07837154 0.30807057 -0.17859665
000140 2a 77 9c 3e 9c 96 33 3e f1 cd a2 3d d0 36 c0 3b
       0.30559665 0.17537922 0.079494365 0.005865909
000150 a3 1b 22 3f 73 d2 b4 be 89 9a 9a 3d f5 72 7d 3e
       0.6332342 -0.3531681 0.075490065 0.24750884
000160 5c ba 92 bb 12 08 5b 3d 4f c0 7e 3f e2 16 f4 3e
       -0.004477782 0.053474493 0.9951219 0.47673708
000170 d1 9c 12 be 58 c9 6f 3e f2 15 61 3f a3 53 e7 be
       -0.14317633 0.2341665 0.8792411 -0.45180997
000180 9f eb b0 3d 6b 74 22 be 11 7f 58 be e5 7e b6 3e
       0.08638691 -0.15864722 -0.21142222 0.35643688
000190 54 6e 0c be 1f 79 ce bc 46 7b 9f 3d 51 63 68 3b
       -0.13713962 -0.02520424 0.077871844 0.0035459588
0001a0 d0 51 b2 3e 9f d2 27 3e c6 13 b6 be 59 0c 7e 3e
       0.34828043 0.1638894 -0.3556196 0.24809398
0001b0 7e 5b 18 3f 06 ef 02 be a1 e3 80 3e 8b db fc 3d
       0.59514606 -0.12786493 0.25173667 0.12346562
0001c0 9b e3 a7 bd db fb 89 be 78 e7 25 3f 92 6d c1 3d
       -0.08197709 -0.26949963 0.6480632 0.09444727
0001d0 2c 19 85 3e 53 b1 cb 3e 4f 09 ac be 26 a3 36 bd
       0.25995767 0.39783725 -0.33600852 -0.044589184
0001e0 95 f0 6a 3d 95 ac 10 3e 14 09 0e bf 95 3d 30 bd
       0.057358343 0.14128335 -0.554826 -0.04302748
0001f0 e6 0a ba 3e c2 a8 da be 3f 2c dd 3e e7 e7 70 3e
       0.3633644 -0.42706877 0.4319782 0.23525964
000200 be f4 4c 3e 68 67 cd 3e ff 9f e2 3e e9 a6 8b 3e
       0.20015237 0.40117955 0.44262692 0.2727578
000210 66 fa 12 3f 0c d8 a5 3c 60 57 1c be 2b 84 1c 3e
       0.5741333 0.02024462 -0.15267706 0.15284793
000220 0d cb e5 3d 4a 5f 9e be bc ce 32 3f 11 9d 2d 3e
       0.112203695 -0.30932075 0.698467 0.16954447
000230 4a d7 4c be b9 e3 e3 3e 27 7b e5 3d 5e b1 36 be
       -0.20004001 0.44509676 0.1120513 -0.17841098
000240 db a6 a0 3e 7c 3f 33 3e b9 8b 0d be 29 ee 9b 3e
       0.313773 0.17504686 -0.13822831 0.3045514
000250 d0 0d 04 3f 68 d4 84 3e 26 c8 78 3e b0 c0 50 bd
       0.51583576 0.25943303 0.242951 -0.05096501
000260 5b 55 9b 3e 02 23 41 bd c6 df 09 3e b3 1e b2 3e
       0.3033856 -0.047152527 0.13464269 0.34789047
000270 ad 26 00 3f 68 6f b1 3e 54 21 44 3e 68 0c 15 3f
       0.50059015 0.3465531 0.19153339 0.58222055
000280 c4 de ac 3e 55 c5 9b 3e 29 4f a9 3e ba 39 2c 3e
       0.33763707 0.3042399 0.33068207 0.16818896
000290 08 a9 0a be aa eb 9e 3e 95 e7 00 3f 75 98 8c be
       -0.13541043 0.31039172 0.50353366 -0.27460065
0002a0 c5 b4 13 3e f6 c5 d0 3d b0 b2 56 be ad 40 90 3e
       0.14424427 0.10194008 -0.20966601 0.28174344
0002b0 31 d9 0c 3e cd e3 a4 3d c6 06 07 3f 13 bf 23 3e
       0.13754727 0.08051262 0.5274471 0.15990858
0002c0 00 67 1f 3f 9a f4 cc 3e f3 3a 9c 3e a9 7c 0c 3f
       0.6226654 0.40030366 0.30513725 0.54877716
0002d0 a2 dc 01 3f 0a 50 e6 3e 2c ea 4d 3e 3b fb df 3e
       0.50727284 0.4498294 0.2010886 0.4374636
0002e0 6a 28 95 3e cc 69 75 3d 32 76 dc 3e 50 ba 00 3e
       0.29132396 0.05991535 0.43058926 0.12571073
0002f0 2d c0 22 bd 37 95 07 3f 9e 92 cf 3e 7c 71 80 bd
       -0.039734054 0.5296206 0.40541548 -0.062716454
000300 af 78 ce be 54 56 b6 be 58 d6 08 3f 9a 3e e0 3e
       -0.4032645 -0.35612738 0.5345206 0.4379776
000310 d0 6e d3 bd 9c b8 83 3f 78 c8 b0 bd 2d 19 be be
       -0.1032387 1.0290713 -0.086319864 -0.37128583
000320 3f e6 b4 3e 99 42 a8 3d 55 f1 35 3f ca ac e4 3e
       0.35331914 0.082158275 0.7107137 0.44663078
000330 30 61 73 bf 52 c3 1d bf 8b e7 18 3f c6 d6 c4 bd
       -0.9507017 -0.6162616 0.59728307 -0.09611277
000340 24 f9 62 bf 30 25 06 3f 99 26 0d 3f e2 15 62 bd
       -0.8866141 0.52400494 0.5513702 -0.05519665
000350 14 7e e3 be f0 7b 16 3f b9 3f 5e 3f 1a 62 be be
       -0.44432127 0.58782864 0.86815983 -0.3718422
000360 1b 8a 5b bd e6 20 44 3d a7 d3 19 be 44 e8 19 3e
       -0.053598505 0.047882937 -0.15022145 0.15030009
000370 21 b0 d6 3e 8b aa 51 be 48 a6 1f be 5b db 89 be
       0.4193125 -0.20475213 -0.15590775 -0.26925167
000380 f3 42 58 3e f2 df 13 be a5 e5 ba bb bd 93 a9 3e
       0.21119289 -0.14440897 -0.0057036453 0.33120528
000390 41 13 d0 3e dd b1 e1 3d f7 82 03 bd 09 50 49 3e
       0.4063969 0.11020253 -0.03210732 0.19659437
0003a0 3a f5 41 3e 0a df 38 3e a7 9d 15 3f fb 73 0f 3e
       0.18941203 0.18053833 0.58443683 0.14009087
0003b0 a9 e1 37 bd f0 0e a2 bd 7d 2b 02 3f 0c 74 26 bf
       -0.04489294 -0.07913005 0.5084761 -0.65020823
0003c0 73 5d 3f be 7e 46 ad 3e 7f f0 82 be a0 a7 51 ba
       -0.18687992 0.33842844 -0.2557411 -0.00079976954
0003d0 28 1a 7f 3e 35 2b 37 3e c8 30 3d 3e e2 04 7a be
       0.24912322 0.17887576 0.1847564 -0.24415925
0003e0 4f 24 31 3e 10 02 b2 3e 02 f9 35 3d 59 25 e0 3e
       0.17299007 0.347672 0.044426925 0.43778494
0003f0 0c 7f 2c 3f c1 4c 4b 3e 09 28 54 3d a7 b2 be 3e
       0.6738136 0.19853498 0.051795993 0.37245676

network.0.bias f4 [200]
000000 52 98 34 3f eb 08 16 3f a3 fc 67 bd 9a 5e fe be
       0.7054492 0.5860736 -0.056637418 -0.4968155
000010 56 76 1c 3f ea 1e 81 be 78 74 15 be f1 c8 36 3e
       0.61118066 -0.25218898 -0.1459521 0.1785009
000020 58 2c 79 be 8c b6 0e be 70 10 cc be 93 af ea be
       -0.24333322 -0.13936824 -0.3985629 -0.45837077
000030 61 68 d6 3e 54 d4 dd be 42 1f 74 3f c9 11 31 3e
       0.4187651 -0.43326056 0.95360196 0.17291941
000040 23 9a a5 3e ec bb 4d 3e b9 2a a0 bc 9a 5c 23 3f
       0.3234416 0.20091218 -0.019551622 0.63813174
000050 27 8c 31 3e b0 6c ad bc 6d 2c 64 be 0e 43 39 bd
       0.1733862 -0.02116999 -0.22282572 -0.045229964
000060 75 dd d8 bd 40 b2 48 3e c0 dd 41 3c b4 59 2f 3f
       -0.105891146 0.19599247 0.0118326545 0.6849625
000070 a7 b2 bf be 57 ea 02 be 29 ac ac 3e 6b ce 82 3f
       -0.37440988 -0.12784706 0.33725098 1.0219244
000080 cd 9c 7b bf ee df a1 be 36 bf c8 3f 00 7b 80 3e
       -0.98286134 -0.31616157 1.5683353 0.25093842
000090 2f 46 ae bc a6 71 1e bf f0 7a 89 3e 0c 8f 24 be
       -0.0212737 -0.61892164 0.26851606 -0.16070193
0000a0 97 50 c1 be 8b 24 9b be 7e 94 2b 3e 62 cd ba 3e
       -0.37756798 -0.30301318 0.16755864 0.3648482
0000b0 b9 f3 c8 3e 1f d5 12 be 4b 75 49 3f 0c 98 13 3c
       0.39248446 -0.14339112 0.786946 0.009008419
0000c0 8b c6 a3 3f 17 b4 ab bf 49 7d 94 3f bd 8c 01 3d
       1.2794966 -1.3414334 1.1600734 0.03162836
0000d0 76 f0 86 be b2 4a 7b 3e a4 79 3b 3e 7c 9b 73 3e
       -0.26355332 0.24540213 0.18308121 0.23789781
0000e0 df 3d 15 bd 6e df 8f 3c 8a f4 d9 be 74 cd 53 be
       -0.036435958 0.017562594 -0.4256938 -0.20683843
0000f0 fc ef 93 3e 4c 3f 83 be 6f 59 31 be f2 ef 0e 3f
       0.2889403 -0.2563423 -0.17319272 0.5583488
000100 85 b9 2f 3e c0 e6 00 3e 5c bd 30 3e ca 30 b3 3d
       0.17160614 0.12588024 0.17259735 0.0874954
000110 d3 12 e3 be f0 a9 44 3e 9a d5 04 3f 14 3d 9e 3f
       -0.443503 0.19205451 0.5188843 1.236239
000120 5f c9 db be 1f bb 68 3e 09 cb 17 bf 13 d6 1b be
       -0.4292707 0.22727631 -0.5929418 -0.15218382
000130 bc 3e 0a bc 8a 6a 5f 3e 9d 31 f5 bd 49 0e 89 3f
       -0.008437809 0.21817985 -0.119723536 1.0707484
000140 5a df 8d be 23 46 60 bd 45 02 5b be 1b 32 38 3e
       -0.27709466 -0.054754388 -0.21387585 0.17987864
000150 d0 a1 9d 3e f6 f0 4a bb 88 ca 74 be 14 d9 9c 3f
       0.30787516 -0.0030966378 -0.23905385 1.2253747
000160 eb d6 7e 3f 52 2b f9 be e4 5b 31 3f 8a ba 7e be
       0.9954669 -0.48665863 0.6928084 -0.24875847
000170 b7 aa b6 3d ba c6 8e bf 2c 53 25 bf 5f 70 10 be
       0.0891928 -1.1154397 -0.64580035 -0.14105366
000180 4b 95 56 3f 13 f9 29 3f 00 dc d6 3d 52 29 5c 3c
       0.83821553 0.6639568 0.104911804 0.013437586
000190 d8 8b 50 be c6 db cf bd 42 0c bb bd 09 58 aa 3d
       -0.20365846 -0.1014934 -0.09133197 0.083175726
0001a0 52 bb 74 be 81 19 fc be f1 b6 0f 3f 85 1f 6a 3f
       -0.23899582 -0.49238208 0.5613852 0.91454345
0001b0 29 ec 52 3f ea 36 f0 be 11 d6 88 3d bf da 29 be
       0.823916 -0.46916896 0.06681455 -0.16587351
0001c0 5f 12 34 3f 88 68 ea bb 6a b7 18 be cb 01 f6 bd
       0.7034053 -0.0071535744 -0.14913717 -0.12012061
0001d0 c2 97 cb 3e eb 2b 2e bf 6a 4f 67 3e 06 0d 3c bf
       0.3976422 -0.68035764 0.22588888 -0.7345737
0001e0 0e b0 5d 3e 57 53 28 bf 89 d3 55 bf ba 14 0d 3e
       0.21649191 -0.65752167 -0.835259 0.13777438
0001f0 4a 33 73 be b6 02 b1 3e 21 2c 8d 3e c7 c7 4d bf
       -0.23750034 0.3457238 0.2757273 -0.8038296
000200 ac 7e 52 3d af 01 68 3e 32 72 07 3f e0 f3 d5 3e
       0.051390335 0.22656892 0.52908623 0.41787624
000210 a7 73 a6 3d 2a cd 21 be 77 5b 8a 3c 8d 65 60 be
       0.08127528 -0.1580092 0.016889317 -0.21913739
000220 21 dd 36 bd 37 ab d1 3c 90 65 93 3f 93 07 15 bf
       -0.04464448 0.025594337 1.151537 -0.5821468
000230 b5 bf 51 3c 27 6b 1e be 78 df b0 be 7b b4 3a 3f
       0.012802054 -0.15470563 -0.34545493 0.7293164
000240 dd 89 9a 3f e6 2d 00 be c3 32 88 3e 67 49 8e 3d
       1.2073323 -0.12517509 0.26601228 0.06947594
000250 d7 2a 38 3f e9 69 50 3e 2d ab 71 3e 2b 51 b7 be
       0.7194037 0.20352902 0.23600455 -0.35804114
000260 d1 4a 98 3e e0 8d d6 be 13 50 bf be 50 b6 c3 3f
       0.2974458 -0.41905117 -0.3736578 1.5290012
000270 5d 22 d1 3d d8 d8 39 be e6 47 55 3d ba 80 35 3e
       0.102116324 -0.18149126 0.05207052 0.17724887
000280 4c 81 b2 3e 75 68 65 3f 36 07 f1 bc 4f f3 af bd
       0.3486427 0.89612514 -0.029422384 -0.08591329
000290 3c 74 4f 3f 1f 73 ee 3e ed 81 79 3e 5c d0 50 bf
       0.81036735 0.46572205 0.24365969 -0.8156793
0002a0 f9 27 71 3e 46 e8 5c 3f 7a a2 8f be e9 e0 d6 3e
       0.23550405 0.8629192 -0.28053647 0.41968468
0002b0 38 1b 6b 3e 1d 1a 68 be 04 fb f6 bd a2 d4 f2 bd
       0.22959602 -0.22666211 -0.12059596 -0.11856963
0002c0 b2 c8 e8 3d 15 42 6a be da 4f 15 3f 20 69 10 3f
       0.113664046 -0.22876771 0.5832497 0.5641041
0002d0 4a 4b b2 bd 4e 78 ec 3d 11 bf 83 3e d9 24 15 3e
       -0.087057665 0.11546384 0.2573171 0.14564838
0002e0 fe 22 49 3f 84 31 43 3e 3c 78 8c 3f 86 ae 99 be
       0.7856902 0.19061857 1.0974193 -0.30015963
0002f0 32 6b 6d 3f 4b f8 c9 bd c6 76 68 bb d7 a6 84 be
       0.9274169 -0.09861811 -0.0035471185 -0.2590854
000300 e6 99 73 3f bf 50 86 be 0e ec 2e be 57 d1 7b 3e
       0.95156705 -0.2623348 -0.17082235 0.24591576
000310 44 46 28 3e 88 c1 55 3e b3 13 f0 3e 6c d2 48 3e
       0.16433054 0.20874608 0.4689003 0.1961152
