llirl_sumo/myrllib/transfer_model/ddqn_model_final.pth (torch, 752205 bytes, 24 tensors)

network.0.weight f4 [200, 24]
00000000: 1389 a83e dc3e b53e 585c 67bc eac3 07bf
00000010: 7b46 9ebf 52fd 65bf e270 71bf f334 2cbf
00000020: ff5c 01c0 6d0d 98bf f600 16bf 83a6 d5bf
00000030: b3ed d0be 326f ac3f 1932 30c0 ca37 6fbf
00000040: af4c 553f 6410 17c0 d1c0 d8bd eaaf 183f
00000050: 4b25 3a3f aa1f 87be 6bc5 b43c 50f3 8ebe
00000060: dafd 033f bda0 983e 1437 133e 72af 1b3f
00000070: 1ffa 073f bd01 013f 8993 1c3f 490d 8a3d
00000080: 957c 193e cb51 313f 4eb1 143f 6b2c 023e
00000090: 62b7 07c0 835e 99bf 2174 813e 9418 febf
000000a0: ddf8 a4bf a04d f63e 90ae 663f b4e1 8f3d
000000b0: abdb 8dbe 1903 0d3f 3807 413f 5d38 e5bd
000000c0: e386 363e 3dbd 003e 1d89 a63c 0761 873e
000000d0: 9179 e23e 0a7c d23d baaf 083f 2bc1 0d3e
000000e0: 4bd0 053f 62df b43e 7850 cc3e 61e0 b23e
000000f0: fbe6 0e3f a2d0 9a3e 17fa 3b3d 88b2 c63e
00000100: 7202 b93e 2e59 863d c97f 383f 9e64 833e
00000110: 23e8 18be 9b4f f13e 3539 303f a1bf 1ebe
00000120: 426e 743e 0546 05be c888 93be 49f6 303d
00000130: e012 173f c816 77bc e120 cf3e a80d 40be
00000140: 56f6 c03e 1f82 b93e 6846 dc3d 5e48 183e
00000150: 275f 433f 4138 93be cc67 533e 68d3 ba3e
00000160: 55ae 893d d9a3 a33d 4bd6 833f 5100 fa3e
00000170: 5930 14be b834 833e a155 5c3f 7d06 e4be
00000180: c0e8 e23d ce16 18be f188 29be cb51 c43e
00000190: c138 e8bd 6576 723d 532b fe3b 6103 12be
000001a0: d002 883e 217f 063e 73b0 fcbe d837 283e
000001b0: e055 273f c1ea 26be 65f4 943e fc19 393e
000001c0: 8ea2 003d 203b a5be c735 333f 9634 df3d
000001d0: 432f 783e 4d2c d83e 032c acbe 2938 7cbd
000001e0: 1a4c 0b3e 922c 1f3e 6ac8 dbbe cd19 81bc
000001f0: 51cb c73e 4f18 9ebe ddd9 d63e edce ff3d
00000200: 7d17 663e f52d e03e 6591 b63e 4631 903e
00000210: b1a8 2c3f 8992 8cbd bfb9 0ebd e344 843e
00000220: 1947 153e 024f 5bbe 7676 483f 5585 983e
00000230: 1db3 48be aa66 043f 58a0 443e f6ff 0bbe
00000240: 0983 ab3e 2044 443e 7c20 e2bd 63a8 8c3e
00000250: 9bb0 073f ce0d 873e 8b79 883e c13f fbbd
00000260: f072 aa3e 3e67 5c3d 6a68 bf3d 8ab6 c63e
00000270: 488f 093f f0e9 8a3e dac4 4f3e 4d34 203f
00000280: 75ef b93e 6463 8e3e 9ac0 cf3e a730 6a3e
00000290: b3cf 13be afd9 bb3e 5cca 103f 2a49 87be
000002a0: acc2 073e d8f7 e23d 4c04 3ebe 136a 8b3e
000002b0: 34fc 203e cb57 163e 1cd5 043f a4eb fa3c
000002c0: 7059 143f 626c e43e 044b 4b3e 67e7 033f
000002d0: a0bb 0d3f 3964 cd3e a48c 673e 9ca4 f53e
000002e0: 549c b63e dab2 513c c3a7 e73e 1491 1b3e
000002f0: e3e4 c8bd 6f9d 073f 2b20 d03e c2d4 eebd
00000300: c4b3 c1be bb66 b1be 0f97 0f3f 1b1d d03e
00000310: c082 cdbd af49 833f 9c52 43bd 5b56 dbbe
00000320: cced cf3e 5319 523e f885 303f 80f4 063f
00000330: e21d 76bf 7183 03bf 4c00 0f3f 6332 21be
00000340: 9d15 58bf bf32 d73e fd51 213f 91f0 ccbd
00000350: 1877 d3be c1e7 123f c641 5d3f 6b90 e0be
00000360: 2735 0cbe a6b6 ff3c 8c37 2dbe bb51 513d
00000370: 69d3 d03e 74a9 2bbe e586 5239 9564 45be
00000380: c5b3 993e d8e2 cc3c e010 a43d e071 cb3e
00000390: dce8 033f 70f3 a93d 725c 713d e369 953e
000003a0: d492 743e 96c8 7b3e 63d0 213f 7fab 2b3e
000003b0: 288c 7bbd b3b7 17bd c62e 013f 126a 1cbf
000003c0: cdae 6ebe 1df4 ab3e 2d88 5bbe 05fe 67bd
000003d0: 1dab 7b3e 5889 803e 7d05 a83e e80d 56be
000003e0: 4617 873e 0452 f93e b61c 653d b02b 003f
000003f0: 26c1 4c3f b760 5f3e 3baa 333e 6042 003f
0.3291708 0.3539952 -0.014121138 -0.53033316 -1.2365259 -0.8983966 -0.9431287 -0.67268294
-2.021301 -1.1879097 -0.58595216 -1.669144 -0.4080635 1.3471434 -2.7530577 -0.934445
0.83320135 -2.3603754 -0.10583652 0.59643424 0.72713155 -0.26391345 0.022066792 -0.27920008
0.5155922 0.29810134 0.1437648 0.60814583 0.5311603 0.5039328 0.6116262 0.06740815
0.1498893 0.6926543 0.58083045 0.12712257 -2.1205678 -1.1981968 0.25283912 -1.9851251
-1.2888447 0.48106098 0.9011011 0.07025471 -0.27706656 0.5508285 0.7540164 -0.11192391
0.17824893 0.12572189 0.020329053 0.26441213 0.44233373 0.10277565 0.5339314 0.13843219
0.52270955 0.35326678 0.39905143 0.34936813 0.558212 0.302373 0.0458928 0.38808084
0.36134678 0.065599784 0.72069985 0.25662702 -0.14932303 0.47131047 0.6883729 -0.15502788
0.23870185 -0.13014992 -0.28815293 0.043203626 0.59013176 -0.015081115 0.40454772 -0.1875521
0.3768794 0.36232087 0.107556164 0.14871356 0.76317066 -0.28753856 0.20645064 0.36489415
0.06722704 0.07990236 1.0299772 0.48828366 -0.14471568 0.2562616 0.8606816 -0.445362
0.1107955 -0.1485245 -0.16556145 0.38343653 -0.1133895 0.05919494 0.0077566295 -0.14259101
0.26564646 0.13134433 -0.4935337 0.16427553 0.6536541 -0.16300489 0.29092708 0.18076319
0.031405024 -0.3227167 0.7000393 0.10898702 0.24236779 0.422213 -0.33627328 -0.061576996
0.13603249 0.15544346 -0.4292634 -0.015759373 0.39022306 -0.3087792 0.41963091 0.1249064
0.22469898 0.43785062 0.35657802 0.28162593 0.674449 -0.06863887 -0.03484511 0.25833806
0.14577903 -0.21416858 0.7830576 0.29789224 -0.19599576 0.5171915 0.19201791 -0.1367186
0.3349841 0.19166613 -0.11041352 0.2747222 0.53003854 0.2637772 0.2665523 -0.122680195
0.33290815 0.053809397 0.09346087 0.3881114 0.53734255 0.27131605 0.20289937 0.62579805
0.36315504 0.27810204 0.4057663 0.22870122 -0.144347 0.36689517 0.56558776 -0.26423007
0.13257855 0.11082429 -0.18556327 0.27229366 0.15721208 0.14681928 0.5188768 0.03062994
0.5794897 0.4461394 0.19852835 0.51524967 0.5536442 0.40115526 0.22612244 0.4797715
0.35666144 0.012798989 0.4524518 0.15192062 -0.09809282 0.529746 0.40649542 -0.11661674
-0.37832463 -0.3464869 0.5608987 0.40647206 -0.10034704 1.0256861 -0.047686204 -0.42839321
0.40611112 0.20517473 0.6895442 0.5271683 -0.9613935 -0.5137244 0.5585983 -0.15741877
-0.8440798 0.42030904 0.6301573 -0.10006822 -0.413018 0.5738488 0.8642849 -0.43860182
-0.13692151 0.031215023 -0.1691572 0.051103335 0.40786293 -0.1676386 0.00020077413 -0.1927665
0.30019966 0.025010511 0.08011031 0.39735317 0.5152719 0.08298385 0.058926053 0.29182348
0.23884135 0.24588236 0.632086 0.1676464 -0.06141296 -0.037040424 0.50461996 -0.6109935
-0.23308869 0.3358468 -0.21438666 -0.056638736 0.24576993 0.25104785 0.32816687 -0.20903742
0.26384944 0.48695385 0.055935584 0.5006666 0.7998222 0.21814238 0.17545407 0.5010128

network.0.bias f4 [200]
00000000: 2d5c 123f cdf4 133f faa5 b5bc 96af d1be
00000010: 9d24 223f e833 2ebe b8da 32bd 55b9 1c3e
00000020: 6114 0cbe c822 b4bd 0494 a4be 1da7 f7be
00000030: 2c2e e23e 7fba cbbe cbef 703f 60e8 063e
00000040: 88a2 803e 365a 183e 7ffc 17bd 81ac 233f
00000050: 4b11 393e 10d0 0f3d 7823 d8bd 275c d5bb
00000060: 1e75 8dbd 4d58 863e ee99 1d3e e936 273f
00000070: ad81 9abe daa2 c7bd dc8b 7b3e 3caa 7a3f
00000080: 0770 80bf f511 aabe aebc ca3f 481f a43e
00000090: 2f47 cc3b b3dc 16bf 7108 a53e 64fe 46be
000000a0: b39f 94be 41f5 83be d7db aa3e e1bf b23e
000000b0: dd37 df3e 106c 48bd 6846 353f f26b 5b3d
000000c0: 9a88 a93f 1c75 abbf bb29 a13f 23bd 9e3d
000000d0: ebb8 53be c30c 803e 4ef2 7a3e 3086 893e
000000e0: df3d 15bd cbb1 803d 27c8 a9be 6e4c 75be
000000f0: 1e87 a13e add4 3ebe 1170 4dbe 9348 f83e
00000100: 47a5 5a3e f71c 253e 60c1 5f3e aa29 ea3d
00000110: 8122 cabe f15f 683e fe87 fa3e 9db8 a03f
00000120: 3028 cdbe dabe 1c3e 20fa 0bbf a735 37be
00000130: d7ac f53c b25d 7e3e ad04 5abd 35d2 9e3f
00000140: 58d7 45be ebae 583d 6923 adbe c58f 673e
00000150: 267a 863e 66fa 353d 1857 67be e071 aa3f
00000160: 494c 673f 9603 f0be e77d 313f 347b 45be
00000170: 6600 f13d d90b 9cbf 2950 0bbf a094 5bbd
00000180: cca4 5f3f c4bd 363f 34da 0e3e ef30 753d
00000190: 2192 29be 1183 b0bd ac7f 05be 34cc 123e
000001a0: 3db9 69be ad85 d4be 6ba8 053f c2b8 5b3f
000001b0: cd96 253f a1d7 e9be c3a9 d33d 19c7 81bd
000001c0: 641d 313f 6bde 2d3d 17a6 49be 3dbe 81bd
000001d0: c0be ed3e 6301 34bf d3d2 803e 7ff8 4ebf
000001e0: 8f88 823e 3a74 32bf 16a5 40bf a71a 413e
000001f0: de5b 6bbe b4c3 bf3e bfe0 9c3e a7c9 3cbf
00000200: 7393 8f3d 5a43 923e 5406 cc3e 58c5 c13e
00000210: ffde 453e d461 c9bd 912e e2bd c204 91be
00000220: 321c a93c 180f 10bd 0ff7 8e3f cd0b 02bf
00000230: b488 eb3d b684 88bd e62e e7be 447b 563f
00000240: e29f a23f 9634 16be ffd5 653e 3430 333d
00000250: 65e7 263f f493 113e 3c61 8c3e 38bc b9be
00000260: d4c6 a73e 9621 e7be 9929 a7be 136a d03f
00000270: 5624 773d dbe9 61be 97ce e23d d2ca 113e
00000280: 1c00 c53e b456 473f 3607 f1bc 0524 94bd
00000290: c743 483f 9c66 073f 440d 833e 94bd 4dbf
000002a0: 3385 163e 29c9 3b3f 836e 5abe 564a 9d3e
000002b0: c071 633e 82ee 83be 1b45 91bd 2f4e 50bd
000002c0: 9334 303e 069e 36be 6d63 063f 94dd 383f
000002d0: 0eaf 25be 3e8f 253e 14b4 993e 8b61 3a3e
000002e0: 5c81 393f 5206 3a3e adce 9a3f d15d c2be
000002f0: 06b1 623f 0c11 58be c641 1a3d 3881 36be
00000300: 4fc2 513f 0c68 87be 8306 febd 7930 8a3e
00000310: c63a 4f3e 4ba5 233e df16 bc3e 6a24 323e
0.571719 0.5779541 -0.02217387 -0.40954274 0.6333712 -0.17011988 -0.043665618 0.15305074
-0.13679649 -0.087956965 -0.32144177 -0.48369685 0.4417585 -0.39790723 0.94115895 0.13174582
0.25124002 0.14878163 -0.037106033 0.63935095 0.18073003 0.035110533 -0.1055364 -0.0065112296
-0.06907104 0.26239243 0.15390751 0.6531816 -0.3017706 -0.09747858 0.24565071 0.9791601
-1.0034188 -0.33216825 1.583883 0.32055116 0.0062340717 -0.5893051 0.32233003 -0.1943298
-0.2902809 -0.2577305 0.3337085 0.34912017 0.43597308 -0.04893118 0.70810556 0.05356974
1.3244812 -1.3395114 1.259086 0.07750919 -0.2067601 0.25009736 0.24506494 0.2686019
-0.036435958 0.06283911 -0.33160517 -0.23954937 0.315484 -0.18635817 -0.20062281 0.4849287
0.21352111 0.1612433 0.2185111 0.11433728 -0.3947945 0.22692849 0.4893188 1.255634
-0.40069723 0.15307179 -0.54678535 -0.1789156 0.029989643 0.2484043 -0.053227115 1.24079
-0.19320428 0.05290119 -0.33816078 0.22613437 0.26265067 0.04442825 -0.22591817 1.3316002
0.90350777 -0.46877736 0.69332737 -0.1928528 0.11767654 -1.2191116 -0.5441919 -0.053608537
0.87360835 0.7138331 0.13950425 0.05986112 -0.1655965 -0.08618749 -0.13036984 0.1433571
-0.22824569 -0.41508237 0.5221011 0.85828793 0.6468323 -0.45672324 0.10335114 -0.06336803
0.6918547 0.042448442 -0.19692264 -0.06335113 0.46434593 -0.70314616 0.25160846 -0.80847925
0.2549481 -0.697086 -0.752519 0.18857823 -0.22984263 0.37453997 0.30640218 -0.737452
0.070105456 0.2856701 0.39848578 0.37845874 0.19323348 -0.09833112 -0.11044038 -0.28323942
0.020643327 -0.035170645 1.1169146 -0.50799257 0.115006834 -0.066659376 -0.45152968 0.8378184
1.2705042 -0.14668497 0.22444914 0.043747142 0.6519683 0.14216596 0.27417934 -0.36276412
0.3276888 -0.45142812 -0.32648924 1.6282371 0.060337387 -0.22061865 0.1107456 0.14237526
0.38476646 0.77866673 -0.029422384 -0.07233433 0.7822842 0.52890944 0.25596058 -0.803674
0.14699249 0.7335382 -0.2133122 0.30720776 0.22211361 -0.25767905 -0.07093259 -0.05085581
0.17207555 -0.17833719 0.5249546 0.722131 -0.1618006 0.16167924 0.300202 0.18201272
0.7246301 0.18166474 1.2094322 -0.379622 0.88551366 -0.21100253 0.037660383 -0.1782273
0.81937116 -0.2644657 -0.12403586 0.26990107 0.20237264 0.15981023 0.367362 0.17396703

network.2.weight f4 [200, 200]
00000000: 7acc 71c0 6bbc 5c3f 30ed 863e 761b 463e
00000010: aeff bf3e 2e92 743e d308 553e 2285 923e
00000020: 9253 1d3f 6fee 383d d418 85bd a601 a83e
00000030: 5f34 e13f 9a24 e3bd a17d 59c0 851c 3f3d
00000040: e89c 06bd ca9a e73d 57e9 d93e 8ee0 7cc0
00000050: 9686 89be 336b 213e ac38 633d f671 0c3f
00000060: c2bd 5f3d 63c4 b13e c17e 65bf 8319 a7bf
00000070: e034 ad3e f712 07c0 0033 2abd 1a34 10c0
00000080: 6cb5 b5bf f7ef 133f 7d64 90c0 fde5 6dbf
00000090: 616b febf 70e6 82bc 48c0 ee3e c9ed 213e
000000a0: 582e 3f40 66cf 85bf e12a 183b 50b2 6d3d
000000b0: 3835 e1bf adc7 c13e 9083 b2c0 fa35 243f
000000c0: 73d9 b4c0 b347 1bc0 b015 263d fab8 cd3d
000000d0: b2ce 63bd 782b 883e b6dc 90bc 043a 393e
000000e0: 4da9 fb3c 1ee0 a43e a310 233d 3789 393e
000000f0: 0f6e c33e 08a8 5dbd b96e efbe 443d 423f
00000100: 3e29 823e ed26 da3e df5f 3e3e d8d1 303e
00000110: fdf9 1abf 5ef8 6a3e 3784 a0bf d024 8cbd
00000120: 5f53 73bf dbc2 a33e 6371 8bbd 940c 78bf
00000130: 285e 0c3e 4819 323e 7a94 d1be 0f17 4f3d
00000140: b6a8 8440 6a02 8d3d 6446 dbbe 2773 a33e
00000150: 7bb6 09be 94cc 1e3e e1f9 cebd dbd8 ea3d
00000160: 5600 89c0 5cfb 3cbe 850b 463f 47ef fabe
00000170: 5a65 733e e218 34c0 837a 08c0 7468 b63e
00000180: 52cc 50c0 2608 bebf dd8a 803e 9758 9f3e
00000190: 2955 983e 06f7 56c0 8714 043e a338 233e
000001a0: d41a 0fbe 13c4 0f3f 8f98 883d b3f1 27c0
000001b0: a0e5 a9c0 c5f7 acbe 8392 af3e 8086 8c3e
000001c0: 3bdc 05c0 0a28 8f3e b72c 2d40 cb95 c33e
000001d0: 3f2a b7bd 4b3b 1dc0 b6de a73e 73c6 24bd
000001e0: b2eb ed3d bc88 2ac0 981c 243f 9a4e a63d
000001f0: ba83 10be 56f6 3dbe 0c97 a13e 1f44 09c0
00000200: 4413 b33e db99 943e 2147 9ec0 1403 c3be
00000210: faab a6bf 68ba 97bd d1af 0c3e a421 0d3d
00000220: f7f6 613e 3f44 933f e60e 82c0 804a 21be
00000230: 075d 57be 4aa0 343e 0bdb fb3c 5c5e 413d
00000240: 07a7 26c0 fb3b 40bb 33aa 763e 3a44 8c3e
00000250: cb29 8bc0 63ef d43d 49ca 7f3f ec3b edbd
00000260: 0786 873e 69dc 843f 93e9 ce3d 5e04 7ac0
00000270: 0e0e 8b3e c590 ab3d cf99 ae3e 782e 843e
00000280: 957b d03e 7bfe a0c0 dfc2 a83d 8802 04bf
00000290: 24d6 98c0 6be6 60c0 a36c 35bf ae93 c0be
000002a0: 47ca babe 8811 9ac0 1332 983d 22c4 5ebe
000002b0: f571 383e ae39 afbf 6e25 4d3e 5db9 7f3f
000002c0: 3cf2 bdbe fe8c 64bf 629a d1bf a412 9bc0
000002d0: 95e9 d73f e698 273e 3daf de3e f3cf 9d3e
000002e0: 219e 9bc0 ecb2 363e 3c9e 533e 2d40 ec3f
000002f0: 085c bc3f c91a 523e 3b27 aabf 1eec ab3e
00000300: 78d9 66c0 fef5 1ebf 98ca 653f 3431 1b3e
00000310: fe05 db3d 19af 7b3d 7b82 1c3e d83c ad3e
00000320: be2e 9e3d afe2 18bd 2958 a1bd 758f 89bd
00000330: 3e03 9abd 5eca 97bd 517d bdbd 3585 d4bb
00000340: 965d 81bd a541 293d 3af4 93bd ad3d ffbd
00000350: 7c1a 803c 5494 f7bd ba47 2c3d a573 0ebe
00000360: c6fd cdbd 579d 0b3c e176 2fbe 4d58 9dbd
00000370: 1010 163d 5fdb 05be 633f 07be cbe9 31be
00000380: b871 93bd 3834 dcbd a250 923c d16f 2dbe
00000390: d904 09bd f037 95bd 4e87 89bd 9fef 983c
000003a0: 13cb e93c 184c d73c fa79 563d 77ae 16be
000003b0: d027 3fbd e726 9cbd fd2f 5ebd b2cd 5abd
000003c0: 0f7b 843c f03d 8c3a 472a 19be 46ca b7bd
000003d0: 345b d1bd 5d93 c4bd f09e 873d 86ad ac3d
000003e0: 5820 f3bb 71e0 ce3c c01d 90bc ce1f 9b3b
000003f0: 4422 01be 7199 f1bd 5b4f b9bd 04f0 993c
-3.7781053 0.86225003 0.26352835 0.19346413 0.37499756 0.23883888 0.20804147 0.28617197
0.61455643 0.045149263 -0.06498876 0.32813758 1.7594107 -0.110909656 -3.3982928 0.046658058
-0.03286448 0.113088205 0.42560837 -3.9512057 -0.26860493 0.1576355 0.05547397 0.5486139
0.054624327 0.34720144 -0.89646536 -1.305466 0.33829403 -2.1105325 -0.041552544 -2.25318
-1.419599 0.5778803 -4.5122666 -0.9292906 -1.987652 -0.015979022 0.46631074 0.15813364
2.9872036 -1.0453918 0.0023218917 0.05803138 -1.7594366 0.37847653 -5.57856 0.6414486
-5.651544 -2.4262512 0.040548027 0.10045047 -0.055617042 0.26595664 -0.017683368 0.18088537
0.030720377 0.32202238 0.039810788 0.1811875 0.38169906 -0.054115325 -0.46764162 0.75874734
0.2542209 0.42607823 0.1859126 0.17267549 -0.605377 0.22946307 -1.2540349 -0.06842959
-0.9504909 0.319846 -0.06808736 -0.9689419 0.13707793 0.17392457 -0.4093359 0.0505591
4.1455946 0.06885226 -0.4282714 0.31923792 -0.13448517 0.15507728 -0.10106254 0.11467143
-4.281291 -0.18455261 0.7736133 -0.4901068 0.23769131 -2.8140187 -2.1324775 0.35626566
-3.2624707 -1.4846237 0.25105944 0.31122276 0.29752472 -3.358827 0.12898456 0.15939574
-0.13975078 0.5615856 0.06669723 -2.6241271 -5.3092804 -0.33782783 0.34291467 0.27446365
-2.0915668 0.27960235 2.7058542 0.3820022 -0.08943605 -2.456744 0.32787102 -0.04022832
0.11617221 -2.6645956 0.6410613 0.08120461 -0.1411275 -0.18551001 0.31560552 -2.1447828
0.34975636 0.29023632 -4.9461827 -0.38088286 -1.3021233 -0.07408601 0.13738944 0.03445591
0.22066866 1.1505202 -4.0643187 -0.15751076 -0.21031581 0.1763927 0.030744096 0.04720913
-2.6039445 -0.0029332626 0.24088363 0.27395803 -4.3488517 0.10397222 0.9991804 -0.11583695
0.26469442 1.0379764 0.101031445 -3.9065166 0.2715916 0.08377222 0.34101722 0.25816703
0.40719286 -5.0310645 0.08240294 -0.5156636 -4.77614 -3.5140636 -0.7086889 -0.3761267
-0.3648245 -4.81464 0.07431426 -0.21754506 0.18012221 -1.3689477 0.2003381 0.99892217
-0.37098873 -0.89277637 -1.6375239 -4.8460255 1.6868159 0.1636692 0.4349307 0.30822715
-4.863053 0.17841691 0.2066583 1.8457085 1.4715586 0.2051803 -1.3293222 0.3357858
-3.6070232 -0.62094104 0.8976226 0.15155488 0.10694502 0.061446283 0.1528415 0.33835483
0.07723759 -0.037325557 -0.07878143 -0.067168154 -0.0752015 -0.07411645 -0.09252418 -0.006485606
-0.06316678 0.04132237 -0.07224317 -0.124629356 0.015637629 -0.12088838 0.04206059 -0.13911302
-0.10058169 0.008521399 -0.17135192 -0.07682858 0.036636412 -0.13071965 -0.13207774 -0.17374341
-0.071994245 -0.107521474 0.017860714 -0.16937186 -0.03345189 -0.0728606 -0.067152604 0.018668948
0.028539216 0.026281402 0.05236242 -0.1471499 -0.046668828 -0.076246075 -0.054244984 -0.053418823
0.01617196 0.0010699611 -0.14957534 -0.089741275 -0.10222474 -0.0959842 0.06622112 0.084315345
-0.007419627 0.025253506 -0.01759231 0.004734016 -0.12610728 -0.11796845 -0.09048339 0.018791206

network.2.bias f4 [200]
00000000: 06a9 543e a9d2 e5bc af83 34bd 4516 103d
00000010: c8c1 63bc c3ab 23bd a8ef db3f 89e4 773f
00000020: 2abe 63bc b677 54bf 629b 97bc f39f 5e3e
00000030: ea1c 98bc e8c2 c33f 1527 c0be b85e 96bc
00000040: b6ad b5bc 620d c2bc 0906 2ebc ed39 8cbc
00000050: 06a5 1b3f ab1f 00bf c072 fbbc ea83 73b9
00000060: a8d4 58bf b0f8 4fbc 120c ca3f 337c 3abc
00000070: aaae 6e3e 1206 073e b7fd 123e a3c2 cabf
00000080: 83f8 4c3e c17c c1be d54f 22bd 6fe1 403e
00000090: c443 293f 4a3b 713b 7f8b f8bc d2e6 0cbd
000000a0: ec3a 673f d31e db3f 2b3b bb3f b0c8 82bd
000000b0: ac1c febc 238e 1ebd 8a46 1e3f 7633 28bd
000000c0: 08ec 193f 1f9f e3bc 36ed 96be bc1e 223f
000000d0: b873 2ebc f5e3 25bd 48c8 a33e fbac d43f
000000e0: dc64 613c 8a07 28bc dd91 b6bc 14bc 11bc
000000f0: f801 38bd afda 0a3f 0503 2cbd 59ba d6bc
00000100: 9cad f8bc a6bb a5bc 4219 8d3f 12ff 4ebb
00000110: 30f0 9d3f 2764 883f 2c4f 693e a4c4 b23f
00000120: 32de 02bd 85c9 c4bb f743 093f da4e a0bc
00000130: 7f73 de3f 4693 33bd ef6c 7c3f 0229 05bc
00000140: be05 a6bc ce70 c0be 72bd a0bd e78d f4bb
00000150: 602f a8be 2995 c23f 1a67 7a3f f7db 923f
00000160: 6812 30bd 90ce c63f 3650 1bbd 034b 96bc
00000170: f8b7 413d 7e80 dc3f 3f21 f9bc 816b fd3e
00000180: 81a2 1bba 45ad 9ebf 92b7 82be 3861 05be
00000190: a0c0 64be de30 703e 257b 873f b1fa aebc
000001a0: 5a2b 5f3e c652 8fbf 88ec 0dbd a938 e53f
000001b0: 0000 0000 8054 2dbd 1c26 3cbf 052e 873a
000001c0: c2ef 1bbf 663b 35bd db18 0cb8 934a c63e
000001d0: 8e0c da3e bbb9 01bd 1620 553f c135 893f
000001e0: 2369 28bd 9127 7f3e 6805 bd3b e214 9f3e
000001f0: 7732 6cbd 00f0 b43f e862 20bc fff5 13bd
00000200: 9256 323d 1cc9 ad3e eeb8 37be 1f2f 3abf
00000210: 55a3 81bc ad47 b13e a063 b8bc d283 d9bc
00000220: 3eb0 423c 4c29 50bb 5d71 0d3f 5f53 d43f
00000230: 8910 d43f a9f3 953d 5440 31bd 3a29 2fbc
00000240: 4024 b3bf 9667 11bd 5ab1 753f 09ba 0a3e
00000250: 8c39 04bd f66f 1fbd 0960 b2bc 5cff ccbe
00000260: 5b4e 903f 2271 34bf 3b9d 383f f00f 07bf
00000270: 01b4 583f 57e2 7e3e 3c57 303f 8156 073f
00000280: e7a9 70bf 579a 3a3a 143a e3bc ab0b dabd
00000290: 355b 0cbd 8d98 213f 07e5 5a3e 4876 d53e
000002a0: fac8 24be 56a0 5b3e e0cf 9bbc 9f91 763f
000002b0: 9ac8 9b3e 719a 55bf 4279 50bd 5133 1abd
000002c0: e015 283f da36 b03f 0130 a33e 2b5e 07be
000002d0: 24cb ea3b 411e 223f b284 25bd b025 c13f
000002e0: 05df 993e a516 b7ba eee9 5a3e 4d94 3f3f
000002f0: ab16 793f 36b5 f03d a287 7b3f 29b1 16bd
00000300: 1b7b c83f 30b2 413e 5484 c83f 6287 d83b
00000310: b98e fabc c04f 4d3f 4aa4 7ebf 11bd 16bd
0.20767602 -0.028054552 -0.044070896 0.035177488 -0.0139011815 -0.039958727 1.7182512 0.9683309
-0.013900319 -0.82995164 -0.01850671 0.21740703 -0.018568475 1.5293856 -0.37529817 -0.018355712
-0.022177558 -0.023688022 -0.010621556 -0.017117465 0.6079868 -0.5004832 -0.030694366 -0.00023223428
-0.8469949 -0.012693569 1.5784934 -0.01138215 0.23308817 0.1318591 0.14354597 -1.5840648
0.20016675 -0.37790492 -0.039626915 0.18835996 0.6611903 0.003680902 -0.030339954 -0.034399815
0.9032428 1.7118782 1.4627432 -0.06385934 -0.031019531 -0.03870977 0.61826384 -0.041064702
0.6012578 -0.027785836 -0.29477853 0.63328147 -0.010647707 -0.0405006 0.3198874 1.661529
0.013756957 -0.010255704 -0.02228635 -0.008894939 -0.044923753 0.54239935 -0.041995067 -0.026211904
-0.03035622 -0.02023108 1.1023333 -0.003158514 1.2338924 1.0655564 0.22784108 1.396626
-0.031950183 -0.0060054683 0.5361933 -0.01956885 1.7378997 -0.043841623 0.9860372 -0.008127453
-0.02026641 -0.37586063 -0.07848634 -0.007463205 -0.32848644 1.520177 0.9781357 1.1473378
-0.042986304 1.5531788 -0.037918292 -0.018346315 0.047294587 1.7226713 -0.03041136 0.4949608
-0.0005936996 -1.2396628 -0.25530678 -0.13025367 -0.22339106 0.23456141 1.0584456 -0.021359773
0.21793881 -1.1197135 -0.034649402 1.7907916 0.0 -0.042316914 -0.7349565 0.0010313398
-0.60912716 -0.0442461 -3.340175e-05 0.3872877 0.42587703 -0.031671267 0.83252084 1.0719529
-0.04111589 0.24917437 0.0057684667 0.3107062 -0.057665315 1.4135742 -0.009789206 -0.036123272
0.04353959 0.33942497 -0.17941639 -0.7272815 -0.015824953 0.34624997 -0.022508442 -0.026552115
0.01188284 -0.0031762896 0.55251104 1.6587943 1.6567546 0.07321865 -0.04327424 -0.0106909815
-1.3995438 -0.035499178 0.9597374 0.1354753 -0.032281443 -0.038925134 -0.021774309 -0.40038574
1.1273912 -0.70485127 0.72114915 -0.52758694 0.84649664 0.2489103 0.6888311 0.5286637
-0.9400925 0.00071183353 -0.027737655 -0.10646757 -0.03426667 0.631234 0.2137643 0.41691804
-0.16092291 0.21447882 -0.019020021 0.9631595 0.30426484 -0.83438784 -0.05089689 -0.037646595
0.6565838 1.3766739 0.31872562 -0.13219516 0.0071653295 0.63327414 -0.04040975 1.5089626
0.30052963 -0.0013968541 0.213783 0.74835664 0.97300214 0.11753313 0.98253834 -0.036790047
1.5662569 0.1891563 1.5665383 0.0066079358 -0.030585634 0.80199814 -0.99469435 -0.0368014

network.4.weight f4 [6, 200]
00000000: ca44 f1bf 47f9 fdbc 78ad 1e3e 6dd2 93bf
00000010: 3cf6 163d 8309 003e febe 6abc 2df2 2840
00000020: 4691 05be 0cea 3cc0 3241 173c 6e82 76bf
00000030: 6884 74bc 5b22 ecbe 1dfa 91bf d860 753d
00000040: d683 04bd 271b 823d 1e55 e53d 0e4b 183e
00000050: 2f1f cdbf a87d 87bf b930 8c3d b612 013e
00000060: 2edf 3c3e a4cd d1bc c16a 353e c395 d83c
00000070: 64fb 40bf 0913 4cbf 1ac8 55bf ea8c 3440
00000080: 17d2 1dc0 5c00 a13f 5700 d63d 9435 8bbf
00000090: 3f6d a13f 72ba 053e a6e4 f93c 7fc0 d1bd
000000a0: b58a fbbe 2ea2 cabe 532e d4be b038 28c0
000000b0: 664d 6d3d 5b4c aebd a43e 5f40 44c4 7ebd
000000c0: fe91 0cbf d163 3e3d 515f 91bf 29d7 e13f
000000d0: 1f5c d2bd 92f9 2abe bec8 2dbf aa14 a7be
000000e0: df67 86bf 2403 d0bd 652e 8dbd b2a5 d83d
000000f0: 308c 97bd e6ee 1cbf 8d6c 753d 6cd7 0cbe
00000100: 0928 8bbd 038c 0f3e 9827 34bf d0cb 633d
00000110: 264a 0fbf d376 d9be d8fa 32bf bd93 fbbe
00000120: cf00 1d3a fc32 debd d525 8ebf cdbb 893d
00000130: 659a 98be c673 103e 82bb 22bf 90de a03d
00000140: f5b9 1dbe 5acb 58bf 20b9 0ac0 fa9a c5bd
00000150: 966d 3b40 f185 c8bf fd27 08bf 1afe d3be
00000160: fa2a 173e baf0 cbbe 089e 33bd 40b5 173e
00000170: 08f7 abbe a2d4 c6c0 1ead 163e 85a2 0bbf
00000180: de3c c6bd 1200 6ebf 9a05 1ec0 a183 57c0
00000190: b379 b5be 7e95 17bf f37b dbbe cc21 153e
000001a0: 4194 1cc0 b244 8d40 ed78 943d 707f ce3f
000001b0: ba62 063e 6850 2f3c 8f3f 23c0 c49e c4bc
000001c0: 8bea 8ebf 52e2 db3d 3763 9d3a 3658 23bf
000001d0: 1013 c2bf af87 b1bd e230 afbf 2a35 10bf
000001e0: 9543 7ebd 15a4 b2bf 85aa 4d3c 754b babf
000001f0: a523 7c3f 00d3 01bf a716 b23d c761 19bd
00000200: 0607 0740 3f25 bcbf e41c 18bf bb4d f1bf
00000210: 8739 8abd b531 8dbf 7f02 1d3e b410 223d
00000220: 56db 863d cdf6 123e d344 0cbf 27bb e3be
00000230: 3511 dfbe 785e 74c0 696a d23d 2c9e 14be
00000240: 171f cbbe bd12 80bd a108 2cc0 3230 b0bf
00000250: 8382 1abe 5926 133c 7268 1a3b 25c3 b83f
00000260: 543b 393f e1fb e9bf 9afc d6bf d931 d1bf
00000270: 0781 dfbf 251a 37bf 08c2 1fbf 4751 febe
00000280: 86b2 5f3f 2a79 9f3d d9cf 763d 2844 2abf
00000290: 3398 7a3a c63a d0bf 3593 59bf 57b8 22bf
000002a0: abe8 b9bf aabf 42bf bf28 96bc 6c0e e9be
000002b0: 4e9f 2cbf 3b87 c6be 8dbb 253e a1b9 143e
000002c0: cc1a 1bbf 9783 e4be 77ea ca3f 77c7 48bf
000002d0: af79 0c3e 5caa 0dbf 5b1c 243e b54b a0bf
000002e0: 6185 94bf efae bf3d 08fe 5bbf 313d 06bf
000002f0: c190 05bf c16d 14c0 9bdf 0ec0 a67d b8bd
00000300: 3c09 ffbe 1c9f d73f 76d7 cebe dde2 b4bd
00000310: a069 a53c 38e9 ffbe 448a bebf cd21 e2bd
00000320: 61f4 84bf 0206 29bd dac9 923d e849 d8bf
00000330: 1845 f93d 8733 3bbe e15a 51bf 3892 9d3f
00000340: 6be0 4fbd ad30 5cbf 3974 13bd aa65 60bf
00000350: ccdf dc3d 8f6a eabe 1463 98bf 3685 693d
00000360: 36cb 623e ea87 04bc e38d 103e 4099 8e3b
00000370: 3ee1 8abf 2861 38bf 94e9 0c3d 42c5 20be
00000380: c780 203f 048e 09be 2f6c 9ebf d5a3 193e
00000390: 3137 12bf 198f cebf 3f8c a8bf e505 423f
000003a0: 9f67 86bf 6dc5 8c3f bacd 1a3e 0077 11bf
000003b0: 5d96 0d40 c038 9dbd ed7f c23c 4ff2 ddbc
000003c0: c05a 48bf a503 16bf 162e c9be 288d 53bf
000003d0: 33a3 3cbe 5218 073e 97d4 6c3d 2cf1 1439
000003e0: 008f 5cbf 501d 2abe b19d 80bf eedf cc3f
000003f0: 468e 083e 886d d43d b644 4ebf 7be3 fcbe
-1.8849118 -0.031002654 0.1549586 -1.1548592 0.03685592 0.12503628 -0.014327763 2.6397812
-0.13043699 -2.951785 0.009231852 -0.9629277 -0.014924146 -0.4611996 -1.1404454 0.05990681
-0.03235229 0.06352835 0.111978754 0.14872381 -1.6025141 -1.0585222 0.068452306 0.12604794
0.18444511 -0.025610752 0.17716505 0.0264386 -0.7538359 -0.79716545 -0.83508456 2.8211007
-2.4659479 1.2578235 0.104492836 -1.0875726 1.2611464 0.13059404 0.030504536 -0.10241794
-0.49129263 -0.39576858 -0.41441593 -2.62846 0.05793514 -0.085106574 3.4881983 -0.062198892
-0.54910266 0.04648191 -1.1357213 1.7643787 -0.10271477 -0.16696766 -0.67884433 -0.32632953
-1.0500449 -0.10156849 -0.06893615 0.10578479 -0.073997855 -0.6130203 0.059917975 -0.13754052
-0.067947455 0.14018254 -0.70372915 0.055614293 -0.55972517 -0.42473468 -0.6991401 -0.49136153
0.0005989195 -0.10849568 -1.1105295 0.06725273 -0.29805294 0.14106664 -0.63567364 0.078549504
-0.15402968 -0.8468529 -2.1675491 -0.096487 2.9285636 -1.5665876 -0.5318602 -0.41404802
0.14762488 -0.39832097 -0.043851882 0.14815235 -0.33586907 -6.213456 0.14714476 -0.5454486
-0.09679578 -0.9296886 -2.469092 -3.367409 -0.35444412 -0.5921248 -0.42868003 0.14563674
-2.4465487 4.4146357 0.07249627 1.6132641 0.13123599 0.010700323 -2.5507543 -0.024001487
-1.1165327 0.107365265 0.0012007718 -0.63806474 -1.5162067 -0.08668458 -1.3686793 -0.5633112
-0.06207617 -1.3956324 0.012552862 -1.4554278 0.9849189 -0.50712585 0.08695727 -0.037446763
2.1098037 -1.4698867 -0.59419084 -1.8851846 -0.06749254 -1.1030794 0.15332983 0.03956671
0.06584804 0.1435196 -0.5479252 -0.44478723 -0.43567815 -3.818266 0.102742024 -0.14513463
-0.39672157 -0.06253574 -2.6880267 -1.3764708 -0.15088849 0.008981311 0.002356079 1.4434553
0.7235615 -1.8279992 -1.6795838 -1.6343337 -1.7461251 -0.7152427 -0.62405443 -0.49671385
0.8738178 0.07786782 0.060256813 -0.6651025 0.00095594226 -1.6267936 -0.84990245 -0.6356253
-1.452413 -0.76073706 -0.018329976 -0.45518816 -0.6743058 -0.38775048 0.16184826 0.14523937
-0.60587764 -0.44631645 1.5852803 -0.7842936 0.13718294 -0.5533807 0.16026442 -1.2523104
-1.1603204 0.09359538 -0.85934496 -0.5243712 -0.52174 -2.3191988 -2.2323978 -0.090083405
-0.49811733 1.6845431 -0.4039876 -0.08832333 0.020191967 -0.4998262 -1.4885945 -0.11041603
-1.0387079 -0.041265495 0.071674064 -1.6897554 0.12171382 -0.18281375 -0.81779295 1.2310247
-0.05075113 -0.86011773 -0.03599951 -0.8765513 0.10784873 -0.45784423 -1.1905236 0.057011805
0.22147831 -0.008089045 0.14116625 0.004351765 -1.0849988 -0.7202325 0.034402445 -0.15700248
0.626965 -0.13433081 -1.2376765 0.15003903 -0.57115465 -1.613742 -1.31678 0.75790244
-1.0500373 1.099775 0.15117541 -0.56822205 2.2123024 -0.0767684 0.02374264 -0.02709308
-0.78263474 -0.5859931 -0.39292973 -0.8263726 -0.1842163 0.13192871 0.05781993 0.00014204223
-0.861557 -0.16612744 -1.0048124 1.6005838 0.13335523 0.10372454 -0.80573595 -0.49392304

network.4.bias f4 [6]
00000000: d312 cb3e 2c80 60bf 7c5c 5fbf e6df 84bf
00000010: e824 6dbf 952c 93bf
0.396628 -0.87695575 -0.87250495 -1.0380828 -0.9263444 -1.149798

network.0.weight f4 [200, 24]
00000000: e1ce a83e f4ed b63e fcb0 5fbc ca71 07bf
00000010: da41 9ebf f4c6 65bf c48e 71bf 6b3b 2cbf
00000020: 8b73 01c0 6de9 97bf 9ac1 15bf 0bb6 d5bf
00000030: 61f8 d0be 6365 ac3f 2c11 30c0 75e2 6fbf
00000040: 4419 553f 663e 17c0 3a5c d7bd d5f5 183f
00000050: 495a 3a3f 87b9 86be b511 be3c f337 8ebe
00000060: 116c 043f c176 993e 359d 143e cfa6 1b3f
00000070: 6a6b 083f 25df 003f dbdc 1b3f 7ac2 7c3d
00000080: f5c3 153e 023d 303f 0723 133f 533d fe3d
00000090: ebc7 07c0 3e81 99bf 4002 813e 5a4e febf
000000a0: 1026 a5bf 7c65 f63e fc68 663f f8ca 8c3d
000000b0: 5338 8ebe 76eb 0c3f 00ad 403f d790 e5bd
000000c0: 5491 373e a3aa 013e 6682 b43c a235 873e
000000d0: 6015 e33e a2a5 d23d b9e6 073f a0b9 093e
000000e0: 0bfe 043f de84 b33e 29ef c93e a25c b23e
000000f0: 3ad6 0e3f 8066 9b3e a8b4 3b3d 1c15 c73e
00000100: dc70 b93e 6cb8 883d 548a 383f 8830 833e
00000110: f31c 18be 6872 f13e a812 303f 13b5 1dbe
00000120: 0f81 733e 6833 05be 5e2f 93be b53c 2d3d
00000130: 2d39 173f 0f34 79bc 9371 cd3e 2e09 44be
00000140: b339 bf3e e76c b83e e97c d33d 90fb 163e
00000150: ca83 433f b553 92be 6a27 543e 35db bb3e
00000160: 9b24 8e3d 28f9 a73d 91ca 833f e4a4 f93e
00000170: 6c73 14be ad63 823e e70b 5c3f 6a8f e4be
00000180: e080 e73d d92b 16be 4dbd 26be a218 c53e
00000190: b64e e4bd fc27 7a3d 447a 653b 3c58 15be
000001a0: fab3 853e 624d 033e 624c febe 41f6 253e
000001b0: f62b 273f 645c 26be f176 943e f0a2 383e
000001c0: 9322 033d cb36 a5be 9af5 323f 2d49 dc3d
000001d0: 482f 773e e7c9 d73e 3901 adbe 1ef2 7ebd
000001e0: 12ea 093e c3df 1e3e f78b dcbe fb8e 93bc
000001f0: 7997 c73e fd2f 9fbe edf4 d33e 0c28 f63d
00000200: 108b 5f3e 9188 dd3e 8709 b43e b4f6 8d3e
00000210: e4b2 2c3f 2904 8abd a3c4 0fbd 00b0 843e
00000220: f044 163e e9eb 5abe ecc0 473f ecb4 973e
00000230: 24c2 4cbe daaf 033f d9c7 423e 038d 0fbe
00000240: 99ea ab3e 3b33 453e e48a dfbd 2044 8c3e
00000250: 2408 083f 31e3 863e 79a7 863e 0dd8 01be
00000260: 4152 a83e bdec 4e3d 0ac0 b53d 4389 c53e
00000270: 4b6e 093f 3155 8b3e ac39 4f3e 4d44 203f
00000280: e844 ba3e fe9c 8e3e 5dc4 cf3e 8a21 6a3e
00000290: 1ab8 13be 9fc2 bb3e 66b2 103f d95a 87be
000002a0: 89f6 083e 2e43 e53d a097 3bbe 35c2 8b3e
000002b0: 8664 223e 4a8a 173e 542f 043f d730 e13c
000002c0: 1bd0 133f 44a9 e33e 6491 473e 5007 043f
000002d0: ffa1 0d3f d509 ce3e 6b9c 673e b516 f63e
000002e0: 6b33 b73e 2693 673c 27d2 e73e d4d6 1a3e
000002f0: 9912 c6bd b1ba 073f 3fb5 cf3e 5213 ebbd
00000300: edd4 c0be 2680 b0be 78e1 0f3f 9c9c cf3e
00000310: 61da c8bd 5b31 833f 98f3 4abd da15 debe
00000320: 4d8b ce3e 4886 4f3e 68fa 2e3f be7d 063f
00000330: 280d 75bf 8da7 02bf fd9d 0f3f 2ebb 1cbe
00000340: 8ee1 56bf 875b d93e 779c 213f 6d30 cdbd
00000350: 11cb d2be de36 133f 2018 5d3f b604 e0be
00000360: 2951 0dbe fb33 033d 0bc7 2cbe 3f60 4e3d
00000370: 62b3 d13e fedc 2bbe 261b 27bb 5af7 47be
00000380: 218f 973e 5680 b93c 3dc5 9c3d da4a ca3e
00000390: 37be 033f 705a ab3d 5415 6f3d aca5 953e
000003a0: ec3a 753e ab42 7c3e 2b69 223f a87b 2c3e
000003b0: af57 70bd 7349 15bd 4c3d 013f 1ee3 1bbf
000003c0: d104 72be bc07 ab3e d9bb 5cbe 64c3 76bd
000003d0: afe3 793e 1db8 7e3e 059c a63e 6bd9 59be
000003e0: a68c 853e 3324 f83e faca 523d 7fc2 ff3e
000003f0: c8ab 4c3f e090 603e 9c5e 333e c2a1 003f
0.32970336 0.3572842 -0.013653036 -0.52908003 -1.2363846 -0.89756703 -0.9435847 -0.67278165
-2.0226772 -1.1868111 -0.5849854 -1.669618 -0.40814498 1.3468441 -2.751048 -0.9370492
0.8324168 -2.3631835 -0.10515638 0.5975011 0.72794014 -0.2631342 0.023201803 -0.2777706
0.51727396 0.29973415 0.14513095 0.60801405 0.532889 0.5034049 0.60883874 0.061708905
0.14625533 0.6884309 0.5747532 0.124140404 -2.121577 -1.1992567 0.2519703 -1.9867661
-1.2902241 0.481243 0.90003943 0.06874651 -0.27777347 0.55046785 0.7526398 -0.11209267
0.17926532 0.12662749 0.022034835 0.26408106 0.44352245 0.10285498 0.5308643 0.13449717
0.5195014 0.35062307 0.39440277 0.34836298 0.55795634 0.3035164 0.045826584 0.38883293
0.36218917 0.06675801 0.7208607 0.25622964 -0.14854793 0.47157598 0.6877847 -0.15401106
0.237797 -0.13007891 -0.28747076 0.042294223 0.5907162 -0.015210166 0.40125713 -0.19144127
0.3734871 0.36020586 0.10326559 0.14744401 0.7637297 -0.28579488 0.2071816 0.3669068
0.06940576 0.0820182 1.0296193 0.48758614 -0.14497155 0.25466672 0.8595566 -0.44640666
0.11303878 -0.14665164 -0.1628315 0.38495356 -0.111478254 0.06107329 0.0035015503 -0.1458444
0.26113874 0.12822488 -0.4966765 0.1620722 0.65301454 -0.16246182 0.28996995 0.18030906
0.032015394 -0.32268366 0.6990601 0.10756145 0.2413913 0.42146227 -0.33789995 -0.06224262
0.13468197 0.15515046 -0.43075535 -0.018012514 0.38982752 -0.310913 0.413978 0.12019357
0.21830392 0.43268254 0.3516352 0.27727282 0.67460465 -0.06739075 -0.035099637 0.25915527
0.14674735 -0.21379055 0.7802875 0.2963022 -0.19995934 0.51440203 0.19021548 -0.14018635
0.3357742 0.19257824 -0.10915163 0.27395725 0.5313742 0.26345208 0.26299646 -0.12680073
0.32875255 0.05051874 0.08874519 0.38581285 0.5368392 0.27213433 0.20236844 0.6260422
0.36380696 0.2785415 0.405795 0.22864357 -0.14425698 0.36671922 0.56522214 -0.264365
0.13375296 0.11194454 -0.18319559 0.27296606 0.15858659 0.14798847 0.51634717 0.027489109
0.5773942 0.44465077 0.19489056 0.5157366 0.5532531 0.40241876 0.22618262 0.480642
0.35781416 0.014134204 0.4527752 0.15121013 -0.09671516 0.53019243 0.40567967 -0.114782944
-0.3766245 -0.3447277 0.56203413 0.4054917 -0.098072775 1.0249437 -0.049548715 -0.43376046
0.40340653 0.20266068 0.6835084 0.5253562 -0.957232 -0.5103691 0.56100446 -0.15305778
-0.8393792 0.42452642 0.6312937 -0.10019002 -0.41170552 0.57505596 0.86364937 -0.43753594
-0.13800491 0.032031994 -0.16872804 0.050384756 0.4095717 -0.1678352 -0.002549836 -0.19527951
0.29601386 0.022644203 0.07654808 0.39510232 0.5146212 0.08366859 0.05836995 0.2922796
0.23948258 0.24634807 0.63441724 0.16844046 -0.05867737 -0.036447 0.50484157 -0.6089343
-0.2363465 0.33404338 -0.21556033 -0.060244933 0.2440326 0.24874921 0.32540908 -0.21274345
0.2608387 0.48465118 0.051463105 0.49953076 0.7994962 0.21930265 0.1751656 0.5024682

network.0.bias f4 [200]
00000000: f5be 123f f5bb 133f 1064 b2bc ca3a d1be
00000010: 7c19 223f e5fe 30be 2b65 39bd ad55 1f3e
00000020: 3365 0cbe df21 b5bd 707d a4be 45ad f7be
00000030: 83d2 e23e a55d cabe 3ad6 703f 75b4 0c3e
00000040: 7172 813e bc63 1c3e 981a 12bd b470 233f
00000050: 4870 3b3e 7957 0d3d 54cb dbbd dab6 28bb
00000060: f115 8dbd de4f 853e 3084 1a3e f1f1 263f
00000070: c47b 9abe c30c d3bd 5e99 803e 0855 7a3f
00000080: a6aa 7fbf 01ae aabe bc98 ca3f 5095 a23e
00000090: 862d 943b 6b7f 17bf 4969 a43e 7003 47be
000000a0: 9d85 95be e8a4 83be a4ef a93e edd6 b43e
000000b0: 8be1 df3e 2122 4fbd b8b0 363f 1537 613d
000000c0: 4afd a83f f1af abbf 9abe a03f 1bca 9d3d
000000d0: d9df 52be 888e 803e dbb6 783e 4c57 893e
000000e0: df3d 15bd d570 803d cba1 a9be 6a47 74be
000000f0: 3368 a13e d3cf 3dbe 9ef0 49be 5e96 f73e
00000100: b220 5a3e 9a7e 243e 69cd 5e3e ebed e93d
00000110: ca1c cabe 13bd 673e ba8f fa3e b859 a03f
00000120: 54a0 cebe d71e 213e 63ac 0bbf 1e1d 33be
00000130: da06 f43c 1059 7e3e 3729 5ebd 1d68 9e3f
00000140: 14e6 42be 4bb0 4e3d 8b27 adbe 595a 663e
00000150: e620 873e 8e8c 343d 3f7c 62be c0fe a93f
00000160: ed39 673f 77b0 f1be 68e5 313f 621a 45be
00000170: 273c f43d ee3a 9bbf ae2b 0cbf 93d5 5fbd
00000180: dc43 5f3f 5f5a 363f d022 0e3e e4d3 723d
00000190: 50b5 2abe 11ae aebd fb0b 06be 9c15 113e
000001a0: ca43 67be bc98 d5be 3916 063f b3f9 5a3f
000001b0: 9b37 263f 7a97 eabe 583c d33d e894 83bd
000001c0: e482 303f 264f 273d 3482 48be 8074 83bd
000001d0: af2c ed3e 01f8 32bf 9db3 803e 7ff8 4ebf
000001e0: dd43 823e 8d39 32bf a7ff 40bf 149d 3f3e
000001f0: 3175 6abe e1bb bf3e 39cb 9c3e 5b09 3dbf
00000200: f020 903d ad7a 913e d0e2 cb3e 85b2 c13e
00000210: d5a7 443e 0bc8 cfbd 6da5 d3bd b79e 8fbe
00000220: 2d42 a73c d56f 0fbd 8c90 8e3f 58a3 01bf
00000230: 1888 e73d bbbf 89bd dfb7 e5be e4a9 553f
00000240: eb59 a23f 33a6 15be 1a1c 693e 23b2 333d
00000250: 7ffb 263f aadb 133e 716c 8c3e cdf6 b9be
00000260: 0a93 a73e cfaf e6be 452a a6be 659e cf3f
00000270: 28a5 853d d990 63be d0b8 df3d 90b8 143e
00000280: 8d9f c43e e37b 473f 3607 f1bc e87d 94bd
00000290: 44c5 473f bf48 083f 9e3b 833e 805f 4ebf
000002a0: 9a6e 1d3e 4a33 3c3f 7c1b 5abe f6e2 9e3e
000002b0: 07ae 643e 91e1 82be d7aa 8ebd e7da 57bd
000002c0: c83b 303e 36dc 36be b855 063f 88e5 383f
000002d0: bd26 22be 0cca 243e 8b39 993e 700a 3a3e
000002e0: 10b4 393f b0ac 3b3e d367 9a3f e48d c1be
000002f0: b3e2 623f 3102 58be 1bf5 163d 60e2 34be
00000300: dd6c 523f b04d 86be 04a7 fabd a1e6 893e
00000310: 9202 4f3e 9c03 273e 57b7 bc3e 73d7 333e
0.5732263 0.57708675 -0.02177623 -0.40865165 0.63320136 -0.17284735 -0.045262497 0.15560026
-0.1371048 -0.08844351 -0.3212695 -0.48374382 0.44301233 -0.3952457 0.94076884 0.13740714
0.25282624 0.1527242 -0.035669893 0.63843846 0.1830455 0.03450725 -0.10732141 -0.0025743754
-0.068889506 0.26037496 0.15089488 0.65212923 -0.3017255 -0.103051685 0.2511701 0.97786
-0.99869764 -0.3333588 1.5827861 0.3175454 0.0045220284 -0.591788 0.32111576 -0.19434905
-0.292035 -0.2571175 0.33190644 0.35320225 0.43726763 -0.050569657 0.713634 0.05498417
1.3202298 -1.3413068 1.2558167 0.07704564 -0.20593204 0.25108743 0.24288504 0.26824415
-0.036435958 0.06271521 -0.3313125 -0.23855367 0.3152481 -0.1853631 -0.19720694 0.4835691
0.21301535 0.1606392 0.21758045 0.114223324 -0.3947509 0.2263072 0.4893778 1.252738
-0.40356696 0.1573442 -0.54559916 -0.17491576 0.029788423 0.24838662 -0.054238524 1.2375523
-0.1903308 0.050461095 -0.3381923 0.22495402 0.26392287 0.044079356 -0.22117709 1.3280869
0.9032276 -0.47204944 0.6949067 -0.19248345 0.11925536 -1.2127359 -0.5475415 -0.05464704
0.8721292 0.71231645 0.13880467 0.059284106 -0.16670728 -0.08529294 -0.13090508 0.141684
-0.22584453 -0.4171809 0.5237766 0.8553726 0.649286 -0.45818692 0.10314244 -0.06424886
0.68949723 0.040846966 -0.19580919 -0.06418705 0.46323153 -0.69909674 0.25137034 -0.80847925
0.254424 -0.69619066 -0.75390095 0.18712264 -0.22896267 0.37448028 0.30623797 -0.738424
0.07037532 0.28413907 0.39821482 0.37831512 0.19204648 -0.10145577 -0.10334287 -0.28050777
0.020417297 -0.03501876 1.1137862 -0.5063987 0.11305255 -0.06726023 -0.44866845 0.8346236
1.2683691 -0.14614181 0.22764626 0.043871056 0.652275 0.14439264 0.27426484 -0.36321107
0.3272937 -0.45056006 -0.32454124 1.6220213 0.06525642 -0.22223224 0.10923922 0.1452353
0.38402978 0.7792341 -0.029422384 -0.07250577 0.7803538 0.53236 0.25631422 -0.8061447
0.15374222 0.7351576 -0.21299547 0.31032532 0.22332011 -0.2556272 -0.06966179 -0.052698996
0.17210305 -0.17857441 0.52474546 0.72225237 -0.1583509 0.160927 0.29926714 0.18168044
0.7254038 0.18327594 1.2062935 -0.37803566 0.88627166 -0.21094586 0.036854845 -0.1766448
0.8219736 -0.26231146 -0.12238887 0.26933768 0.20215824 0.1630997 0.36858627 0.17562656

network.2.weight f4 [200, 200]
00000000: 7acc 71c0 a6a0 5c3f 0d89 863e 7ce9 443e
00000010: 3ca0 bf3e 6832 743e 6310 543e 5c0a 923e
00000020: 9e35 1d3f fc2d 343d 23aa 88bd ee8b a73e
00000030: 3b2a e13f 26c2 e8bd f9bb 59c0 0f20 373d
00000040: 703a 0cbd f3dd e33d a3ec da3e 54f9 7cc0
00000050: 9041 8abe ce91 203e bbeb 5e3d 864c 0c3f
00000060: 8733 5b3d 7b85 b13e 2387 65bf ef21 a7bf
00000070: d611 ad3e 4722 07c0 b31b 33bd 0b19 10c0
00000080: 6cb5 b5bf cbff 133f 645c 90c0 6719 6ebf
00000090: c652 febf 1bcd 8bbc 2b6f ee3e 6cf4 1f3e
000000a0: 4f2b 3f40 c3e3 85bf f726 673a 2fc1 663d
000000b0: c557 e1bf ae40 c13e 9083 b2c0 8aeb 233f
000000c0: 42be b4c0 2971 1bc0 4f4e 233d cd9e cb3d
000000d0: 80e1 6abd e5a9 873e 131e a3bc 938b 383e
000000e0: 4da9 fb3c 6175 a43e 7c50 1a3d e752 383e
000000f0: 4f0b c33e b267 5fbd d6b4 f1be 58db 423f
00000100: dbc8 813e 74d0 d93e 74c0 3d3e f524 303e
00000110: f65f 1bbf d248 6a3e a0a2 a0bf d89e 8dbd
00000120: 5660 73bf 8de6 a23e 6bca 8cbd e4b8 78bf
00000130: 2355 0b3e 9d54 313e 932d d2be 6543 523d
00000140: 58a1 8440 75b5 8b3d bb39 dabe e613 a33e
00000150: 818b 09be 9c0d 1e3e 6561 d4bd 0748 e93d
00000160: 8a04 89c0 be63 40be 7711 463f 4ccb fabe
00000170: 58b4 703e 0a04 34c0 ef75 08c0 51e3 b53e
00000180: 52cc 50c0 f5f4 bdbf 6f1d 803e 21e9 9e3e
00000190: 7ae5 973e cf12 57c0 4c62 023e 8178 223e
000001a0: d2fc 0fbe 3679 0f3f 3f93 853d c504 28c0
000001b0: a0e5 a9c0 7adb acbe 2f38 af3e 16e5 8b3e
000001c0: 10d6 05c0 11ef 8e3e 6621 2d40 9532 c33e
000001d0: 4f1a b8bd 9f19 1dc0 d489 a73e 73c6 24bd
000001e0: 8f51 ed3d 1f71 2ac0 8756 243f b431 a63d
000001f0: 27b6 12be 7b1e 39be 0b38 a13e ba5f 09c0
00000200: 3baa b23e ca39 943e 234e 9ec0 0db3 c2be
00000210: f8c1 a6bf 1f19 99bd fad0 083e 93a6 033d
00000220: f0e0 603e 5637 933f 2b0e 82c0 a1a1 24be
00000230: 6852 59be 5e6e 333e acff e93c c9cc 3c3d
00000240: 419c 26c0 8afa bebb 6c88 743e 2a20 8c3e
00000250: cb29 8bc0 a6ac d13d 9828 803f 65bc f1bd
00000260: e232 873e 7c66 843f e623 cc3d 32ca 79c0
00000270: 95d2 893e a90b ab3d d54e ae3e 9fa6 833e
00000280: 891c d03e 7bfe a0c0 dfc2 a83d 338e 04bf
00000290: 55d4 98c0 6be6 60c0 a16b 35bf ae93 c0be
000002a0: 484a bbbe e50f 9ac0 6844 973d c419 5fbe
000002b0: ada5 373e ae39 afbf 85a1 4b3e a068 7f3f
000002c0: 0690 bdbe da83 64bf 9d10 d1bf 9d12 9bc0
000002d0: 98fd d73f ddd6 263e 9161 de3e fc7a 9d3e
000002e0: eda8 9bc0 9a73 353e 74f6 523e 4638 ec3f
000002f0: 7d38 bc3f 1842 513e f93f aabf 677f ab3e
00000300: 65f2 66c0 ab8f 1fbf b8e9 653f 1b84 1a3e
00000310: ebe3 d73d 9534 733d 923c 1c3e 82eb ab3e
00000320: be2e 9e3d afe2 18bd 2958 a1bd 758f 89bd
00000330: 3e03 9abd 5eca 97bd 517d bdbd 3585 d4bb
00000340: 965d 81bd a541 293d 3af4 93bd ad3d ffbd
00000350: 7c1a 803c 5494 f7bd ba47 2c3d a573 0ebe
00000360: c6fd cdbd 579d 0b3c e176 2fbe 4d58 9dbd
00000370: 1010 163d 5fdb 05be 633f 07be cbe9 31be
00000380: b871 93bd 3834 dcbd a250 923c d16f 2dbe
00000390: d904 09bd f037 95bd 4e87 89bd 9fef 983c
000003a0: 13cb e93c 184c d73c fa79 563d 77ae 16be
000003b0: d027 3fbd e726 9cbd fd2f 5ebd b2cd 5abd
000003c0: 0f7b 843c f03d 8c3a 472a 19be 46ca b7bd
000003d0: 345b d1bd 5d93 c4bd f09e 873d 86ad ac3d
000003e0: 5820 f3bb 71e0 ce3c c01d 90bc ce1f 9b3b
000003f0: 4422 01be 7199 f1bd 5b4f b9bd 04f0 993c
-3.7781053 0.8618263 0.26276436 0.19229692 0.37426937 0.23847353 0.20709376 0.2852353
0.6140994 0.043989167 -0.06673076 0.32723945 1.7591013 -0.11365156 -3.402098 0.044708308
-0.034235418 0.11126318 0.42758664 -3.9527178 -0.27003145 0.1568062 0.05442403 0.54804265
0.053515937 0.3467215 -0.8965933 -1.3057231 0.3380267 -2.1114671 -0.043727588 -2.2515285
-1.419599 0.57812184 -4.511278 -0.9300751 -1.986901 -0.017065575 0.4656919 0.15620583
2.9870183 -1.0460132 0.0008817757 0.056336578 -1.760491 0.3774466 -5.57856 0.6403128
-5.648225 -2.4287817 0.039869603 0.09942398 -0.05734396 0.26496807 -0.019911801 0.18021993
0.030720377 0.32120803 0.037674412 0.18000375 0.38094565 -0.05454225 -0.4720828 0.7611594
0.25348553 0.4254185 0.18530446 0.17201598 -0.606933 0.22879341 -1.2549629 -0.06915063
-0.9506887 0.3181652 -0.06874546 -0.9715712 0.13606696 0.17317434 -0.41050395 0.051333804
4.1446953 0.068217196 -0.4262217 0.3185112 -0.13432123 0.15434879 -0.10370139 0.11390691
-4.281804 -0.18788049 0.773704 -0.48983228 0.23506296 -2.8127465 -2.132198 0.3552499
-3.2624707 -1.484038 0.25022456 0.31037238 0.29667264 -3.360523 0.1273281 0.15866281
-0.14061287 0.5604433 0.065222256 -2.625291 -5.3092804 -0.33761197 0.34222552 0.27323216
-2.0911903 0.27916768 2.7051635 0.3812453 -0.08989393 -2.4546888 0.32722342 -0.04022832
0.11587822 -2.6631544 0.6419453 0.08114949 -0.14327298 -0.18078034 0.3148807 -2.1464677
0.348955 0.2895034 -4.947038 -0.3802723 -1.3027945 -0.074754946 0.13360968 0.03214128
0.21960807 1.1501262 -4.0642295 -0.16077282 -0.21222842 0.1752257 0.028564297 0.046093736
-2.603287 -0.0058282064 0.23880166 0.2736829 -4.3488517 0.10238008 1.0012388 -0.118035115
0.26406008 1.0343776 0.099677846 -3.902966 0.26918474 0.083518334 0.3404452 0.2571306
0.4064677 -5.0310645 0.08240294 -0.5177948 -4.7759194 -3.5140636 -0.70867354 -0.3761267
-0.3658011 -4.8144403 0.07386094 -0.21787173 0.17934294 -1.3689477 0.19885834 0.9976902
-0.37023944 -0.8926369 -1.6333195 -4.846022 1.6874266 0.16292901 0.43433812 0.30757892
-4.864371 0.1771988 0.20601827 1.8454673 1.4704739 0.20435369 -1.3300773 0.33495638
-3.6085446 -0.62328595 0.8980975 0.15089457 0.10541519 0.059376318 0.1525748 0.33578116
0.07723759 -0.037325557 -0.07878143 -0.067168154 -0.0752015 -0.07411645 -0.09252418 -0.006485606
-0.06316678 0.04132237 -0.07224317 -0.124629356 0.015637629 -0.12088838 0.04206059 -0.13911302
-0.10058169 0.008521399 -0.17135192 -0.07682858 0.036636412 -0.13071965 -0.13207774 -0.17374341
-0.071994245 -0.107521474 0.017860714 -0.16937186 -0.03345189 -0.0728606 -0.067152604 0.018668948
0.028539216 0.026281402 0.05236242 -0.1471499 -0.046668828 -0.076246075 -0.054244984 -0.053418823
0.01617196 0.0010699611 -0.14957534 -0.089741275 -0.10222474 -0.0959842 0.06622112 0.084315345
-0.007419627 0.025253506 -0.01759231 0.004734016 -0.12610728 -0.11796845 -0.09048339 0.018791206

network.2.bias f4 [200]
00000000: 9580 543e a9d2 e5bc af83 34bd e4c3 1d3d
00000010: c8c1 63bc c3ab 23bd b338 db3f aae8 783f
00000020: 2abe 63bc 4ddd 53bf 629b 97bc 7fd1 613e
00000030: ea1c 98bc c276 c33f 7827 c0be b85e 96bc
00000040: b6ad b5bc 620d c2bc 0906 2ebc ed39 8cbc
00000050: 8d81 1c3f 36ea fbbe c072 fbbc ea83 73b9
00000060: a8d4 58bf b0f8 4fbc 0f68 c93f 337c 3abc
00000070: 8dbb 703e 8c2a 083e 465f 163e 7a7d cabf
00000080: 4ab5 4b3e c17c c1be d54f 22bd 61b1 403e
00000090: 87d2 2a3f 4a3b 713b 7f8b f8bc d2e6 0cbd
000000a0: b7f4 663f 99bc da3f e8dd ba3f f014 85bd
000000b0: ac1c febc 238e 1ebd e9d3 1d3f 7633 28bd
000000c0: 3dea 193f 1f9f e3bc 1a0e 97be 5bc3 223f
000000d0: b873 2ebc f5e3 25bd da1e a43e c73d d43f
000000e0: 4671 8d3c 8a07 28bc dd91 b6bc 14bc 11bc
000000f0: f801 38bd 9dea 0a3f 0503 2cbd 59ba d6bc
00000100: 9cad f8bc a6bb a5bc f6fc 8c3f 12ff 4ebb
00000110: 2bc2 9d3f b68c 883f 5e30 6a3e 0074 b23f
00000120: 32de 02bd 85c9 c4bb 3316 0b3f da4e a0bc
00000130: eb06 de3f 4693 33bd 5c40 7c3f 0229 05bc
00000140: be05 a6bc 6e31 bdbe 8ffe 99bd e78d f4bb
00000150: 5da1 a7be 7236 c23f 1336 7a3f 33c8 923f
00000160: 6812 30bd 0283 c63f 3650 1bbd 034b 96bc
00000170: f8b7 413d 8525 dc3f 3f21 f9bc 3bf9 fd3e
00000180: 81a2 1bba ae97 9ebf 83ff 81be 8e48 06be
00000190: 8a32 62be d862 703e d76f 873f b1fa aebc
000001a0: ebe7 613e e43d 8fbf 88ec 0dbd 99e6 e43f
000001b0: 0000 0000 8054 2dbd 6ec7 3bbf 052e 873a
000001c0: 9c27 1cbf 663b 35bd db18 0cb8 bec7 c63e
000001d0: bac1 da3e bbb9 01bd 7ef5 553f bb35 893f
000001e0: 2369 28bd 3278 813e 6805 bd3b 8e4c 9f3e
000001f0: 3ad1 75bd 8fa1 b43f e862 20bc fff5 13bd
00000200: f774 3d3d b62f ae3e cb3c 35be 10ca 39bf
00000210: 55a3 81bc 6cfd b23e a063 b8bc d283 d9bc
00000220: 3eb0 423c 4c29 50bb 28d4 0d3f 2d04 d43f
00000230: 3ba7 d33f 0379 913d 5440 31bd 3a29 2fbc
00000240: 92e1 b2bf 9667 11bd f4d4 753f 09ba 0a3e
00000250: 8c39 04bd f66f 1fbd 0960 b2bc 4a90 cbbe
00000260: c0a1 903f d091 33bf 46b9 383f a086 06bf
00000270: 1cc6 583f 137c 7f3e 2a51 303f 7c8c 073f
00000280: 2d61 70bf 579a 3a3a 143a e3bc c73c dabd
00000290: 355b 0cbd 473a 223f 00c0 5b3e d23e d63e
000002a0: d363 23be 8e27 5d3e e0cf 9bbc c072 763f
000002b0: 9d52 9c3e a9b8 54bf 4279 50bd 5133 1abd
000002c0: a7f4 283f f3e6 af3f b3e8 a43e 2b5e 07be
000002d0: 24cb ea3b 72da 213f b284 25bd 0ef9 c03f
000002e0: 148a 9b3e a516 b7ba a8d5 5b3e dd94 3f3f
000002f0: 9a22 793f 1d2e ed3d e87e 7b3f 29b1 16bd
00000300: 012e c83f 8501 443e 950b c83f 6287 d83b
00000310: b98e fabc ed3b 4d3f 233d 7ebf 11bd 16bd
0.20752175 -0.028054552 -0.044070896 0.038516894 -0.0139011815 -0.039958727 1.7126678 0.9723002
-0.013900319 -0.82759553 -0.01850671 0.22052573 -0.018568475 1.5270617 -0.37530112 -0.018355712
-0.022177558 -0.023688022 -0.010621556 -0.017117465 0.6113518 -0.49202126 -0.030694366 -0.00023223428
-0.8469949 -0.012693569 1.5734881 -0.01138215 0.23509045 0.1329748 0.14684781 -1.5819542
0.19893375 -0.37790492 -0.039626915 0.18817665 0.6672749 0.003680902 -0.030339954 -0.034399815
0.90217155 1.7088805 1.459897 -0.06498134 -0.031019531 -0.03870977 0.61651474 -0.041064702
0.60123044 -0.027785836 -0.29502946 0.6357934 -0.010647707 -0.0405006 0.32054788 1.6581353
0.017265927 -0.010255704 -0.02228635 -0.008894939 -0.044923753 0.5426424 -0.041995067 -0.026211904
-0.03035622 -0.02023108 1.1014698 -0.003158514 1.232488 1.0667942 0.22870013 1.394165
-0.031950183 -0.0060054683 0.5433075 -0.01956885 1.7345861 -0.043841623 0.98535705 -0.008127453
-0.02026641 -0.36951774 -0.07519256 -0.007463205 -0.32740298 1.5172865 0.9773876 1.1467346
-0.042986304 1.550873 -0.037918292 -0.018346315 0.047294587 1.719895 -0.03041136 0.4960421
-0.0005936996 -1.2390039 -0.25390252 -0.13113615 -0.22089592 0.23475206 1.0581006 -0.021359773
0.22061126 -1.1190763 -0.034649402 1.7882873 0.0 -0.042316914 -0.7335118 0.0010313398
-0.6099794 -0.0442461 -3.340175e-05 0.38824266 0.42725927 -0.031671267 0.83577716 1.0719522
-0.04111589 0.25287014 0.0057684667 0.31113094 -0.060013987 1.4111804 -0.009789206 -0.036123272
0.046254124 0.34020776 -0.17698972 -0.7257395 -0.015824953 0.3495897 -0.022508442 -0.026552115
0.01188284 -0.0031762896 0.5540185 1.6563774 1.653541 0.07103159 -0.04327424 -0.0106909815
-1.3975089 -0.035499178 0.96028066 0.1354753 -0.032281443 -0.038925134 -0.021774309 -0.3975852
1.1299362 -0.7014437 0.72157705 -0.5254917 0.8467729 0.24949674 0.68873847 0.5294874
-0.9389828 0.00071183353 -0.027737655 -0.106561236 -0.03426667 0.63370174 0.21459961 0.41844803
-0.15956049 0.2159712 -0.019020021 0.96268845 0.3053178 -0.8309427 -0.05089689 -0.037646595
0.6599831 1.3742355 0.32208785 -0.13219516 0.0071653295 0.63223946 -0.04040975 1.5076005
0.30378783 -0.0013968541 0.21468222 0.7483652 0.9731842 0.11581061 0.9824052 -0.036790047
1.5639039 0.19141205 1.5628535 0.0066079358 -0.030585634 0.80169564 -0.9931204 -0.0368014
