llirl_sumo/myrllib/transfer_model/policy_3.pth (torch, 196830 bytes, 7 tensors)

sigma f4 [4]
000000 a8 76 ba 3c d1 f8 54 bd a3 e6 51 bd e1 d8 9c bd
       0.022761658 -0.051995102 -0.051245343 -0.07658554

layer1.weight f4 [200, 36]
000000 71 12 09 3d d3 0b 00 3e f4 4f 05 bd bc 19 d9 3b
       0.033464853 0.1250451 -0.032546952 0.006625382
000010 ce f6 63 3c 32 53 f2 3c f9 9d 91 bd 97 10 43 3d
       0.013913823 0.029580686 -0.07110209 0.047623243
000020 9b fe 44 bd 76 38 a1 3d f7 c8 66 bd 12 76 46 3d
       -0.048094373 0.07872097 -0.056344 0.048452444
000030 eb fc b7 3d 24 03 0e be 0e 4b 1f 3d d4 d7 b8 3c
       0.08983787 -0.13868386 0.038889937 0.022563852
000040 03 e7 f7 bd 7f 3c f2 bc 01 e2 69 ba d6 c9 03 3e
       -0.12104609 -0.029569862 -0.0008921922 0.12869963
000050 4f 7f a6 bd bb 05 00 3e 25 46 49 bd 91 7e 94 3d
       -0.08129751 0.12502186 -0.04913916 0.07250703
000060 bf 6d 33 3d 4e c1 fb 3d 44 03 d5 3d b2 2b 08 be
       0.043805834 0.12292729 0.104010135 -0.13297918
000070 c1 2f 1d 3c 38 84 14 be 30 61 e2 b8 28 a4 cd bd
       0.009593905 -0.14503562 -0.00010794622 -0.10041076
000080 8a 55 08 3e ea 82 a1 3d 86 f8 a6 bd e8 a4 8d 3c
       0.1331388 0.07886298 -0.08152871 0.017290547
000090 51 32 ea bd 3d ba 25 be d9 ce 82 3d 4a 72 40 bd
       -0.11435378 -0.16184326 0.06387109 -0.046983995
0000a0 18 59 7c bc 42 5c 9f bc 17 e8 a9 3c 8c 72 88 3d
       -0.015402101 -0.019453172 0.020740552 0.06662473
0000b0 b7 f4 c2 bd 93 a1 29 bd db 6a c0 bd fb 4d ea bd
       -0.09519332 -0.041413855 -0.09395381 -0.11440655
0000c0 05 de a2 bd 08 8f 52 3c 11 81 1f be e8 a8 0c bc
       -0.07952503 0.012851484 -0.15576579 -0.008585192
0000d0 27 92 02 3e c8 49 1c be 91 0d 45 3c dd 08 d6 3d
       0.12751065 -0.1526252 0.01202716 0.10450909
0000e0 84 81 79 3b 87 50 8c 3d ab 15 e7 bd f5 a4 56 bc
       0.0038071582 0.06851297 -0.1128343 -0.013100852
0000f0 89 7c 92 bd 10 a6 75 bc 43 a9 4c bd 41 63 57 ba
       -0.071526594 -0.014993206 -0.049966108 -0.0008216389
000100 3d 0c f7 3d 6a 55 80 bd ce 9b 37 3a 9b 94 00 be
       0.12062881 -0.062662914 0.00070041127 -0.12556688
000110 ce 59 77 3d 36 db 94 3b f5 14 f4 bd ef 1d a5 3d
       0.06038838 0.0045427335 -0.1191806 0.0806235
000120 f0 cf 0a be 6e b3 0d be 69 7a 39 be 6e 91 04 be
       -0.13555884 -0.13837978 -0.18113102 -0.12946102
000130 b9 bd 46 bd 1c 66 d4 bd 03 b3 fa 3d a4 0c 2f be
       -0.048520777 -0.10371038 0.12241175 -0.17094666
000140 41 72 52 bd d7 25 10 be d8 b2 02 3e 27 2f 99 bd
       -0.051378492 -0.14076935 0.12763536 -0.07479697
000150 9b 0a 30 be d2 3c 36 3d 06 5e e5 bd fc 49 d4 3d
       -0.17191546 0.044491597 -0.11199574 0.10365674
000160 a5 ac 2e 3e 18 a9 eb bc f0 15 a8 3c fc d9 ff bd
       0.17058046 -0.028767154 0.020518273 -0.12492749
000170 f1 50 85 bc f6 01 f6 3d db 16 f0 3d 3d 08 8e 3d
       -0.016273947 0.12012093 0.11723109 0.06935165
000180 a0 90 dd bd c2 8b 09 3e ed d1 ad 3d 55 23 7d bc
       -0.10818601 0.1343222 0.08487306 -0.015450318
000190 80 c1 09 be 1e 8a f8 3d 2e fc 29 bd 3f c6 02 be
       -0.1345272 0.12135719 -0.041500263 -0.12770937
0001a0 d7 80 9f 3d 76 31 2f be 2d 89 2b be df 39 a0 3d
       0.07788246 -0.17108712 -0.16751547 0.07823538
0001b0 23 7d 63 3d e1 09 83 bd 07 90 e8 bc a7 ff e8 bd
       0.05553926 -0.063983686 -0.02838899 -0.11376887
0001c0 e2 0f 30 be 2a 42 ca bd 0f f4 f1 bd da 86 03 bd
       -0.17193559 -0.09875901 -0.118141286 -0.032111026
0001d0 ba 50 6e bd b7 0f 00 bd b8 ce f5 bd 22 dc 88 3d
       -0.058182456 -0.031264987 -0.12002319 0.06682612
0001e0 63 b1 87 3d 30 41 91 bd a1 b4 dc 3d a0 fb 52 3d
       0.06625631 -0.07092512 0.1077664 0.0515095
0001f0 e2 d3 04 be 43 37 21 bd 55 e1 f1 bd 99 38 05 bd
       -0.12971452 -0.039359342 -0.11810557 -0.03252468
000200 ee 36 dc 3d f1 db 71 bd 2a 5a cb bd 63 05 db 3c
       0.107526645 -0.059047643 -0.09929307 0.026735967
000210 38 a9 be bd 59 16 49 be 91 5e 85 3c cd 1f 42 be
       -0.0930962 -0.19637431 0.016280444 -0.18957444
000220 c5 97 aa bb 67 9f 1d bd 33 30 1b bc 4b 90 24 be
       -0.0052060806 -0.038482096 -0.009471941 -0.16070668
000230 87 12 91 3c e3 93 ac bc c1 74 05 be f3 ec 8e bc
       0.01770903 -0.021066612 -0.1303282 -0.01744697
000240 1c bf 44 3d 4b d3 5d bd e0 23 71 bd 6e c4 b9 3d
       0.04803382 -0.054156583 -0.058872104 0.09070669
000250 be ec e9 3d fa 6f be bd 2a b6 b2 3b de bc 75 bd
       0.11422108 -0.092987016 0.0054538446 -0.05999457
000260 10 d8 a7 bc 2a 8c ab 3d 82 f9 04 bd 87 d0 c6 bc
       -0.020488769 0.083763435 -0.03246451 -0.024269355
000270 6b ca 21 3d a6 61 c3 3d 43 50 08 3e 4b af 8c 3d
       0.03949968 0.09540109 0.13311867 0.06869372
000280 dd 24 6c bd 00 66 51 bd 17 de e1 bd 04 37 02 be
       -0.057652343 -0.051122665 -0.110286884 -0.127163
000290 7e 22 1f be 9d 25 44 bc ac 51 93 3d 7e 40 25 3e
       -0.15540501 -0.011971858 0.07193312 0.16137883
0002a0 43 f5 b2 3c 1e 49 07 be 80 c5 61 bd ec b1 09 3e
       0.021845466 -0.13211486 -0.05511999 0.13446778
0002b0 cf 5d 24 3e bd 9e 7d 3d 15 5c 22 bd e2 fa ae 3d
       0.1605141 0.061918963 -0.039638598 0.08543946
0002c0 a7 07 92 3c 27 57 ff bd f9 77 f0 bd a5 6a 86 bd
       0.017825915 -0.12467795 -0.11741633 -0.065633096
0002d0 dc c8 49 bd a6 5b d2 bd f1 18 43 bd 3c 69 b8 3d
       -0.04926382 -0.10271387 -0.047631208 0.09004447
0002e0 47 a2 a7 3d af f6 34 bd 7d fb c1 3d 6c c0 ae 3d
       0.08185249 -0.04418057 0.09471796 0.08532795
0002f0 55 46 85 bd 57 0d 04 3e fc 76 b9 3c a1 a9 4d bd
       -0.065075554 0.12895714 0.022639744 -0.0502106
000300 15 43 25 3e 0c 23 43 bd 33 87 6a 3b 89 c5 25 3d
       0.16138871 -0.047640845 0.0035786151 0.040471587
000310 72 28 aa 3c 06 98 65 3d 63 33 9e bd da 1a 33 3d
       0.020771239 0.056053184 -0.07724645 0.04372678
000320 05 ce 5d 3d ba 42 dd bc d8 14 f0 bd eb 8d 48 bd
       0.054151554 -0.027009357 -0.11722726 -0.04896347
000330 30 b6 1f 3e 99 82 02 3e e7 3b 6f 3d 32 41 82 bd
       0.15596843 0.12745132 0.058406737 -0.06360091
000340 d1 2c d2 3d 2e 34 df 3d 74 47 a7 bd de 1d 2a bd
       0.10262454 0.10898624 -0.081679255 -0.04153239
000350 bf 21 fa bd 2b 16 13 be 6b c0 18 3e 63 ea 2d 3d
       -0.12213468 -0.14363925 0.14917152 0.042459857
000360 45 e4 c1 bc 36 1d a4 bc 6f 28 ac bc 46 31 17 3e
       -0.023668418 -0.02003346 -0.021015374 0.1476489
000370 0e e9 13 be c0 31 c8 3d 6f 80 5e 3d e9 57 c4 bc
       -0.14444372 0.09775114 0.054321703 -0.0239677
000380 60 08 ae bd 94 40 6b bd 0e b3 b7 bd 09 b6 1f 3d
       -0.08497691 -0.057434633 -0.08969699 0.03899196
000390 44 4f cd 3d 07 f3 b6 3d 7e a5 0a be cc 83 a9 3d
       0.10024884 0.089330725 -0.13539693 0.082770914
0003a0 5c 19 c4 3c af 0d 29 bd 74 60 f9 bd d4 8d c1 bd
       0.023937874 -0.041272815 -0.121766 -0.0945088
0003b0 f3 16 05 3e 25 e8 89 3c 92 35 f5 bd 53 13 ae bc
       0.12997036 0.016834328 -0.11973108 -0.021249449
0003c0 e8 f3 af bd f5 65 33 bd d0 b7 57 3d 80 3d 23 be
       -0.08591443 -0.043798406 0.05266553 -0.15941429
0003d0 a8 d3 03 be 6b eb ec bd c5 03 01 be b2 10 f3 bd
       -0.12873709 -0.1156834 -0.12599094 -0.11868419
0003e0 f9 d8 95 3d ae 11 f3 3d d0 10 11 be 7a 1a ea bd
       0.07316775 0.118686065 -0.1416657 -0.11430831
0003f0 f3 27 19 3e ce 3b f5 3d 18 3c d8 bd 6e b0 46 3c
       0.14956646 0.119742975 -0.10558337 0.012127025

layer1.bias f4 [200]
000000 24 8d bb bc 0d fd 0a bc db db 32 bc 25 dc 9f bc
       -0.02289445 -0.008483184 -0.010916675 -0.019514153
000010 f2 11 c2 ba 1e 93 fb b9 f7 43 b1 bc 91 34 85 3c
       -0.0014806374 -0.00047984062 -0.021638853 0.016260417
000020 b7 e7 2c 3d ce 3c 81 bc 2a c3 26 bc fe 04 88 bc
       0.042213168 -0.015776064 -0.010178367 -0.016603943
000030 8c d1 2f bc b8 5c 2f bc 75 01 85 3b ed fd bc bb
       -0.010731112 -0.010703258 0.0040590116 -0.005767575
000040 0f 4c cb 39 a9 9e eb bc 39 2d de 3c bc 40 a6 bc
       0.00038775845 -0.028762178 0.027121173 -0.02029454
000050 bc 6c 87 bb f6 e8 4b 3d c1 89 01 bd a2 40 2a 3d
       -0.004132835 0.049782716 -0.031625513 0.041565545
000060 fe 79 cc ba c2 ce 80 bc 84 f6 6e bb 7a 0d a3 bc
       -0.0015600321 -0.01572359 -0.0036462853 -0.019903887
000070 8d a5 28 3b 35 bd 05 bc 28 65 16 3c f5 1d 9b bb
       0.0025733442 -0.008162786 0.009179391 -0.0047337958
000080 e0 a7 2d b8 a4 4b 05 bd fb b8 a5 bb ab dc 2e bc
       -4.140276e-05 -0.03254284 -0.005057452 -0.0106727285
000090 d7 33 a2 bb 3a fe b6 3c cc d7 e2 bc 2c 7f 83 bc
       -0.0049500274 0.022338022 -0.02769079 -0.016051851
0000a0 e2 c3 85 bc 01 d8 1d bc c0 ed 1b bd ca 7d 16 bc
       -0.016328756 -0.009634019 -0.038068533 -0.009185264
0000b0 2f 7b ec 3c b4 a6 66 bc f6 6a 3c bc 8e 1b 1a bc
       0.028867332 -0.014077831 -0.011500111 -0.009405984
0000c0 59 3d 7f bc 0b b3 c1 bc d3 7a fd bb cf 3c 97 3c
       -0.015578591 -0.023644945 -0.007735589 0.018461613
0000d0 3b 6a 0e 3d a7 c5 97 bc 4f 46 63 3d b8 2e 0f bc
       0.034769278 -0.018526865 0.055486973 -0.008739166
0000e0 40 0e 21 bc 52 08 27 bc 94 0b b0 bc 90 66 34 bc
       -0.009830058 -0.010194855 -0.021489896 -0.011010781
0000f0 36 c3 69 3b 31 fa 9c bc a3 34 c4 bc d9 90 91 bc
       0.0035669333 -0.01916227 -0.02395088 -0.017769264
000100 52 79 12 bc da 8f 9d bc e6 d5 2d bc 95 64 c3 bb
       -0.008940058 -0.019233633 -0.010610079 -0.005962918
000110 ab 3a d5 ba 03 5c 4a 3c 51 52 1e bc d0 18 8e bc
       -0.0016268095 0.012351039 -0.00966318 -0.017345816
000120 44 52 6d bc eb 45 9a bc dc a8 d0 bc 70 95 bc 3b
       -0.014484946 -0.018832168 -0.025471143 0.005755119
000130 ba aa 9e 3c 76 05 0f bd f4 e0 82 3d 94 bd 45 bc
       0.019368518 -0.034917317 0.06390563 -0.012069125
000140 4a 83 58 bc 77 9b 08 bc 9c 20 ad bb a2 ab 55 bc
       -0.0132148955 -0.008337847 -0.0052834284 -0.013041409
000150 d6 d9 19 bc 6e 2b 90 3c 85 e3 b1 bc c8 cb 78 bc
       -0.009390315 0.017598834 -0.021714935 -0.015185304
000160 88 19 1b bd 1f ba 24 bc 9f 8b c1 3c 84 31 49 ba
       -0.037866145 -0.01005414 0.023626147 -0.000767492
000170 06 57 e0 bc 94 5d 04 bd 4b ed 16 3b 17 41 c0 b9
       -0.027385246 -0.032315806 0.0023029621 -0.0003666959
000180 71 a8 b7 bc 85 9a 9e bc d5 3f 97 3c c9 df b9 3b
       -0.022419186 -0.01936079 0.018463055 0.005672429
000190 a6 1e 35 bc fa e5 72 3c c3 ee a6 bb 7f 8e a5 bc
       -0.01105467 0.0148253385 -0.0050943806 -0.020209549
0001a0 0a 96 ec ba d0 1f d7 bb db db 55 3d 3c 4f 00 3d
       -0.0018050086 -0.0065650716 0.052211624 0.031325564
0001b0 d4 2c 09 bc a2 54 0b bc c2 1c 2d 3c 64 5e 7a bc
       -0.008372504 -0.008504065 0.010565938 -0.015281294
0001c0 11 a6 92 3b f8 56 77 bc 0c ec f6 3c 0a 36 d6 bc
       0.004475363 -0.015096419 0.030141853 -0.026148815
0001d0 92 3d 94 bc aa 0b 01 3d c2 a8 77 3c ac 74 93 bc
       -0.018095765 0.031505264 0.015115919 -0.01799997
0001e0 d7 f9 85 bc d9 82 25 ba 43 84 2e bc a9 5e 28 3d
       -0.016354484 -0.00063137483 -0.010651651 0.0411059
0001f0 28 3f fa 3c 09 ab 8d 3c f7 56 6d bc cf 64 7e bc
       0.030547693 0.01729347 -0.014486066 -0.015526964
000200 89 7e cd bc c1 42 5d bc fb 59 9d bc 3e ff 45 bc
       -0.02508475 -0.013504685 -0.019207945 -0.01208478
000210 d3 80 bb bc 7c 8e 4f 3d 2e c5 3b bc 6e 4b ae 3c
       -0.022888577 0.050672993 -0.0114605855 0.021276202
000220 9e 65 0b bc ba 70 e4 ba bc ad 3f 3c 39 c6 d6 bb
       -0.008508114 -0.0017428615 0.011699136 -0.0065543917
000230 a8 02 de bb f4 a6 9a 3c f1 4d 81 3c 94 79 13 bc
       -0.006775219 0.018878438 0.015784236 -0.009001154
000240 4a a4 ba 3c 00 00 00 00 f8 d2 f1 bb c7 ec 19 bb
       0.022783417 0.0 -0.0073798858 -0.0023487078
000250 3a 97 aa bc 52 c0 2c bc 95 36 7f bc 1a 4b d1 bb
       -0.020824064 -0.0105439 -0.015576978 -0.0063871266
000260 4f 0b b7 bb 6c a8 2f bc 36 1f a3 bb c4 f7 8c bc
       -0.005586065 -0.010721307 -0.004978086 -0.017207988
000270 91 6b fa bb f2 f1 09 bd 04 6d 14 3d 70 76 90 bb
       -0.0076422174 -0.033678003 0.036236778 -0.00440865
000280 21 f3 09 bc 00 00 00 00 2a 32 e2 3c cc cf 1b 3a
       -0.008419783 0.0 0.02761181 0.0005943745
000290 7f 68 0c bc c9 3c 39 3a fd ab b8 bc 7b 97 42 bb
       -0.008569836 0.00070662476 -0.022542948 -0.002969234
0002a0 32 a5 6c bc 73 08 ed 3c e0 b3 47 3c a8 ff c2 bc
       -0.0144436825 0.028934693 0.012188882 -0.023803547
0002b0 47 53 57 bc 47 81 02 bc 08 0d 1e bc 04 b6 9a bc
       -0.013142413 -0.007965392 -0.009646662 -0.01888562
0002c0 4c 05 6f bc b8 50 a5 bc 6b 9b 0d 3d ec 78 7f bc
       -0.014588665 -0.020180091 0.034572046 -0.015592795
0002d0 c1 56 87 bc dc 8f cd bc 52 97 f9 bb e1 af 8f bc
       -0.01652086 -0.025093012 -0.0076169157 -0.01753992
0002e0 2e 38 d0 ba f6 8f 7f 3c 87 6c 82 bc f7 61 0e bc
       -0.0015885883 0.015598288 -0.01592089 -0.008690349
0002f0 9d ce 9f bc da 36 fe 3b 45 6b 6e 3d 41 79 55 bc
       -0.0195077 0.0077580037 0.05820777 -0.013029397
000300 aa 1e 31 bc 88 83 4f bc b4 13 00 bc 01 25 23 bc
       -0.010810534 -0.012665637 -0.007817198 -0.009957553
000310 44 aa a0 bc 5d 66 c3 bb 6a c2 ab bc ad f0 5f bc
       -0.019612439 -0.0059631304 -0.020966727 -0.013668221

layer2.weight f4 [200, 200]
000000 35 a7 9a 3c 20 75 87 3d 01 71 c0 bd f6 8b ee bd
       0.018878559 0.06614137 -0.09396554 -0.11647789
000010 fd 7d c3 3c 66 4f c9 bc 15 94 99 3d fe 77 51 3c
       0.023863787 -0.024573993 0.074989475 0.012784956
000020 ad fa 8d bd 0d b4 98 bd 2f 27 02 3c 10 57 d3 3c
       -0.06932578 -0.07456217 0.007943912 0.02579835
000030 64 f4 f4 bd 04 7b 8b 3d f4 de d9 3d 94 34 a8 3d
       -0.11960676 0.06810573 0.10638228 0.082131535
000040 d0 36 96 bb a6 2f 00 be 82 05 23 bd 30 94 ba 3d
       -0.004584171 -0.12518176 -0.039800175 0.09110296
000050 af 51 a6 bd 1b 3f 6a bd da 9f 44 bd 16 3b 53 3d
       -0.08121049 -0.05718909 -0.04800401 0.05157002
000060 3f a7 24 bc 14 c2 ec bd d2 85 42 3d 45 98 4a bc
       -0.01004964 -0.11560455 0.047490902 -0.012365405
000070 6c c3 b9 bb 06 bf a1 bb 54 6e 28 bd 27 7b 98 bd
       -0.005669048 -0.004936102 -0.041120842 -0.074453644
000080 eb d9 45 3d 86 57 be bd 49 84 83 3c 37 98 b6 3c
       0.048303526 -0.092940375 0.01605429 0.022289379
000090 47 af c0 3d f6 24 ad 3d 0c ba 4f bd 85 33 02 3d
       0.094084315 0.08454315 -0.050714538 0.031787414
0000a0 24 af 9f 3b 94 e8 95 bc be c9 72 3d 0d 67 dd 3d
       0.0048731733 -0.018299378 0.059274428 0.10810671
0000b0 7f 18 72 3b d2 32 3e bd 13 e4 08 bc 44 c7 01 3d
       0.003694087 -0.046435185 -0.008355158 0.031684175
0000c0 e9 98 09 bd aa 19 97 bb ec 76 b7 3c d0 86 eb 3c
       -0.033593092 -0.0046112137 0.022395574 0.028750807
0000d0 bf 79 b3 3d 84 33 27 bd 44 04 cf bd 06 7b 15 bd
       0.087634556 -0.040820614 -0.101082355 -0.036494277
0000e0 0c 93 bf bd 9c 07 90 bd 09 52 6f bc 30 2c a2 3b
       -0.09354219 -0.070327014 -0.014606961 0.004949115
0000f0 46 e3 7f 3d 04 e2 66 3d 8c 61 53 3d 32 27 99 bd
       0.062472604 0.05636789 0.0516067 -0.07478179
000100 61 68 3a 3d b5 53 54 3d a8 98 e5 3d cb 18 97 3d
       0.0455097 0.05183764 0.112107575 0.07377776
000110 68 4f 90 3b 26 77 fd 3d 2a f6 c1 3d ce 00 a5 bd
       0.004403997 0.123762414 0.0947078 -0.08056794
000120 2e 13 8c 3d e4 73 a3 bc 5e 8d ed bd c4 44 15 bc
       0.06839596 -0.019952722 -0.11599229 -0.009110633
000130 5f b6 d4 bd ba 95 62 3d 6a f2 32 3b e0 6f 4b bc
       -0.10386347 0.05531857 0.0027305135 -0.01241681
000140 78 02 d0 bc 10 4c 87 bd 7b a6 ee bd ad 9b 94 3d
       -0.025391802 -0.06606305 -0.116528474 0.07256255
000150 aa 50 bb 3c bc 3b f5 bd 02 08 68 3d 01 49 e2 bd
       0.022865612 -0.11974284 0.05664826 -0.11049081
000160 f3 32 c1 bc e0 d3 e7 3d 5f 15 21 3c 2e aa 95 bd
       -0.023583865 0.11319709 0.009831755 -0.0730785
000170 be a6 c2 bd b6 48 9f 3d a8 19 a5 bd 12 e8 29 bd
       -0.0950446 0.077775404 -0.08061534 -0.041481085
000180 14 be 9b bd 5a 21 a1 3d 66 81 f9 bd 17 78 7e bc
       -0.07604614 0.078676894 -0.12182884 -0.015531561
000190 a0 ed 60 3b fa 70 7f bd 92 fa e7 3d 06 3c 02 be
       0.0034321323 -0.062363602 0.11327089 -0.1271821
0001a0 ce 46 f0 bc 42 77 18 3d 0d c7 22 3b 1a b4 23 3d
       -0.029330637 0.037223108 0.0024837882 0.03996668
0001b0 2b e1 ad bd 6a f8 15 3d 6b 22 7c bd 9a e7 d1 3d
       -0.08490213 0.03661386 -0.06155626 0.102492526
0001c0 1e 4f ed bd 10 6d 32 bd 8a 19 a0 bd 76 1a cc bd
       -0.11587356 -0.04356104 -0.07817371 -0.099659845
0001d0 37 9c 7a bc a1 f4 a7 bd 58 75 ba bd d6 49 8f bd
       -0.015296034 -0.08200956 -0.09104413 -0.06996505
0001e0 4a fd 6f bd 24 cc 03 3b 70 88 50 bc d4 20 83 3d
       -0.058591165 0.002011069 -0.012727842 0.06402746
0001f0 fc 16 62 3d 8e f8 96 bd 1b 02 5b bd 48 11 88 bd
       0.0551977 -0.07371627 -0.053468805 -0.06643921
000200 74 c5 3e bd 12 89 98 bd 1b a6 45 3c b1 ba a8 3d
       -0.046575025 -0.07448019 0.012063528 0.082387336
000210 e1 2d a2 3c 3a 83 48 bd 84 95 c7 bc 48 34 ce bd
       0.019797267 -0.048953272 -0.024363287 -0.100685656
000220 da 29 13 3d 00 bd d2 3d 4a 25 37 bd 16 d2 b8 3d
       0.035928585 0.10289955 -0.044713296 0.09024446
000230 5f a4 90 3b 1a c4 3d bd 4a 8b 91 3d 8f 4f 11 bd
       0.004414126 -0.046329595 0.071066454 -0.035476264
000240 e8 22 85 3d f5 e5 c6 3c 11 5d d0 bd 11 e9 b9 bc
       0.065007985 0.024279574 -0.10174001 -0.022694143
000250 96 9e 93 3d 96 53 62 bd aa 8c 20 bd 7c f9 a0 3d
       0.07207982 -0.055255495 -0.039196648 0.07860085
000260 5d 31 8f 3d 0e 4e 53 bd 4f 0f 21 bd 40 dc 08 bd
       0.06991837 -0.05158811 -0.03932124 -0.03341317
000270 37 0b f3 bd f8 04 f9 bd 14 89 85 3d de c1 de 3d
       -0.118673734 -0.12159151 0.06520286 0.10876821
000280 3c cb b4 3d ec 01 f0 bc e1 a7 62 bc a7 3c f6 3c
       0.088278264 -0.029297791 -0.013833971 0.030058218
000290 48 25 57 bc 56 9d 23 3d ba 9d f4 3d 10 65 a4 3d
       -0.013131447 0.03994497 0.119441465 0.08027089
0002a0 e0 df d4 3d a6 4b 29 bd f6 64 bb bd 60 f0 16 bd
       0.10394263 -0.04133191 -0.09150116 -0.036850333
0002b0 37 4b b0 bd ae 41 c4 3d fa 15 e7 3d 9a 38 d3 bd
       -0.08608096 0.0958284 0.112834886 -0.1031353
0002c0 42 88 a9 bd a2 cc 83 3c 25 a9 b7 bc b4 7d 1b bd
       -0.08277942 0.016088787 -0.022419522 -0.037961677
0002d0 a8 95 b8 bd 33 14 2d 3d 74 c2 37 3b 26 39 fe bd
       -0.0901292 0.04225559 0.0028039487 -0.12413244
0002e0 7b 92 e3 3d 52 ec b6 3d 82 d3 6b 3b 65 b5 8f 3d
       0.11111923 0.08931793 0.0035984223 0.0701702
0002f0 36 14 a1 3d 52 48 cb bd 05 38 9a 3d bd 79 59 3c
       0.07865183 -0.099259034 0.07530216 0.013273654
000300 00 21 41 bb 2f 25 ed bd b5 39 83 3d 00 00 71 b9
       -0.0029469132 -0.11579358 0.06407491 -0.00022983551
000310 0a ac 75 3d 22 ee aa bc 15 af 0c bc 03 af cd bd
       0.059978522 -0.020865504 -0.008586665 -0.100431465
000320 84 dd a2 bd 19 c2 ce bc 43 e7 00 bd 26 81 dc 3d
       -0.07952407 -0.025239037 -0.03147055 0.107668206
000330 fa 36 98 3d 3f d7 c5 bb 67 86 c2 bd 7e 52 61 ba
       0.07432361 -0.006037622 -0.094982915 -0.0008595361
000340 32 c4 c9 bc 5d 7c e1 3c e5 e9 8c 3b f7 00 fb 3d
       -0.024629686 0.027525121 0.0043003433 0.122560434
000350 d2 1c 17 be f4 12 b9 bc 62 48 c9 3d 29 a2 89 bd
       -0.14757088 -0.022592045 0.09828259 -0.06720383
000360 54 36 a9 bd e6 37 b4 3c d1 52 cc bd d4 46 22 3d
       -0.082623154 0.02199931 -0.099767335 0.03961833
000370 ae f5 4a bc cc af 09 bd 6d b8 99 bd a7 e1 04 be
       -0.012387676 -0.03361492 -0.075058796 -0.12976705
000380 1a fd 9c 3a a0 d7 9e bc 4c 64 07 3d 53 07 cf 3a
       0.0011977286 -0.019389927 0.033054635 0.001579503
000390 a2 76 de 3d dd 87 b8 3d e3 42 fa bd b1 5e bb 3d
       0.10862471 0.09010289 -0.12219789 0.0914892
0003a0 b8 05 df 3c 97 2f 32 3d 74 35 11 3d 3a f1 0d 3c
       0.027224407 0.043502416 0.035451367 0.00866347
0003b0 f7 fb 52 3d 22 7c 3f bd a2 c5 27 3b c7 d5 0e bc
       0.051509824 -0.04674924 0.0025599976 -0.008717961
0003c0 5f 06 ff 3d 5e 41 4b bd 1b 25 1a bd c1 c7 9c 3c
       0.12452387 -0.049622886 -0.037633043 0.019138219
0003d0 4b b6 a2 3d 6b ed 13 3d e5 52 97 3d 6b 4b a1 39
       0.07944926 0.03611509 0.07388858 0.00030764504
0003e0 d3 8d bb 3c 1d 02 e9 bd b2 f9 af bd 0b dc 9b bd
       0.022894775 -0.11377356 -0.085925475 -0.07610329
0003f0 47 7d 9e 3c b3 41 b9 3d 7b f2 79 3d 9d f7 58 3d
       0.019346846 0.09045734 0.061022263 0.052970517

layer2.bias f4 [200]
000000 2e 6d fa bb 7c 8f e5 bb 5f f7 b4 3c ae b8 20 bc
       -0.0076424098 -0.00700563 0.022090612 -0.009809656
000010 9b 9d 9d bc 8a 26 af 3b 46 a3 bb bc 85 dc ec 3b
       -0.019240191 0.0053451704 -0.022905003 0.0072284364
000020 a5 e5 c5 b9 35 02 b2 bc e6 78 30 3d 1a 37 43 bc
       -0.00037745867 -0.021729568 0.043084048 -0.011914993
000030 d8 34 40 bc ef fc de bb f4 93 50 bc 8e 75 92 bc
       -0.011731349 -0.0068050544 -0.012730587 -0.01787832
000040 cd 84 05 3d 87 87 fd bb d9 61 d8 bc 02 5b 21 bb
       0.03259735 -0.0077371034 -0.026413845 -0.0024620895
000050 78 bf 26 bc 08 01 1d bc 0c 9d 52 3b cd 48 de bb
       -0.010177486 -0.009582765 0.0032137064 -0.006783581
000060 6d f0 65 bc 2b 13 fc 3c 79 5e 37 3d e0 8a f7 bb
       -0.014034373 0.030770859 0.04476783 -0.007554397
000070 e5 40 f4 bc d4 9b 3b bb 0a 48 44 bc be a4 c7 bc
       -0.0298161 -0.0028626816 -0.011980066 -0.024370547
000080 fa 08 6a bc 68 37 55 bc 72 2f c5 bb 56 80 25 bc
       -0.014284367 -0.013013698 -0.006017619 -0.010101398
000090 35 2f 81 3b 09 bd fa 3a 06 94 72 ba b7 d4 57 3d
       0.003942395 0.0019129823 -0.00092536246 0.052693095
0000a0 e2 bd 1c 3a 4c 60 33 bc 89 05 6b 3d 02 41 a5 bc
       0.00059792225 -0.010948252 0.057378326 -0.0201726
0000b0 3c ca 86 bc 86 af 03 bc a4 6a a2 bc a3 77 2c 3d
       -0.016453855 -0.0080374535 -0.01982624 0.042106282
0000c0 a8 e7 b1 bc 08 c9 f9 bb de da f0 ba e8 8d 65 bc
       -0.021716908 -0.0076228417 -0.0018375774 -0.014010884
0000d0 ee b1 97 bc b2 d4 01 bc d7 5f 87 bc cb 4a 34 3d
       -0.01851746 -0.007924246 -0.016525192 0.04401664
0000e0 bb 63 7d bb bf af 87 bc 36 d5 3f bc 30 9f b9 3c
       -0.003866418 -0.016563294 -0.011708548 0.022658914
0000f0 83 a1 8d ba ae 9f c7 ba 42 a1 af bc 88 a6 7b bb
       -0.001080558 -0.0015230083 -0.021439198 -0.003839882
000100 12 3a d6 3c 16 fa 9a bc cb 40 f9 bb e8 d7 6d bc
       0.026150737 -0.018918078 -0.007606601 -0.014516808
000110 e6 a9 17 3d 79 17 b3 bc 31 7a 0d 3c 20 78 6f bb
       0.037027262 -0.021861779 0.00863509 -0.0036540106
000120 4c 17 21 3a f6 12 0b bc d9 0b c1 bb 1c 7c 64 3b
       0.0006145134 -0.008488407 -0.005891305 0.0034864014
000130 a8 d9 45 3d 04 be d2 bc e4 d6 f8 bb bc 1b 8a ba
       0.048303276 -0.025725372 -0.0075939763 -0.001053683
000140 b7 83 c3 bc 37 d9 a4 bc a7 1e b1 3c aa 3b ec bb
       -0.023866517 -0.020123107 0.021621061 -0.007209261
000150 89 27 9e bc 8e 73 9f ba 06 0d a5 bb f5 e2 99 bc
       -0.019305961 -0.0012165175 -0.005036953 -0.01878498
000160 55 95 98 3c af 43 74 bc 62 42 18 3d 02 1b 43 bc
       0.018625895 -0.014908715 0.037172683 -0.011908295
000170 57 0c 12 3b 71 c8 42 bc 1b 33 e7 3c 87 4e e7 bb
       0.0022285187 -0.011888609 0.028222611 -0.0070589217
000180 80 9e 48 bc 2e ee 1c bc 3e 66 1c 3c cd 81 25 3c
       -0.012244821 -0.009578271 0.009545861 0.010101748
000190 95 dd 3f bc da 74 c3 bb 2c de 0f bc dc 2a 72 bc
       -0.011710544 -0.0059648575 -0.008780997 -0.014780726
0001a0 68 25 56 bc 44 6f 64 bc 7c 27 b8 bc db d3 b2 bb
       -0.013070442 -0.013942543 -0.022479765 -0.005457384
0001b0 0c d7 c9 bb 9a d6 8e bc 43 e2 3a bc a9 6a eb 3c
       -0.006159669 -0.017436314 -0.011406484 0.028737383
0001c0 dd cd 1b b9 2d c3 75 bc 70 86 4d bc 07 75 03 bc
       -0.00014858642 -0.015000147 -0.012544259 -0.008023507
0001d0 3b b6 2d bc 18 58 6c bc e8 b0 97 ba 97 41 fe bb
       -0.010602529 -0.0144253 -0.0011573108 -0.0077592838
0001e0 a9 c8 c0 bc 71 34 52 bc 59 bb 68 bc 5f 8f a1 3c
       -0.023533182 -0.012829886 -0.014204823 0.019721685
0001f0 2e 74 9a bb 6b 6f 93 bc f4 6c a4 bc 66 7d 2d bb
       -0.0047135567 -0.017997464 -0.020071484 -0.0026472448
000200 f1 ce 13 bc a9 13 4b bc 65 6a 8f bb 55 54 16 3b
       -0.009021507 -0.012394824 -0.004376697 0.002293845
000210 29 d0 83 bc 4c f9 c9 3c b5 3c 42 3c d0 f6 94 bc
       -0.01609047 0.024655007 0.011855294 -0.018184096
000220 b8 d4 bc 3b 5c d8 a3 bc de ee 11 bc 81 bb ee bb
       0.0057626627 -0.02000063 -0.008907048 -0.007285536
000230 8a 19 14 bc cd 31 fd bb 61 78 6e bc c6 4b 45 bc
       -0.009039292 -0.007726884 -0.014555068 -0.012041992
000240 a4 d8 d7 bb 08 a4 00 bc fd 2e 0e 3d c8 2c f3 3c
       -0.006587105 -0.007851608 0.03471278 0.02968444
000250 d8 10 15 3d 44 da d4 bb 1f 4e 37 bc e0 6c d4 bc
       0.036393017 -0.006495746 -0.011188059 -0.025930822
000260 14 8e 7d bc 93 e1 27 bc 32 a3 f7 bb 89 c5 72 bc
       -0.015475769 -0.010246652 -0.007557296 -0.014817604
000270 72 8a 80 bb 63 04 75 3c d0 f2 e0 ba 45 4e 2b bc
       -0.003922754 0.014954659 -0.0017162208 -0.010455673
000280 58 fd 99 bc f2 6f 54 bc 71 e3 57 bc 87 ba 5b bc
       -0.018797562 -0.012966143 -0.013176785 -0.013411171
000290 43 d7 c7 bc 5f be cb 3c ee 65 22 bc b6 ef 6e bc
       -0.024394637 0.02487105 -0.009911997 -0.014583519
0002a0 22 44 9e bb 1c d0 1d 3d cb b0 0f 3c 3a 68 03 bc
       -0.0048298994 0.038528547 0.008770178 -0.008020455
0002b0 81 cc a7 bb cb a3 a7 b9 65 1a 18 bc 03 d0 23 bc
       -0.0051208143 -0.00031974757 -0.009283637 -0.009998324
0002c0 9c 9e 30 bc e0 9c ad bb dd 25 a7 bc b8 93 ee bb
       -0.010780003 -0.005298242 -0.020403797 -0.007280793
0002d0 3f 10 c2 bc 07 70 f6 3b fb c5 9e bc 09 9b 20 bb
       -0.023689387 0.007520679 -0.019381514 -0.002450647
0002e0 90 26 03 3d ea 74 cd bc 1c 75 f9 bc b9 0b 2c 3a
       0.032019198 -0.025080163 -0.03045135 0.0006563026
0002f0 48 03 ad bc 90 49 47 3b 33 94 b1 3b 2a fb 0a bc
       -0.021119729 0.0030408837 0.005419278 -0.008482734
000300 91 21 10 3a bc 53 be bc 91 d5 9f 3c ce fb a8 bc
       0.0005498166 -0.023233287 0.019511016 -0.020627882
000310 fa 92 83 bc 2a 35 ba bb b3 c6 4d 3d 77 75 a6 bb
       -0.016061295 -0.005682607 0.050238322 -0.005079921

mu.weight f4 [4, 200]
000000 7f 87 c4 3d 0b d6 83 3d 06 ec a6 bd a4 b0 55 bb
       0.09596156 0.0643731 -0.08150487 -0.0032606507
000010 0d fc 11 be ef cc 8e bc c7 61 a6 3d 5e cc 39 3e
       -0.14256306 -0.017431704 0.08124118 0.18144366
000020 0f 8d c9 3d 1b b1 0f be 2e cc 99 bd 70 0f b9 bd
       0.09841358 -0.14032404 -0.07509647 -0.090361476
000030 46 9d 03 3e 39 98 44 3a 85 e1 02 3e e1 64 5c bd
       0.12852964 0.00074994896 0.12781341 -0.053807143
000040 ad ac 30 3e 17 8d 04 3e ca 2d a4 3d 06 f0 c8 3d
       0.1725337 0.12944447 0.08016546 0.09811406
000050 02 2b 91 3d 76 f6 79 3d 82 2c 01 3b 8c a4 9c bd
       0.07088281 0.06102606 0.0019710367 -0.07648572
000060 97 c0 04 3d 37 e7 b6 3d 89 90 9f 3c 77 a0 12 3e
       0.03241023 0.089308195 0.0194781 0.14319025
000070 67 32 d3 bd ec b7 dc bd eb 67 21 3e 5a 12 88 bd
       -0.10312348 -0.10777268 0.15762298 -0.06644125
000080 91 85 2a be 96 4f 59 bb 29 d7 69 3c 12 29 03 be
       -0.16652514 -0.003315901 0.01427249 -0.12808636
000090 f8 16 02 be 85 b9 f0 3c 76 23 93 bd 1c b7 08 bd
       -0.12704074 0.029385338 -0.07184498 -0.03337775
0000a0 af 60 f6 bc f5 7c 06 be ad 90 ff bd 40 e4 04 3e
       -0.0300754 -0.13133605 -0.124787666 0.12977695
0000b0 73 87 a6 bd e4 e7 06 be ea b9 bd 3c f7 24 fc bc
       -0.08131304 -0.13174397 0.02315994 -0.030779345
0000c0 11 6c b8 bd 90 9e 6c bc 91 49 28 3e 9f cb 94 bd
       -0.09004987 -0.014442101 0.16434313 -0.072654
0000d0 53 b6 b9 bd a6 04 c2 3d 43 60 83 3d 63 ae 1b be
       -0.09067979 0.09473543 0.06414845 -0.15203242
0000e0 7d a0 e0 3d f3 d5 64 bd 52 b3 1b 3d 16 b7 f7 3d
       0.10968111 -0.0558681 0.03801281 0.12095468
0000f0 ef b5 26 be 2e de 61 3d b4 df f8 bd 1b de 3a bd
       -0.1628034 0.055143528 -0.12152043 -0.045621973
000100 83 99 87 bb f2 f7 ca 3d 50 6b 01 3e 09 20 ab bd
       -0.004138173 0.09910573 0.12638593 -0.083557196
000110 bd 16 c4 3d 2f 41 c7 bc b6 76 f1 bd 57 be ed 3d
       0.095746495 -0.024323074 -0.117902204 0.1160857
000120 23 b0 8b bc b6 eb 60 bc e9 55 04 bd 3d 52 27 3e
       -0.017051762 -0.013728073 -0.032308493 0.16339965
000130 fa 56 99 bc 8a eb b6 bd f8 6c f2 bd 4a 89 b7 3d
       -0.018718231 -0.08931644 -0.118371904 0.08961733
000140 72 61 b1 bd 75 82 80 3c 36 0a 04 3e 77 2a 8b bd
       -0.08661164 0.015687207 0.1289452 -0.06795209
000150 f9 d2 cc 3d 51 06 24 3d 21 8f 17 be ff ef fe bd
       0.10001177 0.040045086 -0.14800693 -0.12448119
000160 e0 bc c5 3d b4 1f d2 bd 74 09 f0 3c 3e 9b 20 3c
       0.09655166 -0.10259953 0.029301383 0.009802638
000170 6b 57 0c 3d 94 23 69 bd 23 f9 f0 3c 5d 9d bc 3d
       0.034263056 -0.056918696 0.029415673 0.09209702
000180 16 54 28 3e 0b 8b 83 bd 67 dc 17 be 44 c1 11 3e
       0.16438326 -0.06423005 -0.1483017 0.14233881
000190 6c d9 2b bd e5 33 14 3e 16 4a 1b 3d c8 a4 82 bd
       -0.041955397 0.14472921 0.03791245 -0.06379086
0001a0 09 1d 4c bd 1c 1c 11 be 31 39 f3 3d 2c 58 28 3e
       -0.049832378 -0.14170879 0.11876143 0.16439885
0001b0 f2 08 f7 bd 42 14 a1 3c 72 4e 38 bc 66 67 4a 3a
       -0.12062253 0.01966298 -0.011249172 0.0007721096
0001c0 f5 2d eb 3d 6a 50 ca 3d 13 7e a7 bb 18 70 00 3d
       0.11483375 0.09878619 -0.0051114648 0.0313569
0001d0 03 f8 b8 bd d1 0f f1 3c be 5a ab bd 32 99 e8 bd
       -0.090316795 0.029426487 -0.08366917 -0.11357345
0001e0 3e 78 d5 bc fc ad f8 3d 22 7b d3 3c 59 85 8c 3d
       -0.026058313 0.1214256 0.02581555 0.068613715
0001f0 42 cf e2 bc 41 bc a8 bc 6f 1e c4 bd 37 c7 1b 3e
       -0.027686719 -0.020597579 -0.09576117 0.15212713
000200 4d 69 f4 3c 2f 37 13 be ce 47 81 bd f6 e7 13 bd
       0.029835368 -0.1437652 -0.06312524 -0.036109887
000210 1e 77 82 3d aa 82 f8 3d 54 de fd 3d 59 04 d8 bd
       0.06370376 0.12134297 0.12395921 -0.10547704
000220 c1 81 ec bd 06 f3 31 be ce e6 3c 3d 79 2e 84 bc
       -0.11548186 -0.17377862 0.04611855 -0.016135441
000230 65 4b a9 3d d4 09 a8 3d b7 8b f7 bd fc ac af bd
       0.082663335 0.082049996 -0.12087195 -0.08577916
000240 f6 d8 8c bd e5 17 85 bc 62 0f 06 3e a5 d4 4f 3d
       -0.068773195 -0.016246745 0.13091806 0.050739903
000250 1c ea fb bc 5c 6e 07 be 7b af ac bd 70 40 99 bd
       -0.03075128 -0.13225693 -0.08431908 -0.074829936
000260 b7 31 1f 3b 62 72 0c 3c da 4c d2 3d 03 44 be 3c
       0.0024291107 0.008572193 0.102685645 0.02322579
000270 15 c5 0e 3e 5e 81 0e 3e a7 8d ae 3d 9f 03 6a bc
       0.13942368 0.13916537 0.08523112 -0.01428309
000280 73 61 a7 bd bf a3 00 be 74 9e 00 be 5e 1c 5b 3d
       -0.08172884 -0.12562464 -0.12560445 0.05349385
000290 e4 fe e9 3d 10 87 47 bd 86 a4 86 bc 59 82 b5 bd
       0.1142557 -0.04871279 -0.016435873 -0.088627525
0002a0 8d 1f 71 3d 09 07 d6 bc e0 d9 58 3d 33 4c c8 bd
       0.05886798 -0.026126401 0.052942157 -0.09780159
0002b0 c9 64 13 3e b2 03 32 be ea 32 04 be d9 b3 08 3e
       0.14393915 -0.17384222 -0.12910047 0.13349856
0002c0 91 22 20 bd 69 6f 14 be 89 ff 17 be 4a 7d 0d 3e
       -0.039095465 -0.14495625 -0.14843573 0.13817325
0002d0 2f 4a 12 bd 4a ba 8d 3d 01 65 81 bd fc 8c fb 3d
       -0.03571528 0.069202974 -0.06318093 0.1228275
0002e0 b5 24 ea 3d 9b 14 04 3e 69 85 0f be c8 a2 c9 3c
       0.114327826 0.12898485 -0.14015736 0.024613753
0002f0 a1 70 a3 3d ef 77 31 3e c6 27 6c 3d d0 39 be 3d
       0.07980467 0.17330907 0.05765512 0.092883706
000300 1d d1 80 bd 10 2f b8 3d f7 b6 12 bd b3 0f 86 3c
       -0.06289885 0.089933515 -0.03581902 0.016364908
000310 90 19 ad 3d 0e 37 5b 3d 16 c5 22 bd 4c 24 0b 3e
       0.08452141 0.0535193 -0.039738737 0.13588065
000320 06 9d 7a 3d 3c b3 15 be 99 9e bd 3d 48 1b 4e bd
       0.061184905 -0.14619154 0.09258766 -0.050318986
000330 27 08 db bd 0a fe 9f 3d 6f bb e4 bd 1f c7 f2 bd
       -0.10694914 0.07812126 -0.111685626 -0.118543856
000340 cc 44 74 3d dc 75 d3 3d b7 92 30 3e 00 fe c1 bd
       0.059635922 0.10325214 0.17243467 -0.09472275
000350 ef f5 10 be a0 2e 06 3e a1 26 f1 bd e8 21 34 bd
       -0.14156316 0.13103724 -0.11774946 -0.043977648
000360 6a b3 06 3e ae 0f e4 bc 08 4f 19 bd e4 d6 fa 3d
       0.13154379 -0.027839508 -0.037428886 0.122480184
000370 62 8a 9b 3d d7 65 70 3d 50 cb 98 3c 6e c6 90 ba
       0.07594754 0.058690872 0.018651634 -0.0011045465
000380 96 03 9d bd de b5 ec 3d 05 f9 08 3e 52 68 19 be
       -0.076666996 0.11558126 0.13376243 -0.14981201
000390 ca 48 9d bd 77 70 46 bd 94 fd 9f bd 4d c0 19 3d
       -0.07679899 -0.0484471 -0.07812038 0.037536908
0003a0 31 09 60 3c 2c 1e 0d be 78 ac b6 bc dc db 61 bc
       0.013674066 -0.13781041 -0.022299036 -0.013785329
0003b0 dc e2 ff 3d d0 de f6 bd 73 a2 5d 3b 13 08 cf 3d
       0.12494442 -0.12054217 0.003381875 0.10108962
0003c0 e7 c2 09 be f2 cf 8f bc 64 3d e9 3d 94 8d 14 be
       -0.13453256 -0.01755521 0.113886625 -0.14507133
0003d0 e4 15 e8 bc 9f 0c bd 3d 96 c1 15 be e2 50 dd 3d
       -0.02833075 0.09230923 -0.14624628 0.10806443
0003e0 65 5a 22 be 56 04 84 bd a4 6b 4e 3c 49 39 16 be
       -0.15854795 -0.064461395 0.012598906 -0.1467029
0003f0 0a a6 3b bd 13 89 8e bd ff 7d c4 3c 64 d6 dc 3d
       -0.045812644 -0.069597386 0.02398586 0.10783079

mu.bias f4 [4]
000000 40 df 58 bc 56 d6 13 3d cd 99 06 3d 7a ec 17 3c
       -0.013236821 0.03609308 0.03286152 0.009272689
