saves/test_clustering/env_model_init.pth (torch, 295438 bytes, 6 tensors)

layer1.weight f4 [200, 160]
-0.05487536 0.20257798 0.18992941 0.1840745 0.25854483 0.061905783 -0.042347886 0.20537308
0.06530814 0.09617228 0.0069373655 0.034097787 0.13983285 0.10752227 0.023826707 0.19478814
0.08208692 -0.00859973 0.24081299 0.1271932 0.012030887 0.19814616 0.27987224 -0.0009874199
0.27382708 0.37002724 0.1068623 0.18942578 0.3967458 0.11735595 0.027573708 0.2863532
-0.030535156 0.07148778 0.25333858 -0.04172182 -0.024409803 0.12674531 0.02733798 0.066532694
0.3728376 -0.034357537 0.104606256 0.17730609 0.04809646 -0.055235833 0.12211294 -0.1017523
0.029044304 0.1944519 -0.120469004 -0.08514992 0.25811797 -0.023474488 0.013967097 0.20279206
-0.08336376 0.28913227 0.3108797 0.016451506 0.18112558 0.4785856 -0.06791007 0.080245525
0.30934447 -0.075467326 -0.14856742 -0.024637517 -0.012528426 -0.24319328 0.06654512 -0.09588606
0.031593435 0.17948107 0.30759272 0.01557424 0.20902082 0.30110547 -0.17928079 -0.056792747
0.10349098 -0.029540012 -0.082446344 -0.038630314 0.015874498 0.0024245374 0.09110512 0.034436565
0.13970678 0.09425678 0.012968479 0.16200034 0.30074796 0.21411507 0.3918145 0.11392311
0.070444226 0.41538325 -0.02249681 0.008190226 0.239603 0.10165628 -0.22593905 -0.11195581
0.18355751 -0.13991491 -0.12761231 0.16516663 0.28249502 0.2857201 0.13184725 0.17814215
0.2856894 0.17495519 0.14051576 0.12620209 0.17348975 0.13241173 0.15106525 0.09159089
0.049880333 -0.019337555 0.20372683 0.21992694 0.20480612 0.23862119 0.16561908 0.06906754
0.14803061 -0.05046028 0.2570352 0.22527117 -0.040032163 0.10722225 0.24756813 0.113304086
0.1958871 0.260396 -0.12142882 0.059828337 0.10113679 -0.11599759 0.065382935 0.22376002
0.06899711 -0.104053505 -0.099286035 -0.0114457775 -0.041319635 -0.10394779 0.0500244 0.016902434
0.024465157 0.061838362 0.03840711 -0.024582304 0.09769382 0.09589853 -0.014012384 0.06304378
0.20325437 0.15297495 0.09777268 0.2302115 0.16895643 0.0023335083 -0.017873758 0.13719034
-0.0018536784 0.087586276 0.19173686 0.013157007 0.03660445 0.06317581 0.16858533 -0.14752606
0.015742341 0.012403614 -0.18663354 -0.029243546 -0.077937715 0.05998066 0.3761718 0.068077505
0.070220016 0.2893869 -0.05725277 0.0747359 0.36005983 -0.0053218566 -0.02344236 0.0014685952
-0.037047643 -0.16414677 -0.07430139 -0.18003093 -0.1316166 0.24304286 0.10471769 0.04178558
0.17871115 0.21152876 -0.09572507 -0.060870845 0.10289046 -0.16792315 0.1344767 0.10697658
-0.21992658 -0.02957269 0.10940713 0.1036069 -0.041724928 0.19012637 -0.043616135 -0.03544257
0.04548205 0.0328645 0.20231348 0.049042527 0.027287325 0.13560915 0.16438921 -0.025176367
0.039150387 0.16009687 -0.09648692 -0.1783508 0.054300036 -0.18044057 -0.07803722 -0.12130834
0.05810786 0.11647481 0.031471413 0.065934554 0.2407929 0.23249781 0.089786634 -0.0045880857
0.1557615 0.15190849 -0.008714582 0.039707366 0.056145314 0.11564583 0.037240952 -0.11337234
0.17117797 0.11338464 -0.013248021 0.20989056 0.11887656 0.082170434 -0.057265274 0.17774011
00000000: fcc4 60bd 9a70 4f3e db7c 423e 077e 3c3e
00000010: fd5f 843e eb90 7d3d fa74 2dbd 524d 523e
00000020: 46c0 853d f9f5 c43d d752 e33b 1faa 0b3d
00000030: 5830 0f3e a334 dc3d 3a30 c33c 8b76 473e
00000040: 301d a83d e2e5 0cbc ae97 763e ef3e 023e
00000050: 331d 453c d4e6 4a3e 6a4b 8f3e 506c 81ba
00000060: 1033 8c3e 3674 bd3e 9fda da3d d5f8 413e
00000070: 4422 cb3e 5158 f03d 42e2 e13c e39c 923e
00000080: dd24 fabc 2f68 923d 98b5 813e 80e4 2abd
00000090: 11f7 c7bc 86c9 013e e6f3 df3c 4b42 883d
000000a0: 92e4 be3e 7dba 0cbd ce3b d63d ba8f 353e
000000b0: cb00 453d f83e 62bd 5916 fa3d 8363 d0bd
000000c0: 52ee ed3c 661e 473e 74b8 f6bd 1563 aebd
000000d0: 0a28 843e 924d c0bc 40d6 643c b9a8 4f3e
000000e0: 9eba aabd 2509 943e a02b 9f3e 4fc5 863c
000000f0: fc78 393e 2c09 f53e 6f14 8bbd c457 a43d
00000100: 6662 9e3e 9d8e 9abd 0f22 18be 9ed4 c9bc
00000110: 0744 4dbc a907 79be cf48 883d e95f c4bd
00000120: 1e68 013d e3c9 373e cb7c 9d3e 192b 7f3c
00000130: 8e09 563e 7f2a 9a3e 6295 37be 839f 68bd
00000140: 14f3 d33d e5fd f1bc a1d9 a8bd d23a 1ebd
00000150: 3c0b 823c fde4 1e3b 5295 ba3d 5b0d 0d3d
00000160: 4b0f 0f3e b309 c13d be79 543c 6be3 253e
00000170: a3fb 993e fb40 5b3e e99b c83e 8550 e93d
00000180: 1045 903d 1dad d43e 3b4b b8bc 4c30 063c
00000190: 7d5a 753e 2b31 d03d 915c 67be 1649 e5bd
000001a0: 80f6 3b3e db45 0fbe cdac 02be 7121 293e
000001b0: 30a3 903e e849 923e f702 073e e56a 363e
000001c0: e245 923e 7427 333e 5de3 0f3e 1f3b 013e
000001d0: 4ca7 313e f196 073e d9b0 1a3e 0194 bb3d
000001e0: 524f 4c3d cb69 9ebc c49d 503e 8734 613e
000001f0: b2b8 513e 1d59 743e 0c98 293e 4873 8d3d
00000200: 5695 173e 70af 4ebd 1e9a 833e 7cad 663e
00000210: c4f8 23bd 5797 db3d 8082 7d3e f90b e83d
00000220: a196 483e a052 853e acaf f8bd 8f0e 753d
00000230: ce20 cf3d 2590 edbd 7de7 853d 5921 653e
00000240: 5b4e 8d3d 011a d5bd 7a56 cbbd 1287 3bbc
00000250: c73e 29bd 94e2 d4bd 63e6 4c3d f976 8a3c
00000260: 276b c83c 394a 7d3d c650 1d3d d460 c9bc
00000270: b313 c83d 7366 c43d 3394 65bc 191d 813d
00000280: ea21 503e 77a5 1c3e 0b3d c83d 90bc 6b3e
00000290: ea02 2d3e c6ed 183b fd6b 92bc a07b 0c3e
000002a0: 20f7 f2ba 6f60 b33d ab56 443e 7d90 573c
000002b0: 8cee 153d 5262 813d a2a1 2c3e 1211 17be
000002c0: 15f6 803c 8738 4b3c dd1c 3fbe 2990 efbc
000002d0: cf9d 9fbd 48ae 753d 9799 c03e 386c 8b3d
000002e0: 83cf 8f3d 852a 943e e181 6abd 230f 993d
000002f0: c359 b83e f862 aebb 310a c0bc e17d c03a
00000300: 45bf 17bd 1716 28be 542b 98bd 075a 38be
00000310: 81c6 06be 3ae0 783e 3a76 d63d 5b27 2b3d
00000320: 0e00 373e ff9a 583e 810b c4bd b553 79bd
00000330: 3cb8 d23d 0cf4 2bbe 43b4 093e 8a16 db3d
00000340: 6f34 61be 6d42 f2bc d810 e03d db2f d43d
00000350: c2e7 2abd 7db0 423e d5a6 32bd 3a2c 11bd
00000360: 634b 3a3d ed9c 063d 442b 4f3e d1e0 483d
00000370: ab89 df3c 20dd 0a3e a555 283e ab3e cebc
00000380: 285c 203d 6ff0 233e ef9a c5bd 98a1 36be
00000390: b769 5e3d 6ac5 38be fad1 9fbd 8270 f8bd
000003a0: 8202 6e3d 588a ee3d 2be8 003d b208 873d
000003b0: 6a92 763e e813 6e3e 0ee2 b73d a757 96bb
000003c0: f17f 1f3e e68d 1b3e 9bc7 0ebc 31a4 223d
000003d0: a1f8 653d b9d7 ec3d f889 183d c22f e8bd
000003e0: 4749 2f3e 3536 e83d 3a0e 59bc 8ded 563e
000003f0: 8e75 f33d f948 a83d fe8e 6abd 8101 363e

layer1.bias f4 [200]
-0.024458516 -0.032470252 -0.018359914 -0.0031698016 -0.012877659 -0.021413257 0.011412739 -0.028921185
-0.015854867 -0.005383363 -0.013831904 -0.0152818905 0.0013405054 0.019820504 0.0 -0.005228757
0.031485584 -0.015265483 -0.007284324 -0.015896508 -0.022486674 0.0016718522 -0.0055588745 -0.004474226
-0.008632741 0.0 0.0 -0.007946771 -0.011471803 -0.0060348455 -9.4185816e-05 -0.012452274
0.0113657955 -0.0045623025 0.006705449 0.0003677883 0.007831523 -0.009473402 -0.02520306 -0.0046042586
-0.001360786 0.008173108 0.007872283 -0.006065117 0.014046678 0.0 -0.000106830674 0.008125143
-0.0063767238 -0.0065300087 0.01269578 0.02373597 -0.005594224 -0.026274534 -0.028413758 -0.008024806
-0.015710944 -0.010389982 0.0037445356 0.0023129783 0.00029802555 -0.0064792377 0.0 -0.00087666186
-0.03506691 -0.003028233 -0.0051926617 0.022751538 -0.027695969 -0.041819777 0.0043102996 -0.0044400697
0.0 0.010112754 -0.016624367 -0.00065544044 -0.011939667 -0.0046518366 -0.009315892 -0.018475803
-0.0066735134 0.003275422 -0.021984465 -0.017407788 -0.021795448 0.0072594746 0.015945803 0.016469473
0.0 -0.028738612 0.0048470623 -0.013348363 0.0 -0.0031649233 -0.015520253 -0.016080135
-0.0038692919 0.002264819 -0.033203643 -0.027125135 -0.012228998 0.0 0.0 -0.00956129
0.014667511 0.007862779 -0.045343608 -0.002693036 0.0 0.012821912 -0.0037287136 0.01319848
-0.012281065 0.0 -0.00855786 -0.015715519 -0.010631637 0.014561576 0.012593552 0.0044172634
-0.00096948806 -0.008042257 0.030890455 -0.0043598115 -0.01024985 0.009796437 -0.021996519 -0.005395129
-0.024118407 -0.037221987 0.004560444 -0.009021919 -0.00030942285 0.021945693 -0.014096451 -0.012683659
0.018102398 0.010909621 0.00074807036 -0.0058642393 -0.0055285543 -0.0033065374 0.0 -0.016040841
-0.012279445 -0.013643837 -0.023647066 0.009928507 0.017753348 0.0071315053 0.006407394 -0.022950312
0.0 0.028554834 -0.02131617 -0.023902835 -0.009362355 0.0 -0.00614196 0.010468853
-0.021741468 -0.0075837164 -0.012015266 -0.00475604 0.011530541 -0.0021930747 0.0 0.0
-0.015823526 0.0023162514 -0.03392452 -0.025454495 -0.040983565 -0.025811959 -0.027030852 -0.019159121
0.015206144 -0.017007109 0.00669981 -0.007087391 -0.018600501 -0.0005003501 -0.021683808 -0.0051311613
-0.006104086 -0.02332774 -0.009169501 -0.022639476 -0.0058886567 -0.00762983 -0.040847823 -0.022397304
0.0043875864 0.0 0.0 -0.0070794118 -0.013449879 0.013500673 -0.0022033956 0.0
00000000: 3a5d c8bc 87ff 04bd 8867 96bc 72bc 4fbb
00000010: d1fc 52bc db6a afbc 7ffc 3a3c 1fec ecbc
00000020: 11e2 81bc ec66 b0bb 369f 62bc e560 7abc
00000030: e6b3 af3a 9c5e a23c 0000 0000 fe55 abbb
00000040: 07f7 003d 141c 7abc 57b1 eebb 6539 82bc
00000050: f935 b8bc 0d22 db3a 3827 b6bb 879c 92bb
00000060: 5770 0dbc 0000 0000 0000 0000 2c33 02bc
00000070: 3bf4 3bbc f4bf c5bb a085 c5b8 9f04 4cbc
00000080: 9a37 3a3c 5e7f 95bb 62b9 db3b b6d3 c039
00000090: ca4f 003c 5436 1bbc a676 cebc 52df 96bb
000000a0: 675c b2ba 80e8 053c c0fa 003c e4bd c6bb
000000b0: 0a24 663c 0000 0000 480a e0b8 521f 053c
000000c0: d6f3 d0bb aff9 d5bb f601 503c f071 c23c
000000d0: c14f b7bb b13d d7bc f8c3 e8bc 7a7a 03bc
000000e0: 3db4 80bc be3a 2abc e266 753b 5695 173b
000000f0: 5040 9c39 c94f d4bb 0000 0000 c8cf 65ba
00000100: 52a2 0fbd 5275 46bb 3427 aabb 6f61 ba3c
00000110: a8e2 e2bc 374b 2bbd 6a3d 8d3b 017e 91bb
00000120: 0000 0000 f7af 253c d32f 88bc ddd1 2bba
00000130: 989e 43bc 6f6e 98bb afa1 18bc 915a 97bc
00000140: 7dad dabb 76a8 563b c418 b4bc c79a 8ebc
00000150: 5e8c b2bc e3e0 ed3b c6a0 823c fdea 863c
00000160: 0000 0000 3d6d ebbc 1bd4 9e3b 18b3 5abc
00000170: 0000 0000 9a6a 4fbb a948 7ebc 7dba 83bc
00000180: f293 7dbb 5c6d 143b 8b00 08bd 8835 debc
00000190: 235c 48bc 0000 0000 0000 0000 f5a6 1cbc
000001a0: 0050 703c e3d2 003c 38ba 39bd a67d 30bb
000001b0: 0000 0000 ff12 523c 6f5d 74bb 703e 583c
000001c0: 8536 49bc 0000 0000 4436 0cbc d5bd 80bc
000001d0: 5130 2ebc ad93 6e3c 2f55 4e3c b1be 903b
000001e0: 3e25 7eba acc3 03bc fb0d fd3c c0dc 8ebb
000001f0: fdee 27bc 3c81 203c 0b32 b4bc 9fc9 b0bb
00000200: f793 c5bc 1576 18bd c76f 953b acd0 13bc
00000210: 083a a2b9 74c7 b33c cdf4 66bc 1fcf 4fbc
00000220: 7b4b 943c 44be 323c 271a 443a ce28 c0bb
00000230: e028 b5bb 7eb2 58bb 0000 0000 1568 83bc
00000240: ba2f 49bc 668a 5fbc 7eb7 c1bc 2dab 223c
00000250: 786f 913c 67af e93b 1ef5 d13b 4b02 bcbc
00000260: 0000 0000 d4eb e93c 409f aebc e1cf c3bc
00000270: 9064 19bc 0000 0000 7f42 c9bb 8d85 2b3c
00000280: 2a1b b2bc d380 f8bb aedb 44bc 8ed8 9bbb
00000290: 98ea 3c3c b0b9 0fbb 0000 0000 0000 0000
000002a0: 57a0 81bc 40cc 173b 70f4 0abd f285 d0bc
000002b0: 62de 27bd 9a73 d3bc ce6f ddbc 97f3 9cbc
000002c0: 3123 793c 7e52 8bbc 148a db3b 583d e8bb
000002d0: 1460 98bc ed29 03ba 3ea2 b1bc 4d23 a8bb
000002e0: c904 c8bb d119 bfbc ad3b 16bc 6c76 b9bc
000002f0: a2f5 c0bb a703 fabb 0c50 27bd 8d7a b7bc
00000300: bec5 8f3b 0000 0000 0000 0000 69fa e7bb
00000310: e25c 5cbc ed31 5d3c d866 10bb 0000 0000

layer2.weight f4 [200, 200]
-0.08454758 -0.10879683 0.012529391 -0.10434231 -0.029700808 0.08159481 -0.03539265 -0.08785192
0.09128596 0.039948046 0.036341764 -0.0071617095 -0.100068755 0.09026801 0.02971255 0.11345618
-0.10127505 -0.047002487 0.10039366 -0.02953862 0.014038818 -0.1159827 -0.0455392 -0.004776716
-0.027271666 0.007605292 -0.080706626 -0.043218303 -0.08475923 0.055792116 0.06697593 -0.05061393
-0.017661398 -0.075891435 0.033464026 -0.07876192 -0.021637656 -0.12027809 -0.036860775 -0.019032871
0.03947475 0.03749428 0.11246764 0.124982774 0.03983887 0.0308849 -0.006965759 -0.06517354
-0.045280028 0.027239045 0.08072501 0.068479836 0.110672794 -0.046760194 -0.020707661 0.030388614
0.10977189 0.0795834 -0.013912811 0.104644254 0.0011639568 -0.089444056 -0.102073185 0.009141246
-0.04825848 0.026864046 -0.079887085 -0.11231082 -0.10935264 0.028077217 -0.012249839 0.09276458
0.058330067 0.03703417 -0.11975086 -0.10362693 0.030409386 0.03542721 -0.07828715 -0.0872808
0.087694556 0.108966164 -0.053188294 -0.10127524 -0.033395756 0.1109227 -0.013136047 0.018410115
0.014946006 0.00080633257 -0.097173974 0.05737772 0.022168703 0.0416515 0.0057799444 0.0476625
-0.06369963 0.03902819 -0.13130823 0.11289936 0.10939386 -0.061231636 -0.042936914 0.007122707
0.0063104928 0.099133514 0.033293623 0.015789514 -0.0048235953 0.03863644 -0.029770592 0.1257679
0.09586927 -0.02821222 -0.09204425 -0.077483125 0.08780887 -0.008281052 0.034453165 0.047219895
-0.084633 -0.08129717 -0.060371485 0.10114958 -0.07062321 0.090449266 -0.10885074 -0.056593623
-0.012508801 -0.034672465 0.043380864 0.06885924 -0.07014496 0.08647255 -0.10382498 0.06709422
-0.10028532 -0.10396295 -0.021868281 -0.0774527 0.039650436 -0.09680794 0.08374532 -0.10522958
-0.022919133 -0.064829215 0.010905526 0.06549231 -0.00578472 -0.08662341 -0.10860119 0.069938704
0.06934554 -0.036487304 -0.053245574 0.0016774908 -0.046755128 -0.07149996 0.0758323 0.09561231
0.11060887 -0.13481471 0.020719564 0.13802423 0.10749132 -0.052680142 -0.12202321 0.07819302
-0.040116645 -0.024082888 0.058850594 0.03822033 -0.04031801 -0.0034786614 0.087630585 -0.038296357
0.07401996 -0.054243825 0.12430683 -0.05014798 -0.022318581 -0.0842244 -0.101380445 0.019754924
0.09895053 -0.075937785 -0.0034745485 0.08461279 0.0043011922 -0.05757893 -0.10257794 -0.11598745
-0.08785692 -0.114455424 -0.104466446 -0.07989218 -0.09707247 0.09490918 0.110989474 -0.119921625
-0.118488275 0.0895677 -0.10700807 0.068735495 0.073800124 0.0048850807 0.06005082 0.043799564
0.09564115 0.07285104 0.02829216 -0.13243972 -0.026262974 0.06348121 0.025911503 0.017658584
0.07532448 0.061058305 -0.011157408 -0.057413656 -0.017583355 -0.057015784 -0.051733553 -0.08396187
-0.06096596 0.019352593 0.094510056 0.026144385 -0.119059995 -0.038320284 0.04216338 0.08811972
0.02731747 0.05761458 0.07989028 -0.09121326 -0.031137452 0.011123378 -0.018567657 0.07471692
-0.117861785 0.00011897762 0.054793064 -0.03054262 -0.116409555 0.037731282 0.08730204 -0.07690214
-0.038789634 -0.0014885372 -0.15556371 0.023373742 0.09068171 -0.019823229 -0.027108887 -0.09637684
00000000: 4827 adbd dfd0 debd 1348 4d3c 6cb1 d5bd
00000010: 1c4f f3bc 2e1b a73d e2f7 10bd b5eb b3bd
00000020: 22f4 ba3d 90a0 233d 1adb 143d c6ac eabb
00000030: d9f0 ccbd 6fde b83d bc67 f33c b75b e83d
00000040: 4b69 cfbd ae85 40bd 319b cd3d fafa f1bc
00000050: 1203 663c 5688 edbd 5087 3abd 0086 9cbb
00000060: d468 dfbc d035 f93b 8449 a5bd ad05 31bd
00000070: 3f96 adbd 4686 643d ad2a 893d 8d50 4fbd
00000080: a3ae 90bc f86c 9bbd 9311 093d ee4d a1bd
00000090: 7441 b1bc 5c54 f6bd 53fb 16bd d3ea 9bbc
000000a0: 47b0 213d 9a93 193d 6f55 e63d f8f6 ff3d
000000b0: 152e 233d 5402 fd3c 0641 e4bb b479 85bd
000000c0: 8d77 39bd 6b24 df3c 2753 a53d 283f 8c3d
000000d0: 6ba8 e23d 9e87 3fbd 1da3 a9bc 8bf1 f83c
000000e0: 16d0 e03d 9ffc a23d 8ff2 63bc ba4f d63d
000000f0: e98f 983a 722e b7bd bf0b d1bd 2ac5 153c
00000100: afaa 45bd fd11 dc3c d79b a3bd 3703 e6bd
00000110: 47f4 dfbd 3102 e63c 8cb3 48bc 5bfb bd3d
00000120: 82eb 6e3d 24b1 173d f03f f5bd 5b3a d4bd
00000130: 1b1d f93c 1f1c 113d 0355 a0bd 47c0 b2bd
00000140: 3499 b33d a729 df3d f8db 59bd 6569 cfbd
00000150: fdc9 08bd 712b e33d 9338 57bc cfd0 963c
00000160: 18e0 743c 1060 533a 2603 c7bd e604 6b3d
00000170: 249b b53c c39a 2a3d b065 bd3b c139 433d
00000180: f474 82bd 06dc 1f3d aa75 06be c837 e73d
00000190: e309 e03d 06ce 7abd 9ede 2fbd 9965 e93b
000001a0: 40c8 ce3b 8306 cb3d e55e 083d 0359 813c
000001b0: 400f 9ebb 3e41 1e3d 75e1 f3bc 4dc9 003e
000001c0: 1c57 c43d 501d e7bc b281 bcbd 79af 9ebd
000001d0: 23d5 b33d 40ad 07bc c31e 0d3d a669 413d
000001e0: 1154 adbd 217f a6bd 1748 77bd 8327 cf3d
000001f0: e7a2 90bd 773d b93d 23ed debd b7ce 67bd
00000200: b7f1 4cbc b704 0ebd 22b0 313d 1306 8d3d
00000210: 29a8 8fbd 8518 b13d 31a2 d4bd b268 893d
00000220: 6462 cdbd 87ea d4bd 1c25 b3bc 859f 9ebd
00000230: 7f68 223d 3e43 c6bd ab82 ab3d 9b82 d7bd
00000240: e8c0 bbbc 2ec5 84bd 17ad 323c d520 863d
00000250: c08d bdbb 9d67 b1bd 4d6a debd 063c 8f3d
00000260: 0905 8e3d b673 15bd 0818 5abd 40df db3a
00000270: 4e82 3fbd 926e 92bd f74d 9b3d 63d0 c33d
00000280: e786 e23d de0c 0abe 13bc a93c 3956 0d3e
00000290: 6924 dc3d 22c7 57bd 4ee7 f9bd a923 a03d
000002a0: 5a51 24bd 7a49 c5bc 520d 713d ec8c 1c3d
000002b0: 7f24 25bd 41fa 63bb aa77 b33d a4dc 1cbd
000002c0: c797 973d c62e 5ebd 9494 fe3d f867 4dbd
000002d0: 75d5 b6bc d87d acbd 8da0 cfbd 14d5 a13c
000002e0: 93a6 ca3d 4585 9bbd 40b5 63bb 7849 ad3d
000002f0: 04f1 8c3b e2d7 6bbd 6214 d2bd d48a edbd
00000300: 54ee b3bd 9b67 eabd 81f2 d5bd 839e a3bd
00000310: eecd c6bd bf5f c23d 734e e33d 7899 f5bd
00000320: fba9 f2bd 456f b73d 0c27 dbbd 32c5 8c3d
00000330: 8524 973d 0713 a03b d9f7 753d 2c67 333d
00000340: 82df c33d ed32 953d f6c4 e73c 479e 07be
00000350: 7325 d7bc 7002 823d 5c44 d43c bca8 903c
00000360: b943 9a3d 4618 7a3d 90cd 36bc 952a 6bbd
00000370: f80a 90bc 6289 69bd 90e6 53bd 33f4 abbd
00000380: 71b7 79bd 5489 9e3c 7d8e c13d c02c d63c
00000390: bad5 f3bd bbf5 1cbd 82b3 2c3d 1d78 b43d
000003a0: e3c8 df3c 44fd 6b3d 849d a33d 05ce babd
000003b0: f813 ffbc d43e 363c 331b 98bc 2f05 993d
000003c0: 8561 f1bd a083 f938 b16e 603d 8434 fabc
000003d0: 2268 eebd 1e8c 1a3d 69cb b23d df7e 9dbd
000003e0: e1e1 1ebd 051b c3ba 184c 1fbe 4a7a bf3c
000003f0: 55b7 b93d 5364 a2bc 7513 debc 3861 c5bd

layer2.bias f4 [200]
-0.0031459734 -0.011857646 0.0010540397 0.0 -0.004552562 -0.012176905 0.034987595 -0.006505057
0.02333069 -0.022182887 -0.017113646 0.008603802 -0.01283705 -0.0060055074 -0.015104802 -0.016587455
-0.010152302 0.00480012 -0.013840355 0.004104063 -0.0042595523 -0.017531965 -0.0025595194 -0.006886249
-0.014565534 -0.009480793 -0.018315954 -0.013981421 -0.01943919 -0.0129560735 0.015076089 -0.0036862965
0.032220326 -0.012252817 0.0 -0.0034948827 -0.0056271767 -0.004553009 -0.018685222 0.0062810043
-0.0071250885 -0.012028457 -0.014707866 -0.0004185479 -0.01818617 -0.0046427473 0.00966164 -0.014157927
-0.00025377795 0.006129857 -0.012106055 -0.014467362 0.004747059 -0.014881327 -0.01399052 -0.011768333
-0.012099572 -0.020258091 0.017224919 -0.0034892468 -0.011747778 0.005084697 0.016951308 -0.011661937
0.0002639329 -0.008916428 -0.008001036 -0.01274116 -0.011877851 -0.012582309 0.009545138 0.004170803
-0.0004225868 -0.004572117 -0.015696209 0.008186 -0.0023075533 0.0015226097 -0.0026284487 -0.003244121
-0.008697709 0.0033668012 0.008211486 -0.0022823305 -0.0039612083 0.0024479518 0.027385803 0.00015748356
-0.0018333434 -0.004983124 -0.013858197 0.0044072196 -0.0113633005 -0.0040526185 0.0 -0.013937649
0.003435086 -0.0050856606 -0.016424952 -0.016912557 -0.008473906 -0.03100666 0.006537091 -0.008489752
-0.0069516506 -0.013464475 0.026407802 0.0030611723 -0.017056532 0.0042017186 -0.007816898 -0.014540373
-0.006554443 0.0039979722 0.00011230278 -0.013255519 -0.012105541 0.01472402 -0.012501086 -0.018078856
-0.008059163 -0.012626021 -0.017747436 0.035469033 -0.004389981 0.0015978758 0.004064822 0.0077439994
-0.0026774546 -0.011460812 -0.010745505 0.0019212724 -0.01081255 -0.022547146 -0.008921109 -0.009429701
0.050388504 -0.00617751 -0.0071376907 -0.014291251 0.0048895744 -0.013371016 -0.014446229 -0.0037311607
0.012665238 -0.004337852 0.0031693212 0.0021682894 -0.0095562795 -0.0069529726 -0.011723363 0.010761479
0.01526958 -0.001796392 0.036252283 -0.011329698 0.0059640375 -0.021075474 -0.010729563 0.0001427563
0.041681606 0.014034452 0.0006595053 0.0071790973 0.00400425 -0.013739959 -0.0155574875 -0.019186959
-0.009757954 -0.005114249 -0.002862959 -0.006027609 -0.00606807 -0.005534402 -0.00065691135 -0.0060054953
-0.011598851 0.008289183 0.011335893 0.014097118 -0.012537565 0.027436676 0.010222549 -0.009745908
-0.012331923 -0.013713806 -0.0038139396 0.0044328193 0.0027699433 -0.0036479777 -0.018125623 -0.003588402
-0.0021269945 -0.011571554 -0.017626794 0.006555065 -0.0068837227 0.0004995859 0.008089125 -0.011123031
00000000: ad2c 4ebb 9246 42bc b427 8a3a 0000 0000
00000010: a82d 95bb a481 47bc 274f 0f3d 6028 d5bb
00000020: 0120 bf3c e3b8 b5bc eb31 8cbc f6f6 0c3c
00000030: 7d52 52bc d9c9 c4bb 227a 77bc 6ae2 87bc
00000040: d755 26bc 534a 9d3b a8c2 62bc 607b 863b
00000050: b793 8bbb 329f 8fbc 9cbd 27bb 0ba6 e1bb
00000060: 47a4 6ebc 5455 1bbc 570b 96bc 5412 65bc
00000070: f03e 9fbc b645 54bc b301 773c cb95 71bb
00000080: 76f9 033d 0ac0 48bc 0000 0000 670a 65bb
00000090: 2e64 b8bb 6831 95bb c011 99bc e2d0 cd3b
000000a0: 9379 e9bb 0113 45bc 43f9 70bc 8c70 dbb9
000000b0: 2afb 94bc 3022 98bb db4b 1e3c a6f6 67bc
000000c0: 800d 85b9 f8dc c83b 7a58 46bc 8408 6dbc
000000d0: 388d 9b3b cfd0 73bc 7e38 65bc f7cf 40bc
000000e0: 493d 46bc 4cf4 a5bc 461b 8d3c d9ab 64bb
000000f0: c179 40bc 889d a63b 78dd 8a3c b611 3fbc
00000100: 7960 8a39 3616 12bc c716 03bc 4cc0 50bc
00000110: 519b 42bc 0726 4ebc 3663 1c3c 3bab 883b
00000120: a48e ddb9 b2d1 95bb 5695 80bc 931e 063c
00000130: 523a 17bb 4e92 c73a 0d42 2cbb 529b 54bb
00000140: d680 0ebc 8da5 5c3b 7889 063c 2793 15bb
00000150: 06cd 81bb d16d 203b 3158 e03c 2c22 2539
00000160: cc4c f0ba 7949 a3bb 7e0d 63bc 706a 903b
00000170: 232d 3abc d4cb 84bb 0000 0000 bd5a 64bc
00000180: 2e1f 613b 9da5 a6bb 9f8d 86bc 348c 8abc
00000190: 23d6 0abc ae01 febc 1835 d63b 9a18 0bbc
000001a0: acca e3bb 1a9a 5cbc 2d55 d83c f39d 483b
000001b0: 24ba 8bbc 92ae 893b 7212 00bc bf3a 6ebc
000001c0: a7c6 d6bb 6c01 833b 1984 eb38 ad2d 59bc
000001d0: 5256 46bc 043d 713c 5bd1 4cbc 1c1a 94bc
000001e0: 940a 04bc 5fdd 4ebc 1263 91bc fa47 113d
000001f0: d4d9 8fbb d16f d13a 3332 853b 60c1 fd3b
00000200: 3c78 2fbb 21c6 3bbc ea0d 30bc 34d3 fb3a
00000210: 1f27 31bc cbb4 b8bc d829 12bc 087f 1abc
00000220: 2d64 4e3d b66c cabb 4ae3 e9bb da25 6abc
00000230: b938 a03b 1b12 5bbc e0af 6cbc 7d86 74bb
00000240: dc81 4f3c 8a24 8ebb 63b4 4f3b dc19 0e3b
00000250: f191 1cbc c3d5 e3bb 5913 40bc ea50 303c
00000260: 432d 7a3c ea74 ebba 467d 143d 33a0 39bc
00000270: f96d c33b 79a6 acbc 0dcb 2fbc dab0 1539
00000280: 55ba 2a3d c2f0 653c a7e2 2c3a a23e eb3b
00000290: 1536 833b 911d 61bc d5e4 7ebc f82d 9dbc
000002a0: d3df 1fbc 6e95 a7bb 7ba0 3bbb 4083 c5bb
000002b0: a9d6 c6bb ee59 b5bb 9334 2cba bfc9 c4bb
000002c0: 1b09 3ebc 5acf 073c 2eba 393c 99f7 663c
000002d0: 5c6a 4dbc e1c2 e03c 7a7c 273c 4dad 1fbc
000002e0: d50b 4abc dfaf 60bc 4af3 79bb 2f41 913b
000002f0: f087 353b e912 6fbb 307c 94bc 652b 6bbb
00000300: 0c65 0bbb 9d96 3dbc 1166 90bc dfcb d63b
00000310: da90 e1bb a4f6 023a 4088 043c 603d 36bc

mu.weight f4 [4, 200]
-0.12337833 0.14431219 -0.18241505 0.064561814 0.10368207 0.06976547 -0.21731485 0.09600599
0.101570055 -0.14884101 0.12702017 0.17738315 0.061913915 0.139017 0.062214103 -0.07937129
0.06502498 -0.12570958 0.16270116 -0.17095882 -0.15413792 0.08000369 -0.13393992 0.019995186
-0.030702032 -0.009449202 -0.070398584 -0.050268933 -0.08297347 -0.056592606 -0.19373658 0.1542925
0.018579641 -0.14087874 0.07054329 0.064748354 -0.13584098 -0.08837284 -0.08445874 -0.09393935
-0.18851383 0.0040073213 0.02055032 0.16010158 -0.0062044775 -0.18265162 -0.14544958 0.11031332
0.053983722 -0.14217961 -0.10263452 0.115813136 -0.115723304 0.10909471 0.040017664 -0.14278615
-0.07446773 0.12905869 -0.0793611 -0.03034556 -0.0044980063 -0.06819008 -0.17989579 -0.04516302
0.105782375 0.031169489 0.027991645 0.09834364 -0.11836833 0.046867315 -0.0801881 -0.15187111
-0.084672734 0.13601944 0.113818236 -0.12327826 0.097746484 0.10945706 0.09297328 0.04462938
-0.07939798 -0.16790771 0.10012072 0.109739244 -0.11666703 0.08566637 0.14052668 0.0944303
-0.042705044 0.15825316 -0.03540916 0.0012949206 -0.10582866 0.061340258 0.041916117 0.14929043
-0.1295703 -0.1760373 -0.0014584948 -0.037880797 -0.10311127 -0.032091618 0.142377 0.15203656
-0.11568678 0.028120158 0.008160306 -0.14063445 -0.14660987 -0.20519938 -0.14525454 0.14704064
0.1583632 0.14469634 0.1232977 -0.029197367 0.041250654 -0.21209335 -0.12812373 0.024140231
-0.14991662 0.011728438 -0.006925866 0.23277459 -0.15298213 -0.14706768 0.14044957 -0.18856102
0.008045386 0.027957106 0.11214354 0.0037511382 0.10564053 -0.03532592 -0.14541355 -0.041566953
0.048533577 0.14129137 0.036855854 -0.036143176 -0.018675007 0.0056979633 0.013540849 0.15285791
-0.11960728 0.038571198 -0.10786021 0.1364577 -0.06419015 0.008482778 -0.073327176 -0.10226943
-0.092591755 0.06198888 0.14887956 -0.086745284 0.061218217 -0.027012622 -0.14401914 -0.0031438307
0.0446285 -0.08489456 0.16106765 -0.06347973 0.10592258 0.094191134 0.06322673 -0.043534197
-0.002578111 -0.12555209 0.13094217 -0.15439625 0.1520114 0.15076485 0.19849092 -0.12523969
-0.19942278 -0.057126023 -0.18892401 -0.0805697 0.08563273 -0.012032548 -0.08871695 -0.0017675336
0.10221548 -0.13377753 0.11714408 -0.02094544 -0.19751197 -0.112315744 -0.10885342 -0.18789624
-0.12900819 -0.09436024 0.040570434 0.113186054 -0.015269128 -0.101894476 -0.020966712 0.0019362995
0.11942651 -0.023058781 0.0002835764 -0.01817751 -0.0014751189 -0.14525898 -0.019498518 -0.09436861
0.06988381 -0.07305694 -0.13480704 0.058485698 0.1132435 -0.04955045 0.071213424 0.13923442
0.030736117 0.019429652 0.13153233 0.058788266 -0.035135522 0.010954626 -0.17295983 0.16251858
-0.13136958 0.16202074 0.15045708 0.14785902 -0.056509793 0.058889426 -0.15953608 -0.10941468
0.16869459 0.027059585 0.057533488 0.010719656 0.1025076 0.094109096 0.110630676 -0.022094613
-0.16062984 -0.08717694 0.1150972 -0.12899016 -0.05538961 0.044338636 -0.07212549 0.047180817
0.19183606 0.06715009 -0.047641315 0.0029499664 -0.13715751 -0.011913318 -0.043142222 0.1514639
00000000: c7ad fcbd 93c6 133e 03cb 3abe fc38 843d
00000010: 4457 d43d 33e1 8e3d c987 5ebe ca9e c43d
00000020: f603 d03d c769 18be 9311 023e eea3 353e
00000030: 7299 7d3d 795a 0e3e 37d4 7e3d 6a8d a2bd
00000040: d12b 853d 03ba 00be 229b 263e d40f 2fbe
00000050: 55d6 1dbe fad8 a33d 8c27 09be f2cc a33c
00000060: d482 fbbc d3d0 1abc 222d 90bd cce6 4dbd
00000070: ffed a9bd a6cd 67bd e262 46be dafe 1d3e
00000080: 5534 983c 8442 10be 0079 903d c99a 843d
00000090: e619 0bbe d2fc b4bd b4f8 acbd 4663 c0bd
000000a0: c509 41be d94f 833b 2559 a83c abf1 233e
000000b0: ee4e cbbb 0709 3bbe bcf0 14be f3eb e13d
000000c0: 091e 5d3d 8897 11be 0c32 d2bd 702f ed3d
000000d0: 5700 edbd 0c6d df3d 90e9 233d 8836 12be
000000e0: 8a82 98bd f627 043e 1388 a2bd 4097 f8bc
000000f0: 0364 93bb 3ea7 8bbd 9a36 38be dcfc 38bd
00000100: 6ea4 d83d 2857 ff3c bc4e e53c 6468 c93d
00000110: 186b f2bd f1f7 3f3d a939 a4bd 1a84 1bbe
00000120: e668 adbd ae48 0b3e 8919 e93d 5079 fcbd
00000130: 4f2f c83d 062b e03d c668 be3d 4ccd 363d
00000140: 689b a2bd 00f0 2bbe 180c cd3d f8be e03d
00000150: 20ef eebd da71 af3d 3ae6 0f3e ac64 c13d
00000160: 7ceb 2ebd 1e0d 223e 3209 11bd 53ba a93a
00000170: b2bc d8bd ec3f 7b3d 3cb0 2b3d 97df 183e
00000180: 14ae 04be 1f43 34be f72a bfba e528 1bbd
00000190: 002c d3bd 8072 03bd 47cb 113e 79af 1b3e
000001a0: 31ed ecbd 3f5c e63c ceb2 053c 7a02 10be
000001b0: e620 16be c91f 52be 9bbd 14be d291 163e
000001c0: f629 223e 472b 143e 8183 fc3d 512f efbc
000001d0: 72f6 283d 002f 59be de32 03be bcc1 c53c
000001e0: be83 19be a228 403c 60f2 e2bb 765c 6e3e
000001f0: 59a7 1cbe e998 16be 03d2 0f3e 2416 41be
00000200: cbd0 033c 4d06 e53c 83ab e53d a8d5 753b
00000210: 105a d83d e9b1 10bd 4ae7 14be 1c42 2abd
00000220: 25cb 463d afae 103e 2af6 163d de0a 14bd
00000230: 54fc 98bc fbb5 ba3b 70da 5d3c c986 1c3e
00000240: a9f4 f4bd d5fc 1d3d d0e5 dcbd 91bb 0b3e
00000250: 2076 83bd 5afb 0a3c 8f2c 96bd a372 d1bd
00000260: bfa0 bdbd 0de8 7d3d e273 183e 83a7 b1bd
00000270: f4bf 7a3d 9349 ddbc c179 13be ba08 4ebb
00000280: 60cc 363d 33dd adbd ebee 243e a901 82bd
00000290: f0ed d83d 48e7 c03d 047d 813d ea50 32bd
000002a0: 86f5 28bb ba90 00be b415 063e 0d1a 1ebe
000002b0: e0a8 1b3e 1a62 1a3e 3441 4b3e d53e 00be
000002c0: 7c35 4cbe fafc 69bd 4c75 41be ba01 a5bd
000002d0: 3660 af3d 2a24 45bc 3bb1 b5bd 96ac e7ba
000002e0: 5956 d13d fafc 08be 3ce9 ef3d c595 abbc
000002f0: 9440 4abe cc05 e6bd 8bee debd df67 40be
00000300: b91a 04be f13f c1bd 2f2d 263d 17ce e73d
00000310: 5d2b 7abc 0dae d0bd 62c2 abbc 6ecb fd3a
00000320: e395 f43d c5e5 bcbc fbac 9439 00e9 94bc
00000330: c758 c1ba c5be 14be 5bbb 9fbc 5444 c1bd
00000340: 3e1f 8f3d e19e 95bd db0a 0abe b38e 6f3d
00000350: 35ec e73d 6af5 4abd 58d8 913d 7893 0e3e
00000360: 4fca fb3c ef2a 9f3c 69b0 063e f7cb 703d
00000370: 44ea 0fbd 087b 333c 621c 31be 456b 263e
00000380: bf85 06be c4e8 253e 6c11 1a3e 5b68 173e
00000390: d076 67bd 0a36 713d 6d5d 23be ce14 e0bd
000003a0: 46be 2c3e 10ac dd3c 3ca8 6b3d 7fa1 2f3c
000003b0: 81ef d13d 45bc c03d 5692 e23d c3ff b4bc
000003c0: 267c 24be d389 b2bd 15b8 eb3d ff15 04be
000003d0: 37e0 62bd 6e9c 353d 87b6 93bd ac40 413d
000003e0: ac70 443e fd85 893d 8a23 43bd 3954 413b
000003f0: 0573 0cbe 1430 43bc e6b5 30bd 5a19 1b3e

mu.bias f4 [4]
-0.008207061 -0.0034164337 0.005540654 0.0036706838
00000000: e976 06bc 3fe6 5fbb 608e b53b db8f 703b
