saves/test_clustering/env_models.pth (torch, 295526 bytes, 6 tensors)

layer1.weight f4 [200, 160]
0	0x3e046794	0.12930137
1	0xbd934217	-0.0719034
2	0xbdc207be	-0.09474133
3	0x3d284ce0	0.04108894
4	0xbced9fab	-0.0290068
5	0x3d57b426	0.052662037
6	0x3edb532f	0.42836902
7	0x3e3a87b4	0.18215829
8	0x3dd5d38d	0.10440741
9	0x3ecac733	0.39605102
10	0x3d03a503	0.03213979
11	0x3dbd9089	0.092560835
12	0x3ebb5597	0.36588737
13	0x3e58ad3a	0.2115983
14	0x3e227dbc	0.15868276
15	0x3c288dac	0.010287683
16	0x3e4ff1e0	0.20307112
17	0x3e6e499e	0.2327027
18	0x3c485be0	0.012228936
19	0x3e5a6b9a	0.21330109
20	0x3e0581b6	0.13037762
21	0x3e91c825	0.2847301
22	0x3e99222d	0.29908887
23	0x3e2050d4	0.15655833
24	0x3e9464db	0.28983197
25	0x3e86980f	0.26287887
26	0xbd96b5f2	-0.07358922
27	0x3f01d1a1	0.50710493
28	0x3df4d705	0.11955074
29	0x3ab61f56	0.0013894837
30	0xbb81d0a1	-0.003961638
31	0x3ea352fb	0.31899247
32	0x3ebbcab1	0.3667808
33	0xbe00886e	-0.12552044
34	0x3eb3ac1c	0.35092247
35	0x3e8b9f4c	0.2726997
36	0xbe03f736	-0.12887272
37	0xbcc5a3e5	-0.024126003
38	0xbe571868	-0.21005404
39	0xbe1f7311	-0.15571238
40	0x3b58c059	0.0033073633
41	0xbb8382c6	-0.004013392
42	0x3ead0aa7	0.3379719
43	0x3e22b912	0.15890911
44	0x3d50b124	0.050950184
45	0x3e8208c9	0.25397328
46	0x3e5e9a6e	0.21738598
47	0x3e0c2ab0	0.13688159
48	0x3ebbbcbf	0.3666744
49	0x3e7a5da6	0.24449787
50	0xbcbdac8e	-0.02315357
51	0x3de0367e	0.109478936
52	0x3f07590c	0.5287025
53	0x3cf9c9c8	0.030491725
54	0x3ddab536	0.106790945
55	0x3f0c1e9f	0.54734224
56	0x3e03a4f3	0.12855892
57	0x3e62bc7b	0.22142212
58	0x3f19d627	0.60092396
59	0xbe7d33da	-0.24726811
60	0x3e98f225	0.29872242
61	0x3f08d71d	0.53453237
62	0xbe65b17c	-0.22430986
63	0x3ec88893	0.39166698
64	0x3f12d098	0.5734954
65	0xbe37b8a8	-0.17941535
66	0x3cb8b7d3	0.022548592
67	0x3d5782a1	0.05261481
68	0x3e02c5f8	0.12770832
69	0x3c098bb2	0.008395122
70	0xbe1173cd	-0.1420433
71	0x3e0ba610	0.13637567
72	0x3c95e559	0.018297838
73	0x3db9958b	0.09061726
74	0x3e4a0eef	0.19732259
75	0x3d8d6a26	0.06905012
76	0x3e784344	0.2424441
77	0x3e86dcba	0.26340276
78	0xbe29616b	-0.16541068
79	0x3d057525	0.03258242
80	0xbd5cc248	-0.05389622
81	0xbe8d46c2	-0.27593046
82	0x3e2a656f	0.16640256
83	0xbd520ede	-0.05128371
84	0xbea2b245	-0.31776634
85	0x3dda0ebd	0.10647342
86	0x3e255a08	0.16147625
87	0xbe6c4296	-0.23072276
88	0xbeebd4d7	-0.4606082
89	0x3e06e81c	0.1317448
90	0xbe55566e	-0.20833752
91	0xbec4f971	-0.3847156
92	0x3e39e9d8	0.1815561
93	0x3e0870ee	0.1332433
94	0xbe14b292	-0.14521244
95	0x3e0a218e	0.13489363
96	0x3c9ff942	0.019528035
97	0xbe6499c8	-0.22324288
98	0x3d7119c2	0.058862455
99	0xbd829c8a	-0.06377514
100	0xbdc96e9f	-0.098355524
101	0xbb6e7e9b	-0.003639138
102	0xbe6cf3d9	-0.23139895
103	0x3dd06e8b	0.101773344
104	0x3d61457d	0.05499791
105	0xbea09f74	-0.31371653
106	0xbdb2170d	-0.08695803
107	0x3d295aea	0.041346468
108	0xbf0b9716	-0.54527414
109	0xbda62ad0	-0.081136346
110	0x3f13928f	0.57645506
111	0xbf0eceb4	-0.55784154
112	0x3e015e84	0.12633711
113	0x3f24fd33	0.6444885
114	0xbe7b3a81	-0.24534036
115	0xbe8d6861	-0.27618697
116	0x3ec52a6a	0.38508922
117	0xbe33e169	-0.17566456
118	0xbe4780cd	-0.19482727
119	0x3ee13064	0.43982232
120	0xbe8be9ba	-0.27326757
121	0xbe79689b	-0.2435631
122	0x3ea6f946	0.32612056
123	0x3eb5aa7d	0.35481635
124	0x3f8b5636	1.0885684
125	0x3f145fea	0.57958853
126	0x3e6baeec	0.23015946
127	0x3f8178e2	1.0115016
128	0x3f09a4cb	0.5376708
129	0x3cdccee3	0.02695412
130	0x3f71ad41	0.9440499
131	0x3e22796d	0.15866633
132	0x3defdacf	0.11711656
133	0x3f58da7d	0.84708387
134	0x3ecd4ce0	0.40097713
135	0x3dc709b9	0.09718651
136	0x3f418900	0.7559967
137	0x3ea485b5	0.3213326
138	0xbe8248e8	-0.25446248
139	0xbe9133ac	-0.28359735
140	0xbded3f4b	-0.11584338
141	0xbe238c70	-0.15971541
142	0xbe9d94a4	-0.30777466
143	0xbea4552e	-0.32096237
144	0xbd5382cb	-0.051638406
145	0xbd0e8ef0	-0.034804285
146	0x3cb35865	0.021892736
147	0xbc45812a	-0.012054721
148	0x3d6dc044	0.058044687
149	0x3d9e6169	0.07733423
150	0xbd67d842	-0.056602724
151	0x3cfbc672	0.030734275
152	0xbe175116	-0.14777026
153	0xbd6a360f	-0.05718046
154	0xbdb2301d	-0.08700583
155	0xbc73d3e5	-0.014882063
156	0x3dd158e5	0.102220334
157	0x3d6881a3	0.056764256
158	0xbc2954b3	-0.010335135
159	0x3d0c68aa	0.034279503
160	0xbeed1042	-0.46301466
161	0x3e8bf491	0.27335027
162	0x3efa2349	0.48855045
163	0xbe8aae1e	-0.27085966
164	0x3e25ed45	0.16203792
165	0x3efc5e7b	0.49290833
166	0xbe904881	-0.28180316
167	0x3e10cd84	0.14140898
168	0x3eadede9	0.33970574
169	0xbdc3ea63	-0.0956619
170	0x3e5a8146	0.21338376
171	0x3ecf6b6e	0.4051165
172	0xbdaf45e8	-0.085582554
173	0x3d8b6cef	0.06807887
174	0x3e8f292e	0.27961105
175	0x3e8e1ad5	0.27754846
176	0x3f22cd99	0.6359497
177	0x3edfdbab	0.4372228
178	0x3e9b028d	0.30275384
179	0x3f2170eb	0.63062924
180	0x3ebd7f11	0.37011006
181	0xbe52563e	-0.20540711
182	0x3f380880	0.7188797
183	0x3ed04d82	0.40684134
184	0xbd3fafc9	-0.0467985
185	0x3f43ba92	0.7645656
186	0x3eafbb60	0.34322643
187	0xbe3243ce	-0.17408678
188	0x3f5bb5ae	0.85824096
189	0x3e8707b8	0.26373076
190	0xbda93c0e	-0.08263408
191	0xbebe652a	-0.37186557
192	0xbe4bab36	-0.1988953
193	0x3da1b790	0.0789634
194	0xbeac709e	-0.3367967
195	0xbea27151	-0.3172708
196	0x3e96e5ca	0.2947219
197	0xbdd32f84	-0.10311797
198	0xbd814f9a	-0.06314011
199	0x3eb18376	0.3467061
200	0xbdea6e88	-0.114468634
201	0x3b3e5ae2	0.002904587
202	0xbefef1d0	-0.49793863
203	0xbf099d06	-0.53755224
204	0xbe635fba	-0.22204486
205	0xbf07448a	-0.5283896
206	0xbf082691	-0.5318385
207	0xbe2e377c	-0.17013353
208	0xbf111b2e	-0.566821
209	0xbee79b5b	-0.45235714
210	0xbe41f8fa	-0.18942633
211	0xbf15d6ef	-0.5853109
212	0xbea6db55	-0.32589212
213	0xbd828238	-0.063724935
214	0xbf08d39f	-0.5344791
215	0xbea551df	-0.32289025
216	0x3cc101a8	0.02356036
217	0xbeb28c55	-0.3487269
218	0xbd49a7b6	-0.049232207
219	0x3dda6ad6	0.106649086
220	0xbeaf2515	-0.3420798
221	0xbe5017b4	-0.20321542
222	0x3b2c0e39	0.0026253595
223	0xbe51e8f6	-0.20499024
224	0xbcf8a731	-0.03035316
225	0xbc892665	-0.01674194
226	0xbf0f79b6	-0.5604509
227	0xbf3671f0	-0.71267605
228	0x3e21184a	0.15731922
229	0xbf147d25	-0.58003455
230	0xbf2db4b3	-0.6785385
231	0xbbc25cc7	-0.00593147
232	0x3ea7858f	0.32719085
233	0x3e67f38a	0.22651497
234	0xbcf69ffd	-0.030105585
235	0x3ec20c69	0.37900093
236	0x3e6a515a	0.22882596
237	0x3de1b3dc	0.110206336
238	0x3e0adb35	0.13560183
239	0xbd87b239	-0.0662579
240	0x3d22d50f	0.03975397
241	0x3e8173e7	0.2528374
242	0xbe035a46	-0.12827405
243	0xbda23dfd	-0.079219796
244	0x3dbb78a1	0.091538675
245	0xbd266f08	-0.04063323
246	0xbe5725d9	-0.21010531
247	0xbe266faa	-0.16253534
248	0x3d581255	0.052751858
249	0xbd6f8066	-0.05847206
250	0xbe336589	-0.17519201
251	0x3d9346ec	0.07191262
252	0xbd991159	-0.07474012
253	0xbe670702	-0.22561267
254	0xbf264050	-0.64941883
255	0xbef66cbb	-0.4812983

layer1.bias f4 [200]
0	0xbe04fea8	-0.12987769
1	0x3d631834	0.055443004
2	0xbe3cb959	-0.1843008
3	0xbe65e444	-0.22450358
4	0xbe4154a0	-0.18879938
5	0x3db19f5b	0.08672973
6	0xbe3061b3	-0.1722477
7	0xbddf620d	-0.109073736
8	0xbc9d95c8	-0.01923646
9	0x3c1a2e28	0.009410419
10	0x3d888e29	0.0666774
11	0xbc85ce99	-0.016333865
12	0xbdb58fad	-0.088652946
13	0xbbff0b8f	-0.0077833603
14	0xbd2f5e43	-0.042814504
15	0xbbd57b1f	-0.0065149213
16	0x00000000	0.0
17	0xbe68d432	-0.22737196
18	0xbe1dcab7	-0.15409361
19	0xbaffb5e7	-0.0019509167
20	0xbcda80aa	-0.02667268
21	0xbd009c58	-0.0313991
22	0x3cb9c3a1	0.022676291
23	0xbcc9b3ce	-0.02462187
24	0xbc784c8f	-0.015154972
25	0x3d832752	0.06403984
26	0x3daa5038	0.08316082
27	0xbde7b570	-0.11313903
28	0x3e46b4a2	0.19404843
29	0xbd950575	-0.072764315
30	0x00000000	0.0
31	0x3d8307d6	0.06397979
32	0xbdd8369f	-0.10557293
33	0xbe413f32	-0.18871763
34	0x00000000	0.0
35	0x3e077dc2	0.13231567
36	0x39a8e23a	0.0003221201
37	0xbc9807f5	-0.018558482
38	0xbdfa57fd	-0.12223814
39	0xbdbfc927	-0.09364539
40	0x3e062404	0.13099676
41	0x00000000	0.0
42	0xbc38fdff	-0.011291026
43	0x3e5190a9	0.2046534
44	0xbbb74fcc	-0.0055942293
45	0xbdc5039d	-0.0961983
46	0xbd51172a	-0.05104748
47	0xbe0421b6	-0.12903485
48	0xbe59fb49	-0.21287264
49	0xbc1fd27e	-0.009754775
50	0x3d9616be	0.073285565
51	0x3bc1bf1e	0.0059126755
52	0xbe684eae	-0.22686264
53	0x3c3a7641	0.011380733
54	0x3da6a1bf	0.08136319
55	0x3dac42f3	0.08411207
56	0x3d483ecc	0.048888013
57	0xbc071d4f	-0.008246734
58	0xbbc5faa5	-0.006041842
59	0xbc505ce5	-0.01271746
60	0xbd6f70df	-0.05845725
61	0xbe4c40fa	-0.19946662
62	0xbe757cdd	-0.23973413
63	0xbc3d77bb	-0.0115641905
64	0xbc59dec3	-0.013297739
65	0xbe07607e	-0.13220403
66	0x3dd899b2	0.1057619
67	0x3dd655a4	0.104655534
68	0xbd023560	-0.031789184
69	0xbe6094a0	-0.21931696
70	0xbc5433c4	-0.012951795
71	0xbd14fd77	-0.036374535
72	0xbcd9d684	-0.026591547
73	0x3d8b4fe7	0.068023495
74	0x3e143990	0.14475083
75	0x3e1ca2db	0.152965
76	0x3d87e9a1	0.06636358
77	0x3d2e49d7	0.042550888
78	0xbd83ce06	-0.0643578
79	0xbe0e247a	-0.13881102
80	0x00000000	0.0
81	0x3e5d6e2a	0.21624056
82	0xbe0c784b	-0.13717763
83	0xbc9463b2	-0.018113945
84	0x3d343fa0	0.04400599
85	0x00000000	0.0
86	0xbe46ee6b	-0.19426887
87	0xbd81998d	-0.063281156
88	0x3caab58a	0.020838518
89	0xbe34ab16	-0.17643389
90	0x3d8f0ed5	0.06985251
91	0x3dddd8cb	0.108323656
92	0x3d3bc1ee	0.045839243
93	0x00000000	0.0
94	0x3c17dd0f	0.009269013
95	0xbd96a42a	-0.073555306
96	0xbde39fe5	-0.11114482
97	0xbe3da20f	-0.18518852
98	0x3def03fb	0.11670681
99	0xbe325e58	-0.17418802
100	0xbd4d85c6	-0.050176404
101	0xbe0bded8	-0.13659227
102	0xbe4d0c16	-0.20024142
103	0xbd9ae39a	-0.07562943
104	0xbda1eb9d	-0.07906268
105	0x3d184d06	0.03718283
106	0x3c744380	0.014908671
107	0x3cbc5902	0.022991661
108	0xbe318abd	-0.1733808
109	0x3db4a07d	0.08819673
110	0xbe42d927	-0.1902815
111	0xbacf5923	-0.0015819411
112	0xbe2462cd	-0.16053315
113	0xbd0b8489	-0.034061942
114	0xbd95a499	-0.07306785
115	0x3e54cbd5	0.20780881
116	0x00000000	0.0
117	0xbe0ab3b5	-0.13545115
118	0x3c916c3b	0.017751804
119	0xbdf0db68	-0.117605984
120	0x3d874a9e	0.06606029
121	0xbe374c57	-0.17900215
122	0x3c59ddcc	0.013297509
123	0xbe4e1003	-0.20123295
124	0xbe154176	-0.14575753
125	0x3e034152	0.12817886
126	0xbcca5972	-0.024700854
127	0x3e4b68f0	0.19864249
128	0x3cd82ec0	0.02638948
129	0x3d2b0eed	0.04176228
130	0xbbf3104c	-0.007417714
131	0xbd616718	-0.05502996
132	0xbe1b89cb	-0.15189283
133	0xbbf31d53	-0.007419267
134	0xbd7741ec	-0.060365602
135	0xbc19146a	-0.009343246
136	0xbcbddec1	-0.023177506
137	0x00000000	0.0
138	0xbbef9ca2	-0.0073123733
139	0x3dee006a	0.11621173
140	0xbdbe4f33	-0.0929245
141	0x00000000	0.0
142	0xbe359ae9	-0.17734875
143	0xbdc6d590	-0.097087026
144	0xbdd487b5	-0.103774466
145	0xbe605b3e	-0.21909806
146	0xbdd94694	-0.10609165
147	0xbc7cbe5b	-0.015426244
148	0xbdd9836f	-0.10620772
149	0xbd70758e	-0.05870586
150	0xbe5af9bb	-0.21384327
151	0xbc0c165a	-0.008550251
152	0xbdbf1dc9	-0.09331853
153	0x3e048841	0.12942602
154	0x00000000	0.0
155	0xbe615d93	-0.22008352
156	0xbce14ce9	-0.027502494
157	0xbcd4cb42	-0.025975827
158	0xbcdc1e7c	-0.026870005
159	0x00000000	0.0
160	0x3e3fdf19	0.18737449
161	0xbd7cf0e3	-0.061753165
162	0x3e302c82	0.17204478
163	0x3df00c0e	0.11721049
164	0x3d0fed87	0.035138633
165	0xbc46213e	-0.0120928865
166	0xbe60bad0	-0.21946263
167	0xbe539799	-0.20663299
168	0x3da64d37	0.08120196
169	0xbd0cfc87	-0.034420516
170	0xbc925dea	-0.017867047
171	0xbde4cfee	-0.11172472
172	0xbdc683a9	-0.09693081
173	0xbe48c82d	-0.19607611
174	0x3deb0ce1	0.11477066
175	0x3c2dd046	0.010608738
176	0xbd8b7e68	-0.068112195
177	0xbe2c1ad8	-0.16807115
178	0xbcf61fb4	-0.030044414
179	0x3d36145f	0.04445302
180	0xbdfdf5f4	-0.124004275
181	0x3dde6197	0.108584575
182	0xbc12fdab	-0.008971612
183	0xbe108363	-0.1411262
184	0xbd9eb311	-0.07748998
185	0xbdd387f1	-0.10328663
186	0xbe088e9a	-0.13335648
187	0xbc533528	-0.012891091
188	0xbca9fd19	-0.02075057
189	0xbd9542d8	-0.0728814
190	0x3b552f42	0.0032529389
191	0xbe186f91	-0.14886309
192	0xbdb371e7	-0.087619595
193	0xbc7fa898	-0.015604161
194	0x3d6c7b68	0.057734877
195	0xbdcb16ae	-0.09916435
196	0x3de50e60	0.111843824
197	0x3c8f1e9c	0.01747065
198	0xbdb4bc53	-0.088249825
199	0xbe0b3c6d	-0.1359727

layer2.weight f4 [200, 200]
0	0x3dfa4c8c	0.122216314
1	0x3cbe1d4d	0.023207331
2	0x3d6c8231	0.057741348
3	0xbd284da3	-0.041089665
4	0x3dc9c8f7	0.09852784
5	0xbdf38c50	-0.11891997
6	0x3e02e3f1	0.12782265
7	0x3e0d8f27	0.1382414
8	0x3d8e7819	0.069565006
9	0xbd8293cc	-0.06375846
10	0xbda4a908	-0.08040053
11	0xbd6eb42a	-0.058277287
12	0xbb8418f2	-0.004031294
13	0xbd6386f4	-0.055548623
14	0x3c46dfa4	0.012138281
15	0x3d886811	0.06660474
16	0xbc34a148	-0.011024781
17	0xbcfe92e2	-0.031075899
18	0xbd92758f	-0.07151329
19	0xbdf92959	-0.121660896
20	0x3b2d2ba7	0.0026423724
21	0x3dbe0ca9	0.092797585
22	0xbdbf61e5	-0.09344844
23	0x3c69d402	0.014271738
24	0xbdf55a87	-0.11980157
25	0xbdabedcd	-0.08394966
26	0xbd6c3d5f	-0.057675716
27	0xbde6c5f0	-0.11268222
28	0xbe2fa671	-0.17153336
29	0x3ddbb24f	0.10727369
30	0xbdf2102d	-0.118194915
31	0xbd7d5faa	-0.06185881
32	0xbc9dea7e	-0.019276854
33	0xbde9acff	-0.114099495
34	0xbccc8920	-0.02496773
35	0x3e1480d6	0.14502272
36	0x3aab62b6	0.0013075683
37	0xbdd7216e	-0.10504423
38	0x3cb3f491	0.021967204
39	0xbe81693a	-0.25275594
40	0xbce04eca	-0.02738132
41	0xbdcd0b10	-0.10011876
42	0x3da374dd	0.07981274
43	0xbdbc7878	-0.09202665
44	0x3cb4aba4	0.0220545
45	0x3d94f1f1	0.07272709
46	0x3c4d7f39	0.012542539
47	0xbca308b7	-0.019901616
48	0xbde6f680	-0.11277485
49	0x3dfbce67	0.122952275
50	0xbb19fec3	-0.0023497797
51	0xbd37f600	-0.04491234
52	0xbdbb6a00	-0.09151077
53	0x3d7a73b4	0.0611455
54	0x3da52493	0.080636166
55	0xbda619f4	-0.08110419
56	0x3d24184a	0.040062226
57	0xbd33ca20	-0.043893933
58	0xbc1baa80	-0.0095011
59	0xbd2229c4	-0.039590612
60	0xbe0ad5e3	-0.13558154
61	0xbdd9d514	-0.106363446
62	0x3d9f8854	0.077896744
63	0x3e5ab339	0.2135743
64	0xbdd77d1f	-0.10521912
65	0xbdfe4776	-0.12415974
66	0x3e115901	0.14194109
67	0xbe4cd758	-0.20004022
68	0xbdbe00db	-0.09277507
69	0xbdd16f15	-0.10226265
70	0x3ddd177d	0.10795496
71	0x3dacacc8	0.08431393
72	0xbde4f107	-0.11178785
73	0x3c9dc375	0.01925824
74	0x3da57186	0.080782935
75	0xbd7de5c5	-0.061986703
76	0x3d423a24	0.04741873
77	0xbc3153b0	-0.010823175
78	0x3db08d91	0.08620752
79	0xbd219ec3	-0.039458048
80	0xb95bd800	-0.00020965934
81	0xbe1f107f	-0.15533637
82	0xbd85f35a	-0.06540556
83	0xbde615d8	-0.11234635
84	0xbda079dc	-0.07835743
85	0x3da4b321	0.080419786
86	0xbaaf3a15	-0.001336875
87	0x3dfa1426	0.12210874
88	0xbd2b5840	-0.04183221
89	0xbd7456ba	-0.05965302
90	0xbc14aa79	-0.009073847
91	0xbdbefcd6	-0.093255684
92	0xbd7c0e75	-0.061537225
93	0x3d99923d	0.07498596
94	0x3a1ef911	0.00060643355
95	0x3d745c18	0.05965814
96	0x3e01a798	0.12661588
97	0xbd15f687	-0.03661206
98	0xbdcd5b41	-0.10027171
99	0x3d13c413	0.036075663
100	0xbdf67090	-0.12033188
101	0xbe29ce9b	-0.1658272
102	0xbdf8c9f0	-0.121478915
103	0xbd01c93e	-0.03168606
104	0x3dc74e43	0.09731724
105	0x3cac38c8	0.02102317
106	0xbcb957cd	-0.022624874
107	0x3befd03d	0.007318525
108	0xbd85a8ca	-0.065263346
109	0xbcc3f3ea	-0.023920018
110	0x3c796652	0.015222149
111	0x3d665f0b	0.056242984
112	0xbdeea56c	-0.116526455
113	0xbd220694	-0.039557055
114	0x3dc4a467	0.0960167
115	0xbd7f01be	-0.06225752
116	0x3aebad00	0.0017980635
117	0x3d56254d	0.052281667
118	0xbc5c674d	-0.013452363
119	0xbe3fd910	-0.18735147
120	0x3d365727	0.04451671
121	0x3d5d4662	0.0540222
122	0x3e02b813	0.12765531
123	0xbbebd02c	-0.007196447
124	0xbd467f2c	-0.048461124
125	0x3e3ce905	0.18448265
126	0x3d5d2c02	0.053997047
127	0x3de9afe3	0.11410501
128	0x3da735fe	0.08164595
129	0xbe31ed84	-0.17375761
130	0x3dda73d7	0.10666626
131	0xbe405668	-0.18782961
132	0xbd92fbd9	-0.071769424
133	0xbdc3ccb0	-0.095605254
134	0xbd438f15	-0.047743876
135	0xbd841f8a	-0.06451328
136	0x3dc43c1c	0.095817775
137	0x3da591cf	0.080844514
138	0xbd91b916	-0.071153805
139	0x3c83d15c	0.016091041
140	0xbd97586c	-0.07389912
141	0x3da6f8f7	0.08152955
142	0xbde0f45a	-0.10984106
143	0x3d642e46	0.055708192
144	0xbb3948ff	-0.0028272269
145	0xbd0ea972	-0.034829564
146	0x3e06b707	0.13155757
147	0xbda196e6	-0.0789011
148	0x3d32e1d1	0.043672387
149	0x3ded36aa	0.11582692
150	0x3d18fdc6	0.037351392
151	0xbda66c5c	-0.08126137
152	0xbe2237f2	-0.15841654
153	0xbe055ed3	-0.13024454
154	0xbdd4b13d	-0.10385368
155	0xbca6481e	-0.02029806
156	0x3e0bf7f0	0.136688
157	0x3da1c038	0.07897991
158	0xbdad4a59	-0.08461446
159	0x3cc98dbc	0.024603717
160	0x3cbc341d	0.022974068
161	0x3d7b5815	0.0613633
162	0xbc2fca24	-0.010729346
163	0x3d0fb3d9	0.035083625
164	0xbcb013cd	-0.021493817
165	0xbd9c69d1	-0.076373704
166	0xbd731dd8	-0.059354633
167	0xbcd16a1a	-0.025563288
168	0xbe4ce881	-0.20010568
169	0xbdce3cae	-0.100701675
170	0x3d9d0c26	0.07668333
171	0xbcef4e05	-0.029212007
172	0xbdf54644	-0.11976293
173	0x3d13f34d	0.0361207
174	0xbe1516f5	-0.14559539
175	0xbce93ebe	-0.0284723
176	0xbd3269fc	-0.043558106
177	0x3d35597e	0.0442748
178	0x3c4d1e87	0.012519485
179	0xbd84b945	-0.0648065
180	0x3d517307	0.05113509
181	0xbd366e60	-0.044538856
182	0xbc014f2b	-0.00789241
183	0xbe15dc1f	-0.14634751
184	0x3d814211	0.06311429
185	0xbd2915a5	-0.041280407
186	0x3d19d7bc	0.037559256
187	0x3c9ab2b2	0.018884037
188	0x3dcc0021	0.09960962
189	0xbd315f7a	-0.043303944
190	0x3e097f60	0.13427496
191	0x3d7494ee	0.059712343
192	0xbe451c79	-0.19249143
193	0xbde05fb2	-0.109557524
194	0x3d153cb2	0.036434837
195	0xbe126035	-0.14294513
196	0xbcdb0a22	-0.02673823
197	0xbda50214	-0.08057037
198	0xbe2830ff	-0.1642494
199	0xbd42f9e2	-0.047601588
200	0xbc0630f0	-0.008190379
201	0xbd5cd38a	-0.053912677
202	0x3dae05d5	0.08497206
203	0xbd883ffa	-0.066528276
204	0xbdd085b5	-0.101817526
205	0xbdc11547	-0.094278865
206	0x3d59218e	0.053010516
207	0xbcfc6aac	-0.030812584
208	0xbd22c928	-0.03974262
209	0x3db65757	0.089033775
210	0xbc4a1ac8	-0.012335487
211	0x3c8eb41c	0.017419867
212	0xbc9e5640	-0.019328237
213	0x3d2221ca	0.039583005
214	0xbd97587c	-0.07389924
215	0x3ce1e15c	0.02757328
216	0x3ddc8b57	0.107687645
217	0x3c5aac28	0.013346709
218	0x3d649de6	0.055814646
219	0xbce1a14c	-0.027542733
220	0x3dcecc11	0.10097516
221	0xbd93d2b6	-0.07217924
222	0x3c6a5698	0.014302872
223	0x3d357a36	0.044306003
224	0x3d45b8ce	0.048271947
225	0xbd8283c0	-0.063727856
226	0x3dcb6c09	0.099327154
227	0xbd167862	-0.0367359
228	0xbd8fe3a2	-0.070258394
229	0x3cd8ccb4	0.026464798
230	0x3dc81afb	0.09770771
231	0xbd7e8ac3	-0.062144052
232	0xbb3e29e0	-0.0029016659
233	0xbd9054ec	-0.070474476
234	0x3d40f286	0.04710629
235	0xbdbefdc4	-0.09325746
236	0x3dce57a1	0.10075308
237	0x3dc9a1e7	0.098453335
238	0xbcbe5344	-0.023233064
239	0xbd7ed1a1	-0.062211636
240	0xbc03bf38	-0.008041196
241	0xbdcfb4cc	-0.10141906
242	0xbd9f80c2	-0.077882305
243	0xbd84cea0	-0.06484723
244	0x3c1287e8	0.008943535
245	0x3daa5a51	0.08318008
246	0xbd0b805a	-0.034057952
247	0x3cbf018c	0.023316167
248	0xbddc1bcb	-0.107474886
249	0xbd591e4e	-0.053007416
250	0xbdcb9608	-0.099407256
251	0x3c331c88	0.010932095
252	0xbd54bd9a	-0.05193863
253	0x3d7fcf16	0.062453352
254	0xbc872674	-0.016497828
255	0xbdb81eba	-0.089902356

layer2.bias f4 [200]
0	0xbb2e69a3	-0.0026613257
1	0x00000000	0.0
2	0xbcf73d29	-0.03018053
3	0xbc9a6f42	-0.01885188
4	0xbe1c42a9	-0.15259804
5	0xbe2abb2f	-0.16672967
6	0xbe35104c	-0.17681998
7	0xbd645526	-0.055745266
8	0xbb05e1e9	-0.0020428842
9	0xbc711ecd	-0.014716816
10	0xbcaf51ee	-0.021401372
11	0xbcaffba5	-0.021482298
12	0xbe273c30	-0.16331553
13	0xbcd3fcaf	-0.025877325
14	0xbe0b68a1	-0.13614132
15	0xbdab0d29	-0.083521195
16	0xbc73cf11	-0.014880911
17	0xbcd386d1	-0.025821121
18	0xbcabcadb	-0.020970752
19	0x3de8232f	0.11334836
20	0x3cce5131	0.0251852
21	0xbd84242d	-0.064522125
22	0xbc335567	-0.0109456545
23	0x3e2e688f	0.17032073
24	0xbe4c9e2f	-0.19982217
25	0x3d374084	0.04473926
26	0xbdc43999	-0.095812984
27	0xbcb97b9e	-0.022641953
28	0xbc5795a2	-0.013158234
29	0x3b5f8caa	0.0034110942
30	0xbe11bd34	-0.14232332
31	0x3cba8394	0.02276782
32	0x3defab99	0.117026515
33	0xbd86e381	-0.06586362
34	0xbdcbbaa4	-0.09947708
35	0xbc9eee87	-0.019400848
36	0xbdb9663f	-0.09052705
37	0xbd86c9b7	-0.06581443
38	0x3e4f1c2c	0.2022559
39	0xbc87f524	-0.016596384
40	0xbcd934fe	-0.026514526
41	0x3c42f677	0.011899582
42	0x3d79eb30	0.061015308
43	0x3d9bdca8	0.07610446
44	0xbcb5af67	-0.022178365
45	0xbe161576	-0.14656624
46	0xbce670b5	-0.028129915
47	0xbca9e3d5	-0.020738522
48	0xbe09360d	-0.13399525
49	0xbcbb88cd	-0.02289238
50	0x3cf5317d	0.029930824
51	0xbcdc8773	-0.026920056
52	0xbc7cb870	-0.015424833
53	0xbccce933	-0.025013542
54	0xbceec31d	-0.029145772
55	0xbcf30838	-0.029667005
56	0xbccb4837	-0.024814708
57	0x3d86e7ec	0.06587204
58	0xbcc9573e	-0.024577733
59	0xbc890157	-0.016724272
60	0x3cdcc387	0.026948703
61	0xbca7c456	-0.020479362
62	0xbd0cba9d	-0.034357656
63	0x3c8d12f0	0.017220944
64	0xbc73d8dd	-0.014883247
65	0xbc40ceab	-0.0117680235
66	0xbdb2ced3	-0.08730855
67	0xbe054468	-0.13014376
68	0xbde3a784	-0.111159354
69	0xbe0a8e4d	-0.13530846
70	0xbe37678a	-0.17910591
71	0xbca6ca9f	-0.02036029
72	0x3dfc91d9	0.12332506
73	0xbc39da81	-0.011343599
74	0xbcc87c16	-0.024473231
75	0xbcb61b72	-0.022229884
76	0x3d166b69	0.036723528
77	0x3c2b82e3	0.010468218
78	0xbd257496	-0.04039439
79	0xbcbe24aa	-0.023210842
80	0xbbda7446	-0.006666693
81	0xbe3673bf	-0.17817591
82	0xbcbf600f	-0.023361234
83	0xbe305bd6	-0.17222533
84	0xbcd6cbfb	-0.026220312
85	0xbd43dc8c	-0.04781775
86	0x3cbbffe8	0.022949174
87	0xbd61afb2	-0.055099197
88	0xbcc936f1	-0.02456233
89	0xbdee164d	-0.11625347
90	0x3dcc845a	0.099861816
91	0xbe1e836a	-0.15479818
92	0xbd32b301	-0.043627743
93	0x3e25f6ba	0.162074
94	0xbc5c8def	-0.013461574
95	0x3d94b05d	0.07260201
96	0xbcc47878	-0.023983225
97	0xbd79ccca	-0.060986318
98	0xbc4df099	-0.01256957
99	0xbc89a0ce	-0.01680031
100	0x3c33b31d	0.010967997
101	0x3cbc9455	0.023019949
102	0xbe08cb7e	-0.13358876
103	0xbc54af85	-0.0129813
104	0xbbe5542e	-0.0069985604
105	0x3d043134	0.032273486
106	0xbb381a78	-0.0028091948
107	0x3c8f3033	0.017479038
108	0xbccb9802	-0.024852756
109	0xbe29286b	-0.16519324
110	0x3d413a27	0.0471746
111	0xbdf54dc1	-0.11977721
112	0xbcd23fb9	-0.025665151
113	0xbd55bd66	-0.052182578
114	0x3da05232	0.078281775
115	0xbc9c2483	-0.019060379
116	0xbc7d51e2	-0.015461417
117	0xbc9a17f9	-0.01881026
118	0xbc607919	-0.013700747
119	0xbc013bf3	-0.007887828
120	0xbd9e2be1	-0.07723213
121	0x3cede45d	0.029039556
122	0xbcc4cc2d	-0.02402314
123	0xbccbb0ef	-0.024864642
124	0xbdc68d87	-0.09694963
125	0xbd8db373	-0.06918993
126	0xbdbfe933	-0.09370651
127	0x3c9e7aaf	0.01934561
128	0xbd12e878	-0.03586623
129	0xbcb0f234	-0.021599866
130	0xbc0011a5	-0.007816707
131	0xbe00d042	-0.12579444
132	0xbdb2dcdd	-0.087335326
133	0xbda5b9af	-0.08092057
134	0x3c2cf848	0.010557242
135	0x3ba46a4a	0.0050175535
136	0x3c983215	0.018578568
137	0x3d265d0e	0.040616088
138	0xbce13bb4	-0.027494289
139	0xbe2e44b7	-0.170184
140	0xbe3221e8	-0.17395747
141	0xbdd3954c	-0.103312105
142	0xbd8165d0	-0.06318247
143	0xbc2bdb43	-0.010489288
144	0xbc87ccff	-0.016577242
145	0x3d26854e	0.040654473
146	0x3c8356b4	0.016032554
147	0x3d9d131a	0.07669659
148	0xbd9fd1e0	-0.07803702
149	0xbd246bf0	-0.040142
150	0xbcfc5e71	-0.030806752
151	0xbcd47401	-0.025934221
152	0xbd012667	-0.031530764
153	0xbe1fbe2c	-0.15599889
154	0xbe05adff	-0.13054655
155	0xbd71e5fd	-0.059057225
156	0x3dc0af9e	0.09408496
157	0xbc94ba13	-0.018155133
158	0xbc958760	-0.018253028
159	0xbc5bc595	-0.013413806
160	0xbc202b60	-0.009775966
161	0xbced9083	-0.028999573
162	0xbca19a92	-0.019727025
163	0xbcc27584	-0.023737676
164	0xbe1b1273	-0.15143757
165	0xbcb3a38d	-0.021928573
166	0x3ba99877	0.005175646
167	0x3b2cf1c0	0.0026389211
168	0xbca3a1ac	-0.019974552
169	0xbdfa8cad	-0.12233863
170	0xbdfa1971	-0.12211884
171	0xbccc08ca	-0.024906535
172	0xbc650675	-0.01397859
173	0x3d8849cd	0.066547014
174	0xbe263b0f	-0.16233467
175	0xbc9f17d7	-0.019420547
176	0xbc8a2dd7	-0.016867561
177	0xbc85fd56	-0.016356152
178	0xbd7dda40	-0.061975718
179	0x3d3b9e14	0.045805052
180	0xbdc25478	-0.094887674
181	0xbe344d5a	-0.17607632
182	0x3e25620f	0.16150688
183	0xbdca9425	-0.098915376
184	0x3d92ee87	0.07174402
185	0x3da52a8a	0.08064754
186	0xbcbbc538	-0.02292119
187	0x3d4b35f7	0.04961201
188	0xbcbf202b	-0.023330769
189	0xbc596a46	-0.0132699665
190	0xbc800746	-0.015628468
191	0x3e0414c8	0.12898552
192	0xbca0356a	-0.01955672
193	0xbd566ec6	-0.052351736
194	0xbcebace2	-0.02876896
195	0x3ca9b4ee	0.020716157
196	0x3a5bb018	0.0008380427
197	0x3d560315	0.052249033
198	0x3ca27ae9	0.019833999
199	0xbc3806d2	-0.011232095

mu.weight f4 [4, 200]
0	0xbd251c85	-0.0403104
1	0x3d33e6c0	0.043921232
2	0xbdf03f0b	-0.117307745
3	0xbdc8d118	-0.098055065
4	0xbe8e1882	-0.27753073
5	0xbe4b4ea2	-0.19854215
6	0xbe5beb31	-0.21476437
7	0xbe76d310	-0.24103951
8	0x3e0b74c4	0.13618761
9	0x3d9fcdc2	0.07802917
10	0x3d986389	0.0744086
11	0x3d53e52a	0.05173222
12	0xbe806a66	-0.25081176
13	0xbd26519d	-0.040605176
14	0x3d0b7ad9	0.034052704
15	0x3c25d843	0.010122362
16	0xbe326beb	-0.1742398
17	0x3e0c154a	0.13679996
18	0xbe3d7360	-0.18501043
19	0x3e7809b5	0.24222453
20	0x3e30f6eb	0.17281692
21	0xbddf0aa0	-0.108906984
22	0x3d7f7e5f	0.062376376
23	0x3cd7d86a	0.026348311
24	0xbda146f3	-0.078748606
25	0xbe5bb131	-0.21454312
26	0x3de9da76	0.11418621
27	0x3d055961	0.03255594
28	0xbce52d68	-0.027975753
29	0x3e7eae7b	0.24871247
30	0x3bfcd409	0.0077157062
31	0x3e2bb0fb	0.16766731
32	0xbce66006	-0.02812196
33	0xbe47e950	-0.19522595
34	0xbd54fcbd	-0.051998843
35	0xbe95ba79	-0.2924383
36	0xbe5670e9	-0.2094151
37	0x3d94bb10	0.07262242
38	0x3e565949	0.20932497
39	0x3df8c798	0.121474445
40	0x3e21fc81	0.15818979
41	0x3e335afd	0.17515178
42	0x3e60ebe6	0.21964988
43	0x3e315a5e	0.17319629
44	0xbd244b78	-0.040111035
45	0xbe05f6e7	-0.13082467
46	0xbdd5d4fd	-0.10441015
47	0x3c18e9a0	0.009333044
48	0x3cceed37	0.025259597
49	0x3d9bd0dc	0.07608196
50	0xbd842cbe	-0.064538464
51	0xbd6caa81	-0.057779793
52	0xbda8734d	-0.08225117
53	0x3e160780	0.14651299
54	0xbd231e58	-0.03982386
55	0x3e2e264c	0.17006797
56	0xbc113283	-0.008862141
57	0xbcf700b0	-0.030151695
58	0x3d89f3da	0.06735964
59	0x3db4d327	0.088293366
60	0xbdcaaa88	-0.098958075
61	0xbda563b7	-0.0807566
62	0xbeccbe1e	-0.39988798
63	0xbdaee06d	-0.085388996
64	0xbeb4e226	-0.35328788
65	0x3dea1248	0.11429268
66	0xbe863991	-0.26215795
67	0xbe74161b	-0.23836558
68	0xbd26ff49	-0.040770803
69	0xbe705a82	-0.23472026
70	0xbdb90289	-0.09033687
71	0x3dda5922	0.10661532
72	0x3e865a17	0.26240608
73	0x3dfa1a0e	0.12212001
74	0xbbece54e	-0.0072294837
75	0xbdff5225	-0.1246684
76	0x3e11b7bd	0.14230247
77	0x3b4307f5	0.0029759381
78	0xbdf41702	-0.11918451
79	0xbba578f3	-0.0050498187
80	0xbcdbf334	-0.026849367
81	0xbd3934c4	-0.045216337
82	0xbcbe412b	-0.023224434
83	0xbe65cb60	-0.22440863
84	0x3e282b89	0.16422857
85	0xbe810489	-0.25198773
86	0x3e90ef8d	0.28307763
87	0xbe0d4a10	-0.13797784
88	0xbe021568	-0.12703478
89	0x3c4340b5	0.011917283
90	0x3d89fd6e	0.06737791
91	0xbe1b1c1e	-0.15147445
92	0x3db00a9e	0.08595775
93	0x3de6d682	0.11271383
94	0x3e0f9916	0.14023241
95	0x3e5bb3c0	0.21455288
96	0x3da3978d	0.079878904
97	0x3e1007f9	0.14065541
98	0xbce120b2	-0.02748141
99	0x3d425a2b	0.047449272
100	0x3e7675ce	0.24068376
101	0xbd833728	-0.064070046
102	0xbd113b70	-0.035457075
103	0x3d5dd353	0.054156613
104	0x3d62145b	0.055195194
105	0xbcad28ac	-0.021137558
106	0x3e079471	0.1324022
107	0xbe46c453	-0.19410829
108	0x3e119e62	0.14220574
109	0xbe34f8af	-0.1767299
110	0x3e9c22a7	0.30495188
111	0xbe27ab0e	-0.16373846
112	0xbd72e2c2	-0.059298284
113	0x3df9b72f	0.121931426
114	0x3d80246b	0.06256946
115	0x3da5a099	0.08087272
116	0x3d3faf06	0.046797775
117	0x3e0ef41b	0.13960306
118	0x3e20eb88	0.15714848
119	0x3dfee492	0.1244594
120	0xbe9e3423	-0.30899152
121	0x3c2b201f	0.01044467
122	0x3ddf9bd9	0.109183975
123	0x3e0aa8a2	0.13540891
124	0xba0f0b2e	-0.0005456683
125	0xbe201f76	-0.15637001
126	0x3d51e672	0.05124516
127	0x3e4f4cd1	0.20244147
128	0x3de56b0a	0.11202057
129	0x3db214d4	0.08695379
130	0x3bdd4ddc	0.0067536663
131	0x3d3a83e9	0.045535956
132	0x3c066cea	0.008204678
133	0xbdcb750c	-0.09934434
134	0xbcc7cbed	-0.024389232
135	0x3e807bf2	0.25094563
136	0x3e6edb62	0.23325875
137	0xbe1996aa	-0.1499888
138	0x3dabc539	0.083872266
139	0xbe39210e	-0.18079016
140	0xbd1a6e11	-0.037702624
141	0x3b180b04	0.0023199925
142	0x3dbeda2f	0.09318959
143	0x3d2e02c4	0.042483106
144	0xbe829d2a	-0.25510532
145	0x3e04c79e	0.12966773
146	0x3e0fc14c	0.1403858
147	0x3e439dc3	0.1910315
148	0x3da9a0d7	0.08282631
149	0xbeef437b	-0.4673117
150	0xbcf60c2b	-0.030035099
151	0xbdfdca0a	-0.123920515
152	0xbdd23eb4	-0.10265866
153	0xbe030637	-0.1279534
154	0x3d00f85d	0.031486858
155	0x3dc4ff97	0.096190624
156	0x3dd6b039	0.104828306
157	0x3df57a9b	0.11986276
158	0x3c781912	0.015142696
159	0xbd6ef936	-0.058343135
160	0xbd05e17a	-0.032685734
161	0x3df090f1	0.117463954
162	0xbddfca69	-0.109272785
163	0xbe08db47	-0.13364898
164	0xbe089715	-0.13338883
165	0xbc075851	-0.008260802
166	0x3df9d1b3	0.121982
167	0x3e809755	0.25115457
168	0xbc134262	-0.008987995
169	0x3d3e5597	0.046468344
170	0xbe27a8da	-0.16373006
171	0x3d85a64e	0.06525861
172	0x3cdf33aa	0.027246315
173	0x3dbdead8	0.092733085
174	0x3d211302	0.039324768
175	0xbe35c0e9	-0.1774937
176	0x3d4b76e5	0.049673934
177	0xbdfb0645	-0.12257055
178	0xbdf5c66e	-0.12000738
179	0xbe02aaec	-0.12760514
180	0xbe90bdb7	-0.2826974
181	0xbdca9f34	-0.09893647
182	0x3e72546a	0.23665014
183	0x3d0f4988	0.034982234
184	0x3e4c7cea	0.19969526
185	0x3e6c21dc	0.23059791
186	0x3dd555a2	0.10416724
187	0x3d60478f	0.054755744
188	0xbc8dc866	-0.017307471
189	0x3dcc55f1	0.099773295
190	0xbd08c5c8	-0.033391744
191	0x3e2396f5	0.15975554
192	0x3d54e1d7	0.05197319
193	0x3e0ba612	0.1363757
194	0x3d94e438	0.07270092
195	0x3e39bf77	0.18139444
196	0x3ccadc9d	0.0247634
197	0xbea235fe	-0.31681818
198	0x3d075829	0.03304306
199	0x3e12c3a2	0.1433244
200	0xbe14a609	-0.14516462
201	0x3e09c64b	0.13454549
202	0x3e3d31ca	0.18476024
203	0x3c6e7f24	0.01455668
204	0xbd80de88	-0.062924445
205	0xbe2d2716	-0.16909441
206	0xbe2d4e2c	-0.16924351
207	0x3e60eb6b	0.21964805
208	0xbdcc4c36	-0.099754736
209	0xbdb50374	-0.08838549
210	0xbd7d989a	-0.06191311
211	0x3de3e0ca	0.111268595
212	0xbe2ffee5	-0.17187078
213	0x3e212916	0.1573833
214	0xbdf7c530	-0.120981574
215	0xbed7d5a3	-0.4215518
216	0xbcef3a61	-0.029202642
217	0x3e0e1ac8	0.13877404
218	0x3e48d1ad	0.19611235
219	0x3e2033d2	0.15644768
220	0x3e34d8ae	0.17660782
221	0x3dfd8779	0.12379355
222	0x3e2c629c	0.16834491
223	0x3e2a6be4	0.1664272
224	0xbdf3fffc	-0.119140595
225	0x3e8d05c0	0.2754345
226	0xbc7b5d6d	-0.015342099
227	0x3c36bf13	0.011153954
228	0x3d160e08	0.036634475
229	0xbd9b9de4	-0.075984746
230	0xbc2bdb01	-0.010489226
231	0xbd82e614	-0.0639154
232	0x3ee253ad	0.44204465
233	0xbdd97157	-0.10617321
234	0xbd9b4b1f	-0.075826876
235	0xbcaf160c	-0.021372817
236	0xbe6a6d81	-0.22893335
237	0xbc51690b	-0.012781392
238	0x3e116880	0.1420002
239	0x3e1f1bfc	0.15538019
240	0xbddfc185	-0.10925583
241	0x3e3964e7	0.18104897
242	0x3e1d423e	0.153573
243	0x3ddb0d3a	0.10695882
244	0xbb34485c	-0.002750895
245	0xbe4f3c52	-0.20237854
246	0x3e0b8759	0.1362585
247	0xbdba75e5	-0.09104518
248	0xbe284550	-0.1643269
249	0x3da83323	0.082128786
250	0xbe20a9c1	-0.15689756
251	0x3c74e63a	0.014947468
252	0x3e21eaa8	0.1581217
253	0xbd2d6da2	-0.042340882
254	0xbc13a513	-0.009011525
255	0xbd04aa76	-0.032389127

mu.bias f4 [4]
0	0x3da45829	0.08024628
1	0x3d928e4d	0.07156048
2	0x3d7fc01c	0.06243907
3	0x3da7ab34	0.08186951
