ppo_sumo/saves/sumo_single_intersection/ppo_policy_final.pth (torch, 196519 bytes, 7 tensors)

sigma f4 [4]
-0.028284162 -0.021243857 -0.00042653002 -0.0097474875
00000000: 30b4 e7bc 9907 aebc e49f dfb9 edb3 1fbc

layer1.weight f4 [200, 36]
0.06112845 0.16290939 0.006448631 0.034289036 0.051778108 0.068576224 -0.050675977 0.07852505
-0.029266715 0.09914705 -0.02544216 0.06728008 0.11026394 -0.10778202 0.057717577 0.014462068
-0.14142662 -0.02781519 -0.0089939935 0.10831923 -0.07954278 0.11470321 -0.06685083 0.0909427
0.03348722 0.105215594 0.12244583 -0.14329779 -0.008117799 -0.12660009 -0.00033745213 -0.09073392
0.1529486 0.07863347 -0.07185187 0.037100445 -0.09570766 -0.14875562 0.09250978 -0.028337806
-0.002314493 0.009185508 0.04454872 0.069627345 -0.055188205 -0.017605687 -0.090951204 -0.074401446
-0.055716842 0.015854133 -0.11576068 -0.01918893 0.12829146 -0.15156458 0.0014234171 0.10528998
0.0048677353 0.09294575 -0.07898285 0.011794085 -0.04709389 0.018858284 -0.02507118 0.023611123
0.15448032 -0.037767958 0.029360212 -0.10632363 0.09367754 0.033202548 -0.09993738 0.113912635
-0.092473984 -0.11981547 -0.14807095 -0.086376175 -0.029956501 -0.070650235 0.14611325 -0.15964745
-0.025039572 -0.11706785 0.13893455 -0.048458025 -0.14821392 0.05579096 -0.08565686 0.05574844
0.14296995 -0.048126016 -0.02739004 -0.15253794 -0.0356328 0.10200845 0.0902603 0.07344129
-0.1262985 0.10735137 0.08896268 -0.033562813 -0.161498 0.12544677 -0.02360483 -0.118381016
0.10185548 -0.15319154 -0.15818717 0.1022084 0.109030575 -0.009384215 -0.015676163 -0.060277507
-0.117336094 -0.086046174 -0.10726764 -0.009059042 -0.05396591 -0.020391315 -0.096971184 0.07104276
0.077129945 -0.047873132 0.11198303 0.025715703 -0.14082223 -0.058325917 -0.1438992 -0.043632608
0.088560045 -0.023083761 -0.06299946 -0.001662027 -0.057132307 -0.16008078 -0.012117546 -0.15361063
0.031087507 -0.06688009 0.034179077 -0.112893924 0.026633024 0.022584409 -0.082515344 -0.008522963
0.042592846 -0.030525995 -0.06338403 0.0852657 0.13785179 -0.09749899 0.008428935 -0.03862464
-0.020657832 0.08673856 -0.011094581 -0.024438418 0.042474788 0.11677102 0.13294949 0.058184244
-0.09194778 -0.05934897 -0.12079637 -0.16145828 -0.16363125 -0.046327688 0.029518867 0.11675838
-0.012510334 -0.1745291 -0.099740244 0.10011196 0.1180999 0.0172987 -0.04505196 0.09575469
0.023471534 -0.13009131 -0.10710109 -0.059987493 -0.04453142 -0.07911862 -0.04237864 0.094776876
0.10544773 -0.038927995 0.09711946 0.10053907 -0.060357332 0.13135846 0.037850786 -0.045492377
0.16378994 -0.032429803 0.008296816 0.040281564 0.010916264 0.020813914 -0.077436484 0.033871844
0.018912287 -0.023111451 -0.13016835 -0.034696087 0.15986632 0.114510275 0.07267411 -0.05970302
0.089683466 0.12325353 -0.08237476 -0.03359847 -0.110302046 -0.14433482 0.1571054 0.054292478
-0.016247578 -0.021754267 -0.007358331 0.1550697 -0.14616473 0.11140826 0.072523266 -0.00557153
-0.06638425 -0.03923302 -0.0713008 0.05758453 0.11845037 0.10772691 -0.116804235 0.084921606
0.032307986 -0.03522794 -0.11961531 -0.086138666 0.13601513 0.047170766 -0.09158797 0.007431236
-0.055577956 -0.015655277 0.08134618 -0.12907788 -0.10059392 -0.08700267 -0.08793311 -0.09914356
0.10385495 0.15674368 -0.122125044 -0.0836211 0.10945916 0.0752911 -0.11151478 -0.027980221
00000000: d361 7a3d b8d1 263e 0a4f d33b a972 0c3d
00000010: 4815 543d b171 8c3d 9d91 4fbd bed1 a03d
00000020: c0c0 efbc 9c0d cb3d 146c d0bc 23ca 893d
00000030: 10d2 e13d d2bc dcbd 4469 6c3d 4ff2 6c3c
00000040: 24d2 10be aedc e3bc 8b5b 13bc 79d6 dd3d
00000050: 53e7 a2bd 84e9 ea3d 17e9 88bd 2b40 ba3d
00000060: e529 093d 467b d73d e1c4 fa3d a8bc 12be
00000070: 8400 05bc 74a3 01be 0fec b0b9 b5d2 b9bd
00000080: 8f9e 1c3e 960a a13d 1327 93bd a3f6 173d
00000090: 6102 c4bd 6553 18be c475 bd3d b024 e8bc
000000a0: c0ae 17bb d07e 163c b878 363d c898 8e3d
000000b0: 070d 62bd cd39 90bc a044 babd c95f 98bd
000000c0: 5837 64bd 87e0 813c ef13 edbd 1a32 9dbc
000000d0: d65e 033e bf33 1bbe f491 ba3a 46a2 d73d
000000e0: 8681 9f3b 575a be3d c3c1 a1bd fa3b 413c
000000f0: 86e5 40bd b07c 9a3c 1362 cdbc 1d6c c13c
00000100: 1730 1e3e 93b2 1abd d484 f03c 34c0 d9bd
00000110: 03da bf3d 65ff 073d f8ab ccbd 074b e93d
00000120: 0063 bdbd d061 f5bd e99f 17be fee5 b0bd
00000130: 5667 f5bc 12b1 90bd b69e 153e 9f7a 23be
00000140: ca1f cdbc 45c1 efbd dc44 0e3e ec7b 46bd
00000150: 64c5 17be 1085 643d dd6c afbd 7a58 643d
00000160: b766 123e c91f 45bd 1461 e0bc e832 1cbe
00000170: b3f3 11bd cee9 d03d 64da b83d 6368 963d
00000180: 6554 01be 09db db3d 1132 b63d 2979 09bd
00000190: bb5f 25be 1e75 003e eb5e c1bc bf71 f2bd
000001a0: 9b99 d03d 3ede 1cbe d1fb 21be a352 d13d
000001b0: 6c4b df3d 40c0 19bc 4c6b 80bc 8ce5 76bd
000001c0: e84d f0bd fa38 b0bd 23af dbbd 606c 14bc
000001d0: 5c0b 5dbd b00b a7bc d498 c6bd de7e 913d
000001e0: 4ef6 9d3d 9e16 44bd 5c57 e53d bda9 d23c
000001f0: b433 10be 28e7 6ebd 505a 13be 1bb8 32bd
00000200: f85e b53d 281a bdbc dc05 81bd 5fd8 d9ba
00000210: 9103 6abd 37ec 23be ac88 46bc 1b4c 1dbe
00000220: 3aab fe3c 6ef8 88bd 5cff 0b3d ee34 e7bd
00000230: 802d da3c f002 b93c cefd a8bd e6a3 0bbc
00000240: d675 2e3d a711 fabc 7ccf 81bd c99f ae3d
00000250: 0529 0d3e 8dad c7bd 8419 0a3c df34 1ebd
00000260: 9d3a a9bc fca3 b13d 0cc6 35bc 1433 c8bc
00000270: 0bfa 2d3d a525 ef3d e923 083e 9a52 6e3d
00000280: 1e4f bcbd e817 73bd 1664 f7bd 5255 25be
00000290: f38e 27be 1ac2 3dbd 8dd1 f13c 041f ef3d
000002a0: 25f8 4cbc c2b7 32be 9d44 ccbd 8007 cd3d
000002b0: 5cde f13d 01b6 8d3c 6788 38bd 091b c43d
000002c0: 6047 c03c a836 05be d157 dbbd 72b5 75bd
000002d0: 9466 36bd f108 a2bd 3a95 2dbd 611a c23d
000002e0: fbf4 d73d f672 1fbd 91e6 c63d 6ee7 cd3d
000002f0: 4039 77bd d582 063e 6d09 1b3d 3756 3abd
00000300: 8db8 273e 1dd5 04bd 5eef 073c 48fe 243d
00000310: 21da 323c f181 aa3c 0597 9ebd 34bd 0a3d
00000320: f1ed 9a3c 3a54 bdbc da4a 05be 7c1d 0ebd
00000330: ffb3 233e 5d84 ea3d 2ad6 943d 278b 74bd
00000340: f7ab b73d 596c fc3d 19b4 a8bd 8d9e 09bd
00000350: 0ae6 e1bd 82cc 13be 3de0 203e ca61 5e3d
00000360: a419 85bc 0136 b2bc 271e f1bb 97ca 1e3e
00000370: 35ac 15be 042a e43d 1487 943d 6291 b6bb
00000380: 77f4 87bd ceb2 20bd 2706 92bd c2dd 6b3d
00000390: 1c96 f23d ed9f dc3d 0f37 efbd 61eb ad3d
000003a0: 6155 043d 2c4b 10bd dff8 f4bd 7869 b0bd
000003b0: 8d47 0b3e 2236 413d 7992 bbbd ba81 f33b
000003c0: b6a5 63bd 7f3f 80bc d398 a63d fe2c 04be
000003d0: 2f04 cebd 752e b2bd 4616 b4bd c70b cbbd
000003e0: e7b1 d43d 6a81 203e b21c fabd 8a41 abbd
000003f0: 202c e03d 3832 9a3d dc61 e4bd c736 e5bc

layer1.bias f4 [200]
0.0023340872 0.0034913702 -0.018263344 0.0003448477 -0.00848322 0.0032278097 0.0049139834 0.0013610073
0.011083947 -0.015906027 -0.010097711 0.016331898 -0.00079724763 -0.0037110064 0.004271453 -0.008846894
-0.0104154665 -0.002109697 0.007911366 0.008613337 0.0018118995 -0.0013441071 0.0067996243 -0.0044102706
-0.0030568608 0.0034476183 0.006314892 0.0022758539 -0.0022035418 0.0014395753 -0.012387118 0.0048459363
0.0040020505 -0.0030385975 -0.0048349635 0.018661601 0.0008195285 -0.013637605 0.019560756 0.0008932494
-0.0003018164 -0.0010689924 -0.0035211493 -0.0033509997 0.02166947 -0.017481381 -0.0012437203 0.002336002
0.011009464 -0.00467428 -0.013995889 -0.0009399467 -0.003919004 -0.0034683505 -0.012912355 0.0024571856
0.0032341029 -0.004707204 -0.0004656992 -0.0016302553 -0.0031003528 -0.0031324164 0.0073531093 -0.008773833
-0.0009418194 -0.003744643 0.00065629306 -0.013306694 0.0047010705 -0.0004807123 0.012730188 -0.0129925385
0.0037374464 0.01645146 -0.0045164656 0.0076888585 0.00519696 9.910697e-05 0.0147085795 0.005730613
-0.004192798 0.0020068588 -0.008466247 0.010920621 -0.0042181085 0.01432697 0.0014834346 0.011702929
0.005434014 0.00019579347 -0.016273791 -0.0019703235 -0.010798199 0.0058227316 0.016843848 0.0066301976
0.02394682 0.0039430633 0.0053713764 0.013911495 -0.00799687 0.0055241752 0.015595307 -0.011964939
-0.0043212655 0.0114253005 0.00029037625 0.0049508917 0.0039024402 -0.023896215 -0.0019155344 0.004603135
-0.0015655907 0.008329555 0.00086250703 0.011229696 0.019270029 -0.002891384 -0.009220173 0.0066183684
0.018915053 0.00602979 -0.0067356136 0.00452461 0.027252182 0.010303021 -0.009035085 -0.0057257437
-0.0021989448 -0.014699658 0.005539911 -0.009702304 -0.014422414 0.0041440604 -0.011251927 -0.005075511
0.008548227 0.0048338305 -0.0044769812 -0.0003671915 -0.0059332047 -0.004186155 -0.0041977325 -0.0070540584
-0.009704691 -0.006287494 -0.011594946 -0.012994374 0.0129939765 -0.0038611647 -0.003789276 0.0012170096
0.005750812 -0.016939642 -0.0018817646 -0.0035796245 0.021496423 -0.011175662 -0.007133575 0.018968843
0.004074892 0.008142089 -0.008221331 0.0049830163 0.0012711087 0.001543682 0.00046348345 -0.0034598266
0.002550037 0.009555883 -0.009571282 -0.012798781 0.0012956382 -0.012159398 -0.0100491615 0.0127167525
0.014012484 0.005308868 -6.4183914e-05 0.012644461 0.00195682 -0.00034738338 0.0031039414 0.0036873864
0.0078061363 0.012240056 -0.0011151055 -0.004326767 -0.0040418995 -0.008096125 0.0023208177 0.00019065912
-0.022119885 0.0046082987 0.01809153 0.0 0.020898353 0.012915095 -0.0023130577 -0.003791442
00000000: 7cf7 183b 79cf 643b 029d 95bc adcc b439
00000010: 34fd 0abc a989 533b 7b05 a13b d463 b23a
00000020: 7199 353c 5b4d 82bc df70 25bc 79ca 853c
00000030: 62fe 50ba 5b34 73bb 8bf7 8b3b 90f2 10bc
00000040: a2a5 2abc d842 0abb ad9e 013c f41e 0d3c
00000050: 427d ed3a c02c b0ba 62cf de3b 0884 90bb
00000060: 9d55 48bb 70f1 613b 27ed ce3b 7e26 153b
00000070: 4c69 10bb 22b0 bc3a 57f3 4abc a9ca 9e3b
00000080: a223 833b 3523 47bb 9d6e 9ebb 37e0 983c
00000090: a0d5 563a 4370 5fbc e13d a03c f428 6a3a
000000a0: 1d3d 9eb9 6f1d 8cba 15c3 66bb 729c 5bbb
000000b0: 2c84 b13c 1d35 8fbc 5404 a3ba 9c17 193b
000000c0: 0a61 343c b42a 99bb 034f 65bc c166 76ba
000000d0: fd6a 80bb 444d 63bb 588e 53bc bc08 213b
000000e0: 3ef3 533b e43e 9abb 1729 f4b9 4aae d5ba
000000f0: 4a2f 4bbb 3a49 4dbb 5af2 f03b 1fc0 0fbc
00000100: 6ee4 76ba af68 75bb 150b 2c3a 5204 5abc
00000110: 700b 9a3b 1d08 fcb9 4792 503c a8de 54bc
00000120: f2ef 743b 36c5 863c dcfe 93bb d2f2 fb3b
00000130: 434b aa3b a6d7 cf38 41fc 703c dec7 bb3b
00000140: bd63 89bb 8185 033b 03b6 0abc 68ec 323c
00000150: 0f38 8abb abbb 6a3c ce6f c23a a4bd 3f3c
00000160: d00f b23b e94d 4d39 9d50 85bc 8b20 01bb
00000170: eeea 30bc 9dcc be3b 1cfc 893c 2142 d93b
00000180: 1f2c c43c d034 813b 5f02 b03b 0aed 633c
00000190: 4e05 03bc 2404 b53b 7583 7f3c 9708 44bc
000001a0: 6799 8dbb 2f31 3b3c a43d 9839 173b a23b
000001b0: 15c0 7f3b ffc1 c3bc ab12 fbba e5d5 963b
000001c0: 8234 cdba b078 083c de19 623a c2fc 373c
000001d0: 2edc 9d3c 607d 3dbb 3510 17bc e6de d83b
000001e0: bef3 9a3c 8b95 c53b 6cb6 dcbb 2e43 943b
000001f0: f83f df3c 01ce 283c e507 14bc 059f bbbb
00000200: 2c1c 10bb d6d6 70bc 2488 b53b 6af6 1ebc
00000210: fd4b 6cbc e6ca 873b 015a 38bc 7950 a6bb
00000220: dd0d 0c3c 1c65 9e3b a4b3 92bb 9c83 c0b9
00000230: 546b c2bb 032c 89bb 228d 89bb bb25 e7bb
00000240: 6d00 1fbc 5307 cebb baf8 3dbc 5be6 54bc
00000250: b0e4 543c 980b 7dbb 8055 78bb 1184 9f3a
00000260: 4f71 bc3b 01c5 8abc 8ba5 f6ba 2298 6abb
00000270: 4419 b03c 201a 37bc c4c0 e9bb 8c64 9b3c
00000280: ac86 853b 6566 053c c3b2 06bc 9248 a33b
00000290: 559b a63a 5f55 ca3a b2ff f239 42be 62bb
000002a0: 861e 273b 4790 1c3c ded0 1cbc fab1 51bc
000002b0: 67d2 a93a 3638 47bc 3da5 24bc ed59 503c
000002c0: 9e94 653c 03f6 ad3b 7a9a 86b8 b72a 4f3c
000002d0: fe3d 003b 0221 b6b9 7f6b 4b3b 14a8 713b
000002e0: 9eca ff3b 848a 483c bb28 92ba 8dc7 8dbb
000002f0: e971 84bb 9ca5 04bc dc18 183b abeb 4739
00000300: c334 b5bc 3601 973b b034 943c 0000 0000
00000310: 0633 ab3c d699 533c ab96 17bb d779 78bb

layer2.weight f4 [200, 200]
0.017165156 0.06271904 -0.1041556 -0.107849844 0.0033461142 -0.028840378 0.0834658 0.007723273
-0.06871869 -0.07098382 0.003493195 0.021625137 -0.1201999 0.05604492 0.10923922 0.08677857
-0.008893396 -0.12812191 -0.038049024 0.08516816 -0.09507574 -0.06637043 -0.054865308 0.05838
-0.014976528 -0.12699784 0.033135436 -0.020732947 -0.0115818605 -0.0032669394 -0.038192093 -0.073176354
0.051527314 -0.0926436 0.019821143 0.013198436 0.093243144 0.07723032 -0.0415834 0.026278097
0.0097750835 -0.027656112 0.07294622 0.13318989 0.023260398 -0.049066007 -0.0058538727 0.043101665
-0.03579375 0.0009278546 0.023960294 0.031791035 0.084234774 -0.049050696 -0.092694506 -0.044236142
-0.10534801 -0.077731475 -0.029221933 -0.004852415 0.059665635 0.057345334 0.057529397 -0.07282392
0.052506443 0.03558787 0.09650311 0.08226528 0.031012766 0.10538918 0.092283174 -0.08323671
0.065704815 -0.020746022 -0.11026482 -0.017995877 -0.09990897 0.07166498 0.00837851 -0.010415756
-0.020473525 -0.059857707 -0.12940219 0.062488053 0.02224627 -0.104654916 0.07148444 -0.10250305
-0.018865896 0.11090398 0.015820421 -0.077731326 -0.11978473 0.069255486 -0.09479599 -0.033595104
-0.08440118 0.07584179 -0.120615356 -0.01564147 -0.004121358 -0.059403338 0.096334696 -0.12178778
-0.04179283 0.032084733 -0.013760967 0.045965705 -0.104750484 0.035474118 -0.06034334 0.09212215
-0.09299812 -0.040578008 -0.07975835 -0.08315165 -0.03182369 -0.08441118 -0.105779655 -0.07156765
-0.043607697 0.0071196104 -0.028786696 0.058777038 0.05375035 -0.07912529 -0.028288595 -0.07735259
-0.04845297 -0.08605508 -0.003612686 0.07351185 0.027607733 -0.054118715 -0.015819738 -0.10460674
0.026807578 0.11109813 -0.050077174 0.08090663 0.005349519 -0.052371815 0.06086872 -0.026759364
0.07023004 0.019057387 -0.08879408 -0.024074407 0.0581438 -0.053679273 -0.042492505 0.07888255
0.06661916 -0.04655877 -0.040016945 -0.034412857 -0.12215477 -0.122356065 0.054022983 0.10811727
0.08568327 -0.03491172 -0.016920747 0.019077867 -0.002122401 0.037370857 0.10901197 0.07550961
0.094406165 -0.043289967 -0.070993714 -0.041101716 -0.09210643 0.0909625 0.11261025 -0.11732276
-0.07480677 0.007248919 -0.014705719 -0.037171338 -0.104628704 0.041038312 -0.015275268 -0.12206701
0.107791685 0.11082177 -0.011935399 0.0773988 0.06800423 -0.108157545 0.072932385 0.0067077857
-0.002701565 -0.12613246 0.05268948 -0.00022983551 0.052550953 -0.026465077 -0.0014331265 -0.10189468
-0.058112897 0.031309396 -0.002185602 0.08181008 0.07312705 -0.0036413225 -0.079975754 0.02233235
0.056314163 0.0043810816 -0.00406146 0.12915675 -0.10724125 -0.024906194 0.1034321 -0.082136355
-0.012304087 0.0470825 -0.05180831 0.040558577 -0.0061479514 0.010070577 -0.11240928 -0.10043134
-0.0009592208 -0.025097774 0.05594047 0.019243456 0.10979896 0.098445825 -0.098816134 0.073729075
0.013120728 0.04820697 0.030241596 -0.008738842 0.06364655 -0.059314176 0.007888311 0.009478998
0.13026609 -0.013036784 -0.033237103 0.044400316 0.065361 0.049698777 0.07165632 -0.016142745
0.018024068 -0.077841066 -0.044310827 -0.08373489 0.031859107 0.117741354 0.09097813 0.09155993
00000000: f19d 8c3c d772 803d 884f d5bd 61e0 dcbd
00000010: 7b4a 5b3b a842 ecbc 1ef0 aa3d 8213 fd3b
00000020: 62bc 8cbd f75f 91bd 16ee 643b 3327 b13c
00000030: 5d2b f6bd 5c8f 653d d0b8 df3d f7b8 b13d
00000040: 9bb5 11bc 6432 03be 4bd9 1bbd a56c ae3d
00000050: 12b7 c2bd 38ed 87bd 72ba 60bd de1f 6f3d
00000060: 1c60 75bc b90b 02be 06b9 073d 24d8 a9bc
00000070: d8c1 3dbc 261a 56bb 506f 1cbd 7cdd 95bd
00000080: 4e0e 533d eebb bdbd f35f a23c 413e 583c
00000090: 43f6 be3d ee2a 9e3d 5b53 2abd 2a45 d73c
000000a0: ac27 203c 128f e2bc d464 953d ee62 083e
000000b0: 978c be3c 70f9 48bd d8d1 bfbb 5f8b 303d
000000c0: 789c 12bd 453b 733a 6148 c43c 5137 023d
000000d0: 4883 ac3d 62e9 48bd 9ed6 bdbd f530 35bd
000000e0: b3c0 d7bd ae31 9fbd d662 efbc 0201 9fbb
000000f0: f463 743d f1e2 6a3d f2a3 6b3d b524 95bd
00000100: ff10 573d 96c4 113d 6ca3 c53d b37a a83d
00000110: 7c0e fe3c 48d6 d73d f6fe bc3d 0278 aabd
00000120: 3f90 863d 90f3 a9bc 86d2 e1bd 176c 93bc
00000130: 139d ccbd 17c5 923d 0546 093c d9a6 2abc
00000140: 18b8 a7bc 5b2d 75bd 0282 04be 79f3 7f3d
00000150: cf3d b63c 5155 d6bd 6f66 923d 1eed d1bd
00000160: a78c 9abc a021 e33d d499 813c 9a31 9fbd
00000170: b251 f5bd d2d5 8d3d 6624 c2bd 059b 09bd
00000180: 87da acbd f152 9b3d 2f05 f7bd 8a22 80bc
00000190: 750c 87bb ea50 73bd 204b c53d df6b f9bd
000001a0: f52e 2bbd 486b 033d ae75 61bc 8946 3c3d
000001b0: 6c87 d6bd 4f4d 113d 942a 77bd 8aaa bc3d
000001c0: cc75 bebd 2035 26bd 5958 a3bd 6a4b aabd
000001d0: 8f59 02bd c5df acbd 01a3 d8bd 0f92 92bd
000001e0: fc9d 32bd 9f4b e93b 14d2 ebbc 31c0 703d
000001f0: 5429 5c3d 710c a2bd 7cbd e7bc 096b 9ebd
00000200: 9f76 46bd a53d b0bd d0c2 6cbb 618d 963d
00000210: 9d29 e23c 96ab 5dbd 6598 81bc 0f3c d6bd
00000220: 919b db3c 6b87 e33d b91d 4dbd 60b2 a53d
00000230: 054b af3b d483 56bd 7b51 793d 7436 dbbc
00000240: c4d4 8f3d 3d1e 9c3c acd9 b5bd b137 c5bc
00000250: 3128 6e3d ccde 5bbd 9f0c 2ebd 2d8d a13d
00000260: a06f 883d 69b4 3ebd cfe8 23bd 7ff4 0cbd
00000270: 482c fabd d195 fabd 3447 5d3d 966c dd3d
00000280: b67a af3d 97ff 0ebd 619d 8abc 3049 9c3c
00000290: fb17 0bbb 2f12 193d ab41 df3d c8a4 9a3d
000002a0: 0558 c13d d250 31bd 2765 91bd 465a 28bd
000002b0: 4ca2 bcbd 8c4a ba3d 34a0 e63d ea46 f0bd
000002c0: 4b34 99bd 5788 ed3b 42f0 70bc f940 18bd
000002d0: 9347 d6bd ca17 283d 1e45 7abc 45fe f9bd
000002e0: e3c1 dc3d 86f6 e23d b18c 43bc 4383 9e3d
000002f0: cd45 8b3d b481 ddbd 935d 953d fccc db3b
00000300: bd0c 31bb de28 01be edd0 573d 0000 71b9
00000310: ab3f 573d 4acd d8bc bfd7 bbba 28ae d0bd
00000320: ca07 6ebd 483e 003d 513c 0fbb 0b8c a73d
00000330: a3c3 953d 41a3 6ebb 54ca a3bd 55f2 b63c
00000340: aea9 663d 2d8f 8f3b ff15 85bb ab41 043e
00000350: 4da1 dbbd 1308 ccbc 35d4 d33d 1b37 a8bd
00000360: 1597 49bc 94d9 403d f334 54bd c020 263d
00000370: c174 c9bb 10ff 243c d636 e6bd f2ae cdbd
00000380: 3874 7bba d999 cdbc d621 653d 74a4 9d3c
00000390: 47de e03d f79d c93d 1d60 cabd 45ff 963d
000003a0: 52f8 563c ac74 453d 39bd f73c 5c2d 0fbc
000003b0: 1f59 823d 6cf3 72bd f93d 013c cd4d 1b3c
000003c0: 7964 053e 3c98 55bc a123 08bd 1bdd 353d
000003d0: fddb 853d f290 4b3d 8cc0 923d ca3d 84bc
000003e0: 36a7 933c 236b 9fbd 457f 35bd 337d abbd
000003f0: b27e 023d 6122 f13d be52 ba3d c683 bb3d

layer2.bias f4 [200]
-0.009511746 0.009017937 0.00810883 0.010677316 0.0103217745 -0.0139791835 0.0121763395 -0.0033752765
-0.001053108 0.0077640875 -0.012699375 0.017848635 0.010543754 -0.0009805926 -0.0038297856 0.002061391
-0.010851041 -0.0074008266 0.0059732636 -0.0014141768 0.00160913 -0.012789176 -0.015878035 0.012547762
0.01272802 -0.00606105 -0.0101370495 0.0009956291 0.0043595047 -0.005214 0.0068215444 0.0017024382
0.009976575 0.014567406 0.021890441 0.004088415 0.005427282 0.008154171 0.009621461 0.0025038207
0.010717346 0.0029369902 -7.38364e-05 0.011512835 0.012643842 0.009131456 0.011945083 -0.0007841221
0.008137378 0.010078699 0.0 0.00847787 0.0029803186 0.0032780978 -0.016666139 -0.009167186
-0.013072115 -0.00563565 0.010213217 -0.011933382 0.014175896 0.0 0.008622959 0.0062566563
-0.0019971286 0.00360076 -0.007821352 0.020020405 -0.014521195 -0.007898377 0.012119271 0.00038842432
0.0049668783 0.016631022 0.0013230203 -0.0035794037 0.0021139968 -0.004756207 -0.0051079183 -0.003801098
0.0017607555 0.017754989 0.0042547723 0.0105654355 0.0028400798 -0.003272695 0.0 0.015967716
-0.0043627056 -0.001511434 0.009081551 -0.009114464 -0.007038327 0.017668521 -0.008533413 0.0015640126
-0.0023928056 0.0068763983 0.02165406 -0.0035673364 0.013229776 -0.008184028 -0.0016217093 -0.0045914156
-0.0042062327 0.00034776528 0.0060811467 0.008269893 0.020205788 -0.0014799087 0.012124917 -0.013178907
-0.0009665134 -0.0056125307 -0.005065237 -0.004495175 -0.0014674957 -0.006302697 0.008436835 0.013778761
0.002271964 -0.0023916897 -0.0061200205 -0.0021982323 0.0018309422 -0.004299717 -0.0026024305 -0.007854111
0.004796649 0.009290151 -0.007772748 0.0069264076 0.0050707194 -0.012815561 -0.0066322098 0.0015401208
0.008716153 0.006793313 -0.00029760666 -0.005001619 -0.009759023 0.009841502 0.006533626 -0.000729569
0.010077676 -0.0064006946 -0.0045686546 0.00571684 0.0032710754 0.017824443 0.0039668265 0.0050914646
-0.005338886 0.0022778611 -0.0069206 0.021425124 0.0033030682 -0.0014413706 -0.0031024418 0.016400876
0.007880887 0.017351601 0.0037449722 0.0007445425 -0.015575252 -0.013864213 0.0050723795 0.0141197005
-0.014441975 -0.0042449934 -0.0016082784 -0.009640655 -0.0027198894 -0.011928882 0.009428745 -0.010416611
0.011000264 -0.0048831413 0.018856175 0.00056910387 0.017704792 -0.002364985 -0.0010971436 -0.0056568026
-0.0015514315 -0.013668646 0.0042326343 0.0075256447 -0.0010655333 -0.011696346 -0.0073901135 -0.003929235
0.0067385933 0.0036620095 -0.007597766 0.0067957784 0.012936789 -0.002861012 -0.008126394 -0.0033808465
00000000: 27d7 1bbc f8bf 133c e6da 043c e9ef 2e3c
00000010: a91c 293c f208 65bc 457f 473c be33 5dbb
00000020: 7108 8aba e369 fe3b 0a11 50bc 4d37 923c
00000030: b6bf 2c3c 3a87 80ba 24fd 7abb 6718 073b
00000040: 91c8 31bc a282 f2bb 5ebb c33b e65b b9ba
00000050: 71e9 d23a b189 51bc a712 82bc 2195 4d3c
00000060: 2f89 503c c69b c6bb de15 26bc c57f 823a
00000070: 2dda 8e3b 34da aabb 4387 df3b 5924 df3a
00000080: ca74 233c 21ac 6e3c 9553 b33c 1cf8 853b
00000090: 57d7 b13b 1299 053c 55a3 1d3c 2417 243b
000000a0: cf97 2f3c 857a 403b 9ed8 9ab8 54a0 3c3c
000000b0: 1e28 4f3c 1a9c 153c 4fb5 433c 8b8d 4dba
000000c0: a352 053c 2121 253c 0000 0000 c4e6 0a3c
000000d0: 7351 433b 5bd5 563b 6d87 88bc f731 16bc
000000e0: 6d2c 56bc 42ab b8bb 5655 273c 3b84 43bc
000000f0: 0442 683c 0000 0000 5047 0d3c a304 cd3b
00000100: 42e2 02bb bafa 6b3b 2125 00bc d501 a43c
00000110: 4eea 6dbc 3268 01bc e88f 463c 6ea5 cb39
00000120: 32c1 a23b c83d 883c 3269 ad3a 6e94 6abb
00000130: fb8a 0a3b f5d9 9bbb 5360 a7bb d81b 79bb
00000140: 27c9 e63a e972 913c 9e6b 8b3b a61a 2d3c
00000150: a220 3a3b b67a 56bb 0000 0000 bace 823c
00000160: 07f5 8ebb 4f1b c6ba c9ca 143c d554 15bc
00000170: c4a1 e6bb 93bd 903c bacf 0bbc 8eff cc3a
00000180: 9ed0 1cbb 6953 e13b db63 b13c f9c9 69bb
00000190: b4c1 583c 4d16 06bc 898f d4ba 9673 96bb
000001a0: 70d4 89bb 4454 b639 5b44 c73b 727e 073c
000001b0: 9c86 a53c 7ff9 c1ba 96a7 463c 58ec 57bc
000001c0: 9e5d 7dba 52e9 b7bb 4afa a5bb 434c 93bb
000001d0: fc58 c0ba db86 cebb a73a 0a3c 50c0 613c
000001e0: 3be5 143b e5bd 1cbb 748a c8bb 3810 10bb
000001f0: 3afc ef3a a4e4 8cbb 8a8d 2abb 87ae 00bc
00000200: 352d 9d3b b835 183c 89b2 febb ebf6 e23b
00000210: 4728 a63b 5cf8 51bc 0253 d9bb e1dd c93a
00000220: 32ce 0e3c 719a de3b 1708 9cb9 9fe4 a3bb
00000230: 4fe4 1fbc 403e 213c 0718 d63b 8c40 3fba
00000240: d61c 253c ebbc d1bb a7b4 95bb 5454 bb3b
00000250: 8a5f 563b 9104 923c 27fc 813b 4dd6 a63b
00000260: d2f1 aebb 2b48 153b 33c6 e2bb be83 af3c
00000270: 4a78 583b 5fec bcba 5652 4bbb 215b 863c
00000280: d61e 013c f224 8e3c 356e 753b 672d 433a
00000290: 572f 7fbc b926 63bc 3436 a63b 5156 673c
000002a0: 099e 6cbc 9619 8bbb decc d2ba d6f3 1dbc
000002b0: 2c40 32bb 5c71 43bc 067b 1a3c 6faa 2abc
000002c0: 743a 343c c202 a0bb 4478 9a3c ea2f 153a
000002d0: a409 913c ddfd 1abb 08ce 8fba b35c b9bb
000002e0: 6759 cbba 75f2 5fbc e9b1 8a3b af99 f63b
000002f0: 5da9 8bba 08a2 3fbc c428 f2bb d0c0 80bb
00000300: 6bcf dc3b 53fe 6f3b aef6 f8bb 1faf de3b
00000310: d3f4 533c d17f 3bbb 9124 05bc 3191 5dbb

mu.weight f4 [4, 200]
0.09036904 0.062781334 -0.09493119 -0.007405823 -0.17602995 -0.044203185 0.06486316 0.15871398
0.094877474 -0.15362686 -0.07905891 -0.099968344 0.13466854 -0.0016387331 0.107004 -0.06917742
0.15947433 0.11780016 0.057899807 0.09503913 0.06263084 0.058407042 0.011078427 -0.091797754
0.014068289 0.072025456 -0.008725642 0.12179868 -0.113266096 -0.102364704 0.13215406 -0.065068565
-0.16640641 0.00047302456 0.013185848 -0.15648027 -0.16419141 0.02197131 -0.08865228 -0.04797986
-0.045497008 -0.147629 -0.10668288 0.12855764 -0.09222979 -0.14207312 0.013818869 -0.05519057
-0.11379241 -0.037363436 0.16605778 -0.07721194 -0.08563355 0.083656654 0.038287736 -0.1187704
0.10589715 -0.07754512 0.027089048 0.10820593 -0.18466602 0.060665652 -0.14692734 -0.055819903
-0.032213427 0.0891065 0.13518849 -0.07254532 0.082676545 -0.0708454 -0.12844598 0.11148035
-0.0015845877 -0.022083085 -0.04883748 0.14809664 -0.0112206675 -0.08348998 -0.11931806 0.093999535
-0.09472757 0.022493817 0.082228415 -0.049060132 0.12575804 0.0029497915 -0.15205106 -0.13647176
0.07977543 -0.1224258 0.009453258 0.023064276 0.035883732 -0.06522901 0.002318786 0.071864
0.15479328 -0.10296885 -0.14745477 0.12903647 -0.06229957 0.15105389 0.0012531801 -0.09661154
-0.053073168 -0.12820199 0.092891075 0.13517071 -0.15549809 0.019193297 -0.007567668 -0.028844299
0.103365116 0.06813316 -0.036998253 0.043221857 -0.10914146 0.0064174994 -0.12495985 -0.113343455
-0.06458603 0.14180812 0.014690458 0.044834435 -0.044252727 -0.071041875 -0.080282755 0.12506358
0.030210774 -0.14920671 -0.07599052 -0.035054147 0.055083863 0.12588325 0.10190111 -0.118432604
-0.09268679 -0.16620643 0.039980225 -0.015489395 0.08098509 0.046331443 -0.14152843 -0.0847898
-0.07881331 -0.033269487 0.118671276 0.041525595 -0.061105877 -0.14834487 -0.106292225 -0.0889887
-0.03122015 0.000766929 0.106664374 -0.0093411 0.12175023 0.14615409 0.07355084 -0.017787935
-0.08961877 -0.12446682 -0.15799998 0.030800566 0.123718984 -0.07662413 -0.020936595 -0.09147045
0.0676226 -0.04480584 0.04431596 -0.10916824 0.14228047 -0.15587986 -0.16440435 0.121862456
-0.033467773 -0.14825211 -0.17349735 0.11607151 -0.075277865 0.06334927 -0.09177461 0.107856646
0.09572024 0.14093028 -0.16256817 0.03366492 0.07598238 0.148357 0.032456554 0.10388452
-0.10163159 0.0726502 -0.077879615 -0.028352097 0.06746194 0.05787185 9.132996e-05 0.11033745
0.063033685 -0.15634099 0.09232046 -0.057663 -0.13106665 0.07845629 -0.13675886 -0.13414897
0.044818904 0.1157551 0.120239936 -0.11657345 -0.14805773 0.06853661 -0.12789597 -0.050331622
0.09976977 -0.051257532 -0.063791744 0.12312721 0.06744935 0.06226525 0.024819288 -0.048921794
-0.08659476 0.08236867 0.13000816 -0.17306083 -0.096676804 -0.06648752 -0.109549515 0.042149924
0.016196081 -0.17529267 -0.037757322 -0.03300057 0.106354296 -0.13650072 -0.013063746 0.049501326
-0.15851842 -0.05421225 0.07193629 -0.17759208 -0.04746273 0.080311134 -0.16318083 0.07103362
-0.17264263 -0.09865518 0.010932952 -0.15264858 -0.06246977 -0.08009966 0.020162603 0.06090515
00000000: 6713 b93d 8093 803d 496b c2bd 8cac f2bb
00000010: 3241 34be 660e 35bd fad6 843d eb85 223e
00000020: 1f4f c23d 5c50 1dbe a3e9 a1bd 34bc ccbd
00000030: 8de6 093e c2ca d6ba ea24 db3d e4ac 8dbd
00000040: 3d4d 233e 3641 f13d 5928 6d3d e0a3 c23d
00000050: 9944 803d 393c 6f3d 4a82 353c 7600 bcbd
00000060: ae7e 663c 1582 933d fff5 0ebc 9671 f93d
00000070: 0ef8 e7bd 96a4 d1bd 6553 073e ab42 85bd
00000080: 7166 2abe 4800 f839 7409 583c 5d3c 20be
00000090: cb21 28be 2dfd b33c 548f b5bd 8886 44bd
000000a0: 125b 3abd 0e2c 17be 8e7c dabd 9da4 033e
000000b0: f9e2 bcbd 9e7b 11be 8a68 623c 820f 62bd
000000c0: ff0b e9bd 670a 19bd 0d0b 2a3e 4b21 9ebd
000000d0: a560 afbd 2e54 ab3d 9ad3 1c3d e53d f3bd
000000e0: 9be0 d83d facf 9ebd dae9 dd3c 129b dd3d
000000f0: 1719 3dbe 8c7c 783d 1f74 16be 69a3 64bd
00000100: 3af2 03bd 787d b63d da6e 0a3e a492 94bd
00000110: 5252 a93d 6517 91bd 5887 03be cf4f e43d
00000120: f1b1 cfba 96e7 b4bc cf09 48bd a5a6 173e
00000130: e4d6 37bc cbfc aabd 075d f4bd d482 c03d
00000140: 8700 c2bd f444 b83c 5f67 a83d 47f3 48bd
00000150: b7c6 003e 4a51 413b 46b3 1bbe 41bf 0bbe
00000160: 4d61 a33d 61ba fabd d6e1 1a3c 4bf1 bc3c
00000170: d2fa 123d ca96 85bd c6f6 173b 6f2d 933d
00000180: 2182 1e3e 55e1 d2bd 62fe 16be 2322 043e
00000190: d52d 7fbd dfad 1a3e bf41 a43a 45dc c5bd
000001a0: 4063 59bd 6247 03be ad3d be3d 316a 0a3e
000001b0: e43a 1fbe 433b 9d3c 33fa f7bb e14a ecbc
000001c0: 17b1 d33d 6689 8b3d 7b8b 17bd 6709 313d
000001d0: 8f85 dfbd e349 d23b f3ea ffbd 9d20 e8bd
000001e0: ae45 84bd 2636 113e 3fb0 703c 50a4 373d
000001f0: 5942 35bd 677e 91bd 496b a4bd ab10 003e
00000200: 967c f73c a5c9 18be eba0 9bbd f094 0fbd
00000210: 9e9f 613d 8ae7 003e 87b1 d03d cb8c f2bd
00000220: 92d2 bdbd 0532 2abe 4ec2 233d 3bc7 7dbc
00000230: 83db a53d 0ac6 3d3d d4ec 10be 46a6 adbd
00000240: df68 a1bd 9645 08bd ed09 f33d be16 2a3d
00000250: 284a 7abd b8e7 17be bdaf d9bd b53f b6bd
00000260: 66c1 ffbc bc0b 493a da72 da3d 6a0b 19bc
00000270: 2f58 f93d 6ba9 153e d3a1 963d 01b8 91bc
00000280: 0c8a b7bd 76e8 febd bfca 21be 7851 fc3c
00000290: 6160 fd3d 1ded 9cbd 3983 abbc dc54 bbbd
000002a0: b87d 8a3d 5486 37bd a784 353d 9993 dfbd
000002b0: f9b1 113e f89e 1fbe 9d59 28be 0693 f93d
000002c0: 8115 09bd 67cf 17be 4aa9 31be e6b6 ed3d
000002d0: 482b 9abd 43bd 813d 54f4 bbbd f2e3 dc3d
000002e0: f908 c43d 0750 103e 4578 26be 3ae4 093d
000002f0: a69c 9b3d e6ea 173e 2af1 043d 68c1 d43d
00000300: 3924 d0bd a1c9 943d 597f 9fbd a842 e8bc
00000310: 7c29 8a3d 080b 6d3d 6688 bf38 9af8 e13d
00000320: ce17 813d da17 20be 8212 bd3d 0a30 6cbd
00000330: 5636 06be b1ad a03d 840a 0cbe 595e 09be
00000340: 0794 373d 0311 ed3d 5b40 f63d 10be eebd
00000350: 729c 17be ec5c 8c3d 29f7 02be 8828 4ebd
00000360: 1854 cc3d 6bf3 51bd 3fa5 82bd 1e2a fc3d
00000370: e322 8a3d d909 7f3d d251 cb3c 3862 48bd
00000380: 9858 b1bd e8b0 a83d dc20 053e dc36 31be
00000390: 7dfe c5bd 9c2a 88bd 7f5b e0bd 66a5 2c3d
000003a0: a5ad 843c ec7f 33be 6ca7 1abd 9b2b 07bd
000003b0: 48d0 d93d d8c6 0bbe 5209 56bc e7c1 4a3d
000003c0: a752 22be aa0d 5ebd 5553 933d b3da 35be
000003d0: 4868 42bd 2a7a a43d e018 27be 137a 913d
000003e0: 3bc9 30be ba0b cabd 2020 333c e94f 1cbe
000003f0: 4de0 7fbd 4a0b a4bd 0b2c a53c ae77 793d

mu.bias f4 [4]
-0.011033543 -0.013707734 -0.0086981645 0.0024442398
00000000: 09c6 34bc 6796 60bc bf82 0ebc 8a2f 203b
